<?xml version="1.0"?>
<net name="Model0" version="11">
	<layers>
		<layer id="3" name="input_ids" type="Parameter" version="opset1">
			<data shape="?,?" element_type="i64" />
			<output>
				<port id="0" precision="I64" names="input_ids">
					<dim>-1</dim>
					<dim>-1</dim>
				</port>
			</output>
		</layer>
		<layer id="2" name="attention_mask" type="Parameter" version="opset1">
			<data shape="?,?" element_type="i64" />
			<output>
				<port id="0" precision="I64" names="attention_mask">
					<dim>-1</dim>
					<dim>-1</dim>
				</port>
			</output>
		</layer>
		<layer id="1" name="position_ids" type="Parameter" version="opset1">
			<data shape="?,?" element_type="i64" />
			<output>
				<port id="0" precision="I64" names="position_ids">
					<dim>-1</dim>
					<dim>-1</dim>
				</port>
			</output>
		</layer>
		<layer id="0" name="beam_idx" type="Parameter" version="opset1">
			<data shape="?" element_type="i32" />
			<output>
				<port id="0" precision="I32" names="beam_idx">
					<dim>-1</dim>
				</port>
			</output>
		</layer>
		<layer id="4" name="Constant_325396" type="Const" version="opset1">
			<data element_type="f32" shape="" offset="0" size="4" />
			<output>
				<port id="0" precision="FP32" />
			</output>
		</layer>
		<layer id="5" name="ShapeOf_325382" type="ShapeOf" version="opset3">
			<data output_type="i64" />
			<input>
				<port id="0" precision="I64">
					<dim>-1</dim>
					<dim>-1</dim>
				</port>
			</input>
			<output>
				<port id="1" precision="I64">
					<dim>2</dim>
				</port>
			</output>
		</layer>
		<layer id="6" name="Constant_325384" type="Const" version="opset1">
			<data element_type="i64" shape="1" offset="4" size="8" />
			<output>
				<port id="0" precision="I64">
					<dim>1</dim>
				</port>
			</output>
		</layer>
		<layer id="7" name="Constant_325386" type="Const" version="opset1">
			<data element_type="i64" shape="" offset="4" size="8" />
			<output>
				<port id="0" precision="I64" />
			</output>
		</layer>
		<layer id="8" name="Gather_325387" type="Gather" version="opset8">
			<data batch_dims="0" />
			<input>
				<port id="0" precision="I64">
					<dim>2</dim>
				</port>
				<port id="1" precision="I64">
					<dim>1</dim>
				</port>
				<port id="2" precision="I64" />
			</input>
			<output>
				<port id="3" precision="I64">
					<dim>1</dim>
				</port>
			</output>
		</layer>
		<layer id="9" name="Constant_325389" type="Const" version="opset1">
			<data element_type="i64" shape="1" offset="12" size="8" />
			<output>
				<port id="0" precision="I64">
					<dim>1</dim>
				</port>
			</output>
		</layer>
		<layer id="10" name="Constant_325391" type="Const" version="opset1">
			<data element_type="i64" shape="1" offset="4" size="8" />
			<output>
				<port id="0" precision="I64">
					<dim>1</dim>
				</port>
			</output>
		</layer>
		<layer id="11" name="Constant_325393" type="Const" version="opset1">
			<data element_type="i64" shape="1" offset="20" size="8" />
			<output>
				<port id="0" precision="I64">
					<dim>1</dim>
				</port>
			</output>
		</layer>
		<layer id="12" name="Concat_325394" type="Concat" version="opset1">
			<data axis="0" />
			<input>
				<port id="0" precision="I64">
					<dim>1</dim>
				</port>
				<port id="1" precision="I64">
					<dim>1</dim>
				</port>
				<port id="2" precision="I64">
					<dim>1</dim>
				</port>
				<port id="3" precision="I64">
					<dim>1</dim>
				</port>
			</input>
			<output>
				<port id="4" precision="I64">
					<dim>4</dim>
				</port>
			</output>
		</layer>
		<layer id="13" name="Broadcast_325397" type="Broadcast" version="opset3">
			<data mode="numpy" />
			<input>
				<port id="0" precision="FP32" />
				<port id="1" precision="I64">
					<dim>4</dim>
				</port>
			</input>
			<output>
				<port id="2" precision="FP32">
					<dim>-1</dim>
					<dim>36</dim>
					<dim>0</dim>
					<dim>64</dim>
				</port>
			</output>
		</layer>
		<layer id="14" name="ReadValue_319283" type="ReadValue" version="opset6">
			<data variable_id="past_key_values.9.valuepresent.9.value" variable_type="f32" variable_shape="?,36,?,64" />
			<input>
				<port id="0" precision="FP32">
					<dim>-1</dim>
					<dim>36</dim>
					<dim>0</dim>
					<dim>64</dim>
				</port>
			</input>
			<output>
				<port id="1" precision="FP32" names="past_key_values.9.value">
					<dim>-1</dim>
					<dim>36</dim>
					<dim>-1</dim>
					<dim>64</dim>
				</port>
			</output>
		</layer>
		<layer id="15" name="Constant_312846" type="Const" version="opset1">
			<data element_type="i64" shape="" offset="4" size="8" />
			<output>
				<port id="0" precision="I64" />
			</output>
		</layer>
		<layer id="16" name="Gather_312847" type="Gather" version="opset8">
			<data batch_dims="0" />
			<input>
				<port id="0" precision="FP32">
					<dim>-1</dim>
					<dim>36</dim>
					<dim>-1</dim>
					<dim>64</dim>
				</port>
				<port id="1" precision="I32">
					<dim>-1</dim>
				</port>
				<port id="2" precision="I64" />
			</input>
			<output>
				<port id="3" precision="FP32">
					<dim>-1</dim>
					<dim>36</dim>
					<dim>-1</dim>
					<dim>64</dim>
				</port>
			</output>
		</layer>
		<layer id="17" name="self.model.embed_tokens.weight" type="Const" version="opset1">
			<data element_type="u8" shape="122753, 2304" offset="28" size="282822912" />
			<output>
				<port id="0" precision="U8">
					<dim>122753</dim>
					<dim>2304</dim>
				</port>
			</output>
		</layer>
		<layer id="18" name="Convert_357312" type="Convert" version="opset1">
			<data destination_type="f16" />
			<input>
				<port id="0" precision="U8">
					<dim>122753</dim>
					<dim>2304</dim>
				</port>
			</input>
			<output>
				<port id="1" precision="FP16">
					<dim>122753</dim>
					<dim>2304</dim>
				</port>
			</output>
		</layer>
		<layer id="19" name="self.model.embed_tokens.weight/zero_point" type="Const" version="opset1">
			<data element_type="u8" shape="122753, 1" offset="282822940" size="122753" />
			<output>
				<port id="0" precision="U8">
					<dim>122753</dim>
					<dim>1</dim>
				</port>
			</output>
		</layer>
		<layer id="20" name="Convert_357315" type="Convert" version="opset1">
			<data destination_type="f16" />
			<input>
				<port id="0" precision="U8">
					<dim>122753</dim>
					<dim>1</dim>
				</port>
			</input>
			<output>
				<port id="1" precision="FP16">
					<dim>122753</dim>
					<dim>1</dim>
				</port>
			</output>
		</layer>
		<layer id="21" name="self.model.embed_tokens.weight/zero_point/subtract" type="Subtract" version="opset1">
			<data auto_broadcast="numpy" />
			<input>
				<port id="0" precision="FP16">
					<dim>122753</dim>
					<dim>2304</dim>
				</port>
				<port id="1" precision="FP16">
					<dim>122753</dim>
					<dim>1</dim>
				</port>
			</input>
			<output>
				<port id="2" precision="FP16">
					<dim>122753</dim>
					<dim>2304</dim>
				</port>
			</output>
		</layer>
		<layer id="22" name="self.model.embed_tokens.weight/scale" type="Const" version="opset1">
			<data element_type="f16" shape="122753, 1" offset="282945693" size="245506" />
			<output>
				<port id="0" precision="FP16">
					<dim>122753</dim>
					<dim>1</dim>
				</port>
			</output>
		</layer>
		<layer id="23" name="self.model.embed_tokens.weight/fq_weights_0" type="Multiply" version="opset1">
			<data auto_broadcast="numpy" />
			<input>
				<port id="0" precision="FP16">
					<dim>122753</dim>
					<dim>2304</dim>
				</port>
				<port id="1" precision="FP16">
					<dim>122753</dim>
					<dim>1</dim>
				</port>
			</input>
			<output>
				<port id="2" precision="FP16">
					<dim>122753</dim>
					<dim>2304</dim>
				</port>
			</output>
		</layer>
		<layer id="24" name="self.model.embed_tokens.weight/fq_weights_0/convert" type="Convert" version="opset1">
			<data destination_type="f32" />
			<input>
				<port id="0" precision="FP16">
					<dim>122753</dim>
					<dim>2304</dim>
				</port>
			</input>
			<output>
				<port id="1" precision="FP32">
					<dim>122753</dim>
					<dim>2304</dim>
				</port>
			</output>
		</layer>
		<layer id="25" name="__module.model.embed_tokens/aten::embedding/Convert" type="Convert" version="opset1">
			<data destination_type="i32" />
			<input>
				<port id="0" precision="I64">
					<dim>-1</dim>
					<dim>-1</dim>
				</port>
			</input>
			<output>
				<port id="1" precision="I32">
					<dim>-1</dim>
					<dim>-1</dim>
				</port>
			</output>
		</layer>
		<layer id="26" name="__module.model.embed_tokens/aten::embedding/Constant" type="Const" version="opset1">
			<data element_type="i32" shape="" offset="0" size="4" />
			<output>
				<port id="0" precision="I32" />
			</output>
		</layer>
		<layer id="27" name="__module.model.embed_tokens/aten::embedding/Gather" type="Gather" version="opset8">
			<data batch_dims="0" />
			<input>
				<port id="0" precision="FP32">
					<dim>122753</dim>
					<dim>2304</dim>
				</port>
				<port id="1" precision="I32">
					<dim>-1</dim>
					<dim>-1</dim>
				</port>
				<port id="2" precision="I32" />
			</input>
			<output>
				<port id="3" precision="FP32" names="377">
					<dim>-1</dim>
					<dim>-1</dim>
					<dim>2304</dim>
				</port>
			</output>
		</layer>
		<layer id="28" name="Constant_286153" type="Const" version="opset1">
			<data element_type="f32" shape="1, 1, 1" offset="283191199" size="4" />
			<output>
				<port id="0" precision="FP32">
					<dim>1</dim>
					<dim>1</dim>
					<dim>1</dim>
				</port>
			</output>
		</layer>
		<layer id="29" name="__module.model/aten::mul/Multiply" type="Multiply" version="opset1">
			<data auto_broadcast="numpy" />
			<input>
				<port id="0" precision="FP32">
					<dim>-1</dim>
					<dim>-1</dim>
					<dim>2304</dim>
				</port>
				<port id="1" precision="FP32">
					<dim>1</dim>
					<dim>1</dim>
					<dim>1</dim>
				</port>
			</input>
			<output>
				<port id="2" precision="FP32" names="378,426,437,hidden.1,hidden.3">
					<dim>-1</dim>
					<dim>-1</dim>
					<dim>2304</dim>
				</port>
			</output>
		</layer>
		<layer id="30" name="Constant_286156" type="Const" version="opset1">
			<data element_type="f32" shape="1, 1, 1" offset="283191203" size="4" />
			<output>
				<port id="0" precision="FP32">
					<dim>1</dim>
					<dim>1</dim>
					<dim>1</dim>
				</port>
			</output>
		</layer>
		<layer id="31" name="Constant_286154" type="Const" version="opset1">
			<data element_type="f32" shape="1, 1, 1" offset="283191207" size="4" />
			<output>
				<port id="0" precision="FP32">
					<dim>1</dim>
					<dim>1</dim>
					<dim>1</dim>
				</port>
			</output>
		</layer>
		<layer id="32" name="__module.model.layers.0.input_layernorm/aten::pow/Power" type="Power" version="opset1">
			<data auto_broadcast="numpy" />
			<input>
				<port id="0" precision="FP32">
					<dim>-1</dim>
					<dim>-1</dim>
					<dim>2304</dim>
				</port>
				<port id="1" precision="FP32">
					<dim>1</dim>
					<dim>1</dim>
					<dim>1</dim>
				</port>
			</input>
			<output>
				<port id="2" precision="FP32" names="427">
					<dim>-1</dim>
					<dim>-1</dim>
					<dim>2304</dim>
				</port>
			</output>
		</layer>
		<layer id="33" name="Constant_334" type="Const" version="opset1">
			<data element_type="i64" shape="1" offset="283191211" size="8" />
			<output>
				<port id="0" precision="I64" names="428">
					<dim>1</dim>
				</port>
			</output>
		</layer>
		<layer id="34" name="__module.model.layers.0.input_layernorm/aten::mean/ReduceMean" type="ReduceMean" version="opset1">
			<data keep_dims="true" />
			<input>
				<port id="0" precision="FP32">
					<dim>-1</dim>
					<dim>-1</dim>
					<dim>2304</dim>
				</port>
				<port id="1" precision="I64">
					<dim>1</dim>
				</port>
			</input>
			<output>
				<port id="2" precision="FP32" names="429,variance.1">
					<dim>-1</dim>
					<dim>-1</dim>
					<dim>1</dim>
				</port>
			</output>
		</layer>
		<layer id="35" name="Constant_286155" type="Const" version="opset1">
			<data element_type="f32" shape="1, 1, 1" offset="283191219" size="4" />
			<output>
				<port id="0" precision="FP32">
					<dim>1</dim>
					<dim>1</dim>
					<dim>1</dim>
				</port>
			</output>
		</layer>
		<layer id="36" name="__module.model.layers.0.input_layernorm/aten::add/Add" type="Add" version="opset1">
			<data auto_broadcast="numpy" />
			<input>
				<port id="0" precision="FP32">
					<dim>-1</dim>
					<dim>-1</dim>
					<dim>1</dim>
				</port>
				<port id="1" precision="FP32">
					<dim>1</dim>
					<dim>1</dim>
					<dim>1</dim>
				</port>
			</input>
			<output>
				<port id="2" precision="FP32" names="430">
					<dim>-1</dim>
					<dim>-1</dim>
					<dim>1</dim>
				</port>
			</output>
		</layer>
		<layer id="37" name="__module.model.layers.0.input_layernorm/aten::rsqrt/Sqrt" type="Sqrt" version="opset1">
			<input>
				<port id="0" precision="FP32">
					<dim>-1</dim>
					<dim>-1</dim>
					<dim>1</dim>
				</port>
			</input>
			<output>
				<port id="1" precision="FP32">
					<dim>-1</dim>
					<dim>-1</dim>
					<dim>1</dim>
				</port>
			</output>
		</layer>
		<layer id="38" name="__module.model.layers.0.input_layernorm/aten::rsqrt/Divide" type="Divide" version="opset1">
			<data auto_broadcast="numpy" m_pythondiv="true" />
			<input>
				<port id="0" precision="FP32">
					<dim>1</dim>
					<dim>1</dim>
					<dim>1</dim>
				</port>
				<port id="1" precision="FP32">
					<dim>-1</dim>
					<dim>-1</dim>
					<dim>1</dim>
				</port>
			</input>
			<output>
				<port id="2" precision="FP32" names="431">
					<dim>-1</dim>
					<dim>-1</dim>
					<dim>1</dim>
				</port>
			</output>
		</layer>
		<layer id="39" name="__module.model.layers.0.input_layernorm/aten::mul/Multiply" type="Multiply" version="opset1">
			<data auto_broadcast="numpy" />
			<input>
				<port id="0" precision="FP32">
					<dim>-1</dim>
					<dim>-1</dim>
					<dim>2304</dim>
				</port>
				<port id="1" precision="FP32">
					<dim>-1</dim>
					<dim>-1</dim>
					<dim>1</dim>
				</port>
			</input>
			<output>
				<port id="2" precision="FP32" names="432,433,hidden.5">
					<dim>-1</dim>
					<dim>-1</dim>
					<dim>2304</dim>
				</port>
			</output>
		</layer>
		<layer id="40" name="Constant_286157" type="Const" version="opset1">
			<data element_type="f32" shape="1, 1, 2304" offset="283191223" size="9216" />
			<output>
				<port id="0" precision="FP32">
					<dim>1</dim>
					<dim>1</dim>
					<dim>2304</dim>
				</port>
			</output>
		</layer>
		<layer id="41" name="__module.model.layers.0.input_layernorm/aten::mul/Multiply_1" type="Multiply" version="opset1">
			<data auto_broadcast="numpy" />
			<input>
				<port id="0" precision="FP32">
					<dim>-1</dim>
					<dim>-1</dim>
					<dim>2304</dim>
				</port>
				<port id="1" precision="FP32">
					<dim>1</dim>
					<dim>1</dim>
					<dim>2304</dim>
				</port>
			</input>
			<output>
				<port id="2" precision="FP32" names="434,436,hidden_states.1">
					<dim>-1</dim>
					<dim>-1</dim>
					<dim>2304</dim>
				</port>
			</output>
		</layer>
		<layer id="42" name="self.model.layers.0.self_attn.q_proj.weight" type="Const" version="opset1">
			<data element_type="i4" shape="2304, 36, 64" offset="283200439" size="2654208" />
			<output>
				<port id="0" precision="I4">
					<dim>2304</dim>
					<dim>36</dim>
					<dim>64</dim>
				</port>
			</output>
		</layer>
		<layer id="43" name="Convert_358424" type="Convert" version="opset1">
			<data destination_type="f16" />
			<input>
				<port id="0" precision="I4">
					<dim>2304</dim>
					<dim>36</dim>
					<dim>64</dim>
				</port>
			</input>
			<output>
				<port id="1" precision="FP16">
					<dim>2304</dim>
					<dim>36</dim>
					<dim>64</dim>
				</port>
			</output>
		</layer>
		<layer id="44" name="self.model.layers.0.self_attn.q_proj.weight/scale" type="Const" version="opset1">
			<data element_type="f16" shape="2304, 36, 1" offset="285854647" size="165888" />
			<output>
				<port id="0" precision="FP16">
					<dim>2304</dim>
					<dim>36</dim>
					<dim>1</dim>
				</port>
			</output>
		</layer>
		<layer id="45" name="self.model.layers.0.self_attn.q_proj.weight/fq_weights_1" type="Multiply" version="opset1">
			<data auto_broadcast="numpy" />
			<input>
				<port id="0" precision="FP16">
					<dim>2304</dim>
					<dim>36</dim>
					<dim>64</dim>
				</port>
				<port id="1" precision="FP16">
					<dim>2304</dim>
					<dim>36</dim>
					<dim>1</dim>
				</port>
			</input>
			<output>
				<port id="2" precision="FP16">
					<dim>2304</dim>
					<dim>36</dim>
					<dim>64</dim>
				</port>
			</output>
		</layer>
		<layer id="46" name="Constant_358428" type="Const" version="opset1">
			<data element_type="i64" shape="2" offset="286020535" size="16" />
			<output>
				<port id="0" precision="I64">
					<dim>2</dim>
				</port>
			</output>
		</layer>
		<layer id="47" name="Reshape_358429" type="Reshape" version="opset1">
			<data special_zero="false" />
			<input>
				<port id="0" precision="FP16">
					<dim>2304</dim>
					<dim>36</dim>
					<dim>64</dim>
				</port>
				<port id="1" precision="I64">
					<dim>2</dim>
				</port>
			</input>
			<output>
				<port id="2" precision="FP16">
					<dim>2304</dim>
					<dim>2304</dim>
				</port>
			</output>
		</layer>
		<layer id="48" name="self.model.layers.0.self_attn.q_proj.weight/fq_weights_1/convert" type="Convert" version="opset1">
			<data destination_type="f32" />
			<input>
				<port id="0" precision="FP16">
					<dim>2304</dim>
					<dim>2304</dim>
				</port>
			</input>
			<output>
				<port id="1" precision="FP32">
					<dim>2304</dim>
					<dim>2304</dim>
				</port>
			</output>
		</layer>
		<layer id="49" name="__module.model.layers.0.self_attn.q_proj/aten::linear/MatMul" type="MatMul" version="opset1">
			<data transpose_a="false" transpose_b="true" />
			<input>
				<port id="0" precision="FP32">
					<dim>-1</dim>
					<dim>-1</dim>
					<dim>2304</dim>
				</port>
				<port id="1" precision="FP32">
					<dim>2304</dim>
					<dim>2304</dim>
				</port>
			</input>
			<output>
				<port id="2" precision="FP32" names="446,query_states.1">
					<dim>-1</dim>
					<dim>-1</dim>
					<dim>2304</dim>
				</port>
			</output>
		</layer>
		<layer id="50" name="Constant_294106" type="Const" version="opset1">
			<data element_type="i64" shape="4" offset="286020551" size="32" />
			<output>
				<port id="0" precision="I64">
					<dim>4</dim>
				</port>
			</output>
		</layer>
		<layer id="51" name="__module.model.layers.0.self_attn/aten::view/Reshape" type="Reshape" version="opset1">
			<data special_zero="true" />
			<input>
				<port id="0" precision="FP32">
					<dim>-1</dim>
					<dim>-1</dim>
					<dim>2304</dim>
				</port>
				<port id="1" precision="I64">
					<dim>4</dim>
				</port>
			</input>
			<output>
				<port id="2" precision="FP32" names="452">
					<dim>-1</dim>
					<dim>-1</dim>
					<dim>36</dim>
					<dim>64</dim>
				</port>
			</output>
		</layer>
		<layer id="52" name="__module.model.layers.0.self_attn/aten::transpose/ScatterElementsUpdate" type="Const" version="opset1">
			<data element_type="i32" shape="4" offset="286020583" size="16" />
			<output>
				<port id="0" precision="I32">
					<dim>4</dim>
				</port>
			</output>
		</layer>
		<layer id="53" name="__module.model.layers.0.self_attn/aten::transpose/Transpose" type="Transpose" version="opset1">
			<input>
				<port id="0" precision="FP32">
					<dim>-1</dim>
					<dim>-1</dim>
					<dim>36</dim>
					<dim>64</dim>
				</port>
				<port id="1" precision="I32">
					<dim>4</dim>
				</port>
			</input>
			<output>
				<port id="2" precision="FP32" names="453,482,q.1,q.3">
					<dim>-1</dim>
					<dim>36</dim>
					<dim>-1</dim>
					<dim>64</dim>
				</port>
			</output>
		</layer>
		<layer id="54" name="self.model.layers.0.self_attn.rotary_emb.cos_cached" type="Const" version="opset1">
			<data element_type="f32" shape="4096, 64" offset="286020599" size="1048576" />
			<output>
				<port id="0" precision="FP32" names="self.model.layers.0.self_attn.rotary_emb.cos_cached">
					<dim>4096</dim>
					<dim>64</dim>
				</port>
			</output>
		</layer>
		<layer id="55" name="__module.model.layers.0.self_attn.rotary_emb/aten::slice/Reshape" type="Const" version="opset1">
			<data element_type="i64" shape="1" offset="4" size="8" />
			<output>
				<port id="0" precision="I64">
					<dim>1</dim>
				</port>
			</output>
		</layer>
		<layer id="56" name="ShapeOf_293885" type="ShapeOf" version="opset3">
			<data output_type="i64" />
			<input>
				<port id="0" precision="FP32">
					<dim>-1</dim>
					<dim>-1</dim>
					<dim>2304</dim>
				</port>
			</input>
			<output>
				<port id="1" precision="I64">
					<dim>3</dim>
				</port>
			</output>
		</layer>
		<layer id="57" name="Constant_293886" type="Const" version="opset1">
			<data element_type="i64" shape="" offset="287069175" size="8" />
			<output>
				<port id="0" precision="I64" />
			</output>
		</layer>
		<layer id="58" name="Constant_293887" type="Const" version="opset1">
			<data element_type="i64" shape="" offset="4" size="8" />
			<output>
				<port id="0" precision="I64" />
			</output>
		</layer>
		<layer id="59" name="Gather_293888" type="Gather" version="opset8">
			<data batch_dims="0" />
			<input>
				<port id="0" precision="I64">
					<dim>3</dim>
				</port>
				<port id="1" precision="I64" />
				<port id="2" precision="I64" />
			</input>
			<output>
				<port id="3" precision="I64" names="1039,1183,1327,1471,1615,1759,1903,2047,2191,2335,2479,2623,2767,2911,3055,3199,3343,3487,3631,369,3775,3919,4063,4207,4351,4495,460,4639,4783,4927,5071,5215,5359,5503,5647,5791,5935,607,6079,751,895" />
			</output>
		</layer>
		<layer id="60" name="Constant_209953" type="Const" version="opset1">
			<data element_type="i64" shape="1" offset="283191211" size="8" />
			<output>
				<port id="0" precision="I64">
					<dim>1</dim>
				</port>
			</output>
		</layer>
		<layer id="61" name="Reshape_293798" type="Reshape" version="opset1">
			<data special_zero="false" />
			<input>
				<port id="0" precision="I64" />
				<port id="1" precision="I64">
					<dim>1</dim>
				</port>
			</input>
			<output>
				<port id="2" precision="I64">
					<dim>1</dim>
				</port>
			</output>
		</layer>
		<layer id="62" name="Constant_325409" type="Const" version="opset1">
			<data element_type="f32" shape="" offset="0" size="4" />
			<output>
				<port id="0" precision="FP32" />
			</output>
		</layer>
		<layer id="63" name="Constant_325402" type="Const" version="opset1">
			<data element_type="i64" shape="1" offset="12" size="8" />
			<output>
				<port id="0" precision="I64">
					<dim>1</dim>
				</port>
			</output>
		</layer>
		<layer id="64" name="Constant_325404" type="Const" version="opset1">
			<data element_type="i64" shape="1" offset="4" size="8" />
			<output>
				<port id="0" precision="I64">
					<dim>1</dim>
				</port>
			</output>
		</layer>
		<layer id="65" name="Constant_325406" type="Const" version="opset1">
			<data element_type="i64" shape="1" offset="20" size="8" />
			<output>
				<port id="0" precision="I64">
					<dim>1</dim>
				</port>
			</output>
		</layer>
		<layer id="66" name="Concat_325407" type="Concat" version="opset1">
			<data axis="0" />
			<input>
				<port id="0" precision="I64">
					<dim>1</dim>
				</port>
				<port id="1" precision="I64">
					<dim>1</dim>
				</port>
				<port id="2" precision="I64">
					<dim>1</dim>
				</port>
				<port id="3" precision="I64">
					<dim>1</dim>
				</port>
			</input>
			<output>
				<port id="4" precision="I64">
					<dim>4</dim>
				</port>
			</output>
		</layer>
		<layer id="67" name="Broadcast_325410" type="Broadcast" version="opset3">
			<data mode="numpy" />
			<input>
				<port id="0" precision="FP32" />
				<port id="1" precision="I64">
					<dim>4</dim>
				</port>
			</input>
			<output>
				<port id="2" precision="FP32">
					<dim>-1</dim>
					<dim>36</dim>
					<dim>0</dim>
					<dim>64</dim>
				</port>
			</output>
		</layer>
		<layer id="68" name="ReadValue_319125" type="ReadValue" version="opset6">
			<data variable_id="past_key_values.0.keypresent.0.key" variable_type="f32" variable_shape="?,36,?,64" />
			<input>
				<port id="0" precision="FP32">
					<dim>-1</dim>
					<dim>36</dim>
					<dim>0</dim>
					<dim>64</dim>
				</port>
			</input>
			<output>
				<port id="1" precision="FP32" names="past_key_values.0.key">
					<dim>-1</dim>
					<dim>36</dim>
					<dim>-1</dim>
					<dim>64</dim>
				</port>
			</output>
		</layer>
		<layer id="69" name="Constant_312789" type="Const" version="opset1">
			<data element_type="i64" shape="" offset="4" size="8" />
			<output>
				<port id="0" precision="I64" />
			</output>
		</layer>
		<layer id="70" name="Gather_312790" type="Gather" version="opset8">
			<data batch_dims="0" />
			<input>
				<port id="0" precision="FP32">
					<dim>-1</dim>
					<dim>36</dim>
					<dim>-1</dim>
					<dim>64</dim>
				</port>
				<port id="1" precision="I32">
					<dim>-1</dim>
				</port>
				<port id="2" precision="I64" />
			</input>
			<output>
				<port id="3" precision="FP32">
					<dim>-1</dim>
					<dim>36</dim>
					<dim>-1</dim>
					<dim>64</dim>
				</port>
			</output>
		</layer>
		<layer id="71" name="ShapeOf_293898" type="ShapeOf" version="opset3">
			<data output_type="i64" />
			<input>
				<port id="0" precision="FP32">
					<dim>-1</dim>
					<dim>36</dim>
					<dim>-1</dim>
					<dim>64</dim>
				</port>
			</input>
			<output>
				<port id="1" precision="I64">
					<dim>4</dim>
				</port>
			</output>
		</layer>
		<layer id="72" name="Constant_293899" type="Const" version="opset1">
			<data element_type="i64" shape="" offset="287069183" size="8" />
			<output>
				<port id="0" precision="I64" />
			</output>
		</layer>
		<layer id="73" name="Constant_293900" type="Const" version="opset1">
			<data element_type="i64" shape="" offset="4" size="8" />
			<output>
				<port id="0" precision="I64" />
			</output>
		</layer>
		<layer id="74" name="Gather_293901" type="Gather" version="opset8">
			<data batch_dims="0" />
			<input>
				<port id="0" precision="I64">
					<dim>4</dim>
				</port>
				<port id="1" precision="I64" />
				<port id="2" precision="I64" />
			</input>
			<output>
				<port id="3" precision="I64" names="374,462" />
			</output>
		</layer>
		<layer id="75" name="Reshape_293799" type="Reshape" version="opset1">
			<data special_zero="false" />
			<input>
				<port id="0" precision="I64" />
				<port id="1" precision="I64">
					<dim>1</dim>
				</port>
			</input>
			<output>
				<port id="2" precision="I64">
					<dim>1</dim>
				</port>
			</output>
		</layer>
		<layer id="76" name="__module.model.layers.0.self_attn/aten::add_/Add" type="Add" version="opset1">
			<data auto_broadcast="numpy" />
			<input>
				<port id="0" precision="I64">
					<dim>1</dim>
				</port>
				<port id="1" precision="I64">
					<dim>1</dim>
				</port>
			</input>
			<output>
				<port id="2" precision="I64" names="461,465,466,kv_seq_len.1">
					<dim>1</dim>
				</port>
			</output>
		</layer>
		<layer id="77" name="__module.model.layers.0.self_attn.rotary_emb/aten::slice/Reshape_2" type="Const" version="opset1">
			<data element_type="i64" shape="1" offset="287069175" size="8" />
			<output>
				<port id="0" precision="I64">
					<dim>1</dim>
				</port>
			</output>
		</layer>
		<layer id="78" name="__module.model.layers.0.self_attn.rotary_emb/aten::slice/Reshape_3" type="Const" version="opset1">
			<data element_type="i64" shape="1" offset="4" size="8" />
			<output>
				<port id="0" precision="I64">
					<dim>1</dim>
				</port>
			</output>
		</layer>
		<layer id="79" name="__module.model.layers.0.self_attn.rotary_emb/aten::slice/Slice" type="Slice" version="opset8">
			<input>
				<port id="0" precision="FP32">
					<dim>4096</dim>
					<dim>64</dim>
				</port>
				<port id="1" precision="I64">
					<dim>1</dim>
				</port>
				<port id="2" precision="I64">
					<dim>1</dim>
				</port>
				<port id="3" precision="I64">
					<dim>1</dim>
				</port>
				<port id="4" precision="I64">
					<dim>1</dim>
				</port>
			</input>
			<output>
				<port id="5" precision="FP32" names="469,470,474,cos.1">
					<dim>-1</dim>
					<dim>64</dim>
				</port>
			</output>
		</layer>
		<layer id="80" name="__module.model.layers.0.self_attn/aten::index/Convert" type="Convert" version="opset1">
			<data destination_type="i32" />
			<input>
				<port id="0" precision="I64">
					<dim>-1</dim>
					<dim>-1</dim>
				</port>
			</input>
			<output>
				<port id="1" precision="I32">
					<dim>-1</dim>
					<dim>-1</dim>
				</port>
			</output>
		</layer>
		<layer id="81" name="Constant_19644" type="Const" version="opset1">
			<data element_type="i32" shape="" offset="0" size="4" />
			<output>
				<port id="0" precision="I32" />
			</output>
		</layer>
		<layer id="82" name="__module.model.layers.0.self_attn/aten::index/Gather" type="Gather" version="opset8">
			<data batch_dims="0" />
			<input>
				<port id="0" precision="FP32">
					<dim>-1</dim>
					<dim>64</dim>
				</port>
				<port id="1" precision="I32">
					<dim>-1</dim>
					<dim>-1</dim>
				</port>
				<port id="2" precision="I32" />
			</input>
			<output>
				<port id="3" precision="FP32" names="477">
					<dim>-1</dim>
					<dim>-1</dim>
					<dim>64</dim>
				</port>
			</output>
		</layer>
		<layer id="83" name="286" type="Const" version="opset1">
			<data element_type="i64" shape="" offset="287069175" size="8" />
			<output>
				<port id="0" precision="I64" names="286" />
			</output>
		</layer>
		<layer id="84" name="__module.model.layers.0.self_attn/aten::unsqueeze/Unsqueeze" type="Unsqueeze" version="opset1">
			<input>
				<port id="0" precision="FP32">
					<dim>-1</dim>
					<dim>-1</dim>
					<dim>64</dim>
				</port>
				<port id="1" precision="I64" />
			</input>
			<output>
				<port id="2" precision="FP32" names="478,cos.3">
					<dim>-1</dim>
					<dim>1</dim>
					<dim>-1</dim>
					<dim>64</dim>
				</port>
			</output>
		</layer>
		<layer id="85" name="__module.model.layers.0.self_attn/aten::mul/Multiply" type="Multiply" version="opset1">
			<data auto_broadcast="numpy" />
			<input>
				<port id="0" precision="FP32">
					<dim>-1</dim>
					<dim>36</dim>
					<dim>-1</dim>
					<dim>64</dim>
				</port>
				<port id="1" precision="FP32">
					<dim>-1</dim>
					<dim>1</dim>
					<dim>-1</dim>
					<dim>64</dim>
				</port>
			</input>
			<output>
				<port id="2" precision="FP32" names="484">
					<dim>-1</dim>
					<dim>36</dim>
					<dim>-1</dim>
					<dim>64</dim>
				</port>
			</output>
		</layer>
		<layer id="86" name="__module.model.layers.0.self_attn/aten::size/ShapeOf_5" type="ShapeOf" version="opset3">
			<data output_type="i64" />
			<input>
				<port id="0" precision="FP32">
					<dim>-1</dim>
					<dim>36</dim>
					<dim>-1</dim>
					<dim>64</dim>
				</port>
			</input>
			<output>
				<port id="1" precision="I64">
					<dim>4</dim>
				</port>
			</output>
		</layer>
		<layer id="87" name="273" type="Const" version="opset1">
			<data element_type="i64" shape="" offset="287069191" size="8" />
			<output>
				<port id="0" precision="I64" names="273" />
			</output>
		</layer>
		<layer id="88" name="__module.model.layers.0.self_attn/aten::size/Constant_5" type="Const" version="opset1">
			<data element_type="i32" shape="" offset="0" size="4" />
			<output>
				<port id="0" precision="I32" />
			</output>
		</layer>
		<layer id="89" name="__module.model.layers.0.self_attn/aten::size/Gather_5" type="Gather" version="opset8">
			<data batch_dims="0" />
			<input>
				<port id="0" precision="I64">
					<dim>4</dim>
				</port>
				<port id="1" precision="I64" />
				<port id="2" precision="I32" />
			</input>
			<output>
				<port id="3" precision="I64" names="485,490" />
			</output>
		</layer>
		<layer id="90" name="Constant_58" type="Const" version="opset1">
			<data element_type="i64" shape="" offset="287069183" size="8" />
			<output>
				<port id="0" precision="I64" names="267" />
			</output>
		</layer>
		<layer id="91" name="__module.model.layers.0.self_attn/aten::floor_divide/Divide_1" type="Divide" version="opset1">
			<data auto_broadcast="numpy" m_pythondiv="true" />
			<input>
				<port id="0" precision="I64" />
				<port id="1" precision="I64" />
			</input>
			<output>
				<port id="2" precision="I64" />
			</output>
		</layer>
		<layer id="92" name="__module.model.layers.0.self_attn/aten::floor_divide/Floor_1" type="Floor" version="opset1">
			<input>
				<port id="0" precision="I64" />
			</input>
			<output>
				<port id="1" precision="I64" names="487,488,492,493" />
			</output>
		</layer>
		<layer id="93" name="Constant_209954" type="Const" version="opset1">
			<data element_type="i64" shape="1" offset="283191211" size="8" />
			<output>
				<port id="0" precision="I64">
					<dim>1</dim>
				</port>
			</output>
		</layer>
		<layer id="94" name="__module.model.layers.0.self_attn/aten::slice/Reshape_5" type="Reshape" version="opset1">
			<data special_zero="false" />
			<input>
				<port id="0" precision="I64" />
				<port id="1" precision="I64">
					<dim>1</dim>
				</port>
			</input>
			<output>
				<port id="2" precision="I64">
					<dim>1</dim>
				</port>
			</output>
		</layer>
		<layer id="95" name="__module.model.layers.0.self_attn/aten::slice/Reshape_1" type="Const" version="opset1">
			<data element_type="i64" shape="1" offset="287069199" size="8" />
			<output>
				<port id="0" precision="I64">
					<dim>1</dim>
				</port>
			</output>
		</layer>
		<layer id="96" name="__module.model.layers.0.self_attn/aten::slice/Reshape_2" type="Const" version="opset1">
			<data element_type="i64" shape="1" offset="287069175" size="8" />
			<output>
				<port id="0" precision="I64">
					<dim>1</dim>
				</port>
			</output>
		</layer>
		<layer id="97" name="__module.model.layers.0.self_attn/aten::slice/Reshape_3" type="Const" version="opset1">
			<data element_type="i64" shape="1" offset="287069191" size="8" />
			<output>
				<port id="0" precision="I64">
					<dim>1</dim>
				</port>
			</output>
		</layer>
		<layer id="98" name="__module.model.layers.0.self_attn/aten::slice/Slice" type="Slice" version="opset8">
			<input>
				<port id="0" precision="FP32">
					<dim>-1</dim>
					<dim>36</dim>
					<dim>-1</dim>
					<dim>64</dim>
				</port>
				<port id="1" precision="I64">
					<dim>1</dim>
				</port>
				<port id="2" precision="I64">
					<dim>1</dim>
				</port>
				<port id="3" precision="I64">
					<dim>1</dim>
				</port>
				<port id="4" precision="I64">
					<dim>1</dim>
				</port>
			</input>
			<output>
				<port id="5" precision="FP32" names="494,x2.1">
					<dim>-1</dim>
					<dim>36</dim>
					<dim>-1</dim>
					<dim>32</dim>
				</port>
			</output>
		</layer>
		<layer id="99" name="Constant_286158" type="Const" version="opset1">
			<data element_type="f32" shape="1, 1, 1, 1" offset="287069207" size="4" />
			<output>
				<port id="0" precision="FP32">
					<dim>1</dim>
					<dim>1</dim>
					<dim>1</dim>
					<dim>1</dim>
				</port>
			</output>
		</layer>
		<layer id="100" name="__module.model.layers.0.self_attn/aten::neg/Multiply" type="Multiply" version="opset1">
			<data auto_broadcast="numpy" />
			<input>
				<port id="0" precision="FP32">
					<dim>-1</dim>
					<dim>36</dim>
					<dim>-1</dim>
					<dim>32</dim>
				</port>
				<port id="1" precision="FP32">
					<dim>1</dim>
					<dim>1</dim>
					<dim>1</dim>
					<dim>1</dim>
				</port>
			</input>
			<output>
				<port id="2" precision="FP32" names="495">
					<dim>-1</dim>
					<dim>36</dim>
					<dim>-1</dim>
					<dim>32</dim>
				</port>
			</output>
		</layer>
		<layer id="101" name="__module.model.layers.0.self_attn/aten::slice/Reshape_4" type="Const" version="opset1">
			<data element_type="i64" shape="1" offset="4" size="8" />
			<output>
				<port id="0" precision="I64">
					<dim>1</dim>
				</port>
			</output>
		</layer>
		<layer id="102" name="__module.model.layers.0.self_attn/aten::slice/Reshape_6" type="Const" version="opset1">
			<data element_type="i64" shape="1" offset="287069175" size="8" />
			<output>
				<port id="0" precision="I64">
					<dim>1</dim>
				</port>
			</output>
		</layer>
		<layer id="103" name="__module.model.layers.0.self_attn/aten::slice/Reshape_7" type="Const" version="opset1">
			<data element_type="i64" shape="1" offset="287069191" size="8" />
			<output>
				<port id="0" precision="I64">
					<dim>1</dim>
				</port>
			</output>
		</layer>
		<layer id="104" name="__module.model.layers.0.self_attn/aten::slice/Slice_1" type="Slice" version="opset8">
			<input>
				<port id="0" precision="FP32">
					<dim>-1</dim>
					<dim>36</dim>
					<dim>-1</dim>
					<dim>64</dim>
				</port>
				<port id="1" precision="I64">
					<dim>1</dim>
				</port>
				<port id="2" precision="I64">
					<dim>1</dim>
				</port>
				<port id="3" precision="I64">
					<dim>1</dim>
				</port>
				<port id="4" precision="I64">
					<dim>1</dim>
				</port>
			</input>
			<output>
				<port id="5" precision="FP32" names="489">
					<dim>-1</dim>
					<dim>36</dim>
					<dim>-1</dim>
					<dim>32</dim>
				</port>
			</output>
		</layer>
		<layer id="105" name="__module.model.layers.0.self_attn/aten::cat/Concat" type="Concat" version="opset1">
			<data axis="-1" />
			<input>
				<port id="0" precision="FP32">
					<dim>-1</dim>
					<dim>36</dim>
					<dim>-1</dim>
					<dim>32</dim>
				</port>
				<port id="1" precision="FP32">
					<dim>-1</dim>
					<dim>36</dim>
					<dim>-1</dim>
					<dim>32</dim>
				</port>
			</input>
			<output>
				<port id="2" precision="FP32" names="497">
					<dim>-1</dim>
					<dim>36</dim>
					<dim>-1</dim>
					<dim>64</dim>
				</port>
			</output>
		</layer>
		<layer id="106" name="self.model.layers.0.self_attn.rotary_emb.sin_cached" type="Const" version="opset1">
			<data element_type="f32" shape="4096, 64" offset="287069211" size="1048576" />
			<output>
				<port id="0" precision="FP32" names="self.model.layers.0.self_attn.rotary_emb.sin_cached">
					<dim>4096</dim>
					<dim>64</dim>
				</port>
			</output>
		</layer>
		<layer id="107" name="__module.model.layers.0.self_attn.rotary_emb/aten::slice/Reshape_4" type="Const" version="opset1">
			<data element_type="i64" shape="1" offset="4" size="8" />
			<output>
				<port id="0" precision="I64">
					<dim>1</dim>
				</port>
			</output>
		</layer>
		<layer id="108" name="__module.model.layers.0.self_attn.rotary_emb/aten::slice/Reshape_6" type="Const" version="opset1">
			<data element_type="i64" shape="1" offset="287069175" size="8" />
			<output>
				<port id="0" precision="I64">
					<dim>1</dim>
				</port>
			</output>
		</layer>
		<layer id="109" name="__module.model.layers.0.self_attn.rotary_emb/aten::slice/Reshape_7" type="Const" version="opset1">
			<data element_type="i64" shape="1" offset="4" size="8" />
			<output>
				<port id="0" precision="I64">
					<dim>1</dim>
				</port>
			</output>
		</layer>
		<layer id="110" name="__module.model.layers.0.self_attn.rotary_emb/aten::slice/Slice_1" type="Slice" version="opset8">
			<input>
				<port id="0" precision="FP32">
					<dim>4096</dim>
					<dim>64</dim>
				</port>
				<port id="1" precision="I64">
					<dim>1</dim>
				</port>
				<port id="2" precision="I64">
					<dim>1</dim>
				</port>
				<port id="3" precision="I64">
					<dim>1</dim>
				</port>
				<port id="4" precision="I64">
					<dim>1</dim>
				</port>
			</input>
			<output>
				<port id="5" precision="FP32" names="471,472,475,sin.1">
					<dim>-1</dim>
					<dim>64</dim>
				</port>
			</output>
		</layer>
		<layer id="111" name="Constant_19647" type="Const" version="opset1">
			<data element_type="i32" shape="" offset="0" size="4" />
			<output>
				<port id="0" precision="I32" />
			</output>
		</layer>
		<layer id="112" name="__module.model.layers.0.self_attn/aten::index/Gather_1" type="Gather" version="opset8">
			<data batch_dims="0" />
			<input>
				<port id="0" precision="FP32">
					<dim>-1</dim>
					<dim>64</dim>
				</port>
				<port id="1" precision="I32">
					<dim>-1</dim>
					<dim>-1</dim>
				</port>
				<port id="2" precision="I32" />
			</input>
			<output>
				<port id="3" precision="FP32" names="480">
					<dim>-1</dim>
					<dim>-1</dim>
					<dim>64</dim>
				</port>
			</output>
		</layer>
		<layer id="113" name="__module.model.layers.0.self_attn/aten::unsqueeze/Unsqueeze_1" type="Unsqueeze" version="opset1">
			<input>
				<port id="0" precision="FP32">
					<dim>-1</dim>
					<dim>-1</dim>
					<dim>64</dim>
				</port>
				<port id="1" precision="I64" />
			</input>
			<output>
				<port id="2" precision="FP32" names="481,sin.3">
					<dim>-1</dim>
					<dim>1</dim>
					<dim>-1</dim>
					<dim>64</dim>
				</port>
			</output>
		</layer>
		<layer id="114" name="__module.model.layers.0.self_attn/aten::mul/Multiply_1" type="Multiply" version="opset1">
			<data auto_broadcast="numpy" />
			<input>
				<port id="0" precision="FP32">
					<dim>-1</dim>
					<dim>36</dim>
					<dim>-1</dim>
					<dim>64</dim>
				</port>
				<port id="1" precision="FP32">
					<dim>-1</dim>
					<dim>1</dim>
					<dim>-1</dim>
					<dim>64</dim>
				</port>
			</input>
			<output>
				<port id="2" precision="FP32" names="498">
					<dim>-1</dim>
					<dim>36</dim>
					<dim>-1</dim>
					<dim>64</dim>
				</port>
			</output>
		</layer>
		<layer id="115" name="__module.model.layers.0.self_attn/aten::add/Add" type="Add" version="opset1">
			<data auto_broadcast="numpy" />
			<input>
				<port id="0" precision="FP32">
					<dim>-1</dim>
					<dim>36</dim>
					<dim>-1</dim>
					<dim>64</dim>
				</port>
				<port id="1" precision="FP32">
					<dim>-1</dim>
					<dim>36</dim>
					<dim>-1</dim>
					<dim>64</dim>
				</port>
			</input>
			<output>
				<port id="2" precision="FP32" names="499,516,q_embed.1">
					<dim>-1</dim>
					<dim>36</dim>
					<dim>-1</dim>
					<dim>64</dim>
				</port>
			</output>
		</layer>
		<layer id="116" name="self.model.layers.0.self_attn.k_proj.weight" type="Const" version="opset1">
			<data element_type="i4" shape="2304, 36, 64" offset="288117787" size="2654208" />
			<output>
				<port id="0" precision="I4">
					<dim>2304</dim>
					<dim>36</dim>
					<dim>64</dim>
				</port>
			</output>
		</layer>
		<layer id="117" name="Convert_358416" type="Convert" version="opset1">
			<data destination_type="f16" />
			<input>
				<port id="0" precision="I4">
					<dim>2304</dim>
					<dim>36</dim>
					<dim>64</dim>
				</port>
			</input>
			<output>
				<port id="1" precision="FP16">
					<dim>2304</dim>
					<dim>36</dim>
					<dim>64</dim>
				</port>
			</output>
		</layer>
		<layer id="118" name="self.model.layers.0.self_attn.k_proj.weight/scale" type="Const" version="opset1">
			<data element_type="f16" shape="2304, 36, 1" offset="290771995" size="165888" />
			<output>
				<port id="0" precision="FP16">
					<dim>2304</dim>
					<dim>36</dim>
					<dim>1</dim>
				</port>
			</output>
		</layer>
		<layer id="119" name="self.model.layers.0.self_attn.k_proj.weight/fq_weights_1" type="Multiply" version="opset1">
			<data auto_broadcast="numpy" />
			<input>
				<port id="0" precision="FP16">
					<dim>2304</dim>
					<dim>36</dim>
					<dim>64</dim>
				</port>
				<port id="1" precision="FP16">
					<dim>2304</dim>
					<dim>36</dim>
					<dim>1</dim>
				</port>
			</input>
			<output>
				<port id="2" precision="FP16">
					<dim>2304</dim>
					<dim>36</dim>
					<dim>64</dim>
				</port>
			</output>
		</layer>
		<layer id="120" name="Constant_358420" type="Const" version="opset1">
			<data element_type="i64" shape="2" offset="286020535" size="16" />
			<output>
				<port id="0" precision="I64">
					<dim>2</dim>
				</port>
			</output>
		</layer>
		<layer id="121" name="Reshape_358421" type="Reshape" version="opset1">
			<data special_zero="false" />
			<input>
				<port id="0" precision="FP16">
					<dim>2304</dim>
					<dim>36</dim>
					<dim>64</dim>
				</port>
				<port id="1" precision="I64">
					<dim>2</dim>
				</port>
			</input>
			<output>
				<port id="2" precision="FP16">
					<dim>2304</dim>
					<dim>2304</dim>
				</port>
			</output>
		</layer>
		<layer id="122" name="self.model.layers.0.self_attn.k_proj.weight/fq_weights_1/convert" type="Convert" version="opset1">
			<data destination_type="f32" />
			<input>
				<port id="0" precision="FP16">
					<dim>2304</dim>
					<dim>2304</dim>
				</port>
			</input>
			<output>
				<port id="1" precision="FP32">
					<dim>2304</dim>
					<dim>2304</dim>
				</port>
			</output>
		</layer>
		<layer id="123" name="__module.model.layers.0.self_attn.k_proj/aten::linear/MatMul" type="MatMul" version="opset1">
			<data transpose_a="false" transpose_b="true" />
			<input>
				<port id="0" precision="FP32">
					<dim>-1</dim>
					<dim>-1</dim>
					<dim>2304</dim>
				</port>
				<port id="1" precision="FP32">
					<dim>2304</dim>
					<dim>2304</dim>
				</port>
			</input>
			<output>
				<port id="2" precision="FP32" names="448,key_states.3">
					<dim>-1</dim>
					<dim>-1</dim>
					<dim>2304</dim>
				</port>
			</output>
		</layer>
		<layer id="124" name="Constant_294107" type="Const" version="opset1">
			<data element_type="i64" shape="4" offset="286020551" size="32" />
			<output>
				<port id="0" precision="I64">
					<dim>4</dim>
				</port>
			</output>
		</layer>
		<layer id="125" name="__module.model.layers.0.self_attn/aten::view/Reshape_1" type="Reshape" version="opset1">
			<data special_zero="true" />
			<input>
				<port id="0" precision="FP32">
					<dim>-1</dim>
					<dim>-1</dim>
					<dim>2304</dim>
				</port>
				<port id="1" precision="I64">
					<dim>4</dim>
				</port>
			</input>
			<output>
				<port id="2" precision="FP32" names="455">
					<dim>-1</dim>
					<dim>-1</dim>
					<dim>36</dim>
					<dim>64</dim>
				</port>
			</output>
		</layer>
		<layer id="126" name="__module.model.layers.0.self_attn/aten::transpose/ScatterElementsUpdate_1" type="Const" version="opset1">
			<data element_type="i32" shape="4" offset="286020583" size="16" />
			<output>
				<port id="0" precision="I32">
					<dim>4</dim>
				</port>
			</output>
		</layer>
		<layer id="127" name="__module.model.layers.0.self_attn/aten::transpose/Transpose_1" type="Transpose" version="opset1">
			<input>
				<port id="0" precision="FP32">
					<dim>-1</dim>
					<dim>-1</dim>
					<dim>36</dim>
					<dim>64</dim>
				</port>
				<port id="1" precision="I32">
					<dim>4</dim>
				</port>
			</input>
			<output>
				<port id="2" precision="FP32" names="456,483,k.1,key_states.5">
					<dim>-1</dim>
					<dim>36</dim>
					<dim>-1</dim>
					<dim>64</dim>
				</port>
			</output>
		</layer>
		<layer id="128" name="__module.model.layers.0.self_attn/aten::mul/Multiply_2" type="Multiply" version="opset1">
			<data auto_broadcast="numpy" />
			<input>
				<port id="0" precision="FP32">
					<dim>-1</dim>
					<dim>36</dim>
					<dim>-1</dim>
					<dim>64</dim>
				</port>
				<port id="1" precision="FP32">
					<dim>-1</dim>
					<dim>1</dim>
					<dim>-1</dim>
					<dim>64</dim>
				</port>
			</input>
			<output>
				<port id="2" precision="FP32" names="500">
					<dim>-1</dim>
					<dim>36</dim>
					<dim>-1</dim>
					<dim>64</dim>
				</port>
			</output>
		</layer>
		<layer id="129" name="__module.model.layers.0.self_attn/aten::size/ShapeOf_2" type="ShapeOf" version="opset3">
			<data output_type="i64" />
			<input>
				<port id="0" precision="FP32">
					<dim>-1</dim>
					<dim>36</dim>
					<dim>-1</dim>
					<dim>64</dim>
				</port>
			</input>
			<output>
				<port id="1" precision="I64">
					<dim>4</dim>
				</port>
			</output>
		</layer>
		<layer id="130" name="__module.model.layers.0.self_attn/aten::size/Constant_7" type="Const" version="opset1">
			<data element_type="i32" shape="" offset="0" size="4" />
			<output>
				<port id="0" precision="I32" />
			</output>
		</layer>
		<layer id="131" name="__module.model.layers.0.self_attn/aten::size/Gather_7" type="Gather" version="opset8">
			<data batch_dims="0" />
			<input>
				<port id="0" precision="I64">
					<dim>4</dim>
				</port>
				<port id="1" precision="I64" />
				<port id="2" precision="I32" />
			</input>
			<output>
				<port id="3" precision="I64" names="501,506" />
			</output>
		</layer>
		<layer id="132" name="__module.model.layers.0.self_attn/aten::floor_divide/Divide_3" type="Divide" version="opset1">
			<data auto_broadcast="numpy" m_pythondiv="true" />
			<input>
				<port id="0" precision="I64" />
				<port id="1" precision="I64" />
			</input>
			<output>
				<port id="2" precision="I64" />
			</output>
		</layer>
		<layer id="133" name="__module.model.layers.0.self_attn/aten::floor_divide/Floor_3" type="Floor" version="opset1">
			<input>
				<port id="0" precision="I64" />
			</input>
			<output>
				<port id="1" precision="I64" names="503,504,508,509" />
			</output>
		</layer>
		<layer id="134" name="Constant_209955" type="Const" version="opset1">
			<data element_type="i64" shape="1" offset="283191211" size="8" />
			<output>
				<port id="0" precision="I64">
					<dim>1</dim>
				</port>
			</output>
		</layer>
		<layer id="135" name="__module.model.layers.0.self_attn/aten::slice/Reshape_13" type="Reshape" version="opset1">
			<data special_zero="false" />
			<input>
				<port id="0" precision="I64" />
				<port id="1" precision="I64">
					<dim>1</dim>
				</port>
			</input>
			<output>
				<port id="2" precision="I64">
					<dim>1</dim>
				</port>
			</output>
		</layer>
		<layer id="136" name="__module.model.layers.0.self_attn/aten::slice/Reshape_9" type="Const" version="opset1">
			<data element_type="i64" shape="1" offset="287069199" size="8" />
			<output>
				<port id="0" precision="I64">
					<dim>1</dim>
				</port>
			</output>
		</layer>
		<layer id="137" name="__module.model.layers.0.self_attn/aten::slice/Reshape_10" type="Const" version="opset1">
			<data element_type="i64" shape="1" offset="287069175" size="8" />
			<output>
				<port id="0" precision="I64">
					<dim>1</dim>
				</port>
			</output>
		</layer>
		<layer id="138" name="__module.model.layers.0.self_attn/aten::slice/Reshape_11" type="Const" version="opset1">
			<data element_type="i64" shape="1" offset="287069191" size="8" />
			<output>
				<port id="0" precision="I64">
					<dim>1</dim>
				</port>
			</output>
		</layer>
		<layer id="139" name="__module.model.layers.0.self_attn/aten::slice/Slice_2" type="Slice" version="opset8">
			<input>
				<port id="0" precision="FP32">
					<dim>-1</dim>
					<dim>36</dim>
					<dim>-1</dim>
					<dim>64</dim>
				</port>
				<port id="1" precision="I64">
					<dim>1</dim>
				</port>
				<port id="2" precision="I64">
					<dim>1</dim>
				</port>
				<port id="3" precision="I64">
					<dim>1</dim>
				</port>
				<port id="4" precision="I64">
					<dim>1</dim>
				</port>
			</input>
			<output>
				<port id="5" precision="FP32" names="510,x2.3">
					<dim>-1</dim>
					<dim>36</dim>
					<dim>-1</dim>
					<dim>32</dim>
				</port>
			</output>
		</layer>
		<layer id="140" name="Constant_286159" type="Const" version="opset1">
			<data element_type="f32" shape="1, 1, 1, 1" offset="287069207" size="4" />
			<output>
				<port id="0" precision="FP32">
					<dim>1</dim>
					<dim>1</dim>
					<dim>1</dim>
					<dim>1</dim>
				</port>
			</output>
		</layer>
		<layer id="141" name="__module.model.layers.0.self_attn/aten::neg/Multiply_1" type="Multiply" version="opset1">
			<data auto_broadcast="numpy" />
			<input>
				<port id="0" precision="FP32">
					<dim>-1</dim>
					<dim>36</dim>
					<dim>-1</dim>
					<dim>32</dim>
				</port>
				<port id="1" precision="FP32">
					<dim>1</dim>
					<dim>1</dim>
					<dim>1</dim>
					<dim>1</dim>
				</port>
			</input>
			<output>
				<port id="2" precision="FP32" names="511">
					<dim>-1</dim>
					<dim>36</dim>
					<dim>-1</dim>
					<dim>32</dim>
				</port>
			</output>
		</layer>
		<layer id="142" name="__module.model.layers.0.self_attn/aten::slice/Reshape_12" type="Const" version="opset1">
			<data element_type="i64" shape="1" offset="4" size="8" />
			<output>
				<port id="0" precision="I64">
					<dim>1</dim>
				</port>
			</output>
		</layer>
		<layer id="143" name="__module.model.layers.0.self_attn/aten::slice/Reshape_14" type="Const" version="opset1">
			<data element_type="i64" shape="1" offset="287069175" size="8" />
			<output>
				<port id="0" precision="I64">
					<dim>1</dim>
				</port>
			</output>
		</layer>
		<layer id="144" name="__module.model.layers.0.self_attn/aten::slice/Reshape_15" type="Const" version="opset1">
			<data element_type="i64" shape="1" offset="287069191" size="8" />
			<output>
				<port id="0" precision="I64">
					<dim>1</dim>
				</port>
			</output>
		</layer>
		<layer id="145" name="__module.model.layers.0.self_attn/aten::slice/Slice_3" type="Slice" version="opset8">
			<input>
				<port id="0" precision="FP32">
					<dim>-1</dim>
					<dim>36</dim>
					<dim>-1</dim>
					<dim>64</dim>
				</port>
				<port id="1" precision="I64">
					<dim>1</dim>
				</port>
				<port id="2" precision="I64">
					<dim>1</dim>
				</port>
				<port id="3" precision="I64">
					<dim>1</dim>
				</port>
				<port id="4" precision="I64">
					<dim>1</dim>
				</port>
			</input>
			<output>
				<port id="5" precision="FP32" names="505">
					<dim>-1</dim>
					<dim>36</dim>
					<dim>-1</dim>
					<dim>32</dim>
				</port>
			</output>
		</layer>
		<layer id="146" name="__module.model.layers.0.self_attn/aten::cat/Concat_1" type="Concat" version="opset1">
			<data axis="-1" />
			<input>
				<port id="0" precision="FP32">
					<dim>-1</dim>
					<dim>36</dim>
					<dim>-1</dim>
					<dim>32</dim>
				</port>
				<port id="1" precision="FP32">
					<dim>-1</dim>
					<dim>36</dim>
					<dim>-1</dim>
					<dim>32</dim>
				</port>
			</input>
			<output>
				<port id="2" precision="FP32" names="513">
					<dim>-1</dim>
					<dim>36</dim>
					<dim>-1</dim>
					<dim>64</dim>
				</port>
			</output>
		</layer>
		<layer id="147" name="__module.model.layers.0.self_attn/aten::mul/Multiply_3" type="Multiply" version="opset1">
			<data auto_broadcast="numpy" />
			<input>
				<port id="0" precision="FP32">
					<dim>-1</dim>
					<dim>36</dim>
					<dim>-1</dim>
					<dim>64</dim>
				</port>
				<port id="1" precision="FP32">
					<dim>-1</dim>
					<dim>1</dim>
					<dim>-1</dim>
					<dim>64</dim>
				</port>
			</input>
			<output>
				<port id="2" precision="FP32" names="514">
					<dim>-1</dim>
					<dim>36</dim>
					<dim>-1</dim>
					<dim>64</dim>
				</port>
			</output>
		</layer>
		<layer id="148" name="__module.model.layers.0.self_attn/aten::add/Add_1" type="Add" version="opset1">
			<data auto_broadcast="numpy" />
			<input>
				<port id="0" precision="FP32">
					<dim>-1</dim>
					<dim>36</dim>
					<dim>-1</dim>
					<dim>64</dim>
				</port>
				<port id="1" precision="FP32">
					<dim>-1</dim>
					<dim>36</dim>
					<dim>-1</dim>
					<dim>64</dim>
				</port>
			</input>
			<output>
				<port id="2" precision="FP32" names="515,517,k_embed.1,key_states.7">
					<dim>-1</dim>
					<dim>36</dim>
					<dim>-1</dim>
					<dim>64</dim>
				</port>
			</output>
		</layer>
		<layer id="149" name="__module.model.layers.0.self_attn/aten::cat/Concat_2" type="Concat" version="opset1">
			<data axis="-2" />
			<input>
				<port id="0" precision="FP32">
					<dim>-1</dim>
					<dim>36</dim>
					<dim>-1</dim>
					<dim>64</dim>
				</port>
				<port id="1" precision="FP32">
					<dim>-1</dim>
					<dim>36</dim>
					<dim>-1</dim>
					<dim>64</dim>
				</port>
			</input>
			<output>
				<port id="2" precision="FP32" names="present.0.key">
					<dim>-1</dim>
					<dim>36</dim>
					<dim>-1</dim>
					<dim>64</dim>
				</port>
			</output>
		</layer>
		<layer id="150" name="Constant_325422" type="Const" version="opset1">
			<data element_type="f32" shape="" offset="0" size="4" />
			<output>
				<port id="0" precision="FP32" />
			</output>
		</layer>
		<layer id="151" name="Constant_325415" type="Const" version="opset1">
			<data element_type="i64" shape="1" offset="12" size="8" />
			<output>
				<port id="0" precision="I64">
					<dim>1</dim>
				</port>
			</output>
		</layer>
		<layer id="152" name="Constant_325417" type="Const" version="opset1">
			<data element_type="i64" shape="1" offset="4" size="8" />
			<output>
				<port id="0" precision="I64">
					<dim>1</dim>
				</port>
			</output>
		</layer>
		<layer id="153" name="Constant_325419" type="Const" version="opset1">
			<data element_type="i64" shape="1" offset="20" size="8" />
			<output>
				<port id="0" precision="I64">
					<dim>1</dim>
				</port>
			</output>
		</layer>
		<layer id="154" name="Concat_325420" type="Concat" version="opset1">
			<data axis="0" />
			<input>
				<port id="0" precision="I64">
					<dim>1</dim>
				</port>
				<port id="1" precision="I64">
					<dim>1</dim>
				</port>
				<port id="2" precision="I64">
					<dim>1</dim>
				</port>
				<port id="3" precision="I64">
					<dim>1</dim>
				</port>
			</input>
			<output>
				<port id="4" precision="I64">
					<dim>4</dim>
				</port>
			</output>
		</layer>
		<layer id="155" name="Broadcast_325423" type="Broadcast" version="opset3">
			<data mode="numpy" />
			<input>
				<port id="0" precision="FP32" />
				<port id="1" precision="I64">
					<dim>4</dim>
				</port>
			</input>
			<output>
				<port id="2" precision="FP32">
					<dim>-1</dim>
					<dim>36</dim>
					<dim>0</dim>
					<dim>64</dim>
				</port>
			</output>
		</layer>
		<layer id="156" name="ReadValue_319127" type="ReadValue" version="opset6">
			<data variable_id="past_key_values.0.valuepresent.0.value" variable_type="f32" variable_shape="?,36,?,64" />
			<input>
				<port id="0" precision="FP32">
					<dim>-1</dim>
					<dim>36</dim>
					<dim>0</dim>
					<dim>64</dim>
				</port>
			</input>
			<output>
				<port id="1" precision="FP32" names="past_key_values.0.value">
					<dim>-1</dim>
					<dim>36</dim>
					<dim>-1</dim>
					<dim>64</dim>
				</port>
			</output>
		</layer>
		<layer id="157" name="Constant_312792" type="Const" version="opset1">
			<data element_type="i64" shape="" offset="4" size="8" />
			<output>
				<port id="0" precision="I64" />
			</output>
		</layer>
		<layer id="158" name="Gather_312793" type="Gather" version="opset8">
			<data batch_dims="0" />
			<input>
				<port id="0" precision="FP32">
					<dim>-1</dim>
					<dim>36</dim>
					<dim>-1</dim>
					<dim>64</dim>
				</port>
				<port id="1" precision="I32">
					<dim>-1</dim>
				</port>
				<port id="2" precision="I64" />
			</input>
			<output>
				<port id="3" precision="FP32">
					<dim>-1</dim>
					<dim>36</dim>
					<dim>-1</dim>
					<dim>64</dim>
				</port>
			</output>
		</layer>
		<layer id="159" name="self.model.layers.0.self_attn.v_proj.weight" type="Const" version="opset1">
			<data element_type="i4" shape="2304, 36, 64" offset="290937883" size="2654208" />
			<output>
				<port id="0" precision="I4">
					<dim>2304</dim>
					<dim>36</dim>
					<dim>64</dim>
				</port>
			</output>
		</layer>
		<layer id="160" name="Convert_358408" type="Convert" version="opset1">
			<data destination_type="f16" />
			<input>
				<port id="0" precision="I4">
					<dim>2304</dim>
					<dim>36</dim>
					<dim>64</dim>
				</port>
			</input>
			<output>
				<port id="1" precision="FP16">
					<dim>2304</dim>
					<dim>36</dim>
					<dim>64</dim>
				</port>
			</output>
		</layer>
		<layer id="161" name="self.model.layers.0.self_attn.v_proj.weight/scale" type="Const" version="opset1">
			<data element_type="f16" shape="2304, 36, 1" offset="293592091" size="165888" />
			<output>
				<port id="0" precision="FP16">
					<dim>2304</dim>
					<dim>36</dim>
					<dim>1</dim>
				</port>
			</output>
		</layer>
		<layer id="162" name="self.model.layers.0.self_attn.v_proj.weight/fq_weights_1" type="Multiply" version="opset1">
			<data auto_broadcast="numpy" />
			<input>
				<port id="0" precision="FP16">
					<dim>2304</dim>
					<dim>36</dim>
					<dim>64</dim>
				</port>
				<port id="1" precision="FP16">
					<dim>2304</dim>
					<dim>36</dim>
					<dim>1</dim>
				</port>
			</input>
			<output>
				<port id="2" precision="FP16">
					<dim>2304</dim>
					<dim>36</dim>
					<dim>64</dim>
				</port>
			</output>
		</layer>
		<layer id="163" name="Constant_358412" type="Const" version="opset1">
			<data element_type="i64" shape="2" offset="286020535" size="16" />
			<output>
				<port id="0" precision="I64">
					<dim>2</dim>
				</port>
			</output>
		</layer>
		<layer id="164" name="Reshape_358413" type="Reshape" version="opset1">
			<data special_zero="false" />
			<input>
				<port id="0" precision="FP16">
					<dim>2304</dim>
					<dim>36</dim>
					<dim>64</dim>
				</port>
				<port id="1" precision="I64">
					<dim>2</dim>
				</port>
			</input>
			<output>
				<port id="2" precision="FP16">
					<dim>2304</dim>
					<dim>2304</dim>
				</port>
			</output>
		</layer>
		<layer id="165" name="self.model.layers.0.self_attn.v_proj.weight/fq_weights_1/convert" type="Convert" version="opset1">
			<data destination_type="f32" />
			<input>
				<port id="0" precision="FP16">
					<dim>2304</dim>
					<dim>2304</dim>
				</port>
			</input>
			<output>
				<port id="1" precision="FP32">
					<dim>2304</dim>
					<dim>2304</dim>
				</port>
			</output>
		</layer>
		<layer id="166" name="__module.model.layers.0.self_attn.v_proj/aten::linear/MatMul" type="MatMul" version="opset1">
			<data transpose_a="false" transpose_b="true" />
			<input>
				<port id="0" precision="FP32">
					<dim>-1</dim>
					<dim>-1</dim>
					<dim>2304</dim>
				</port>
				<port id="1" precision="FP32">
					<dim>2304</dim>
					<dim>2304</dim>
				</port>
			</input>
			<output>
				<port id="2" precision="FP32" names="450,value_states.1">
					<dim>-1</dim>
					<dim>-1</dim>
					<dim>2304</dim>
				</port>
			</output>
		</layer>
		<layer id="167" name="Constant_294108" type="Const" version="opset1">
			<data element_type="i64" shape="4" offset="286020551" size="32" />
			<output>
				<port id="0" precision="I64">
					<dim>4</dim>
				</port>
			</output>
		</layer>
		<layer id="168" name="__module.model.layers.0.self_attn/aten::view/Reshape_2" type="Reshape" version="opset1">
			<data special_zero="true" />
			<input>
				<port id="0" precision="FP32">
					<dim>-1</dim>
					<dim>-1</dim>
					<dim>2304</dim>
				</port>
				<port id="1" precision="I64">
					<dim>4</dim>
				</port>
			</input>
			<output>
				<port id="2" precision="FP32" names="458">
					<dim>-1</dim>
					<dim>-1</dim>
					<dim>36</dim>
					<dim>64</dim>
				</port>
			</output>
		</layer>
		<layer id="169" name="__module.model.layers.0.self_attn/aten::transpose/ScatterElementsUpdate_2" type="Const" version="opset1">
			<data element_type="i32" shape="4" offset="286020583" size="16" />
			<output>
				<port id="0" precision="I32">
					<dim>4</dim>
				</port>
			</output>
		</layer>
		<layer id="170" name="__module.model.layers.0.self_attn/aten::transpose/Transpose_2" type="Transpose" version="opset1">
			<input>
				<port id="0" precision="FP32">
					<dim>-1</dim>
					<dim>-1</dim>
					<dim>36</dim>
					<dim>64</dim>
				</port>
				<port id="1" precision="I32">
					<dim>4</dim>
				</port>
			</input>
			<output>
				<port id="2" precision="FP32" names="459">
					<dim>-1</dim>
					<dim>36</dim>
					<dim>-1</dim>
					<dim>64</dim>
				</port>
			</output>
		</layer>
		<layer id="171" name="__module.model.layers.0.self_attn/aten::cat/Concat_3" type="Concat" version="opset1">
			<data axis="-2" />
			<input>
				<port id="0" precision="FP32">
					<dim>-1</dim>
					<dim>36</dim>
					<dim>-1</dim>
					<dim>64</dim>
				</port>
				<port id="1" precision="FP32">
					<dim>-1</dim>
					<dim>36</dim>
					<dim>-1</dim>
					<dim>64</dim>
				</port>
			</input>
			<output>
				<port id="2" precision="FP32" names="present.0.value">
					<dim>-1</dim>
					<dim>36</dim>
					<dim>-1</dim>
					<dim>64</dim>
				</port>
			</output>
		</layer>
		<layer id="172" name="Constant_286161" type="Const" version="opset1">
			<data element_type="f32" shape="1, 1, 1, 1" offset="283191203" size="4" />
			<output>
				<port id="0" precision="FP32">
					<dim>1</dim>
					<dim>1</dim>
					<dim>1</dim>
					<dim>1</dim>
				</port>
			</output>
		</layer>
		<layer id="173" name="__module.model/aten::unsqueeze/Unsqueeze" type="Unsqueeze" version="opset1">
			<input>
				<port id="0" precision="I64">
					<dim>-1</dim>
					<dim>-1</dim>
				</port>
				<port id="1" precision="I64" />
			</input>
			<output>
				<port id="2" precision="I64" names="409">
					<dim>-1</dim>
					<dim>1</dim>
					<dim>-1</dim>
				</port>
			</output>
		</layer>
		<layer id="174" name="285" type="Const" version="opset1">
			<data element_type="i64" shape="" offset="287069183" size="8" />
			<output>
				<port id="0" precision="I64" names="285" />
			</output>
		</layer>
		<layer id="175" name="__module.model/aten::unsqueeze/Unsqueeze_1" type="Unsqueeze" version="opset1">
			<input>
				<port id="0" precision="I64">
					<dim>-1</dim>
					<dim>1</dim>
					<dim>-1</dim>
				</port>
				<port id="1" precision="I64" />
			</input>
			<output>
				<port id="2" precision="I64" names="410,411">
					<dim>-1</dim>
					<dim>1</dim>
					<dim>1</dim>
					<dim>-1</dim>
				</port>
			</output>
		</layer>
		<layer id="176" name="ShapeOf_293880" type="ShapeOf" version="opset3">
			<data output_type="i64" />
			<input>
				<port id="0" precision="I64">
					<dim>-1</dim>
					<dim>-1</dim>
				</port>
			</input>
			<output>
				<port id="1" precision="I64">
					<dim>2</dim>
				</port>
			</output>
		</layer>
		<layer id="177" name="Constant_293881" type="Const" version="opset1">
			<data element_type="i64" shape="1" offset="4" size="8" />
			<output>
				<port id="0" precision="I64">
					<dim>1</dim>
				</port>
			</output>
		</layer>
		<layer id="178" name="Constant_293882" type="Const" version="opset1">
			<data element_type="i64" shape="" offset="4" size="8" />
			<output>
				<port id="0" precision="I64" />
			</output>
		</layer>
		<layer id="179" name="Gather_293883" type="Gather" version="opset8">
			<data batch_dims="0" />
			<input>
				<port id="0" precision="I64">
					<dim>2</dim>
				</port>
				<port id="1" precision="I64">
					<dim>1</dim>
				</port>
				<port id="2" precision="I64" />
			</input>
			<output>
				<port id="3" precision="I64" names="380,406">
					<dim>1</dim>
				</port>
			</output>
		</layer>
		<layer id="180" name="Constant_265777" type="Const" version="opset1">
			<data element_type="i64" shape="1" offset="287069175" size="8" />
			<output>
				<port id="0" precision="I64">
					<dim>1</dim>
				</port>
			</output>
		</layer>
		<layer id="181" name="Constant_293890" type="Const" version="opset1">
			<data element_type="i64" shape="1" offset="287069175" size="8" />
			<output>
				<port id="0" precision="I64">
					<dim>1</dim>
				</port>
			</output>
		</layer>
		<layer id="182" name="Reshape_293891" type="Reshape" version="opset1">
			<data special_zero="false" />
			<input>
				<port id="0" precision="I64" />
				<port id="1" precision="I64">
					<dim>1</dim>
				</port>
			</input>
			<output>
				<port id="2" precision="I64">
					<dim>1</dim>
				</port>
			</output>
		</layer>
		<layer id="183" name="Constant_293894" type="Const" version="opset1">
			<data element_type="i64" shape="1" offset="287069175" size="8" />
			<output>
				<port id="0" precision="I64">
					<dim>1</dim>
				</port>
			</output>
		</layer>
		<layer id="184" name="Constant_293895" type="Const" version="opset1">
			<data element_type="i64" shape="" offset="4" size="8" />
			<output>
				<port id="0" precision="I64" />
			</output>
		</layer>
		<layer id="185" name="Gather_293896" type="Gather" version="opset8">
			<data batch_dims="0" />
			<input>
				<port id="0" precision="I64">
					<dim>2</dim>
				</port>
				<port id="1" precision="I64">
					<dim>1</dim>
				</port>
				<port id="2" precision="I64" />
			</input>
			<output>
				<port id="3" precision="I64" names="407">
					<dim>1</dim>
				</port>
			</output>
		</layer>
		<layer id="186" name="__module.model/prim::ListConstruct/Concat" type="Concat" version="opset1">
			<data axis="0" />
			<input>
				<port id="0" precision="I64">
					<dim>1</dim>
				</port>
				<port id="1" precision="I64">
					<dim>1</dim>
				</port>
				<port id="2" precision="I64">
					<dim>1</dim>
				</port>
				<port id="3" precision="I64">
					<dim>1</dim>
				</port>
			</input>
			<output>
				<port id="4" precision="I64" names="412">
					<dim>4</dim>
				</port>
			</output>
		</layer>
		<layer id="187" name="__module.model/aten::expand/Broadcast" type="Broadcast" version="opset3">
			<data mode="bidirectional" />
			<input>
				<port id="0" precision="I64">
					<dim>-1</dim>
					<dim>1</dim>
					<dim>1</dim>
					<dim>-1</dim>
				</port>
				<port id="1" precision="I64">
					<dim>4</dim>
				</port>
			</input>
			<output>
				<port id="2" precision="I64" names="413">
					<dim>-1</dim>
					<dim>1</dim>
					<dim>-1</dim>
					<dim>-1</dim>
				</port>
			</output>
		</layer>
		<layer id="188" name="__module.model/aten::to/Convert" type="Convert" version="opset1">
			<data destination_type="f32" />
			<input>
				<port id="0" precision="I64">
					<dim>-1</dim>
					<dim>1</dim>
					<dim>-1</dim>
					<dim>-1</dim>
				</port>
			</input>
			<output>
				<port id="1" precision="FP32" names="414">
					<dim>-1</dim>
					<dim>1</dim>
					<dim>-1</dim>
					<dim>-1</dim>
				</port>
			</output>
		</layer>
		<layer id="189" name="Constant_286160" type="Const" version="opset1">
			<data element_type="f32" shape="1, 1, 1, 1" offset="283191203" size="4" />
			<output>
				<port id="0" precision="FP32">
					<dim>1</dim>
					<dim>1</dim>
					<dim>1</dim>
					<dim>1</dim>
				</port>
			</output>
		</layer>
		<layer id="190" name="__module.model/aten::rsub/Multiply" type="Multiply" version="opset1">
			<data auto_broadcast="numpy" />
			<input>
				<port id="0" precision="FP32">
					<dim>-1</dim>
					<dim>1</dim>
					<dim>-1</dim>
					<dim>-1</dim>
				</port>
				<port id="1" precision="FP32">
					<dim>1</dim>
					<dim>1</dim>
					<dim>1</dim>
					<dim>1</dim>
				</port>
			</input>
			<output>
				<port id="2" precision="FP32">
					<dim>-1</dim>
					<dim>1</dim>
					<dim>-1</dim>
					<dim>-1</dim>
				</port>
			</output>
		</layer>
		<layer id="191" name="__module.model/aten::rsub/Subtract" type="Subtract" version="opset1">
			<data auto_broadcast="numpy" />
			<input>
				<port id="0" precision="FP32">
					<dim>1</dim>
					<dim>1</dim>
					<dim>1</dim>
					<dim>1</dim>
				</port>
				<port id="1" precision="FP32">
					<dim>-1</dim>
					<dim>1</dim>
					<dim>-1</dim>
					<dim>-1</dim>
				</port>
			</input>
			<output>
				<port id="2" precision="FP32" names="415,inverted_mask">
					<dim>-1</dim>
					<dim>1</dim>
					<dim>-1</dim>
					<dim>-1</dim>
				</port>
			</output>
		</layer>
		<layer id="192" name="__module.model/aten::to/Convert_1" type="Convert" version="opset1">
			<data destination_type="boolean" />
			<input>
				<port id="0" precision="FP32">
					<dim>-1</dim>
					<dim>1</dim>
					<dim>-1</dim>
					<dim>-1</dim>
				</port>
			</input>
			<output>
				<port id="1" precision="BOOL" names="416">
					<dim>-1</dim>
					<dim>1</dim>
					<dim>-1</dim>
					<dim>-1</dim>
				</port>
			</output>
		</layer>
		<layer id="193" name="__module.model/aten::masked_fill/ConvertLike" type="Const" version="opset1">
			<data element_type="f32" shape="" offset="293757979" size="4" />
			<output>
				<port id="0" precision="FP32" />
			</output>
		</layer>
		<layer id="194" name="__module.model/aten::masked_fill/Select" type="Select" version="opset1">
			<data auto_broadcast="numpy" />
			<input>
				<port id="0" precision="BOOL">
					<dim>-1</dim>
					<dim>1</dim>
					<dim>-1</dim>
					<dim>-1</dim>
				</port>
				<port id="1" precision="FP32" />
				<port id="2" precision="FP32">
					<dim>-1</dim>
					<dim>1</dim>
					<dim>-1</dim>
					<dim>-1</dim>
				</port>
			</input>
			<output>
				<port id="3" precision="FP32" names="417,418,expanded_attn_mask">
					<dim>-1</dim>
					<dim>1</dim>
					<dim>-1</dim>
					<dim>-1</dim>
				</port>
			</output>
		</layer>
		<layer id="195" name="__module.model/aten::to/Convert_3" type="Convert" version="opset1">
			<data destination_type="boolean" />
			<input>
				<port id="0" precision="FP32">
					<dim>-1</dim>
					<dim>1</dim>
					<dim>-1</dim>
					<dim>-1</dim>
				</port>
			</input>
			<output>
				<port id="1" precision="BOOL" names="419">
					<dim>-1</dim>
					<dim>1</dim>
					<dim>-1</dim>
					<dim>-1</dim>
				</port>
			</output>
		</layer>
		<layer id="196" name="__module.model/aten::masked_fill/ConvertLike_1" type="Const" version="opset1">
			<data element_type="f32" shape="" offset="293757979" size="4" />
			<output>
				<port id="0" precision="FP32" />
			</output>
		</layer>
		<layer id="197" name="__module.model/aten::zeros/Convert" type="Const" version="opset1">
			<data element_type="f32" shape="" offset="0" size="4" />
			<output>
				<port id="0" precision="FP32" />
			</output>
		</layer>
		<layer id="198" name="__module.model/aten::add/Add" type="Add" version="opset1">
			<data auto_broadcast="numpy" />
			<input>
				<port id="0" precision="I64" />
				<port id="1" precision="I64" />
			</input>
			<output>
				<port id="2" precision="I64" names="379,key_value_length" />
			</output>
		</layer>
		<layer id="199" name="__module.model/aten::sub/Subtract" type="Subtract" version="opset1">
			<data auto_broadcast="numpy" />
			<input>
				<port id="0" precision="I64" />
				<port id="1" precision="I64" />
			</input>
			<output>
				<port id="2" precision="I64" names="381,382,past_key_values_length" />
			</output>
		</layer>
		<layer id="200" name="Constant_209960" type="Const" version="opset1">
			<data element_type="i64" shape="1" offset="283191211" size="8" />
			<output>
				<port id="0" precision="I64">
					<dim>1</dim>
				</port>
			</output>
		</layer>
		<layer id="201" name="__module.model/prim::ListConstruct/Reshape_0_1" type="Reshape" version="opset1">
			<data special_zero="false" />
			<input>
				<port id="0" precision="I64" />
				<port id="1" precision="I64">
					<dim>1</dim>
				</port>
			</input>
			<output>
				<port id="2" precision="I64">
					<dim>1</dim>
				</port>
			</output>
		</layer>
		<layer id="202" name="__module.model/prim::ListConstruct/Concat_1" type="Concat" version="opset1">
			<data axis="0" />
			<input>
				<port id="0" precision="I64">
					<dim>1</dim>
				</port>
				<port id="1" precision="I64">
					<dim>1</dim>
				</port>
			</input>
			<output>
				<port id="2" precision="I64" names="394">
					<dim>2</dim>
				</port>
			</output>
		</layer>
		<layer id="203" name="__module.model/aten::zeros/Broadcast" type="Broadcast" version="opset3">
			<data mode="numpy" />
			<input>
				<port id="0" precision="FP32" />
				<port id="1" precision="I64">
					<dim>2</dim>
				</port>
			</input>
			<output>
				<port id="2" precision="FP32" names="395">
					<dim>-1</dim>
					<dim>-1</dim>
				</port>
			</output>
		</layer>
		<layer id="204" name="__module.model/aten::arange/Constant" type="Const" version="opset1">
			<data element_type="i32" shape="" offset="0" size="4" />
			<output>
				<port id="0" precision="I32" />
			</output>
		</layer>
		<layer id="205" name="279" type="Const" version="opset1">
			<data element_type="f32" shape="" offset="293757979" size="4" />
			<output>
				<port id="0" precision="FP32" names="279" />
			</output>
		</layer>
		<layer id="206" name="Constant_282011" type="Const" version="opset1">
			<data element_type="i32" shape="1" offset="293757983" size="4" />
			<output>
				<port id="0" precision="I32">
					<dim>1</dim>
				</port>
			</output>
		</layer>
		<layer id="207" name="__module.model/prim::ListConstruct/Concat_2" type="Broadcast" version="opset3">
			<data mode="numpy" />
			<input>
				<port id="0" precision="I64">
					<dim>1</dim>
				</port>
				<port id="1" precision="I32">
					<dim>1</dim>
				</port>
			</input>
			<output>
				<port id="2" precision="I64" names="383">
					<dim>2</dim>
				</port>
			</output>
		</layer>
		<layer id="208" name="__module.model/aten::full/Broadcast" type="Broadcast" version="opset3">
			<data mode="numpy" />
			<input>
				<port id="0" precision="FP32" />
				<port id="1" precision="I64">
					<dim>2</dim>
				</port>
			</input>
			<output>
				<port id="2" precision="FP32" names="384_1">
					<dim>-1</dim>
					<dim>-1</dim>
				</port>
			</output>
		</layer>
		<layer id="209" name="ShapeOf_293903" type="ShapeOf" version="opset3">
			<data output_type="i64" />
			<input>
				<port id="0" precision="FP32">
					<dim>-1</dim>
					<dim>-1</dim>
				</port>
			</input>
			<output>
				<port id="1" precision="I64">
					<dim>2</dim>
				</port>
			</output>
		</layer>
		<layer id="210" name="Constant_293904" type="Const" version="opset1">
			<data element_type="i64" shape="" offset="287069175" size="8" />
			<output>
				<port id="0" precision="I64" />
			</output>
		</layer>
		<layer id="211" name="Constant_293905" type="Const" version="opset1">
			<data element_type="i64" shape="" offset="4" size="8" />
			<output>
				<port id="0" precision="I64" />
			</output>
		</layer>
		<layer id="212" name="Gather_293906" type="Gather" version="opset8">
			<data batch_dims="0" />
			<input>
				<port id="0" precision="I64">
					<dim>2</dim>
				</port>
				<port id="1" precision="I64" />
				<port id="2" precision="I64" />
			</input>
			<output>
				<port id="3" precision="I64" names="385,388" />
			</output>
		</layer>
		<layer id="213" name="__module.model/aten::arange/Constant_1" type="Const" version="opset1">
			<data element_type="i32" shape="" offset="293757987" size="4" />
			<output>
				<port id="0" precision="I32" />
			</output>
		</layer>
		<layer id="214" name="__module.model/aten::arange/Range" type="Range" version="opset4">
			<data output_type="f32" />
			<input>
				<port id="0" precision="I32" />
				<port id="1" precision="I64" />
				<port id="2" precision="I32" />
			</input>
			<output>
				<port id="3" precision="FP32">
					<dim>-1</dim>
				</port>
			</output>
		</layer>
		<layer id="215" name="__module.model/aten::arange/ConvertLike" type="Convert" version="opset1">
			<data destination_type="i64" />
			<input>
				<port id="0" precision="FP32">
					<dim>-1</dim>
				</port>
			</input>
			<output>
				<port id="1" precision="I64" names="386,mask_cond">
					<dim>-1</dim>
				</port>
			</output>
		</layer>
		<layer id="216" name="Constant_286162" type="Const" version="opset1">
			<data element_type="i64" shape="1" offset="287069175" size="8" />
			<output>
				<port id="0" precision="I64">
					<dim>1</dim>
				</port>
			</output>
		</layer>
		<layer id="217" name="__module.model/aten::add/Add_1" type="Add" version="opset1">
			<data auto_broadcast="numpy" />
			<input>
				<port id="0" precision="I64">
					<dim>-1</dim>
				</port>
				<port id="1" precision="I64">
					<dim>1</dim>
				</port>
			</input>
			<output>
				<port id="2" precision="I64" names="387">
					<dim>-1</dim>
				</port>
			</output>
		</layer>
		<layer id="218" name="Constant_294109" type="Const" version="opset1">
			<data element_type="i64" shape="2" offset="293757991" size="16" />
			<output>
				<port id="0" precision="I64">
					<dim>2</dim>
				</port>
			</output>
		</layer>
		<layer id="219" name="__module.model/aten::view/Reshape" type="Reshape" version="opset1">
			<data special_zero="true" />
			<input>
				<port id="0" precision="I64">
					<dim>-1</dim>
				</port>
				<port id="1" precision="I64">
					<dim>2</dim>
				</port>
			</input>
			<output>
				<port id="2" precision="I64" names="390">
					<dim>-1</dim>
					<dim>1</dim>
				</port>
			</output>
		</layer>
		<layer id="220" name="__module.model/aten::lt/Less" type="Less" version="opset1">
			<data auto_broadcast="numpy" />
			<input>
				<port id="0" precision="I64">
					<dim>-1</dim>
				</port>
				<port id="1" precision="I64">
					<dim>-1</dim>
					<dim>1</dim>
				</port>
			</input>
			<output>
				<port id="2" precision="BOOL" names="391">
					<dim>-1</dim>
					<dim>-1</dim>
				</port>
			</output>
		</layer>
		<layer id="221" name="__module.model/aten::masked_fill_/ConvertLike" type="Const" version="opset1">
			<data element_type="f32" shape="" offset="0" size="4" />
			<output>
				<port id="0" precision="FP32" />
			</output>
		</layer>
		<layer id="222" name="__module.model/aten::masked_fill_/Select" type="Select" version="opset1">
			<data auto_broadcast="numpy" />
			<input>
				<port id="0" precision="BOOL">
					<dim>-1</dim>
					<dim>-1</dim>
				</port>
				<port id="1" precision="FP32" />
				<port id="2" precision="FP32">
					<dim>-1</dim>
					<dim>-1</dim>
				</port>
			</input>
			<output>
				<port id="3" precision="FP32" names="384,393,mask.1">
					<dim>-1</dim>
					<dim>-1</dim>
				</port>
			</output>
		</layer>
		<layer id="223" name="__module.model/aten::cat/Concat" type="Concat" version="opset1">
			<data axis="-1" />
			<input>
				<port id="0" precision="FP32">
					<dim>-1</dim>
					<dim>-1</dim>
				</port>
				<port id="1" precision="FP32">
					<dim>-1</dim>
					<dim>-1</dim>
				</port>
			</input>
			<output>
				<port id="2" precision="FP32" names="397,mask">
					<dim>-1</dim>
					<dim>-1</dim>
				</port>
			</output>
		</layer>
		<layer id="224" name="280" type="Const" version="opset1">
			<data element_type="i64" shape="" offset="4" size="8" />
			<output>
				<port id="0" precision="I64" names="280" />
			</output>
		</layer>
		<layer id="225" name="__module.model/aten::unsqueeze/Unsqueeze_2" type="Unsqueeze" version="opset1">
			<input>
				<port id="0" precision="FP32">
					<dim>-1</dim>
					<dim>-1</dim>
				</port>
				<port id="1" precision="I64" />
			</input>
			<output>
				<port id="2" precision="FP32" names="398">
					<dim>1</dim>
					<dim>-1</dim>
					<dim>-1</dim>
				</port>
			</output>
		</layer>
		<layer id="226" name="__module.model/aten::unsqueeze/Unsqueeze_3" type="Unsqueeze" version="opset1">
			<input>
				<port id="0" precision="FP32">
					<dim>1</dim>
					<dim>-1</dim>
					<dim>-1</dim>
				</port>
				<port id="1" precision="I64" />
			</input>
			<output>
				<port id="2" precision="FP32" names="399,400,401">
					<dim>1</dim>
					<dim>1</dim>
					<dim>-1</dim>
					<dim>-1</dim>
				</port>
			</output>
		</layer>
		<layer id="227" name="Constant_265791" type="Const" version="opset1">
			<data element_type="i64" shape="1" offset="287069175" size="8" />
			<output>
				<port id="0" precision="I64">
					<dim>1</dim>
				</port>
			</output>
		</layer>
		<layer id="228" name="__module.model/aten::add/Add_2" type="Add" version="opset1">
			<data auto_broadcast="numpy" />
			<input>
				<port id="0" precision="I64">
					<dim>1</dim>
				</port>
				<port id="1" precision="I64">
					<dim>1</dim>
				</port>
			</input>
			<output>
				<port id="2" precision="I64" names="402,403">
					<dim>1</dim>
				</port>
			</output>
		</layer>
		<layer id="229" name="__module.model/prim::ListConstruct/Concat_4" type="Concat" version="opset1">
			<data axis="0" />
			<input>
				<port id="0" precision="I64">
					<dim>1</dim>
				</port>
				<port id="1" precision="I64">
					<dim>1</dim>
				</port>
				<port id="2" precision="I64">
					<dim>1</dim>
				</port>
				<port id="3" precision="I64">
					<dim>1</dim>
				</port>
			</input>
			<output>
				<port id="4" precision="I64" names="404">
					<dim>4</dim>
				</port>
			</output>
		</layer>
		<layer id="230" name="__module.model/aten::expand/Broadcast_1" type="Broadcast" version="opset3">
			<data mode="bidirectional" />
			<input>
				<port id="0" precision="FP32">
					<dim>1</dim>
					<dim>1</dim>
					<dim>-1</dim>
					<dim>-1</dim>
				</port>
				<port id="1" precision="I64">
					<dim>4</dim>
				</port>
			</input>
			<output>
				<port id="2" precision="FP32" names="405,causal_4d_mask">
					<dim>-1</dim>
					<dim>1</dim>
					<dim>-1</dim>
					<dim>-1</dim>
				</port>
			</output>
		</layer>
		<layer id="231" name="__module.model/aten::masked_fill/Select_1" type="Select" version="opset1">
			<data auto_broadcast="numpy" />
			<input>
				<port id="0" precision="BOOL">
					<dim>-1</dim>
					<dim>1</dim>
					<dim>-1</dim>
					<dim>-1</dim>
				</port>
				<port id="1" precision="FP32" />
				<port id="2" precision="FP32">
					<dim>-1</dim>
					<dim>1</dim>
					<dim>-1</dim>
					<dim>-1</dim>
				</port>
			</input>
			<output>
				<port id="3" precision="FP32" names="420,attention_mask">
					<dim>-1</dim>
					<dim>1</dim>
					<dim>-1</dim>
					<dim>-1</dim>
				</port>
			</output>
		</layer>
		<layer id="232" name="__module.model.layers.0.self_attn/aten::scaled_dot_product_attention/ScaledDotProductAttention" type="ScaledDotProductAttention" version="opset13">
			<data causal="false" />
			<input>
				<port id="0" precision="FP32">
					<dim>-1</dim>
					<dim>36</dim>
					<dim>-1</dim>
					<dim>64</dim>
				</port>
				<port id="1" precision="FP32">
					<dim>-1</dim>
					<dim>36</dim>
					<dim>-1</dim>
					<dim>64</dim>
				</port>
				<port id="2" precision="FP32">
					<dim>-1</dim>
					<dim>36</dim>
					<dim>-1</dim>
					<dim>64</dim>
				</port>
				<port id="3" precision="FP32">
					<dim>-1</dim>
					<dim>1</dim>
					<dim>-1</dim>
					<dim>-1</dim>
				</port>
			</input>
			<output>
				<port id="4" precision="FP32" names="525,attn_output.1">
					<dim>-1</dim>
					<dim>36</dim>
					<dim>-1</dim>
					<dim>64</dim>
				</port>
			</output>
		</layer>
		<layer id="233" name="__module.model.layers.0.self_attn/aten::transpose/ScatterElementsUpdate_3" type="Const" version="opset1">
			<data element_type="i32" shape="4" offset="286020583" size="16" />
			<output>
				<port id="0" precision="I32">
					<dim>4</dim>
				</port>
			</output>
		</layer>
		<layer id="234" name="__module.model.layers.0.self_attn/aten::transpose/Transpose_3" type="Transpose" version="opset1">
			<input>
				<port id="0" precision="FP32">
					<dim>-1</dim>
					<dim>36</dim>
					<dim>-1</dim>
					<dim>64</dim>
				</port>
				<port id="1" precision="I32">
					<dim>4</dim>
				</port>
			</input>
			<output>
				<port id="2" precision="FP32" names="526">
					<dim>-1</dim>
					<dim>-1</dim>
					<dim>36</dim>
					<dim>64</dim>
				</port>
			</output>
		</layer>
		<layer id="235" name="Constant_294110" type="Const" version="opset1">
			<data element_type="i64" shape="3" offset="293758007" size="24" />
			<output>
				<port id="0" precision="I64">
					<dim>3</dim>
				</port>
			</output>
		</layer>
		<layer id="236" name="__module.model.layers.0.self_attn/aten::reshape/Reshape" type="Reshape" version="opset1">
			<data special_zero="true" />
			<input>
				<port id="0" precision="FP32">
					<dim>-1</dim>
					<dim>-1</dim>
					<dim>36</dim>
					<dim>64</dim>
				</port>
				<port id="1" precision="I64">
					<dim>3</dim>
				</port>
			</input>
			<output>
				<port id="2" precision="FP32" names="529">
					<dim>-1</dim>
					<dim>-1</dim>
					<dim>2304</dim>
				</port>
			</output>
		</layer>
		<layer id="237" name="Constant_284768" type="Const" version="opset1">
			<data element_type="u8" shape="2304, 2304" offset="293758031" size="5308416" />
			<output>
				<port id="0" precision="U8">
					<dim>2304</dim>
					<dim>2304</dim>
				</port>
			</output>
		</layer>
		<layer id="238" name="Convert_358433" type="Convert" version="opset1">
			<data destination_type="f16" />
			<input>
				<port id="0" precision="U8">
					<dim>2304</dim>
					<dim>2304</dim>
				</port>
			</input>
			<output>
				<port id="1" precision="FP16">
					<dim>2304</dim>
					<dim>2304</dim>
				</port>
			</output>
		</layer>
		<layer id="239" name="Constant_284768/zero_point" type="Const" version="opset1">
			<data element_type="u8" shape="2304, 1" offset="299066447" size="2304" />
			<output>
				<port id="0" precision="U8">
					<dim>2304</dim>
					<dim>1</dim>
				</port>
			</output>
		</layer>
		<layer id="240" name="Convert_358436" type="Convert" version="opset1">
			<data destination_type="f16" />
			<input>
				<port id="0" precision="U8">
					<dim>2304</dim>
					<dim>1</dim>
				</port>
			</input>
			<output>
				<port id="1" precision="FP16">
					<dim>2304</dim>
					<dim>1</dim>
				</port>
			</output>
		</layer>
		<layer id="241" name="Constant_284768/zero_point/subtract" type="Subtract" version="opset1">
			<data auto_broadcast="numpy" />
			<input>
				<port id="0" precision="FP16">
					<dim>2304</dim>
					<dim>2304</dim>
				</port>
				<port id="1" precision="FP16">
					<dim>2304</dim>
					<dim>1</dim>
				</port>
			</input>
			<output>
				<port id="2" precision="FP16">
					<dim>2304</dim>
					<dim>2304</dim>
				</port>
			</output>
		</layer>
		<layer id="242" name="Constant_284768/scale" type="Const" version="opset1">
			<data element_type="f16" shape="2304, 1" offset="299068751" size="4608" />
			<output>
				<port id="0" precision="FP16">
					<dim>2304</dim>
					<dim>1</dim>
				</port>
			</output>
		</layer>
		<layer id="243" name="Constant_284768/fq_weights_1" type="Multiply" version="opset1">
			<data auto_broadcast="numpy" />
			<input>
				<port id="0" precision="FP16">
					<dim>2304</dim>
					<dim>2304</dim>
				</port>
				<port id="1" precision="FP16">
					<dim>2304</dim>
					<dim>1</dim>
				</port>
			</input>
			<output>
				<port id="2" precision="FP16">
					<dim>2304</dim>
					<dim>2304</dim>
				</port>
			</output>
		</layer>
		<layer id="244" name="Constant_284768/fq_weights_1/convert" type="Convert" version="opset1">
			<data destination_type="f32" />
			<input>
				<port id="0" precision="FP16">
					<dim>2304</dim>
					<dim>2304</dim>
				</port>
			</input>
			<output>
				<port id="1" precision="FP32">
					<dim>2304</dim>
					<dim>2304</dim>
				</port>
			</output>
		</layer>
		<layer id="245" name="__module.model.layers.0/aten::mul/Multiply" type="MatMul" version="opset1">
			<data transpose_a="false" transpose_b="true" />
			<input>
				<port id="0" precision="FP32">
					<dim>-1</dim>
					<dim>-1</dim>
					<dim>2304</dim>
				</port>
				<port id="1" precision="FP32">
					<dim>2304</dim>
					<dim>2304</dim>
				</port>
			</input>
			<output>
				<port id="2" precision="FP32" names="536">
					<dim>-1</dim>
					<dim>-1</dim>
					<dim>2304</dim>
				</port>
			</output>
		</layer>
		<layer id="246" name="__module.model.layers.0/aten::add/Add" type="Add" version="opset1">
			<data auto_broadcast="numpy" />
			<input>
				<port id="0" precision="FP32">
					<dim>-1</dim>
					<dim>-1</dim>
					<dim>2304</dim>
				</port>
				<port id="1" precision="FP32">
					<dim>-1</dim>
					<dim>-1</dim>
					<dim>2304</dim>
				</port>
			</input>
			<output>
				<port id="2" precision="FP32" names="537,539,550,hidden.7,hidden.9">
					<dim>-1</dim>
					<dim>-1</dim>
					<dim>2304</dim>
				</port>
			</output>
		</layer>
		<layer id="247" name="Constant_286165" type="Const" version="opset1">
			<data element_type="f32" shape="1, 1, 1" offset="283191203" size="4" />
			<output>
				<port id="0" precision="FP32">
					<dim>1</dim>
					<dim>1</dim>
					<dim>1</dim>
				</port>
			</output>
		</layer>
		<layer id="248" name="Constant_286163" type="Const" version="opset1">
			<data element_type="f32" shape="1, 1, 1" offset="283191207" size="4" />
			<output>
				<port id="0" precision="FP32">
					<dim>1</dim>
					<dim>1</dim>
					<dim>1</dim>
				</port>
			</output>
		</layer>
		<layer id="249" name="__module.model.layers.0.post_attention_layernorm/aten::pow/Power" type="Power" version="opset1">
			<data auto_broadcast="numpy" />
			<input>
				<port id="0" precision="FP32">
					<dim>-1</dim>
					<dim>-1</dim>
					<dim>2304</dim>
				</port>
				<port id="1" precision="FP32">
					<dim>1</dim>
					<dim>1</dim>
					<dim>1</dim>
				</port>
			</input>
			<output>
				<port id="2" precision="FP32" names="540">
					<dim>-1</dim>
					<dim>-1</dim>
					<dim>2304</dim>
				</port>
			</output>
		</layer>
		<layer id="250" name="Constant_687" type="Const" version="opset1">
			<data element_type="i64" shape="1" offset="283191211" size="8" />
			<output>
				<port id="0" precision="I64" names="541">
					<dim>1</dim>
				</port>
			</output>
		</layer>
		<layer id="251" name="__module.model.layers.0.post_attention_layernorm/aten::mean/ReduceMean" type="ReduceMean" version="opset1">
			<data keep_dims="true" />
			<input>
				<port id="0" precision="FP32">
					<dim>-1</dim>
					<dim>-1</dim>
					<dim>2304</dim>
				</port>
				<port id="1" precision="I64">
					<dim>1</dim>
				</port>
			</input>
			<output>
				<port id="2" precision="FP32" names="542,variance.3">
					<dim>-1</dim>
					<dim>-1</dim>
					<dim>1</dim>
				</port>
			</output>
		</layer>
		<layer id="252" name="Constant_286164" type="Const" version="opset1">
			<data element_type="f32" shape="1, 1, 1" offset="283191219" size="4" />
			<output>
				<port id="0" precision="FP32">
					<dim>1</dim>
					<dim>1</dim>
					<dim>1</dim>
				</port>
			</output>
		</layer>
		<layer id="253" name="__module.model.layers.0.post_attention_layernorm/aten::add/Add" type="Add" version="opset1">
			<data auto_broadcast="numpy" />
			<input>
				<port id="0" precision="FP32">
					<dim>-1</dim>
					<dim>-1</dim>
					<dim>1</dim>
				</port>
				<port id="1" precision="FP32">
					<dim>1</dim>
					<dim>1</dim>
					<dim>1</dim>
				</port>
			</input>
			<output>
				<port id="2" precision="FP32" names="543">
					<dim>-1</dim>
					<dim>-1</dim>
					<dim>1</dim>
				</port>
			</output>
		</layer>
		<layer id="254" name="__module.model.layers.0.post_attention_layernorm/aten::rsqrt/Sqrt" type="Sqrt" version="opset1">
			<input>
				<port id="0" precision="FP32">
					<dim>-1</dim>
					<dim>-1</dim>
					<dim>1</dim>
				</port>
			</input>
			<output>
				<port id="1" precision="FP32">
					<dim>-1</dim>
					<dim>-1</dim>
					<dim>1</dim>
				</port>
			</output>
		</layer>
		<layer id="255" name="__module.model.layers.0.post_attention_layernorm/aten::rsqrt/Divide" type="Divide" version="opset1">
			<data auto_broadcast="numpy" m_pythondiv="true" />
			<input>
				<port id="0" precision="FP32">
					<dim>1</dim>
					<dim>1</dim>
					<dim>1</dim>
				</port>
				<port id="1" precision="FP32">
					<dim>-1</dim>
					<dim>-1</dim>
					<dim>1</dim>
				</port>
			</input>
			<output>
				<port id="2" precision="FP32" names="544">
					<dim>-1</dim>
					<dim>-1</dim>
					<dim>1</dim>
				</port>
			</output>
		</layer>
		<layer id="256" name="__module.model.layers.0.post_attention_layernorm/aten::mul/Multiply" type="Multiply" version="opset1">
			<data auto_broadcast="numpy" />
			<input>
				<port id="0" precision="FP32">
					<dim>-1</dim>
					<dim>-1</dim>
					<dim>2304</dim>
				</port>
				<port id="1" precision="FP32">
					<dim>-1</dim>
					<dim>-1</dim>
					<dim>1</dim>
				</port>
			</input>
			<output>
				<port id="2" precision="FP32" names="545,546,hidden.11">
					<dim>-1</dim>
					<dim>-1</dim>
					<dim>2304</dim>
				</port>
			</output>
		</layer>
		<layer id="257" name="Constant_286166" type="Const" version="opset1">
			<data element_type="f32" shape="1, 1, 2304" offset="299073359" size="9216" />
			<output>
				<port id="0" precision="FP32">
					<dim>1</dim>
					<dim>1</dim>
					<dim>2304</dim>
				</port>
			</output>
		</layer>
		<layer id="258" name="__module.model.layers.0.post_attention_layernorm/aten::mul/Multiply_1" type="Multiply" version="opset1">
			<data auto_broadcast="numpy" />
			<input>
				<port id="0" precision="FP32">
					<dim>-1</dim>
					<dim>-1</dim>
					<dim>2304</dim>
				</port>
				<port id="1" precision="FP32">
					<dim>1</dim>
					<dim>1</dim>
					<dim>2304</dim>
				</port>
			</input>
			<output>
				<port id="2" precision="FP32" names="547,549">
					<dim>-1</dim>
					<dim>-1</dim>
					<dim>2304</dim>
				</port>
			</output>
		</layer>
		<layer id="259" name="self.model.layers.0.mlp.gate_proj.weight" type="Const" version="opset1">
			<data element_type="i4" shape="5760, 36, 64" offset="299082575" size="6635520" />
			<output>
				<port id="0" precision="I4">
					<dim>5760</dim>
					<dim>36</dim>
					<dim>64</dim>
				</port>
			</output>
		</layer>
		<layer id="260" name="Convert_357330" type="Convert" version="opset1">
			<data destination_type="f16" />
			<input>
				<port id="0" precision="I4">
					<dim>5760</dim>
					<dim>36</dim>
					<dim>64</dim>
				</port>
			</input>
			<output>
				<port id="1" precision="FP16">
					<dim>5760</dim>
					<dim>36</dim>
					<dim>64</dim>
				</port>
			</output>
		</layer>
		<layer id="261" name="self.model.layers.0.mlp.gate_proj.weight/scale" type="Const" version="opset1">
			<data element_type="f16" shape="5760, 36, 1" offset="305718095" size="414720" />
			<output>
				<port id="0" precision="FP16">
					<dim>5760</dim>
					<dim>36</dim>
					<dim>1</dim>
				</port>
			</output>
		</layer>
		<layer id="262" name="self.model.layers.0.mlp.gate_proj.weight/fq_weights_1" type="Multiply" version="opset1">
			<data auto_broadcast="numpy" />
			<input>
				<port id="0" precision="FP16">
					<dim>5760</dim>
					<dim>36</dim>
					<dim>64</dim>
				</port>
				<port id="1" precision="FP16">
					<dim>5760</dim>
					<dim>36</dim>
					<dim>1</dim>
				</port>
			</input>
			<output>
				<port id="2" precision="FP16">
					<dim>5760</dim>
					<dim>36</dim>
					<dim>64</dim>
				</port>
			</output>
		</layer>
		<layer id="263" name="Constant_357334" type="Const" version="opset1">
			<data element_type="i64" shape="2" offset="306132815" size="16" />
			<output>
				<port id="0" precision="I64">
					<dim>2</dim>
				</port>
			</output>
		</layer>
		<layer id="264" name="Reshape_357335" type="Reshape" version="opset1">
			<data special_zero="false" />
			<input>
				<port id="0" precision="FP16">
					<dim>5760</dim>
					<dim>36</dim>
					<dim>64</dim>
				</port>
				<port id="1" precision="I64">
					<dim>2</dim>
				</port>
			</input>
			<output>
				<port id="2" precision="FP16">
					<dim>5760</dim>
					<dim>2304</dim>
				</port>
			</output>
		</layer>
		<layer id="265" name="self.model.layers.0.mlp.gate_proj.weight/fq_weights_1/convert" type="Convert" version="opset1">
			<data destination_type="f32" />
			<input>
				<port id="0" precision="FP16">
					<dim>5760</dim>
					<dim>2304</dim>
				</port>
			</input>
			<output>
				<port id="1" precision="FP32">
					<dim>5760</dim>
					<dim>2304</dim>
				</port>
			</output>
		</layer>
		<layer id="266" name="__module.model.layers.0.mlp.gate_proj/aten::linear/MatMul" type="MatMul" version="opset1">
			<data transpose_a="false" transpose_b="true" />
			<input>
				<port id="0" precision="FP32">
					<dim>-1</dim>
					<dim>-1</dim>
					<dim>2304</dim>
				</port>
				<port id="1" precision="FP32">
					<dim>5760</dim>
					<dim>2304</dim>
				</port>
			</input>
			<output>
				<port id="2" precision="FP32" names="555,input.1">
					<dim>-1</dim>
					<dim>-1</dim>
					<dim>5760</dim>
				</port>
			</output>
		</layer>
		<layer id="267" name="__module.model.layers.0.mlp.act_fn/aten::silu/Swish" type="Swish" version="opset4">
			<input>
				<port id="0" precision="FP32">
					<dim>-1</dim>
					<dim>-1</dim>
					<dim>5760</dim>
				</port>
			</input>
			<output>
				<port id="1" precision="FP32" names="556">
					<dim>-1</dim>
					<dim>-1</dim>
					<dim>5760</dim>
				</port>
			</output>
		</layer>
		<layer id="268" name="self.model.layers.0.mlp.up_proj.weight" type="Const" version="opset1">
			<data element_type="i4" shape="5760, 36, 64" offset="306132831" size="6635520" />
			<output>
				<port id="0" precision="I4">
					<dim>5760</dim>
					<dim>36</dim>
					<dim>64</dim>
				</port>
			</output>
		</layer>
		<layer id="269" name="Convert_357322" type="Convert" version="opset1">
			<data destination_type="f16" />
			<input>
				<port id="0" precision="I4">
					<dim>5760</dim>
					<dim>36</dim>
					<dim>64</dim>
				</port>
			</input>
			<output>
				<port id="1" precision="FP16">
					<dim>5760</dim>
					<dim>36</dim>
					<dim>64</dim>
				</port>
			</output>
		</layer>
		<layer id="270" name="self.model.layers.0.mlp.up_proj.weight/scale" type="Const" version="opset1">
			<data element_type="f16" shape="5760, 36, 1" offset="312768351" size="414720" />
			<output>
				<port id="0" precision="FP16">
					<dim>5760</dim>
					<dim>36</dim>
					<dim>1</dim>
				</port>
			</output>
		</layer>
		<layer id="271" name="self.model.layers.0.mlp.up_proj.weight/fq_weights_1" type="Multiply" version="opset1">
			<data auto_broadcast="numpy" />
			<input>
				<port id="0" precision="FP16">
					<dim>5760</dim>
					<dim>36</dim>
					<dim>64</dim>
				</port>
				<port id="1" precision="FP16">
					<dim>5760</dim>
					<dim>36</dim>
					<dim>1</dim>
				</port>
			</input>
			<output>
				<port id="2" precision="FP16">
					<dim>5760</dim>
					<dim>36</dim>
					<dim>64</dim>
				</port>
			</output>
		</layer>
		<layer id="272" name="Constant_357326" type="Const" version="opset1">
			<data element_type="i64" shape="2" offset="306132815" size="16" />
			<output>
				<port id="0" precision="I64">
					<dim>2</dim>
				</port>
			</output>
		</layer>
		<layer id="273" name="Reshape_357327" type="Reshape" version="opset1">
			<data special_zero="false" />
			<input>
				<port id="0" precision="FP16">
					<dim>5760</dim>
					<dim>36</dim>
					<dim>64</dim>
				</port>
				<port id="1" precision="I64">
					<dim>2</dim>
				</port>
			</input>
			<output>
				<port id="2" precision="FP16">
					<dim>5760</dim>
					<dim>2304</dim>
				</port>
			</output>
		</layer>
		<layer id="274" name="self.model.layers.0.mlp.up_proj.weight/fq_weights_1/convert" type="Convert" version="opset1">
			<data destination_type="f32" />
			<input>
				<port id="0" precision="FP16">
					<dim>5760</dim>
					<dim>2304</dim>
				</port>
			</input>
			<output>
				<port id="1" precision="FP32">
					<dim>5760</dim>
					<dim>2304</dim>
				</port>
			</output>
		</layer>
		<layer id="275" name="__module.model.layers.0.mlp.up_proj/aten::linear/MatMul" type="MatMul" version="opset1">
			<data transpose_a="false" transpose_b="true" />
			<input>
				<port id="0" precision="FP32">
					<dim>-1</dim>
					<dim>-1</dim>
					<dim>2304</dim>
				</port>
				<port id="1" precision="FP32">
					<dim>5760</dim>
					<dim>2304</dim>
				</port>
			</input>
			<output>
				<port id="2" precision="FP32" names="558">
					<dim>-1</dim>
					<dim>-1</dim>
					<dim>5760</dim>
				</port>
			</output>
		</layer>
		<layer id="276" name="__module.model.layers.0.mlp/aten::mul/Multiply" type="Multiply" version="opset1">
			<data auto_broadcast="numpy" />
			<input>
				<port id="0" precision="FP32">
					<dim>-1</dim>
					<dim>-1</dim>
					<dim>5760</dim>
				</port>
				<port id="1" precision="FP32">
					<dim>-1</dim>
					<dim>-1</dim>
					<dim>5760</dim>
				</port>
			</input>
			<output>
				<port id="2" precision="FP32" names="559">
					<dim>-1</dim>
					<dim>-1</dim>
					<dim>5760</dim>
				</port>
			</output>
		</layer>
		<layer id="277" name="Constant_284771" type="Const" version="opset1">
			<data element_type="u8" shape="2304, 5760" offset="313183071" size="13271040" />
			<output>
				<port id="0" precision="U8">
					<dim>2304</dim>
					<dim>5760</dim>
				</port>
			</output>
		</layer>
		<layer id="278" name="Convert_357339" type="Convert" version="opset1">
			<data destination_type="f16" />
			<input>
				<port id="0" precision="U8">
					<dim>2304</dim>
					<dim>5760</dim>
				</port>
			</input>
			<output>
				<port id="1" precision="FP16">
					<dim>2304</dim>
					<dim>5760</dim>
				</port>
			</output>
		</layer>
		<layer id="279" name="Constant_284771/zero_point" type="Const" version="opset1">
			<data element_type="u8" shape="2304, 1" offset="326454111" size="2304" />
			<output>
				<port id="0" precision="U8">
					<dim>2304</dim>
					<dim>1</dim>
				</port>
			</output>
		</layer>
		<layer id="280" name="Convert_357342" type="Convert" version="opset1">
			<data destination_type="f16" />
			<input>
				<port id="0" precision="U8">
					<dim>2304</dim>
					<dim>1</dim>
				</port>
			</input>
			<output>
				<port id="1" precision="FP16">
					<dim>2304</dim>
					<dim>1</dim>
				</port>
			</output>
		</layer>
		<layer id="281" name="Constant_284771/zero_point/subtract" type="Subtract" version="opset1">
			<data auto_broadcast="numpy" />
			<input>
				<port id="0" precision="FP16">
					<dim>2304</dim>
					<dim>5760</dim>
				</port>
				<port id="1" precision="FP16">
					<dim>2304</dim>
					<dim>1</dim>
				</port>
			</input>
			<output>
				<port id="2" precision="FP16">
					<dim>2304</dim>
					<dim>5760</dim>
				</port>
			</output>
		</layer>
		<layer id="282" name="Constant_284771/scale" type="Const" version="opset1">
			<data element_type="f16" shape="2304, 1" offset="326456415" size="4608" />
			<output>
				<port id="0" precision="FP16">
					<dim>2304</dim>
					<dim>1</dim>
				</port>
			</output>
		</layer>
		<layer id="283" name="Constant_284771/fq_weights_1" type="Multiply" version="opset1">
			<data auto_broadcast="numpy" />
			<input>
				<port id="0" precision="FP16">
					<dim>2304</dim>
					<dim>5760</dim>
				</port>
				<port id="1" precision="FP16">
					<dim>2304</dim>
					<dim>1</dim>
				</port>
			</input>
			<output>
				<port id="2" precision="FP16">
					<dim>2304</dim>
					<dim>5760</dim>
				</port>
			</output>
		</layer>
		<layer id="284" name="Constant_284771/fq_weights_1/convert" type="Convert" version="opset1">
			<data destination_type="f32" />
			<input>
				<port id="0" precision="FP16">
					<dim>2304</dim>
					<dim>5760</dim>
				</port>
			</input>
			<output>
				<port id="1" precision="FP32">
					<dim>2304</dim>
					<dim>5760</dim>
				</port>
			</output>
		</layer>
		<layer id="285" name="__module.model.layers.0/aten::mul/Multiply_1" type="MatMul" version="opset1">
			<data transpose_a="false" transpose_b="true" />
			<input>
				<port id="0" precision="FP32">
					<dim>-1</dim>
					<dim>-1</dim>
					<dim>5760</dim>
				</port>
				<port id="1" precision="FP32">
					<dim>2304</dim>
					<dim>5760</dim>
				</port>
			</input>
			<output>
				<port id="2" precision="FP32" names="562">
					<dim>-1</dim>
					<dim>-1</dim>
					<dim>2304</dim>
				</port>
			</output>
		</layer>
		<layer id="286" name="__module.model.layers.0/aten::add/Add_1" type="Add" version="opset1">
			<data auto_broadcast="numpy" />
			<input>
				<port id="0" precision="FP32">
					<dim>-1</dim>
					<dim>-1</dim>
					<dim>2304</dim>
				</port>
				<port id="1" precision="FP32">
					<dim>-1</dim>
					<dim>-1</dim>
					<dim>2304</dim>
				</port>
			</input>
			<output>
				<port id="2" precision="FP32" names="563,565,573,584,hidden.13,hidden.15">
					<dim>-1</dim>
					<dim>-1</dim>
					<dim>2304</dim>
				</port>
			</output>
		</layer>
		<layer id="287" name="Constant_286169" type="Const" version="opset1">
			<data element_type="f32" shape="1, 1, 1" offset="283191203" size="4" />
			<output>
				<port id="0" precision="FP32">
					<dim>1</dim>
					<dim>1</dim>
					<dim>1</dim>
				</port>
			</output>
		</layer>
		<layer id="288" name="Constant_286167" type="Const" version="opset1">
			<data element_type="f32" shape="1, 1, 1" offset="283191207" size="4" />
			<output>
				<port id="0" precision="FP32">
					<dim>1</dim>
					<dim>1</dim>
					<dim>1</dim>
				</port>
			</output>
		</layer>
		<layer id="289" name="__module.model.layers.1.input_layernorm/aten::pow/Power" type="Power" version="opset1">
			<data auto_broadcast="numpy" />
			<input>
				<port id="0" precision="FP32">
					<dim>-1</dim>
					<dim>-1</dim>
					<dim>2304</dim>
				</port>
				<port id="1" precision="FP32">
					<dim>1</dim>
					<dim>1</dim>
					<dim>1</dim>
				</port>
			</input>
			<output>
				<port id="2" precision="FP32" names="574">
					<dim>-1</dim>
					<dim>-1</dim>
					<dim>2304</dim>
				</port>
			</output>
		</layer>
		<layer id="290" name="Constant_762" type="Const" version="opset1">
			<data element_type="i64" shape="1" offset="283191211" size="8" />
			<output>
				<port id="0" precision="I64" names="575">
					<dim>1</dim>
				</port>
			</output>
		</layer>
		<layer id="291" name="__module.model.layers.1.input_layernorm/aten::mean/ReduceMean" type="ReduceMean" version="opset1">
			<data keep_dims="true" />
			<input>
				<port id="0" precision="FP32">
					<dim>-1</dim>
					<dim>-1</dim>
					<dim>2304</dim>
				</port>
				<port id="1" precision="I64">
					<dim>1</dim>
				</port>
			</input>
			<output>
				<port id="2" precision="FP32" names="576,variance.5">
					<dim>-1</dim>
					<dim>-1</dim>
					<dim>1</dim>
				</port>
			</output>
		</layer>
		<layer id="292" name="Constant_286168" type="Const" version="opset1">
			<data element_type="f32" shape="1, 1, 1" offset="283191219" size="4" />
			<output>
				<port id="0" precision="FP32">
					<dim>1</dim>
					<dim>1</dim>
					<dim>1</dim>
				</port>
			</output>
		</layer>
		<layer id="293" name="__module.model.layers.1.input_layernorm/aten::add/Add" type="Add" version="opset1">
			<data auto_broadcast="numpy" />
			<input>
				<port id="0" precision="FP32">
					<dim>-1</dim>
					<dim>-1</dim>
					<dim>1</dim>
				</port>
				<port id="1" precision="FP32">
					<dim>1</dim>
					<dim>1</dim>
					<dim>1</dim>
				</port>
			</input>
			<output>
				<port id="2" precision="FP32" names="577">
					<dim>-1</dim>
					<dim>-1</dim>
					<dim>1</dim>
				</port>
			</output>
		</layer>
		<layer id="294" name="__module.model.layers.1.input_layernorm/aten::rsqrt/Sqrt" type="Sqrt" version="opset1">
			<input>
				<port id="0" precision="FP32">
					<dim>-1</dim>
					<dim>-1</dim>
					<dim>1</dim>
				</port>
			</input>
			<output>
				<port id="1" precision="FP32">
					<dim>-1</dim>
					<dim>-1</dim>
					<dim>1</dim>
				</port>
			</output>
		</layer>
		<layer id="295" name="__module.model.layers.1.input_layernorm/aten::rsqrt/Divide" type="Divide" version="opset1">
			<data auto_broadcast="numpy" m_pythondiv="true" />
			<input>
				<port id="0" precision="FP32">
					<dim>1</dim>
					<dim>1</dim>
					<dim>1</dim>
				</port>
				<port id="1" precision="FP32">
					<dim>-1</dim>
					<dim>-1</dim>
					<dim>1</dim>
				</port>
			</input>
			<output>
				<port id="2" precision="FP32" names="578">
					<dim>-1</dim>
					<dim>-1</dim>
					<dim>1</dim>
				</port>
			</output>
		</layer>
		<layer id="296" name="__module.model.layers.1.input_layernorm/aten::mul/Multiply" type="Multiply" version="opset1">
			<data auto_broadcast="numpy" />
			<input>
				<port id="0" precision="FP32">
					<dim>-1</dim>
					<dim>-1</dim>
					<dim>2304</dim>
				</port>
				<port id="1" precision="FP32">
					<dim>-1</dim>
					<dim>-1</dim>
					<dim>1</dim>
				</port>
			</input>
			<output>
				<port id="2" precision="FP32" names="579,580,hidden.17">
					<dim>-1</dim>
					<dim>-1</dim>
					<dim>2304</dim>
				</port>
			</output>
		</layer>
		<layer id="297" name="Constant_286170" type="Const" version="opset1">
			<data element_type="f32" shape="1, 1, 2304" offset="326461023" size="9216" />
			<output>
				<port id="0" precision="FP32">
					<dim>1</dim>
					<dim>1</dim>
					<dim>2304</dim>
				</port>
			</output>
		</layer>
		<layer id="298" name="__module.model.layers.1.input_layernorm/aten::mul/Multiply_1" type="Multiply" version="opset1">
			<data auto_broadcast="numpy" />
			<input>
				<port id="0" precision="FP32">
					<dim>-1</dim>
					<dim>-1</dim>
					<dim>2304</dim>
				</port>
				<port id="1" precision="FP32">
					<dim>1</dim>
					<dim>1</dim>
					<dim>2304</dim>
				</port>
			</input>
			<output>
				<port id="2" precision="FP32" names="581,583,hidden_states.11">
					<dim>-1</dim>
					<dim>-1</dim>
					<dim>2304</dim>
				</port>
			</output>
		</layer>
		<layer id="299" name="self.model.layers.1.self_attn.q_proj.weight" type="Const" version="opset1">
			<data element_type="i4" shape="2304, 36, 64" offset="326470239" size="2654208" />
			<output>
				<port id="0" precision="I4">
					<dim>2304</dim>
					<dim>36</dim>
					<dim>64</dim>
				</port>
			</output>
		</layer>
		<layer id="300" name="Convert_358459" type="Convert" version="opset1">
			<data destination_type="f16" />
			<input>
				<port id="0" precision="I4">
					<dim>2304</dim>
					<dim>36</dim>
					<dim>64</dim>
				</port>
			</input>
			<output>
				<port id="1" precision="FP16">
					<dim>2304</dim>
					<dim>36</dim>
					<dim>64</dim>
				</port>
			</output>
		</layer>
		<layer id="301" name="self.model.layers.1.self_attn.q_proj.weight/scale" type="Const" version="opset1">
			<data element_type="f16" shape="2304, 36, 1" offset="329124447" size="165888" />
			<output>
				<port id="0" precision="FP16">
					<dim>2304</dim>
					<dim>36</dim>
					<dim>1</dim>
				</port>
			</output>
		</layer>
		<layer id="302" name="self.model.layers.1.self_attn.q_proj.weight/fq_weights_1" type="Multiply" version="opset1">
			<data auto_broadcast="numpy" />
			<input>
				<port id="0" precision="FP16">
					<dim>2304</dim>
					<dim>36</dim>
					<dim>64</dim>
				</port>
				<port id="1" precision="FP16">
					<dim>2304</dim>
					<dim>36</dim>
					<dim>1</dim>
				</port>
			</input>
			<output>
				<port id="2" precision="FP16">
					<dim>2304</dim>
					<dim>36</dim>
					<dim>64</dim>
				</port>
			</output>
		</layer>
		<layer id="303" name="Constant_358463" type="Const" version="opset1">
			<data element_type="i64" shape="2" offset="286020535" size="16" />
			<output>
				<port id="0" precision="I64">
					<dim>2</dim>
				</port>
			</output>
		</layer>
		<layer id="304" name="Reshape_358464" type="Reshape" version="opset1">
			<data special_zero="false" />
			<input>
				<port id="0" precision="FP16">
					<dim>2304</dim>
					<dim>36</dim>
					<dim>64</dim>
				</port>
				<port id="1" precision="I64">
					<dim>2</dim>
				</port>
			</input>
			<output>
				<port id="2" precision="FP16">
					<dim>2304</dim>
					<dim>2304</dim>
				</port>
			</output>
		</layer>
		<layer id="305" name="self.model.layers.1.self_attn.q_proj.weight/fq_weights_1/convert" type="Convert" version="opset1">
			<data destination_type="f32" />
			<input>
				<port id="0" precision="FP16">
					<dim>2304</dim>
					<dim>2304</dim>
				</port>
			</input>
			<output>
				<port id="1" precision="FP32">
					<dim>2304</dim>
					<dim>2304</dim>
				</port>
			</output>
		</layer>
		<layer id="306" name="__module.model.layers.1.self_attn.q_proj/aten::linear/MatMul" type="MatMul" version="opset1">
			<data transpose_a="false" transpose_b="true" />
			<input>
				<port id="0" precision="FP32">
					<dim>-1</dim>
					<dim>-1</dim>
					<dim>2304</dim>
				</port>
				<port id="1" precision="FP32">
					<dim>2304</dim>
					<dim>2304</dim>
				</port>
			</input>
			<output>
				<port id="2" precision="FP32" names="593,query_states.3">
					<dim>-1</dim>
					<dim>-1</dim>
					<dim>2304</dim>
				</port>
			</output>
		</layer>
		<layer id="307" name="Constant_294111" type="Const" version="opset1">
			<data element_type="i64" shape="4" offset="286020551" size="32" />
			<output>
				<port id="0" precision="I64">
					<dim>4</dim>
				</port>
			</output>
		</layer>
		<layer id="308" name="__module.model.layers.1.self_attn/aten::view/Reshape" type="Reshape" version="opset1">
			<data special_zero="true" />
			<input>
				<port id="0" precision="FP32">
					<dim>-1</dim>
					<dim>-1</dim>
					<dim>2304</dim>
				</port>
				<port id="1" precision="I64">
					<dim>4</dim>
				</port>
			</input>
			<output>
				<port id="2" precision="FP32" names="599">
					<dim>-1</dim>
					<dim>-1</dim>
					<dim>36</dim>
					<dim>64</dim>
				</port>
			</output>
		</layer>
		<layer id="309" name="__module.model.layers.1.self_attn/aten::transpose/ScatterElementsUpdate" type="Const" version="opset1">
			<data element_type="i32" shape="4" offset="286020583" size="16" />
			<output>
				<port id="0" precision="I32">
					<dim>4</dim>
				</port>
			</output>
		</layer>
		<layer id="310" name="__module.model.layers.1.self_attn/aten::transpose/Transpose" type="Transpose" version="opset1">
			<input>
				<port id="0" precision="FP32">
					<dim>-1</dim>
					<dim>-1</dim>
					<dim>36</dim>
					<dim>64</dim>
				</port>
				<port id="1" precision="I32">
					<dim>4</dim>
				</port>
			</input>
			<output>
				<port id="2" precision="FP32" names="600,629,q.5,q.7">
					<dim>-1</dim>
					<dim>36</dim>
					<dim>-1</dim>
					<dim>64</dim>
				</port>
			</output>
		</layer>
		<layer id="311" name="self.model.layers.1.self_attn.rotary_emb.cos_cached" type="Const" version="opset1">
			<data element_type="f32" shape="4096, 64" offset="286020599" size="1048576" />
			<output>
				<port id="0" precision="FP32" names="self.model.layers.1.self_attn.rotary_emb.cos_cached">
					<dim>4096</dim>
					<dim>64</dim>
				</port>
			</output>
		</layer>
		<layer id="312" name="__module.model.layers.1.self_attn.rotary_emb/aten::slice/Reshape" type="Const" version="opset1">
			<data element_type="i64" shape="1" offset="4" size="8" />
			<output>
				<port id="0" precision="I64">
					<dim>1</dim>
				</port>
			</output>
		</layer>
		<layer id="313" name="Constant_325448" type="Const" version="opset1">
			<data element_type="f32" shape="" offset="0" size="4" />
			<output>
				<port id="0" precision="FP32" />
			</output>
		</layer>
		<layer id="314" name="Constant_325441" type="Const" version="opset1">
			<data element_type="i64" shape="1" offset="12" size="8" />
			<output>
				<port id="0" precision="I64">
					<dim>1</dim>
				</port>
			</output>
		</layer>
		<layer id="315" name="Constant_325443" type="Const" version="opset1">
			<data element_type="i64" shape="1" offset="4" size="8" />
			<output>
				<port id="0" precision="I64">
					<dim>1</dim>
				</port>
			</output>
		</layer>
		<layer id="316" name="Constant_325445" type="Const" version="opset1">
			<data element_type="i64" shape="1" offset="20" size="8" />
			<output>
				<port id="0" precision="I64">
					<dim>1</dim>
				</port>
			</output>
		</layer>
		<layer id="317" name="Concat_325446" type="Concat" version="opset1">
			<data axis="0" />
			<input>
				<port id="0" precision="I64">
					<dim>1</dim>
				</port>
				<port id="1" precision="I64">
					<dim>1</dim>
				</port>
				<port id="2" precision="I64">
					<dim>1</dim>
				</port>
				<port id="3" precision="I64">
					<dim>1</dim>
				</port>
			</input>
			<output>
				<port id="4" precision="I64">
					<dim>4</dim>
				</port>
			</output>
		</layer>
		<layer id="318" name="Broadcast_325449" type="Broadcast" version="opset3">
			<data mode="numpy" />
			<input>
				<port id="0" precision="FP32" />
				<port id="1" precision="I64">
					<dim>4</dim>
				</port>
			</input>
			<output>
				<port id="2" precision="FP32">
					<dim>-1</dim>
					<dim>36</dim>
					<dim>0</dim>
					<dim>64</dim>
				</port>
			</output>
		</layer>
		<layer id="319" name="ReadValue_319129" type="ReadValue" version="opset6">
			<data variable_id="past_key_values.1.keypresent.1.key" variable_type="f32" variable_shape="?,36,?,64" />
			<input>
				<port id="0" precision="FP32">
					<dim>-1</dim>
					<dim>36</dim>
					<dim>0</dim>
					<dim>64</dim>
				</port>
			</input>
			<output>
				<port id="1" precision="FP32" names="past_key_values.1.key">
					<dim>-1</dim>
					<dim>36</dim>
					<dim>-1</dim>
					<dim>64</dim>
				</port>
			</output>
		</layer>
		<layer id="320" name="Constant_312795" type="Const" version="opset1">
			<data element_type="i64" shape="" offset="4" size="8" />
			<output>
				<port id="0" precision="I64" />
			</output>
		</layer>
		<layer id="321" name="Gather_312796" type="Gather" version="opset8">
			<data batch_dims="0" />
			<input>
				<port id="0" precision="FP32">
					<dim>-1</dim>
					<dim>36</dim>
					<dim>-1</dim>
					<dim>64</dim>
				</port>
				<port id="1" precision="I32">
					<dim>-1</dim>
				</port>
				<port id="2" precision="I64" />
			</input>
			<output>
				<port id="3" precision="FP32">
					<dim>-1</dim>
					<dim>36</dim>
					<dim>-1</dim>
					<dim>64</dim>
				</port>
			</output>
		</layer>
		<layer id="322" name="ShapeOf_293911" type="ShapeOf" version="opset3">
			<data output_type="i64" />
			<input>
				<port id="0" precision="FP32">
					<dim>-1</dim>
					<dim>36</dim>
					<dim>-1</dim>
					<dim>64</dim>
				</port>
			</input>
			<output>
				<port id="1" precision="I64">
					<dim>4</dim>
				</port>
			</output>
		</layer>
		<layer id="323" name="Constant_294364" type="Const" version="opset1">
			<data element_type="i64" shape="1" offset="287069183" size="8" />
			<output>
				<port id="0" precision="I64">
					<dim>1</dim>
				</port>
			</output>
		</layer>
		<layer id="324" name="Constant_293913" type="Const" version="opset1">
			<data element_type="i64" shape="" offset="4" size="8" />
			<output>
				<port id="0" precision="I64" />
			</output>
		</layer>
		<layer id="325" name="Gather_293914" type="Gather" version="opset8">
			<data batch_dims="0" />
			<input>
				<port id="0" precision="I64">
					<dim>4</dim>
				</port>
				<port id="1" precision="I64">
					<dim>1</dim>
				</port>
				<port id="2" precision="I64" />
			</input>
			<output>
				<port id="3" precision="I64" names="609">
					<dim>1</dim>
				</port>
			</output>
		</layer>
		<layer id="326" name="__module.model.layers.1.self_attn/aten::add_/Add" type="Add" version="opset1">
			<data auto_broadcast="numpy" />
			<input>
				<port id="0" precision="I64">
					<dim>1</dim>
				</port>
				<port id="1" precision="I64">
					<dim>1</dim>
				</port>
			</input>
			<output>
				<port id="2" precision="I64" names="608,612,613,kv_seq_len.3">
					<dim>1</dim>
				</port>
			</output>
		</layer>
		<layer id="327" name="__module.model.layers.1.self_attn.rotary_emb/aten::slice/Reshape_2" type="Const" version="opset1">
			<data element_type="i64" shape="1" offset="287069175" size="8" />
			<output>
				<port id="0" precision="I64">
					<dim>1</dim>
				</port>
			</output>
		</layer>
		<layer id="328" name="__module.model.layers.1.self_attn.rotary_emb/aten::slice/Reshape_3" type="Const" version="opset1">
			<data element_type="i64" shape="1" offset="4" size="8" />
			<output>
				<port id="0" precision="I64">
					<dim>1</dim>
				</port>
			</output>
		</layer>
		<layer id="329" name="__module.model.layers.1.self_attn.rotary_emb/aten::slice/Slice" type="Slice" version="opset8">
			<input>
				<port id="0" precision="FP32">
					<dim>4096</dim>
					<dim>64</dim>
				</port>
				<port id="1" precision="I64">
					<dim>1</dim>
				</port>
				<port id="2" precision="I64">
					<dim>1</dim>
				</port>
				<port id="3" precision="I64">
					<dim>1</dim>
				</port>
				<port id="4" precision="I64">
					<dim>1</dim>
				</port>
			</input>
			<output>
				<port id="5" precision="FP32" names="616,617,621,cos.5">
					<dim>-1</dim>
					<dim>64</dim>
				</port>
			</output>
		</layer>
		<layer id="330" name="Constant_19650" type="Const" version="opset1">
			<data element_type="i32" shape="" offset="0" size="4" />
			<output>
				<port id="0" precision="I32" />
			</output>
		</layer>
		<layer id="331" name="__module.model.layers.1.self_attn/aten::index/Gather" type="Gather" version="opset8">
			<data batch_dims="0" />
			<input>
				<port id="0" precision="FP32">
					<dim>-1</dim>
					<dim>64</dim>
				</port>
				<port id="1" precision="I32">
					<dim>-1</dim>
					<dim>-1</dim>
				</port>
				<port id="2" precision="I32" />
			</input>
			<output>
				<port id="3" precision="FP32" names="624">
					<dim>-1</dim>
					<dim>-1</dim>
					<dim>64</dim>
				</port>
			</output>
		</layer>
		<layer id="332" name="__module.model.layers.1.self_attn/aten::unsqueeze/Unsqueeze" type="Unsqueeze" version="opset1">
			<input>
				<port id="0" precision="FP32">
					<dim>-1</dim>
					<dim>-1</dim>
					<dim>64</dim>
				</port>
				<port id="1" precision="I64" />
			</input>
			<output>
				<port id="2" precision="FP32" names="625,cos.7">
					<dim>-1</dim>
					<dim>1</dim>
					<dim>-1</dim>
					<dim>64</dim>
				</port>
			</output>
		</layer>
		<layer id="333" name="__module.model.layers.1.self_attn/aten::mul/Multiply" type="Multiply" version="opset1">
			<data auto_broadcast="numpy" />
			<input>
				<port id="0" precision="FP32">
					<dim>-1</dim>
					<dim>36</dim>
					<dim>-1</dim>
					<dim>64</dim>
				</port>
				<port id="1" precision="FP32">
					<dim>-1</dim>
					<dim>1</dim>
					<dim>-1</dim>
					<dim>64</dim>
				</port>
			</input>
			<output>
				<port id="2" precision="FP32" names="631">
					<dim>-1</dim>
					<dim>36</dim>
					<dim>-1</dim>
					<dim>64</dim>
				</port>
			</output>
		</layer>
		<layer id="334" name="__module.model.layers.1.self_attn/aten::size/ShapeOf_5" type="ShapeOf" version="opset3">
			<data output_type="i64" />
			<input>
				<port id="0" precision="FP32">
					<dim>-1</dim>
					<dim>36</dim>
					<dim>-1</dim>
					<dim>64</dim>
				</port>
			</input>
			<output>
				<port id="1" precision="I64">
					<dim>4</dim>
				</port>
			</output>
		</layer>
		<layer id="335" name="__module.model.layers.1.self_attn/aten::size/Constant_5" type="Const" version="opset1">
			<data element_type="i32" shape="" offset="0" size="4" />
			<output>
				<port id="0" precision="I32" />
			</output>
		</layer>
		<layer id="336" name="__module.model.layers.1.self_attn/aten::size/Gather_5" type="Gather" version="opset8">
			<data batch_dims="0" />
			<input>
				<port id="0" precision="I64">
					<dim>4</dim>
				</port>
				<port id="1" precision="I64" />
				<port id="2" precision="I32" />
			</input>
			<output>
				<port id="3" precision="I64" names="632,637" />
			</output>
		</layer>
		<layer id="337" name="__module.model.layers.1.self_attn/aten::floor_divide/Divide_1" type="Divide" version="opset1">
			<data auto_broadcast="numpy" m_pythondiv="true" />
			<input>
				<port id="0" precision="I64" />
				<port id="1" precision="I64" />
			</input>
			<output>
				<port id="2" precision="I64" />
			</output>
		</layer>
		<layer id="338" name="__module.model.layers.1.self_attn/aten::floor_divide/Floor_1" type="Floor" version="opset1">
			<input>
				<port id="0" precision="I64" />
			</input>
			<output>
				<port id="1" precision="I64" names="634,635,639,640" />
			</output>
		</layer>
		<layer id="339" name="Constant_209967" type="Const" version="opset1">
			<data element_type="i64" shape="1" offset="283191211" size="8" />
			<output>
				<port id="0" precision="I64">
					<dim>1</dim>
				</port>
			</output>
		</layer>
		<layer id="340" name="__module.model.layers.1.self_attn/aten::slice/Reshape_5" type="Reshape" version="opset1">
			<data special_zero="false" />
			<input>
				<port id="0" precision="I64" />
				<port id="1" precision="I64">
					<dim>1</dim>
				</port>
			</input>
			<output>
				<port id="2" precision="I64">
					<dim>1</dim>
				</port>
			</output>
		</layer>
		<layer id="341" name="__module.model.layers.1.self_attn/aten::slice/Reshape_1" type="Const" version="opset1">
			<data element_type="i64" shape="1" offset="287069199" size="8" />
			<output>
				<port id="0" precision="I64">
					<dim>1</dim>
				</port>
			</output>
		</layer>
		<layer id="342" name="__module.model.layers.1.self_attn/aten::slice/Reshape_2" type="Const" version="opset1">
			<data element_type="i64" shape="1" offset="287069175" size="8" />
			<output>
				<port id="0" precision="I64">
					<dim>1</dim>
				</port>
			</output>
		</layer>
		<layer id="343" name="__module.model.layers.1.self_attn/aten::slice/Reshape_3" type="Const" version="opset1">
			<data element_type="i64" shape="1" offset="287069191" size="8" />
			<output>
				<port id="0" precision="I64">
					<dim>1</dim>
				</port>
			</output>
		</layer>
		<layer id="344" name="__module.model.layers.1.self_attn/aten::slice/Slice" type="Slice" version="opset8">
			<input>
				<port id="0" precision="FP32">
					<dim>-1</dim>
					<dim>36</dim>
					<dim>-1</dim>
					<dim>64</dim>
				</port>
				<port id="1" precision="I64">
					<dim>1</dim>
				</port>
				<port id="2" precision="I64">
					<dim>1</dim>
				</port>
				<port id="3" precision="I64">
					<dim>1</dim>
				</port>
				<port id="4" precision="I64">
					<dim>1</dim>
				</port>
			</input>
			<output>
				<port id="5" precision="FP32" names="641,x2.5">
					<dim>-1</dim>
					<dim>36</dim>
					<dim>-1</dim>
					<dim>32</dim>
				</port>
			</output>
		</layer>
		<layer id="345" name="Constant_286171" type="Const" version="opset1">
			<data element_type="f32" shape="1, 1, 1, 1" offset="287069207" size="4" />
			<output>
				<port id="0" precision="FP32">
					<dim>1</dim>
					<dim>1</dim>
					<dim>1</dim>
					<dim>1</dim>
				</port>
			</output>
		</layer>
		<layer id="346" name="__module.model.layers.1.self_attn/aten::neg/Multiply" type="Multiply" version="opset1">
			<data auto_broadcast="numpy" />
			<input>
				<port id="0" precision="FP32">
					<dim>-1</dim>
					<dim>36</dim>
					<dim>-1</dim>
					<dim>32</dim>
				</port>
				<port id="1" precision="FP32">
					<dim>1</dim>
					<dim>1</dim>
					<dim>1</dim>
					<dim>1</dim>
				</port>
			</input>
			<output>
				<port id="2" precision="FP32" names="642">
					<dim>-1</dim>
					<dim>36</dim>
					<dim>-1</dim>
					<dim>32</dim>
				</port>
			</output>
		</layer>
		<layer id="347" name="__module.model.layers.1.self_attn/aten::slice/Reshape_4" type="Const" version="opset1">
			<data element_type="i64" shape="1" offset="4" size="8" />
			<output>
				<port id="0" precision="I64">
					<dim>1</dim>
				</port>
			</output>
		</layer>
		<layer id="348" name="__module.model.layers.1.self_attn/aten::slice/Reshape_6" type="Const" version="opset1">
			<data element_type="i64" shape="1" offset="287069175" size="8" />
			<output>
				<port id="0" precision="I64">
					<dim>1</dim>
				</port>
			</output>
		</layer>
		<layer id="349" name="__module.model.layers.1.self_attn/aten::slice/Reshape_7" type="Const" version="opset1">
			<data element_type="i64" shape="1" offset="287069191" size="8" />
			<output>
				<port id="0" precision="I64">
					<dim>1</dim>
				</port>
			</output>
		</layer>
		<layer id="350" name="__module.model.layers.1.self_attn/aten::slice/Slice_1" type="Slice" version="opset8">
			<input>
				<port id="0" precision="FP32">
					<dim>-1</dim>
					<dim>36</dim>
					<dim>-1</dim>
					<dim>64</dim>
				</port>
				<port id="1" precision="I64">
					<dim>1</dim>
				</port>
				<port id="2" precision="I64">
					<dim>1</dim>
				</port>
				<port id="3" precision="I64">
					<dim>1</dim>
				</port>
				<port id="4" precision="I64">
					<dim>1</dim>
				</port>
			</input>
			<output>
				<port id="5" precision="FP32" names="636">
					<dim>-1</dim>
					<dim>36</dim>
					<dim>-1</dim>
					<dim>32</dim>
				</port>
			</output>
		</layer>
		<layer id="351" name="__module.model.layers.1.self_attn/aten::cat/Concat" type="Concat" version="opset1">
			<data axis="-1" />
			<input>
				<port id="0" precision="FP32">
					<dim>-1</dim>
					<dim>36</dim>
					<dim>-1</dim>
					<dim>32</dim>
				</port>
				<port id="1" precision="FP32">
					<dim>-1</dim>
					<dim>36</dim>
					<dim>-1</dim>
					<dim>32</dim>
				</port>
			</input>
			<output>
				<port id="2" precision="FP32" names="644">
					<dim>-1</dim>
					<dim>36</dim>
					<dim>-1</dim>
					<dim>64</dim>
				</port>
			</output>
		</layer>
		<layer id="352" name="self.model.layers.1.self_attn.rotary_emb.sin_cached" type="Const" version="opset1">
			<data element_type="f32" shape="4096, 64" offset="287069211" size="1048576" />
			<output>
				<port id="0" precision="FP32" names="self.model.layers.1.self_attn.rotary_emb.sin_cached">
					<dim>4096</dim>
					<dim>64</dim>
				</port>
			</output>
		</layer>
		<layer id="353" name="__module.model.layers.1.self_attn.rotary_emb/aten::slice/Reshape_4" type="Const" version="opset1">
			<data element_type="i64" shape="1" offset="4" size="8" />
			<output>
				<port id="0" precision="I64">
					<dim>1</dim>
				</port>
			</output>
		</layer>
		<layer id="354" name="__module.model.layers.1.self_attn.rotary_emb/aten::slice/Reshape_6" type="Const" version="opset1">
			<data element_type="i64" shape="1" offset="287069175" size="8" />
			<output>
				<port id="0" precision="I64">
					<dim>1</dim>
				</port>
			</output>
		</layer>
		<layer id="355" name="__module.model.layers.1.self_attn.rotary_emb/aten::slice/Reshape_7" type="Const" version="opset1">
			<data element_type="i64" shape="1" offset="4" size="8" />
			<output>
				<port id="0" precision="I64">
					<dim>1</dim>
				</port>
			</output>
		</layer>
		<layer id="356" name="__module.model.layers.1.self_attn.rotary_emb/aten::slice/Slice_1" type="Slice" version="opset8">
			<input>
				<port id="0" precision="FP32">
					<dim>4096</dim>
					<dim>64</dim>
				</port>
				<port id="1" precision="I64">
					<dim>1</dim>
				</port>
				<port id="2" precision="I64">
					<dim>1</dim>
				</port>
				<port id="3" precision="I64">
					<dim>1</dim>
				</port>
				<port id="4" precision="I64">
					<dim>1</dim>
				</port>
			</input>
			<output>
				<port id="5" precision="FP32" names="618,619,622,sin.5">
					<dim>-1</dim>
					<dim>64</dim>
				</port>
			</output>
		</layer>
		<layer id="357" name="Constant_19653" type="Const" version="opset1">
			<data element_type="i32" shape="" offset="0" size="4" />
			<output>
				<port id="0" precision="I32" />
			</output>
		</layer>
		<layer id="358" name="__module.model.layers.1.self_attn/aten::index/Gather_1" type="Gather" version="opset8">
			<data batch_dims="0" />
			<input>
				<port id="0" precision="FP32">
					<dim>-1</dim>
					<dim>64</dim>
				</port>
				<port id="1" precision="I32">
					<dim>-1</dim>
					<dim>-1</dim>
				</port>
				<port id="2" precision="I32" />
			</input>
			<output>
				<port id="3" precision="FP32" names="627">
					<dim>-1</dim>
					<dim>-1</dim>
					<dim>64</dim>
				</port>
			</output>
		</layer>
		<layer id="359" name="__module.model.layers.1.self_attn/aten::unsqueeze/Unsqueeze_1" type="Unsqueeze" version="opset1">
			<input>
				<port id="0" precision="FP32">
					<dim>-1</dim>
					<dim>-1</dim>
					<dim>64</dim>
				</port>
				<port id="1" precision="I64" />
			</input>
			<output>
				<port id="2" precision="FP32" names="628,sin.7">
					<dim>-1</dim>
					<dim>1</dim>
					<dim>-1</dim>
					<dim>64</dim>
				</port>
			</output>
		</layer>
		<layer id="360" name="__module.model.layers.1.self_attn/aten::mul/Multiply_1" type="Multiply" version="opset1">
			<data auto_broadcast="numpy" />
			<input>
				<port id="0" precision="FP32">
					<dim>-1</dim>
					<dim>36</dim>
					<dim>-1</dim>
					<dim>64</dim>
				</port>
				<port id="1" precision="FP32">
					<dim>-1</dim>
					<dim>1</dim>
					<dim>-1</dim>
					<dim>64</dim>
				</port>
			</input>
			<output>
				<port id="2" precision="FP32" names="645">
					<dim>-1</dim>
					<dim>36</dim>
					<dim>-1</dim>
					<dim>64</dim>
				</port>
			</output>
		</layer>
		<layer id="361" name="__module.model.layers.1.self_attn/aten::add/Add" type="Add" version="opset1">
			<data auto_broadcast="numpy" />
			<input>
				<port id="0" precision="FP32">
					<dim>-1</dim>
					<dim>36</dim>
					<dim>-1</dim>
					<dim>64</dim>
				</port>
				<port id="1" precision="FP32">
					<dim>-1</dim>
					<dim>36</dim>
					<dim>-1</dim>
					<dim>64</dim>
				</port>
			</input>
			<output>
				<port id="2" precision="FP32" names="646,663,q_embed.3">
					<dim>-1</dim>
					<dim>36</dim>
					<dim>-1</dim>
					<dim>64</dim>
				</port>
			</output>
		</layer>
		<layer id="362" name="self.model.layers.1.self_attn.k_proj.weight" type="Const" version="opset1">
			<data element_type="i4" shape="2304, 36, 64" offset="329290335" size="2654208" />
			<output>
				<port id="0" precision="I4">
					<dim>2304</dim>
					<dim>36</dim>
					<dim>64</dim>
				</port>
			</output>
		</layer>
		<layer id="363" name="Convert_358451" type="Convert" version="opset1">
			<data destination_type="f16" />
			<input>
				<port id="0" precision="I4">
					<dim>2304</dim>
					<dim>36</dim>
					<dim>64</dim>
				</port>
			</input>
			<output>
				<port id="1" precision="FP16">
					<dim>2304</dim>
					<dim>36</dim>
					<dim>64</dim>
				</port>
			</output>
		</layer>
		<layer id="364" name="self.model.layers.1.self_attn.k_proj.weight/scale" type="Const" version="opset1">
			<data element_type="f16" shape="2304, 36, 1" offset="331944543" size="165888" />
			<output>
				<port id="0" precision="FP16">
					<dim>2304</dim>
					<dim>36</dim>
					<dim>1</dim>
				</port>
			</output>
		</layer>
		<layer id="365" name="self.model.layers.1.self_attn.k_proj.weight/fq_weights_1" type="Multiply" version="opset1">
			<data auto_broadcast="numpy" />
			<input>
				<port id="0" precision="FP16">
					<dim>2304</dim>
					<dim>36</dim>
					<dim>64</dim>
				</port>
				<port id="1" precision="FP16">
					<dim>2304</dim>
					<dim>36</dim>
					<dim>1</dim>
				</port>
			</input>
			<output>
				<port id="2" precision="FP16">
					<dim>2304</dim>
					<dim>36</dim>
					<dim>64</dim>
				</port>
			</output>
		</layer>
		<layer id="366" name="Constant_358455" type="Const" version="opset1">
			<data element_type="i64" shape="2" offset="286020535" size="16" />
			<output>
				<port id="0" precision="I64">
					<dim>2</dim>
				</port>
			</output>
		</layer>
		<layer id="367" name="Reshape_358456" type="Reshape" version="opset1">
			<data special_zero="false" />
			<input>
				<port id="0" precision="FP16">
					<dim>2304</dim>
					<dim>36</dim>
					<dim>64</dim>
				</port>
				<port id="1" precision="I64">
					<dim>2</dim>
				</port>
			</input>
			<output>
				<port id="2" precision="FP16">
					<dim>2304</dim>
					<dim>2304</dim>
				</port>
			</output>
		</layer>
		<layer id="368" name="self.model.layers.1.self_attn.k_proj.weight/fq_weights_1/convert" type="Convert" version="opset1">
			<data destination_type="f32" />
			<input>
				<port id="0" precision="FP16">
					<dim>2304</dim>
					<dim>2304</dim>
				</port>
			</input>
			<output>
				<port id="1" precision="FP32">
					<dim>2304</dim>
					<dim>2304</dim>
				</port>
			</output>
		</layer>
		<layer id="369" name="__module.model.layers.1.self_attn.k_proj/aten::linear/MatMul" type="MatMul" version="opset1">
			<data transpose_a="false" transpose_b="true" />
			<input>
				<port id="0" precision="FP32">
					<dim>-1</dim>
					<dim>-1</dim>
					<dim>2304</dim>
				</port>
				<port id="1" precision="FP32">
					<dim>2304</dim>
					<dim>2304</dim>
				</port>
			</input>
			<output>
				<port id="2" precision="FP32" names="595,key_states.9">
					<dim>-1</dim>
					<dim>-1</dim>
					<dim>2304</dim>
				</port>
			</output>
		</layer>
		<layer id="370" name="Constant_294112" type="Const" version="opset1">
			<data element_type="i64" shape="4" offset="286020551" size="32" />
			<output>
				<port id="0" precision="I64">
					<dim>4</dim>
				</port>
			</output>
		</layer>
		<layer id="371" name="__module.model.layers.1.self_attn/aten::view/Reshape_1" type="Reshape" version="opset1">
			<data special_zero="true" />
			<input>
				<port id="0" precision="FP32">
					<dim>-1</dim>
					<dim>-1</dim>
					<dim>2304</dim>
				</port>
				<port id="1" precision="I64">
					<dim>4</dim>
				</port>
			</input>
			<output>
				<port id="2" precision="FP32" names="602">
					<dim>-1</dim>
					<dim>-1</dim>
					<dim>36</dim>
					<dim>64</dim>
				</port>
			</output>
		</layer>
		<layer id="372" name="__module.model.layers.1.self_attn/aten::transpose/ScatterElementsUpdate_1" type="Const" version="opset1">
			<data element_type="i32" shape="4" offset="286020583" size="16" />
			<output>
				<port id="0" precision="I32">
					<dim>4</dim>
				</port>
			</output>
		</layer>
		<layer id="373" name="__module.model.layers.1.self_attn/aten::transpose/Transpose_1" type="Transpose" version="opset1">
			<input>
				<port id="0" precision="FP32">
					<dim>-1</dim>
					<dim>-1</dim>
					<dim>36</dim>
					<dim>64</dim>
				</port>
				<port id="1" precision="I32">
					<dim>4</dim>
				</port>
			</input>
			<output>
				<port id="2" precision="FP32" names="603,630,k.3,key_states.11">
					<dim>-1</dim>
					<dim>36</dim>
					<dim>-1</dim>
					<dim>64</dim>
				</port>
			</output>
		</layer>
		<layer id="374" name="__module.model.layers.1.self_attn/aten::mul/Multiply_2" type="Multiply" version="opset1">
			<data auto_broadcast="numpy" />
			<input>
				<port id="0" precision="FP32">
					<dim>-1</dim>
					<dim>36</dim>
					<dim>-1</dim>
					<dim>64</dim>
				</port>
				<port id="1" precision="FP32">
					<dim>-1</dim>
					<dim>1</dim>
					<dim>-1</dim>
					<dim>64</dim>
				</port>
			</input>
			<output>
				<port id="2" precision="FP32" names="647">
					<dim>-1</dim>
					<dim>36</dim>
					<dim>-1</dim>
					<dim>64</dim>
				</port>
			</output>
		</layer>
		<layer id="375" name="__module.model.layers.1.self_attn/aten::size/ShapeOf_2" type="ShapeOf" version="opset3">
			<data output_type="i64" />
			<input>
				<port id="0" precision="FP32">
					<dim>-1</dim>
					<dim>36</dim>
					<dim>-1</dim>
					<dim>64</dim>
				</port>
			</input>
			<output>
				<port id="1" precision="I64">
					<dim>4</dim>
				</port>
			</output>
		</layer>
		<layer id="376" name="__module.model.layers.1.self_attn/aten::size/Constant_7" type="Const" version="opset1">
			<data element_type="i32" shape="" offset="0" size="4" />
			<output>
				<port id="0" precision="I32" />
			</output>
		</layer>
		<layer id="377" name="__module.model.layers.1.self_attn/aten::size/Gather_7" type="Gather" version="opset8">
			<data batch_dims="0" />
			<input>
				<port id="0" precision="I64">
					<dim>4</dim>
				</port>
				<port id="1" precision="I64" />
				<port id="2" precision="I32" />
			</input>
			<output>
				<port id="3" precision="I64" names="648,653" />
			</output>
		</layer>
		<layer id="378" name="__module.model.layers.1.self_attn/aten::floor_divide/Divide_3" type="Divide" version="opset1">
			<data auto_broadcast="numpy" m_pythondiv="true" />
			<input>
				<port id="0" precision="I64" />
				<port id="1" precision="I64" />
			</input>
			<output>
				<port id="2" precision="I64" />
			</output>
		</layer>
		<layer id="379" name="__module.model.layers.1.self_attn/aten::floor_divide/Floor_3" type="Floor" version="opset1">
			<input>
				<port id="0" precision="I64" />
			</input>
			<output>
				<port id="1" precision="I64" names="650,651,655,656" />
			</output>
		</layer>
		<layer id="380" name="Constant_209968" type="Const" version="opset1">
			<data element_type="i64" shape="1" offset="283191211" size="8" />
			<output>
				<port id="0" precision="I64">
					<dim>1</dim>
				</port>
			</output>
		</layer>
		<layer id="381" name="__module.model.layers.1.self_attn/aten::slice/Reshape_13" type="Reshape" version="opset1">
			<data special_zero="false" />
			<input>
				<port id="0" precision="I64" />
				<port id="1" precision="I64">
					<dim>1</dim>
				</port>
			</input>
			<output>
				<port id="2" precision="I64">
					<dim>1</dim>
				</port>
			</output>
		</layer>
		<layer id="382" name="__module.model.layers.1.self_attn/aten::slice/Reshape_9" type="Const" version="opset1">
			<data element_type="i64" shape="1" offset="287069199" size="8" />
			<output>
				<port id="0" precision="I64">
					<dim>1</dim>
				</port>
			</output>
		</layer>
		<layer id="383" name="__module.model.layers.1.self_attn/aten::slice/Reshape_10" type="Const" version="opset1">
			<data element_type="i64" shape="1" offset="287069175" size="8" />
			<output>
				<port id="0" precision="I64">
					<dim>1</dim>
				</port>
			</output>
		</layer>
		<layer id="384" name="__module.model.layers.1.self_attn/aten::slice/Reshape_11" type="Const" version="opset1">
			<data element_type="i64" shape="1" offset="287069191" size="8" />
			<output>
				<port id="0" precision="I64">
					<dim>1</dim>
				</port>
			</output>
		</layer>
		<layer id="385" name="__module.model.layers.1.self_attn/aten::slice/Slice_2" type="Slice" version="opset8">
			<input>
				<port id="0" precision="FP32">
					<dim>-1</dim>
					<dim>36</dim>
					<dim>-1</dim>
					<dim>64</dim>
				</port>
				<port id="1" precision="I64">
					<dim>1</dim>
				</port>
				<port id="2" precision="I64">
					<dim>1</dim>
				</port>
				<port id="3" precision="I64">
					<dim>1</dim>
				</port>
				<port id="4" precision="I64">
					<dim>1</dim>
				</port>
			</input>
			<output>
				<port id="5" precision="FP32" names="657,x2.7">
					<dim>-1</dim>
					<dim>36</dim>
					<dim>-1</dim>
					<dim>32</dim>
				</port>
			</output>
		</layer>
		<layer id="386" name="Constant_286172" type="Const" version="opset1">
			<data element_type="f32" shape="1, 1, 1, 1" offset="287069207" size="4" />
			<output>
				<port id="0" precision="FP32">
					<dim>1</dim>
					<dim>1</dim>
					<dim>1</dim>
					<dim>1</dim>
				</port>
			</output>
		</layer>
		<layer id="387" name="__module.model.layers.1.self_attn/aten::neg/Multiply_1" type="Multiply" version="opset1">
			<data auto_broadcast="numpy" />
			<input>
				<port id="0" precision="FP32">
					<dim>-1</dim>
					<dim>36</dim>
					<dim>-1</dim>
					<dim>32</dim>
				</port>
				<port id="1" precision="FP32">
					<dim>1</dim>
					<dim>1</dim>
					<dim>1</dim>
					<dim>1</dim>
				</port>
			</input>
			<output>
				<port id="2" precision="FP32" names="658">
					<dim>-1</dim>
					<dim>36</dim>
					<dim>-1</dim>
					<dim>32</dim>
				</port>
			</output>
		</layer>
		<layer id="388" name="__module.model.layers.1.self_attn/aten::slice/Reshape_12" type="Const" version="opset1">
			<data element_type="i64" shape="1" offset="4" size="8" />
			<output>
				<port id="0" precision="I64">
					<dim>1</dim>
				</port>
			</output>
		</layer>
		<layer id="389" name="__module.model.layers.1.self_attn/aten::slice/Reshape_14" type="Const" version="opset1">
			<data element_type="i64" shape="1" offset="287069175" size="8" />
			<output>
				<port id="0" precision="I64">
					<dim>1</dim>
				</port>
			</output>
		</layer>
		<layer id="390" name="__module.model.layers.1.self_attn/aten::slice/Reshape_15" type="Const" version="opset1">
			<data element_type="i64" shape="1" offset="287069191" size="8" />
			<output>
				<port id="0" precision="I64">
					<dim>1</dim>
				</port>
			</output>
		</layer>
		<layer id="391" name="__module.model.layers.1.self_attn/aten::slice/Slice_3" type="Slice" version="opset8">
			<input>
				<port id="0" precision="FP32">
					<dim>-1</dim>
					<dim>36</dim>
					<dim>-1</dim>
					<dim>64</dim>
				</port>
				<port id="1" precision="I64">
					<dim>1</dim>
				</port>
				<port id="2" precision="I64">
					<dim>1</dim>
				</port>
				<port id="3" precision="I64">
					<dim>1</dim>
				</port>
				<port id="4" precision="I64">
					<dim>1</dim>
				</port>
			</input>
			<output>
				<port id="5" precision="FP32" names="652">
					<dim>-1</dim>
					<dim>36</dim>
					<dim>-1</dim>
					<dim>32</dim>
				</port>
			</output>
		</layer>
		<layer id="392" name="__module.model.layers.1.self_attn/aten::cat/Concat_1" type="Concat" version="opset1">
			<data axis="-1" />
			<input>
				<port id="0" precision="FP32">
					<dim>-1</dim>
					<dim>36</dim>
					<dim>-1</dim>
					<dim>32</dim>
				</port>
				<port id="1" precision="FP32">
					<dim>-1</dim>
					<dim>36</dim>
					<dim>-1</dim>
					<dim>32</dim>
				</port>
			</input>
			<output>
				<port id="2" precision="FP32" names="660">
					<dim>-1</dim>
					<dim>36</dim>
					<dim>-1</dim>
					<dim>64</dim>
				</port>
			</output>
		</layer>
		<layer id="393" name="__module.model.layers.1.self_attn/aten::mul/Multiply_3" type="Multiply" version="opset1">
			<data auto_broadcast="numpy" />
			<input>
				<port id="0" precision="FP32">
					<dim>-1</dim>
					<dim>36</dim>
					<dim>-1</dim>
					<dim>64</dim>
				</port>
				<port id="1" precision="FP32">
					<dim>-1</dim>
					<dim>1</dim>
					<dim>-1</dim>
					<dim>64</dim>
				</port>
			</input>
			<output>
				<port id="2" precision="FP32" names="661">
					<dim>-1</dim>
					<dim>36</dim>
					<dim>-1</dim>
					<dim>64</dim>
				</port>
			</output>
		</layer>
		<layer id="394" name="__module.model.layers.1.self_attn/aten::add/Add_1" type="Add" version="opset1">
			<data auto_broadcast="numpy" />
			<input>
				<port id="0" precision="FP32">
					<dim>-1</dim>
					<dim>36</dim>
					<dim>-1</dim>
					<dim>64</dim>
				</port>
				<port id="1" precision="FP32">
					<dim>-1</dim>
					<dim>36</dim>
					<dim>-1</dim>
					<dim>64</dim>
				</port>
			</input>
			<output>
				<port id="2" precision="FP32" names="662,664,k_embed.3">
					<dim>-1</dim>
					<dim>36</dim>
					<dim>-1</dim>
					<dim>64</dim>
				</port>
			</output>
		</layer>
		<layer id="395" name="__module.model.layers.1.self_attn/aten::cat/Concat_2" type="Concat" version="opset1">
			<data axis="-2" />
			<input>
				<port id="0" precision="FP32">
					<dim>-1</dim>
					<dim>36</dim>
					<dim>-1</dim>
…
		<edge from-layer="6983" from-port="0" to-layer="6984" to-port="0" />
		<edge from-layer="6984" from-port="1" to-layer="6987" to-port="0" />
		<edge from-layer="6985" from-port="0" to-layer="6986" to-port="0" />
		<edge from-layer="6986" from-port="1" to-layer="6987" to-port="1" />
		<edge from-layer="6987" from-port="2" to-layer="6989" to-port="0" />
		<edge from-layer="6988" from-port="0" to-layer="6989" to-port="1" />
		<edge from-layer="6989" from-port="2" to-layer="6990" to-port="0" />
		<edge from-layer="6990" from-port="1" to-layer="6991" to-port="1" />
		<edge from-layer="6991" from-port="2" to-layer="6992" to-port="1" />
		<edge from-layer="6992" from-port="2" to-layer="7032" to-port="0" />
		<edge from-layer="6992" from-port="2" to-layer="6995" to-port="0" />
		<edge from-layer="6992" from-port="2" to-layer="7002" to-port="0" />
		<edge from-layer="6993" from-port="0" to-layer="7001" to-port="0" />
		<edge from-layer="6994" from-port="0" to-layer="6995" to-port="1" />
		<edge from-layer="6995" from-port="2" to-layer="6997" to-port="0" />
		<edge from-layer="6996" from-port="0" to-layer="6997" to-port="1" />
		<edge from-layer="6997" from-port="2" to-layer="6999" to-port="0" />
		<edge from-layer="6998" from-port="0" to-layer="6999" to-port="1" />
		<edge from-layer="6999" from-port="2" to-layer="7000" to-port="0" />
		<edge from-layer="7000" from-port="1" to-layer="7001" to-port="1" />
		<edge from-layer="7001" from-port="2" to-layer="7002" to-port="1" />
		<edge from-layer="7002" from-port="2" to-layer="7004" to-port="0" />
		<edge from-layer="7003" from-port="0" to-layer="7004" to-port="1" />
		<edge from-layer="7004" from-port="2" to-layer="7021" to-port="0" />
		<edge from-layer="7004" from-port="2" to-layer="7012" to-port="0" />
		<edge from-layer="7005" from-port="0" to-layer="7006" to-port="0" />
		<edge from-layer="7006" from-port="1" to-layer="7008" to-port="0" />
		<edge from-layer="7007" from-port="0" to-layer="7008" to-port="1" />
		<edge from-layer="7008" from-port="2" to-layer="7010" to-port="0" />
		<edge from-layer="7009" from-port="0" to-layer="7010" to-port="1" />
		<edge from-layer="7010" from-port="2" to-layer="7011" to-port="0" />
		<edge from-layer="7011" from-port="1" to-layer="7012" to-port="1" />
		<edge from-layer="7012" from-port="2" to-layer="7013" to-port="0" />
		<edge from-layer="7013" from-port="1" to-layer="7022" to-port="0" />
		<edge from-layer="7014" from-port="0" to-layer="7015" to-port="0" />
		<edge from-layer="7015" from-port="1" to-layer="7017" to-port="0" />
		<edge from-layer="7016" from-port="0" to-layer="7017" to-port="1" />
		<edge from-layer="7017" from-port="2" to-layer="7019" to-port="0" />
		<edge from-layer="7018" from-port="0" to-layer="7019" to-port="1" />
		<edge from-layer="7019" from-port="2" to-layer="7020" to-port="0" />
		<edge from-layer="7020" from-port="1" to-layer="7021" to-port="1" />
		<edge from-layer="7021" from-port="2" to-layer="7022" to-port="1" />
		<edge from-layer="7022" from-port="2" to-layer="7031" to-port="0" />
		<edge from-layer="7023" from-port="0" to-layer="7024" to-port="0" />
		<edge from-layer="7024" from-port="1" to-layer="7027" to-port="0" />
		<edge from-layer="7025" from-port="0" to-layer="7026" to-port="0" />
		<edge from-layer="7026" from-port="1" to-layer="7027" to-port="1" />
		<edge from-layer="7027" from-port="2" to-layer="7029" to-port="0" />
		<edge from-layer="7028" from-port="0" to-layer="7029" to-port="1" />
		<edge from-layer="7029" from-port="2" to-layer="7030" to-port="0" />
		<edge from-layer="7030" from-port="1" to-layer="7031" to-port="1" />
		<edge from-layer="7031" from-port="2" to-layer="7032" to-port="1" />
		<edge from-layer="7032" from-port="2" to-layer="7035" to-port="0" />
		<edge from-layer="7032" from-port="2" to-layer="7180" to-port="0" />
		<edge from-layer="7032" from-port="2" to-layer="7042" to-port="0" />
		<edge from-layer="7033" from-port="0" to-layer="7041" to-port="0" />
		<edge from-layer="7034" from-port="0" to-layer="7035" to-port="1" />
		<edge from-layer="7035" from-port="2" to-layer="7037" to-port="0" />
		<edge from-layer="7036" from-port="0" to-layer="7037" to-port="1" />
		<edge from-layer="7037" from-port="2" to-layer="7039" to-port="0" />
		<edge from-layer="7038" from-port="0" to-layer="7039" to-port="1" />
		<edge from-layer="7039" from-port="2" to-layer="7040" to-port="0" />
		<edge from-layer="7040" from-port="1" to-layer="7041" to-port="1" />
		<edge from-layer="7041" from-port="2" to-layer="7042" to-port="1" />
		<edge from-layer="7042" from-port="2" to-layer="7044" to-port="0" />
		<edge from-layer="7043" from-port="0" to-layer="7044" to-port="1" />
		<edge from-layer="7044" from-port="2" to-layer="7116" to-port="0" />
		<edge from-layer="7044" from-port="2" to-layer="7053" to-port="0" />
		<edge from-layer="7044" from-port="2" to-layer="7160" to-port="0" />
		<edge from-layer="7045" from-port="0" to-layer="7046" to-port="0" />
		<edge from-layer="7046" from-port="1" to-layer="7049" to-port="0" />
		<edge from-layer="7047" from-port="0" to-layer="7048" to-port="0" />
		<edge from-layer="7048" from-port="1" to-layer="7049" to-port="1" />
		<edge from-layer="7049" from-port="2" to-layer="7051" to-port="0" />
		<edge from-layer="7050" from-port="0" to-layer="7051" to-port="1" />
		<edge from-layer="7051" from-port="2" to-layer="7052" to-port="0" />
		<edge from-layer="7052" from-port="1" to-layer="7053" to-port="1" />
		<edge from-layer="7053" from-port="2" to-layer="7055" to-port="0" />
		<edge from-layer="7054" from-port="0" to-layer="7055" to-port="1" />
		<edge from-layer="7055" from-port="2" to-layer="7057" to-port="0" />
		<edge from-layer="7056" from-port="0" to-layer="7057" to-port="1" />
		<edge from-layer="7057" from-port="2" to-layer="7091" to-port="0" />
		<edge from-layer="7057" from-port="2" to-layer="7097" to-port="0" />
		<edge from-layer="7057" from-port="2" to-layer="7081" to-port="0" />
		<edge from-layer="7057" from-port="2" to-layer="7080" to-port="0" />
		<edge from-layer="7058" from-port="0" to-layer="7076" to-port="0" />
		<edge from-layer="7059" from-port="0" to-layer="7076" to-port="1" />
		<edge from-layer="7060" from-port="0" to-layer="7065" to-port="0" />
		<edge from-layer="7061" from-port="0" to-layer="7064" to-port="1" />
		<edge from-layer="7062" from-port="0" to-layer="7064" to-port="2" />
		<edge from-layer="7063" from-port="0" to-layer="7064" to-port="3" />
		<edge from-layer="7064" from-port="4" to-layer="7065" to-port="1" />
		<edge from-layer="7065" from-port="2" to-layer="7066" to-port="0" />
		<edge from-layer="7066" from-port="1" to-layer="7068" to-port="0" />
		<edge from-layer="7067" from-port="0" to-layer="7068" to-port="2" />
		<edge from-layer="7068" from-port="3" to-layer="7069" to-port="0" />
		<edge from-layer="7068" from-port="3" to-layer="7142" to-port="0" />
		<edge from-layer="7069" from-port="1" to-layer="7072" to-port="0" />
		<edge from-layer="7070" from-port="0" to-layer="7072" to-port="1" />
		<edge from-layer="7071" from-port="0" to-layer="7072" to-port="2" />
		<edge from-layer="7072" from-port="3" to-layer="7073" to-port="1" />
		<edge from-layer="7073" from-port="2" to-layer="7103" to-port="2" />
		<edge from-layer="7073" from-port="2" to-layer="7076" to-port="2" />
		<edge from-layer="7074" from-port="0" to-layer="7076" to-port="3" />
		<edge from-layer="7075" from-port="0" to-layer="7076" to-port="4" />
		<edge from-layer="7076" from-port="5" to-layer="7078" to-port="0" />
		<edge from-layer="7077" from-port="0" to-layer="7078" to-port="2" />
		<edge from-layer="7078" from-port="3" to-layer="7079" to-port="0" />
		<edge from-layer="7079" from-port="2" to-layer="7121" to-port="1" />
		<edge from-layer="7079" from-port="2" to-layer="7080" to-port="1" />
		<edge from-layer="7080" from-port="2" to-layer="7108" to-port="0" />
		<edge from-layer="7081" from-port="1" to-layer="7083" to-port="0" />
		<edge from-layer="7082" from-port="0" to-layer="7083" to-port="2" />
		<edge from-layer="7083" from-port="3" to-layer="7084" to-port="0" />
		<edge from-layer="7084" from-port="2" to-layer="7085" to-port="0" />
		<edge from-layer="7085" from-port="1" to-layer="7087" to-port="0" />
		<edge from-layer="7086" from-port="0" to-layer="7087" to-port="1" />
		<edge from-layer="7087" from-port="2" to-layer="7097" to-port="2" />
		<edge from-layer="7087" from-port="2" to-layer="7091" to-port="1" />
		<edge from-layer="7088" from-port="0" to-layer="7091" to-port="2" />
		<edge from-layer="7089" from-port="0" to-layer="7091" to-port="3" />
		<edge from-layer="7090" from-port="0" to-layer="7091" to-port="4" />
		<edge from-layer="7091" from-port="5" to-layer="7093" to-port="0" />
		<edge from-layer="7092" from-port="0" to-layer="7093" to-port="1" />
		<edge from-layer="7093" from-port="2" to-layer="7098" to-port="0" />
		<edge from-layer="7094" from-port="0" to-layer="7097" to-port="1" />
		<edge from-layer="7095" from-port="0" to-layer="7097" to-port="3" />
		<edge from-layer="7096" from-port="0" to-layer="7097" to-port="4" />
		<edge from-layer="7097" from-port="5" to-layer="7098" to-port="1" />
		<edge from-layer="7098" from-port="2" to-layer="7107" to-port="0" />
		<edge from-layer="7099" from-port="0" to-layer="7103" to-port="0" />
		<edge from-layer="7100" from-port="0" to-layer="7103" to-port="1" />
		<edge from-layer="7101" from-port="0" to-layer="7103" to-port="3" />
		<edge from-layer="7102" from-port="0" to-layer="7103" to-port="4" />
		<edge from-layer="7103" from-port="5" to-layer="7105" to-port="0" />
		<edge from-layer="7104" from-port="0" to-layer="7105" to-port="2" />
		<edge from-layer="7105" from-port="3" to-layer="7106" to-port="0" />
		<edge from-layer="7106" from-port="2" to-layer="7107" to-port="1" />
		<edge from-layer="7106" from-port="2" to-layer="7140" to-port="1" />
		<edge from-layer="7107" from-port="2" to-layer="7108" to-port="1" />
		<edge from-layer="7108" from-port="2" to-layer="7166" to-port="0" />
		<edge from-layer="7109" from-port="0" to-layer="7110" to-port="0" />
		<edge from-layer="7110" from-port="1" to-layer="7112" to-port="0" />
		<edge from-layer="7111" from-port="0" to-layer="7112" to-port="1" />
		<edge from-layer="7112" from-port="2" to-layer="7114" to-port="0" />
		<edge from-layer="7113" from-port="0" to-layer="7114" to-port="1" />
		<edge from-layer="7114" from-port="2" to-layer="7115" to-port="0" />
		<edge from-layer="7115" from-port="1" to-layer="7116" to-port="1" />
		<edge from-layer="7116" from-port="2" to-layer="7118" to-port="0" />
		<edge from-layer="7117" from-port="0" to-layer="7118" to-port="1" />
		<edge from-layer="7118" from-port="2" to-layer="7120" to-port="0" />
		<edge from-layer="7119" from-port="0" to-layer="7120" to-port="1" />
		<edge from-layer="7120" from-port="2" to-layer="7132" to-port="0" />
		<edge from-layer="7120" from-port="2" to-layer="7122" to-port="0" />
		<edge from-layer="7120" from-port="2" to-layer="7121" to-port="0" />
		<edge from-layer="7120" from-port="2" to-layer="7138" to-port="0" />
		<edge from-layer="7121" from-port="2" to-layer="7141" to-port="0" />
		<edge from-layer="7122" from-port="1" to-layer="7124" to-port="0" />
		<edge from-layer="7123" from-port="0" to-layer="7124" to-port="2" />
		<edge from-layer="7124" from-port="3" to-layer="7125" to-port="0" />
		<edge from-layer="7125" from-port="2" to-layer="7126" to-port="0" />
		<edge from-layer="7126" from-port="1" to-layer="7128" to-port="0" />
		<edge from-layer="7127" from-port="0" to-layer="7128" to-port="1" />
		<edge from-layer="7128" from-port="2" to-layer="7138" to-port="2" />
		<edge from-layer="7128" from-port="2" to-layer="7132" to-port="1" />
		<edge from-layer="7129" from-port="0" to-layer="7132" to-port="2" />
		<edge from-layer="7130" from-port="0" to-layer="7132" to-port="3" />
		<edge from-layer="7131" from-port="0" to-layer="7132" to-port="4" />
		<edge from-layer="7132" from-port="5" to-layer="7134" to-port="0" />
		<edge from-layer="7133" from-port="0" to-layer="7134" to-port="1" />
		<edge from-layer="7134" from-port="2" to-layer="7139" to-port="0" />
		<edge from-layer="7135" from-port="0" to-layer="7138" to-port="1" />
		<edge from-layer="7136" from-port="0" to-layer="7138" to-port="3" />
		<edge from-layer="7137" from-port="0" to-layer="7138" to-port="4" />
		<edge from-layer="7138" from-port="5" to-layer="7139" to-port="1" />
		<edge from-layer="7139" from-port="2" to-layer="7140" to-port="0" />
		<edge from-layer="7140" from-port="2" to-layer="7141" to-port="1" />
		<edge from-layer="7141" from-port="2" to-layer="7142" to-port="1" />
		<edge from-layer="7142" from-port="2" to-layer="7503" to-port="0" />
		<edge from-layer="7142" from-port="2" to-layer="7166" to-port="1" />
		<edge from-layer="7143" from-port="0" to-layer="7148" to-port="0" />
		<edge from-layer="7144" from-port="0" to-layer="7147" to-port="1" />
		<edge from-layer="7145" from-port="0" to-layer="7147" to-port="2" />
		<edge from-layer="7146" from-port="0" to-layer="7147" to-port="3" />
		<edge from-layer="7147" from-port="4" to-layer="7148" to-port="1" />
		<edge from-layer="7148" from-port="2" to-layer="7149" to-port="0" />
		<edge from-layer="7149" from-port="1" to-layer="7151" to-port="0" />
		<edge from-layer="7150" from-port="0" to-layer="7151" to-port="2" />
		<edge from-layer="7151" from-port="3" to-layer="7165" to-port="0" />
		<edge from-layer="7152" from-port="0" to-layer="7153" to-port="0" />
		<edge from-layer="7153" from-port="1" to-layer="7156" to-port="0" />
		<edge from-layer="7154" from-port="0" to-layer="7155" to-port="0" />
		<edge from-layer="7155" from-port="1" to-layer="7156" to-port="1" />
		<edge from-layer="7156" from-port="2" to-layer="7158" to-port="0" />
		<edge from-layer="7157" from-port="0" to-layer="7158" to-port="1" />
		<edge from-layer="7158" from-port="2" to-layer="7159" to-port="0" />
		<edge from-layer="7159" from-port="1" to-layer="7160" to-port="1" />
		<edge from-layer="7160" from-port="2" to-layer="7162" to-port="0" />
		<edge from-layer="7161" from-port="0" to-layer="7162" to-port="1" />
		<edge from-layer="7162" from-port="2" to-layer="7164" to-port="0" />
		<edge from-layer="7163" from-port="0" to-layer="7164" to-port="1" />
		<edge from-layer="7164" from-port="2" to-layer="7165" to-port="1" />
		<edge from-layer="7165" from-port="2" to-layer="7166" to-port="2" />
		<edge from-layer="7165" from-port="2" to-layer="7502" to-port="0" />
		<edge from-layer="7166" from-port="4" to-layer="7168" to-port="0" />
		<edge from-layer="7167" from-port="0" to-layer="7168" to-port="1" />
		<edge from-layer="7168" from-port="2" to-layer="7170" to-port="0" />
		<edge from-layer="7169" from-port="0" to-layer="7170" to-port="1" />
		<edge from-layer="7170" from-port="2" to-layer="7179" to-port="0" />
		<edge from-layer="7171" from-port="0" to-layer="7172" to-port="0" />
		<edge from-layer="7172" from-port="1" to-layer="7175" to-port="0" />
		<edge from-layer="7173" from-port="0" to-layer="7174" to-port="0" />
		<edge from-layer="7174" from-port="1" to-layer="7175" to-port="1" />
		<edge from-layer="7175" from-port="2" to-layer="7177" to-port="0" />
		<edge from-layer="7176" from-port="0" to-layer="7177" to-port="1" />
		<edge from-layer="7177" from-port="2" to-layer="7178" to-port="0" />
		<edge from-layer="7178" from-port="1" to-layer="7179" to-port="1" />
		<edge from-layer="7179" from-port="2" to-layer="7180" to-port="1" />
		<edge from-layer="7180" from-port="2" to-layer="7190" to-port="0" />
		<edge from-layer="7180" from-port="2" to-layer="7220" to-port="0" />
		<edge from-layer="7180" from-port="2" to-layer="7183" to-port="0" />
		<edge from-layer="7181" from-port="0" to-layer="7189" to-port="0" />
		<edge from-layer="7182" from-port="0" to-layer="7183" to-port="1" />
		<edge from-layer="7183" from-port="2" to-layer="7185" to-port="0" />
		<edge from-layer="7184" from-port="0" to-layer="7185" to-port="1" />
		<edge from-layer="7185" from-port="2" to-layer="7187" to-port="0" />
		<edge from-layer="7186" from-port="0" to-layer="7187" to-port="1" />
		<edge from-layer="7187" from-port="2" to-layer="7188" to-port="0" />
		<edge from-layer="7188" from-port="1" to-layer="7189" to-port="1" />
		<edge from-layer="7189" from-port="2" to-layer="7190" to-port="1" />
		<edge from-layer="7190" from-port="2" to-layer="7192" to-port="0" />
		<edge from-layer="7191" from-port="0" to-layer="7192" to-port="1" />
		<edge from-layer="7192" from-port="2" to-layer="7209" to-port="0" />
		<edge from-layer="7192" from-port="2" to-layer="7200" to-port="0" />
		<edge from-layer="7193" from-port="0" to-layer="7194" to-port="0" />
		<edge from-layer="7194" from-port="1" to-layer="7196" to-port="0" />
		<edge from-layer="7195" from-port="0" to-layer="7196" to-port="1" />
		<edge from-layer="7196" from-port="2" to-layer="7198" to-port="0" />
		<edge from-layer="7197" from-port="0" to-layer="7198" to-port="1" />
		<edge from-layer="7198" from-port="2" to-layer="7199" to-port="0" />
		<edge from-layer="7199" from-port="1" to-layer="7200" to-port="1" />
		<edge from-layer="7200" from-port="2" to-layer="7201" to-port="0" />
		<edge from-layer="7201" from-port="1" to-layer="7210" to-port="0" />
		<edge from-layer="7202" from-port="0" to-layer="7203" to-port="0" />
		<edge from-layer="7203" from-port="1" to-layer="7205" to-port="0" />
		<edge from-layer="7204" from-port="0" to-layer="7205" to-port="1" />
		<edge from-layer="7205" from-port="2" to-layer="7207" to-port="0" />
		<edge from-layer="7206" from-port="0" to-layer="7207" to-port="1" />
		<edge from-layer="7207" from-port="2" to-layer="7208" to-port="0" />
		<edge from-layer="7208" from-port="1" to-layer="7209" to-port="1" />
		<edge from-layer="7209" from-port="2" to-layer="7210" to-port="1" />
		<edge from-layer="7210" from-port="2" to-layer="7219" to-port="0" />
		<edge from-layer="7211" from-port="0" to-layer="7212" to-port="0" />
		<edge from-layer="7212" from-port="1" to-layer="7215" to-port="0" />
		<edge from-layer="7213" from-port="0" to-layer="7214" to-port="0" />
		<edge from-layer="7214" from-port="1" to-layer="7215" to-port="1" />
		<edge from-layer="7215" from-port="2" to-layer="7217" to-port="0" />
		<edge from-layer="7216" from-port="0" to-layer="7217" to-port="1" />
		<edge from-layer="7217" from-port="2" to-layer="7218" to-port="0" />
		<edge from-layer="7218" from-port="1" to-layer="7219" to-port="1" />
		<edge from-layer="7219" from-port="2" to-layer="7220" to-port="1" />
		<edge from-layer="7220" from-port="2" to-layer="7223" to-port="0" />
		<edge from-layer="7220" from-port="2" to-layer="7367" to-port="0" />
		<edge from-layer="7220" from-port="2" to-layer="7230" to-port="0" />
		<edge from-layer="7221" from-port="0" to-layer="7229" to-port="0" />
		<edge from-layer="7222" from-port="0" to-layer="7223" to-port="1" />
		<edge from-layer="7223" from-port="2" to-layer="7225" to-port="0" />
		<edge from-layer="7224" from-port="0" to-layer="7225" to-port="1" />
		<edge from-layer="7225" from-port="2" to-layer="7227" to-port="0" />
		<edge from-layer="7226" from-port="0" to-layer="7227" to-port="1" />
		<edge from-layer="7227" from-port="2" to-layer="7228" to-port="0" />
		<edge from-layer="7228" from-port="1" to-layer="7229" to-port="1" />
		<edge from-layer="7229" from-port="2" to-layer="7230" to-port="1" />
		<edge from-layer="7230" from-port="2" to-layer="7232" to-port="0" />
		<edge from-layer="7231" from-port="0" to-layer="7232" to-port="1" />
		<edge from-layer="7232" from-port="2" to-layer="7304" to-port="0" />
		<edge from-layer="7232" from-port="2" to-layer="7347" to-port="0" />
		<edge from-layer="7232" from-port="2" to-layer="7241" to-port="0" />
		<edge from-layer="7233" from-port="0" to-layer="7234" to-port="0" />
		<edge from-layer="7234" from-port="1" to-layer="7237" to-port="0" />
		<edge from-layer="7235" from-port="0" to-layer="7236" to-port="0" />
		<edge from-layer="7236" from-port="1" to-layer="7237" to-port="1" />
		<edge from-layer="7237" from-port="2" to-layer="7239" to-port="0" />
		<edge from-layer="7238" from-port="0" to-layer="7239" to-port="1" />
		<edge from-layer="7239" from-port="2" to-layer="7240" to-port="0" />
		<edge from-layer="7240" from-port="1" to-layer="7241" to-port="1" />
		<edge from-layer="7241" from-port="2" to-layer="7243" to-port="0" />
		<edge from-layer="7242" from-port="0" to-layer="7243" to-port="1" />
		<edge from-layer="7243" from-port="2" to-layer="7245" to-port="0" />
		<edge from-layer="7244" from-port="0" to-layer="7245" to-port="1" />
		<edge from-layer="7245" from-port="2" to-layer="7279" to-port="0" />
		<edge from-layer="7245" from-port="2" to-layer="7285" to-port="0" />
		<edge from-layer="7245" from-port="2" to-layer="7269" to-port="0" />
		<edge from-layer="7245" from-port="2" to-layer="7268" to-port="0" />
		<edge from-layer="7246" from-port="0" to-layer="7264" to-port="0" />
		<edge from-layer="7247" from-port="0" to-layer="7264" to-port="1" />
		<edge from-layer="7248" from-port="0" to-layer="7253" to-port="0" />
		<edge from-layer="7249" from-port="0" to-layer="7252" to-port="1" />
		<edge from-layer="7250" from-port="0" to-layer="7252" to-port="2" />
		<edge from-layer="7251" from-port="0" to-layer="7252" to-port="3" />
		<edge from-layer="7252" from-port="4" to-layer="7253" to-port="1" />
		<edge from-layer="7253" from-port="2" to-layer="7254" to-port="0" />
		<edge from-layer="7254" from-port="1" to-layer="7256" to-port="0" />
		<edge from-layer="7255" from-port="0" to-layer="7256" to-port="2" />
		<edge from-layer="7256" from-port="3" to-layer="7330" to-port="0" />
		<edge from-layer="7256" from-port="3" to-layer="7257" to-port="0" />
		<edge from-layer="7257" from-port="1" to-layer="7260" to-port="0" />
		<edge from-layer="7258" from-port="0" to-layer="7260" to-port="1" />
		<edge from-layer="7259" from-port="0" to-layer="7260" to-port="2" />
		<edge from-layer="7260" from-port="3" to-layer="7261" to-port="1" />
		<edge from-layer="7261" from-port="2" to-layer="7264" to-port="2" />
		<edge from-layer="7261" from-port="2" to-layer="7291" to-port="2" />
		<edge from-layer="7262" from-port="0" to-layer="7264" to-port="3" />
		<edge from-layer="7263" from-port="0" to-layer="7264" to-port="4" />
		<edge from-layer="7264" from-port="5" to-layer="7266" to-port="0" />
		<edge from-layer="7265" from-port="0" to-layer="7266" to-port="2" />
		<edge from-layer="7266" from-port="3" to-layer="7267" to-port="0" />
		<edge from-layer="7267" from-port="2" to-layer="7268" to-port="1" />
		<edge from-layer="7267" from-port="2" to-layer="7309" to-port="1" />
		<edge from-layer="7268" from-port="2" to-layer="7296" to-port="0" />
		<edge from-layer="7269" from-port="1" to-layer="7271" to-port="0" />
		<edge from-layer="7270" from-port="0" to-layer="7271" to-port="2" />
		<edge from-layer="7271" from-port="3" to-layer="7272" to-port="0" />
		<edge from-layer="7272" from-port="2" to-layer="7273" to-port="0" />
		<edge from-layer="7273" from-port="1" to-layer="7275" to-port="0" />
		<edge from-layer="7274" from-port="0" to-layer="7275" to-port="1" />
		<edge from-layer="7275" from-port="2" to-layer="7279" to-port="1" />
		<edge from-layer="7275" from-port="2" to-layer="7285" to-port="2" />
		<edge from-layer="7276" from-port="0" to-layer="7279" to-port="2" />
		<edge from-layer="7277" from-port="0" to-layer="7279" to-port="3" />
		<edge from-layer="7278" from-port="0" to-layer="7279" to-port="4" />
		<edge from-layer="7279" from-port="5" to-layer="7281" to-port="0" />
		<edge from-layer="7280" from-port="0" to-layer="7281" to-port="1" />
		<edge from-layer="7281" from-port="2" to-layer="7286" to-port="0" />
		<edge from-layer="7282" from-port="0" to-layer="7285" to-port="1" />
		<edge from-layer="7283" from-port="0" to-layer="7285" to-port="3" />
		<edge from-layer="7284" from-port="0" to-layer="7285" to-port="4" />
		<edge from-layer="7285" from-port="5" to-layer="7286" to-port="1" />
		<edge from-layer="7286" from-port="2" to-layer="7295" to-port="0" />
		<edge from-layer="7287" from-port="0" to-layer="7291" to-port="0" />
		<edge from-layer="7288" from-port="0" to-layer="7291" to-port="1" />
		<edge from-layer="7289" from-port="0" to-layer="7291" to-port="3" />
		<edge from-layer="7290" from-port="0" to-layer="7291" to-port="4" />
		<edge from-layer="7291" from-port="5" to-layer="7293" to-port="0" />
		<edge from-layer="7292" from-port="0" to-layer="7293" to-port="2" />
		<edge from-layer="7293" from-port="3" to-layer="7294" to-port="0" />
		<edge from-layer="7294" from-port="2" to-layer="7328" to-port="1" />
		<edge from-layer="7294" from-port="2" to-layer="7295" to-port="1" />
		<edge from-layer="7295" from-port="2" to-layer="7296" to-port="1" />
		<edge from-layer="7296" from-port="2" to-layer="7353" to-port="0" />
		<edge from-layer="7297" from-port="0" to-layer="7298" to-port="0" />
		<edge from-layer="7298" from-port="1" to-layer="7300" to-port="0" />
		<edge from-layer="7299" from-port="0" to-layer="7300" to-port="1" />
		<edge from-layer="7300" from-port="2" to-layer="7302" to-port="0" />
		<edge from-layer="7301" from-port="0" to-layer="7302" to-port="1" />
		<edge from-layer="7302" from-port="2" to-layer="7303" to-port="0" />
		<edge from-layer="7303" from-port="1" to-layer="7304" to-port="1" />
		<edge from-layer="7304" from-port="2" to-layer="7306" to-port="0" />
		<edge from-layer="7305" from-port="0" to-layer="7306" to-port="1" />
		<edge from-layer="7306" from-port="2" to-layer="7308" to-port="0" />
		<edge from-layer="7307" from-port="0" to-layer="7308" to-port="1" />
		<edge from-layer="7308" from-port="2" to-layer="7326" to-port="0" />
		<edge from-layer="7308" from-port="2" to-layer="7309" to-port="0" />
		<edge from-layer="7308" from-port="2" to-layer="7310" to-port="0" />
		<edge from-layer="7308" from-port="2" to-layer="7320" to-port="0" />
		<edge from-layer="7309" from-port="2" to-layer="7329" to-port="0" />
		<edge from-layer="7310" from-port="1" to-layer="7312" to-port="0" />
		<edge from-layer="7311" from-port="0" to-layer="7312" to-port="2" />
		<edge from-layer="7312" from-port="3" to-layer="7313" to-port="0" />
		<edge from-layer="7313" from-port="2" to-layer="7314" to-port="0" />
		<edge from-layer="7314" from-port="1" to-layer="7316" to-port="0" />
		<edge from-layer="7315" from-port="0" to-layer="7316" to-port="1" />
		<edge from-layer="7316" from-port="2" to-layer="7320" to-port="1" />
		<edge from-layer="7316" from-port="2" to-layer="7326" to-port="2" />
		<edge from-layer="7317" from-port="0" to-layer="7320" to-port="2" />
		<edge from-layer="7318" from-port="0" to-layer="7320" to-port="3" />
		<edge from-layer="7319" from-port="0" to-layer="7320" to-port="4" />
		<edge from-layer="7320" from-port="5" to-layer="7322" to-port="0" />
		<edge from-layer="7321" from-port="0" to-layer="7322" to-port="1" />
		<edge from-layer="7322" from-port="2" to-layer="7327" to-port="0" />
		<edge from-layer="7323" from-port="0" to-layer="7326" to-port="1" />
		<edge from-layer="7324" from-port="0" to-layer="7326" to-port="3" />
		<edge from-layer="7325" from-port="0" to-layer="7326" to-port="4" />
		<edge from-layer="7326" from-port="5" to-layer="7327" to-port="1" />
		<edge from-layer="7327" from-port="2" to-layer="7328" to-port="0" />
		<edge from-layer="7328" from-port="2" to-layer="7329" to-port="1" />
		<edge from-layer="7329" from-port="2" to-layer="7330" to-port="1" />
		<edge from-layer="7330" from-port="2" to-layer="7353" to-port="1" />
		<edge from-layer="7330" from-port="2" to-layer="7501" to-port="0" />
		<edge from-layer="7331" from-port="0" to-layer="7336" to-port="0" />
		<edge from-layer="7332" from-port="0" to-layer="7335" to-port="1" />
		<edge from-layer="7333" from-port="0" to-layer="7335" to-port="2" />
		<edge from-layer="7334" from-port="0" to-layer="7335" to-port="3" />
		<edge from-layer="7335" from-port="4" to-layer="7336" to-port="1" />
		<edge from-layer="7336" from-port="2" to-layer="7337" to-port="0" />
		<edge from-layer="7337" from-port="1" to-layer="7339" to-port="0" />
		<edge from-layer="7338" from-port="0" to-layer="7339" to-port="2" />
		<edge from-layer="7339" from-port="3" to-layer="7352" to-port="0" />
		<edge from-layer="7340" from-port="0" to-layer="7341" to-port="0" />
		<edge from-layer="7341" from-port="1" to-layer="7343" to-port="0" />
		<edge from-layer="7342" from-port="0" to-layer="7343" to-port="1" />
		<edge from-layer="7343" from-port="2" to-layer="7345" to-port="0" />
		<edge from-layer="7344" from-port="0" to-layer="7345" to-port="1" />
		<edge from-layer="7345" from-port="2" to-layer="7346" to-port="0" />
		<edge from-layer="7346" from-port="1" to-layer="7347" to-port="1" />
		<edge from-layer="7347" from-port="2" to-layer="7349" to-port="0" />
		<edge from-layer="7348" from-port="0" to-layer="7349" to-port="1" />
		<edge from-layer="7349" from-port="2" to-layer="7351" to-port="0" />
		<edge from-layer="7350" from-port="0" to-layer="7351" to-port="1" />
		<edge from-layer="7351" from-port="2" to-layer="7352" to-port="1" />
		<edge from-layer="7352" from-port="2" to-layer="7500" to-port="0" />
		<edge from-layer="7352" from-port="2" to-layer="7353" to-port="2" />
		<edge from-layer="7353" from-port="4" to-layer="7355" to-port="0" />
		<edge from-layer="7354" from-port="0" to-layer="7355" to-port="1" />
		<edge from-layer="7355" from-port="2" to-layer="7357" to-port="0" />
		<edge from-layer="7356" from-port="0" to-layer="7357" to-port="1" />
		<edge from-layer="7357" from-port="2" to-layer="7366" to-port="0" />
		<edge from-layer="7358" from-port="0" to-layer="7359" to-port="0" />
		<edge from-layer="7359" from-port="1" to-layer="7362" to-port="0" />
		<edge from-layer="7360" from-port="0" to-layer="7361" to-port="0" />
		<edge from-layer="7361" from-port="1" to-layer="7362" to-port="1" />
		<edge from-layer="7362" from-port="2" to-layer="7364" to-port="0" />
		<edge from-layer="7363" from-port="0" to-layer="7364" to-port="1" />
		<edge from-layer="7364" from-port="2" to-layer="7365" to-port="0" />
		<edge from-layer="7365" from-port="1" to-layer="7366" to-port="1" />
		<edge from-layer="7366" from-port="2" to-layer="7367" to-port="1" />
		<edge from-layer="7367" from-port="2" to-layer="7370" to-port="0" />
		<edge from-layer="7367" from-port="2" to-layer="7377" to-port="0" />
		<edge from-layer="7367" from-port="2" to-layer="7407" to-port="0" />
		<edge from-layer="7368" from-port="0" to-layer="7376" to-port="0" />
		<edge from-layer="7369" from-port="0" to-layer="7370" to-port="1" />
		<edge from-layer="7370" from-port="2" to-layer="7372" to-port="0" />
		<edge from-layer="7371" from-port="0" to-layer="7372" to-port="1" />
		<edge from-layer="7372" from-port="2" to-layer="7374" to-port="0" />
		<edge from-layer="7373" from-port="0" to-layer="7374" to-port="1" />
		<edge from-layer="7374" from-port="2" to-layer="7375" to-port="0" />
		<edge from-layer="7375" from-port="1" to-layer="7376" to-port="1" />
		<edge from-layer="7376" from-port="2" to-layer="7377" to-port="1" />
		<edge from-layer="7377" from-port="2" to-layer="7379" to-port="0" />
		<edge from-layer="7378" from-port="0" to-layer="7379" to-port="1" />
		<edge from-layer="7379" from-port="2" to-layer="7396" to-port="0" />
		<edge from-layer="7379" from-port="2" to-layer="7387" to-port="0" />
		<edge from-layer="7380" from-port="0" to-layer="7381" to-port="0" />
		<edge from-layer="7381" from-port="1" to-layer="7383" to-port="0" />
		<edge from-layer="7382" from-port="0" to-layer="7383" to-port="1" />
		<edge from-layer="7383" from-port="2" to-layer="7385" to-port="0" />
		<edge from-layer="7384" from-port="0" to-layer="7385" to-port="1" />
		<edge from-layer="7385" from-port="2" to-layer="7386" to-port="0" />
		<edge from-layer="7386" from-port="1" to-layer="7387" to-port="1" />
		<edge from-layer="7387" from-port="2" to-layer="7388" to-port="0" />
		<edge from-layer="7388" from-port="1" to-layer="7397" to-port="0" />
		<edge from-layer="7389" from-port="0" to-layer="7390" to-port="0" />
		<edge from-layer="7390" from-port="1" to-layer="7392" to-port="0" />
		<edge from-layer="7391" from-port="0" to-layer="7392" to-port="1" />
		<edge from-layer="7392" from-port="2" to-layer="7394" to-port="0" />
		<edge from-layer="7393" from-port="0" to-layer="7394" to-port="1" />
		<edge from-layer="7394" from-port="2" to-layer="7395" to-port="0" />
		<edge from-layer="7395" from-port="1" to-layer="7396" to-port="1" />
		<edge from-layer="7396" from-port="2" to-layer="7397" to-port="1" />
		<edge from-layer="7397" from-port="2" to-layer="7406" to-port="0" />
		<edge from-layer="7398" from-port="0" to-layer="7399" to-port="0" />
		<edge from-layer="7399" from-port="1" to-layer="7402" to-port="0" />
		<edge from-layer="7400" from-port="0" to-layer="7401" to-port="0" />
		<edge from-layer="7401" from-port="1" to-layer="7402" to-port="1" />
		<edge from-layer="7402" from-port="2" to-layer="7404" to-port="0" />
		<edge from-layer="7403" from-port="0" to-layer="7404" to-port="1" />
		<edge from-layer="7404" from-port="2" to-layer="7405" to-port="0" />
		<edge from-layer="7405" from-port="1" to-layer="7406" to-port="1" />
		<edge from-layer="7406" from-port="2" to-layer="7407" to-port="1" />
		<edge from-layer="7407" from-port="2" to-layer="7417" to-port="0" />
		<edge from-layer="7407" from-port="2" to-layer="7410" to-port="0" />
		<edge from-layer="7407" from-port="2" to-layer="7613" to-port="0" />
		<edge from-layer="7408" from-port="0" to-layer="7416" to-port="0" />
		<edge from-layer="7409" from-port="0" to-layer="7410" to-port="1" />
		<edge from-layer="7410" from-port="2" to-layer="7412" to-port="0" />
		<edge from-layer="7411" from-port="0" to-layer="7412" to-port="1" />
		<edge from-layer="7412" from-port="2" to-layer="7414" to-port="0" />
		<edge from-layer="7413" from-port="0" to-layer="7414" to-port="1" />
		<edge from-layer="7414" from-port="2" to-layer="7415" to-port="0" />
		<edge from-layer="7415" from-port="1" to-layer="7416" to-port="1" />
		<edge from-layer="7416" from-port="2" to-layer="7417" to-port="1" />
		<edge from-layer="7417" from-port="2" to-layer="7419" to-port="0" />
		<edge from-layer="7418" from-port="0" to-layer="7419" to-port="1" />
		<edge from-layer="7419" from-port="2" to-layer="7574" to-port="0" />
		<edge from-layer="7419" from-port="2" to-layer="7451" to-port="0" />
		<edge from-layer="7419" from-port="2" to-layer="7428" to-port="0" />
		<edge from-layer="7420" from-port="0" to-layer="7421" to-port="0" />
		<edge from-layer="7421" from-port="1" to-layer="7424" to-port="0" />
		<edge from-layer="7422" from-port="0" to-layer="7423" to-port="0" />
		<edge from-layer="7423" from-port="1" to-layer="7424" to-port="1" />
		<edge from-layer="7424" from-port="2" to-layer="7426" to-port="0" />
		<edge from-layer="7425" from-port="0" to-layer="7426" to-port="1" />
		<edge from-layer="7426" from-port="2" to-layer="7427" to-port="0" />
		<edge from-layer="7427" from-port="1" to-layer="7428" to-port="1" />
		<edge from-layer="7428" from-port="2" to-layer="7430" to-port="0" />
		<edge from-layer="7429" from-port="0" to-layer="7430" to-port="1" />
		<edge from-layer="7430" from-port="2" to-layer="7432" to-port="0" />
		<edge from-layer="7431" from-port="0" to-layer="7432" to-port="1" />
		<edge from-layer="7432" from-port="2" to-layer="7433" to-port="1" />
		<edge from-layer="7433" from-port="2" to-layer="7600" to-port="2" />
		<edge from-layer="7433" from-port="2" to-layer="7434" to-port="0" />
		<edge from-layer="7435" from-port="0" to-layer="7440" to-port="0" />
		<edge from-layer="7436" from-port="0" to-layer="7439" to-port="1" />
		<edge from-layer="7437" from-port="0" to-layer="7439" to-port="2" />
		<edge from-layer="7438" from-port="0" to-layer="7439" to-port="3" />
		<edge from-layer="7439" from-port="4" to-layer="7440" to-port="1" />
		<edge from-layer="7440" from-port="2" to-layer="7441" to-port="0" />
		<edge from-layer="7441" from-port="1" to-layer="7443" to-port="0" />
		<edge from-layer="7442" from-port="0" to-layer="7443" to-port="2" />
		<edge from-layer="7443" from-port="3" to-layer="7458" to-port="0" />
		<edge from-layer="7443" from-port="3" to-layer="7498" to-port="0" />
		<edge from-layer="7444" from-port="0" to-layer="7445" to-port="0" />
		<edge from-layer="7445" from-port="1" to-layer="7447" to-port="0" />
		<edge from-layer="7446" from-port="0" to-layer="7447" to-port="1" />
		<edge from-layer="7447" from-port="2" to-layer="7449" to-port="0" />
		<edge from-layer="7448" from-port="0" to-layer="7449" to-port="1" />
		<edge from-layer="7449" from-port="2" to-layer="7450" to-port="0" />
		<edge from-layer="7450" from-port="1" to-layer="7451" to-port="1" />
		<edge from-layer="7451" from-port="2" to-layer="7453" to-port="0" />
		<edge from-layer="7452" from-port="0" to-layer="7453" to-port="1" />
		<edge from-layer="7453" from-port="2" to-layer="7455" to-port="0" />
		<edge from-layer="7454" from-port="0" to-layer="7455" to-port="1" />
		<edge from-layer="7455" from-port="2" to-layer="7480" to-port="0" />
		<edge from-layer="7455" from-port="2" to-layer="7470" to-port="0" />
		<edge from-layer="7455" from-port="2" to-layer="7486" to-port="0" />
		<edge from-layer="7455" from-port="2" to-layer="7469" to-port="0" />
		<edge from-layer="7456" from-port="0" to-layer="7465" to-port="0" />
		<edge from-layer="7457" from-port="0" to-layer="7465" to-port="1" />
		<edge from-layer="7458" from-port="1" to-layer="7461" to-port="0" />
		<edge from-layer="7459" from-port="0" to-layer="7461" to-port="1" />
		<edge from-layer="7460" from-port="0" to-layer="7461" to-port="2" />
		<edge from-layer="7461" from-port="3" to-layer="7462" to-port="1" />
		<edge from-layer="7462" from-port="2" to-layer="7465" to-port="2" />
		<edge from-layer="7462" from-port="2" to-layer="7492" to-port="2" />
		<edge from-layer="7463" from-port="0" to-layer="7465" to-port="3" />
		<edge from-layer="7464" from-port="0" to-layer="7465" to-port="4" />
		<edge from-layer="7465" from-port="5" to-layer="7467" to-port="0" />
		<edge from-layer="7466" from-port="0" to-layer="7467" to-port="2" />
		<edge from-layer="7467" from-port="3" to-layer="7468" to-port="0" />
		<edge from-layer="7468" from-port="2" to-layer="7469" to-port="1" />
		<edge from-layer="7468" from-port="2" to-layer="7579" to-port="1" />
		<edge from-layer="7469" from-port="2" to-layer="7497" to-port="0" />
		<edge from-layer="7470" from-port="1" to-layer="7472" to-port="0" />
		<edge from-layer="7471" from-port="0" to-layer="7472" to-port="2" />
		<edge from-layer="7472" from-port="3" to-layer="7473" to-port="0" />
		<edge from-layer="7473" from-port="2" to-layer="7474" to-port="0" />
		<edge from-layer="7474" from-port="1" to-layer="7476" to-port="0" />
		<edge from-layer="7475" from-port="0" to-layer="7476" to-port="1" />
		<edge from-layer="7476" from-port="2" to-layer="7480" to-port="1" />
		<edge from-layer="7476" from-port="2" to-layer="7486" to-port="2" />
		<edge from-layer="7477" from-port="0" to-layer="7480" to-port="2" />
		<edge from-layer="7478" from-port="0" to-layer="7480" to-port="3" />
		<edge from-layer="7479" from-port="0" to-layer="7480" to-port="4" />
		<edge from-layer="7480" from-port="5" to-layer="7482" to-port="0" />
		<edge from-layer="7481" from-port="0" to-layer="7482" to-port="1" />
		<edge from-layer="7482" from-port="2" to-layer="7487" to-port="0" />
		<edge from-layer="7483" from-port="0" to-layer="7486" to-port="1" />
		<edge from-layer="7484" from-port="0" to-layer="7486" to-port="3" />
		<edge from-layer="7485" from-port="0" to-layer="7486" to-port="4" />
		<edge from-layer="7486" from-port="5" to-layer="7487" to-port="1" />
		<edge from-layer="7487" from-port="2" to-layer="7496" to-port="0" />
		<edge from-layer="7488" from-port="0" to-layer="7492" to-port="0" />
		<edge from-layer="7489" from-port="0" to-layer="7492" to-port="1" />
		<edge from-layer="7490" from-port="0" to-layer="7492" to-port="3" />
		<edge from-layer="7491" from-port="0" to-layer="7492" to-port="4" />
		<edge from-layer="7492" from-port="5" to-layer="7494" to-port="0" />
		<edge from-layer="7493" from-port="0" to-layer="7494" to-port="2" />
		<edge from-layer="7494" from-port="3" to-layer="7495" to-port="0" />
		<edge from-layer="7495" from-port="2" to-layer="7598" to-port="1" />
		<edge from-layer="7495" from-port="2" to-layer="7496" to-port="1" />
		<edge from-layer="7496" from-port="2" to-layer="7497" to-port="1" />
		<edge from-layer="7497" from-port="2" to-layer="7498" to-port="1" />
		<edge from-layer="7498" from-port="2" to-layer="7499" to-port="0" />
		<edge from-layer="7498" from-port="2" to-layer="7600" to-port="1" />
		<edge from-layer="7566" from-port="0" to-layer="7567" to-port="0" />
		<edge from-layer="7567" from-port="1" to-layer="7570" to-port="0" />
		<edge from-layer="7568" from-port="0" to-layer="7569" to-port="0" />
		<edge from-layer="7569" from-port="1" to-layer="7570" to-port="1" />
		<edge from-layer="7570" from-port="2" to-layer="7572" to-port="0" />
		<edge from-layer="7571" from-port="0" to-layer="7572" to-port="1" />
		<edge from-layer="7572" from-port="2" to-layer="7573" to-port="0" />
		<edge from-layer="7573" from-port="1" to-layer="7574" to-port="1" />
		<edge from-layer="7574" from-port="2" to-layer="7576" to-port="0" />
		<edge from-layer="7575" from-port="0" to-layer="7576" to-port="1" />
		<edge from-layer="7576" from-port="2" to-layer="7578" to-port="0" />
		<edge from-layer="7577" from-port="0" to-layer="7578" to-port="1" />
		<edge from-layer="7578" from-port="2" to-layer="7596" to-port="0" />
		<edge from-layer="7578" from-port="2" to-layer="7590" to-port="0" />
		<edge from-layer="7578" from-port="2" to-layer="7580" to-port="0" />
		<edge from-layer="7578" from-port="2" to-layer="7579" to-port="0" />
		<edge from-layer="7579" from-port="2" to-layer="7599" to-port="0" />
		<edge from-layer="7580" from-port="1" to-layer="7582" to-port="0" />
		<edge from-layer="7581" from-port="0" to-layer="7582" to-port="2" />
		<edge from-layer="7582" from-port="3" to-layer="7583" to-port="0" />
		<edge from-layer="7583" from-port="2" to-layer="7584" to-port="0" />
		<edge from-layer="7584" from-port="1" to-layer="7586" to-port="0" />
		<edge from-layer="7585" from-port="0" to-layer="7586" to-port="1" />
		<edge from-layer="7586" from-port="2" to-layer="7596" to-port="2" />
		<edge from-layer="7586" from-port="2" to-layer="7590" to-port="1" />
		<edge from-layer="7587" from-port="0" to-layer="7590" to-port="2" />
		<edge from-layer="7588" from-port="0" to-layer="7590" to-port="3" />
		<edge from-layer="7589" from-port="0" to-layer="7590" to-port="4" />
		<edge from-layer="7590" from-port="5" to-layer="7592" to-port="0" />
		<edge from-layer="7591" from-port="0" to-layer="7592" to-port="1" />
		<edge from-layer="7592" from-port="2" to-layer="7597" to-port="0" />
		<edge from-layer="7593" from-port="0" to-layer="7596" to-port="1" />
		<edge from-layer="7594" from-port="0" to-layer="7596" to-port="3" />
		<edge from-layer="7595" from-port="0" to-layer="7596" to-port="4" />
		<edge from-layer="7596" from-port="5" to-layer="7597" to-port="1" />
		<edge from-layer="7597" from-port="2" to-layer="7598" to-port="0" />
		<edge from-layer="7598" from-port="2" to-layer="7599" to-port="1" />
		<edge from-layer="7599" from-port="2" to-layer="7600" to-port="0" />
		<edge from-layer="7600" from-port="4" to-layer="7602" to-port="0" />
		<edge from-layer="7601" from-port="0" to-layer="7602" to-port="1" />
		<edge from-layer="7602" from-port="2" to-layer="7604" to-port="0" />
		<edge from-layer="7603" from-port="0" to-layer="7604" to-port="1" />
		<edge from-layer="7604" from-port="2" to-layer="7612" to-port="0" />
		<edge from-layer="7605" from-port="0" to-layer="7606" to-port="0" />
		<edge from-layer="7606" from-port="1" to-layer="7608" to-port="0" />
		<edge from-layer="7607" from-port="0" to-layer="7608" to-port="1" />
		<edge from-layer="7608" from-port="2" to-layer="7610" to-port="0" />
		<edge from-layer="7609" from-port="0" to-layer="7610" to-port="1" />
		<edge from-layer="7610" from-port="2" to-layer="7611" to-port="0" />
		<edge from-layer="7611" from-port="1" to-layer="7612" to-port="1" />
		<edge from-layer="7612" from-port="2" to-layer="7613" to-port="1" />
		<edge from-layer="7613" from-port="2" to-layer="7616" to-port="0" />
		<edge from-layer="7613" from-port="2" to-layer="7653" to-port="0" />
		<edge from-layer="7613" from-port="2" to-layer="7623" to-port="0" />
		<edge from-layer="7614" from-port="0" to-layer="7622" to-port="0" />
		<edge from-layer="7615" from-port="0" to-layer="7616" to-port="1" />
		<edge from-layer="7616" from-port="2" to-layer="7618" to-port="0" />
		<edge from-layer="7617" from-port="0" to-layer="7618" to-port="1" />
		<edge from-layer="7618" from-port="2" to-layer="7620" to-port="0" />
		<edge from-layer="7619" from-port="0" to-layer="7620" to-port="1" />
		<edge from-layer="7620" from-port="2" to-layer="7621" to-port="0" />
		<edge from-layer="7621" from-port="1" to-layer="7622" to-port="1" />
		<edge from-layer="7622" from-port="2" to-layer="7623" to-port="1" />
		<edge from-layer="7623" from-port="2" to-layer="7625" to-port="0" />
		<edge from-layer="7624" from-port="0" to-layer="7625" to-port="1" />
		<edge from-layer="7625" from-port="2" to-layer="7633" to-port="0" />
		<edge from-layer="7625" from-port="2" to-layer="7642" to-port="0" />
		<edge from-layer="7626" from-port="0" to-layer="7627" to-port="0" />
		<edge from-layer="7627" from-port="1" to-layer="7629" to-port="0" />
		<edge from-layer="7628" from-port="0" to-layer="7629" to-port="1" />
		<edge from-layer="7629" from-port="2" to-layer="7631" to-port="0" />
		<edge from-layer="7630" from-port="0" to-layer="7631" to-port="1" />
		<edge from-layer="7631" from-port="2" to-layer="7632" to-port="0" />
		<edge from-layer="7632" from-port="1" to-layer="7633" to-port="1" />
		<edge from-layer="7633" from-port="2" to-layer="7634" to-port="0" />
		<edge from-layer="7634" from-port="1" to-layer="7643" to-port="0" />
		<edge from-layer="7635" from-port="0" to-layer="7636" to-port="0" />
		<edge from-layer="7636" from-port="1" to-layer="7638" to-port="0" />
		<edge from-layer="7637" from-port="0" to-layer="7638" to-port="1" />
		<edge from-layer="7638" from-port="2" to-layer="7640" to-port="0" />
		<edge from-layer="7639" from-port="0" to-layer="7640" to-port="1" />
		<edge from-layer="7640" from-port="2" to-layer="7641" to-port="0" />
		<edge from-layer="7641" from-port="1" to-layer="7642" to-port="1" />
		<edge from-layer="7642" from-port="2" to-layer="7643" to-port="1" />
		<edge from-layer="7643" from-port="2" to-layer="7652" to-port="0" />
		<edge from-layer="7644" from-port="0" to-layer="7645" to-port="0" />
		<edge from-layer="7645" from-port="1" to-layer="7648" to-port="0" />
		<edge from-layer="7646" from-port="0" to-layer="7647" to-port="0" />
		<edge from-layer="7647" from-port="1" to-layer="7648" to-port="1" />
		<edge from-layer="7648" from-port="2" to-layer="7650" to-port="0" />
		<edge from-layer="7649" from-port="0" to-layer="7650" to-port="1" />
		<edge from-layer="7650" from-port="2" to-layer="7651" to-port="0" />
		<edge from-layer="7651" from-port="1" to-layer="7652" to-port="1" />
		<edge from-layer="7652" from-port="2" to-layer="7653" to-port="1" />
		<edge from-layer="7653" from-port="2" to-layer="7656" to-port="0" />
		<edge from-layer="7653" from-port="2" to-layer="7663" to-port="0" />
		<edge from-layer="7654" from-port="0" to-layer="7662" to-port="0" />
		<edge from-layer="7655" from-port="0" to-layer="7656" to-port="1" />
		<edge from-layer="7656" from-port="2" to-layer="7658" to-port="0" />
		<edge from-layer="7657" from-port="0" to-layer="7658" to-port="1" />
		<edge from-layer="7658" from-port="2" to-layer="7660" to-port="0" />
		<edge from-layer="7659" from-port="0" to-layer="7660" to-port="1" />
		<edge from-layer="7660" from-port="2" to-layer="7661" to-port="0" />
		<edge from-layer="7661" from-port="1" to-layer="7662" to-port="1" />
		<edge from-layer="7662" from-port="2" to-layer="7663" to-port="1" />
		<edge from-layer="7663" from-port="2" to-layer="7665" to-port="0" />
		<edge from-layer="7664" from-port="0" to-layer="7665" to-port="1" />
		<edge from-layer="7665" from-port="2" to-layer="7667" to-port="0" />
		<edge from-layer="7666" from-port="0" to-layer="7667" to-port="1" />
		<edge from-layer="7667" from-port="2" to-layer="7668" to-port="0" />
		<edge from-layer="7668" from-port="2" to-layer="7669" to-port="0" />
	</edges>
	<rt_info>
		<Runtime_version value="2024.4.0-16579-c3152d32c9c-releases/2024/4" />
		<conversion_parameters>
			<framework value="pytorch" />
			<is_python_object value="True" />
		</conversion_parameters>
		<nncf>
			<friendly_names_were_updated value="True" />
			<weight_compression>
				<advanced_parameters value="{'awq_params': {'subset_size': 32, 'percent_to_apply': 0.002, 'alpha_min': 0.0, 'alpha_max': 1.0, 'steps': 100}, 'scale_estimation_params': {'subset_size': 64, 'initial_steps': 5, 'scale_steps': 5, 'weight_penalty': -1.0}, 'gptq_params': {'damp_percent': 0.1, 'block_size': 128, 'subset_size': 128}, 'lora_correction_params': {'adapter_rank': 8, 'num_iterations': 3, 'apply_regularization': True, 'subset_size': 128, 'use_int8_adapters': True}}" />
				<all_layers value="False" />
				<awq value="False" />
				<gptq value="False" />
				<group_size value="64" />
				<ignored_scope value="[]" />
				<lora_correction value="False" />
				<mode value="int4_sym" />
				<ratio value="0.6" />
				<scale_estimation value="False" />
				<sensitivity_metric value="weight_quantization_error" />
			</weight_compression>
		</nncf>
		<optimum>
			<optimum_intel_version value="1.20.0.dev0+abfb4f4" />
			<optimum_version value="1.22.0" />
			<pytorch_version value="2.4.1+cpu" />
			<transformers_version value="4.45.0.dev0" />
		</optimum>
	</rt_info>
</net>
