<?xml version="1.0"?>
<net name="Model6" version="11">
	<layers>
		<layer id="2" name="hidden_states" type="Parameter" version="opset1">
			<data shape="?,?" element_type="f32" />
			<output>
				<port id="0" precision="FP32" names="hidden_states">
					<dim>-1</dim>
					<dim>-1</dim>
				</port>
			</output>
		</layer>
		<layer id="1" name="attention_mask" type="Parameter" version="opset1">
			<data shape="?,?,?" element_type="f32" />
			<output>
				<port id="0" precision="FP32" names="attention_mask">
					<dim>-1</dim>
					<dim>-1</dim>
					<dim>-1</dim>
				</port>
			</output>
		</layer>
		<layer id="0" name="rotary_pos_emb" type="Parameter" version="opset1">
			<data shape="?,?" element_type="f32" />
			<output>
				<port id="0" precision="FP32" names="rotary_pos_emb">
					<dim>-1</dim>
					<dim>-1</dim>
				</port>
			</output>
		</layer>
		<layer id="3" name="__module.blocks.0.norm1/aten::layer_norm/Multiply" type="Const" version="opset1">
			<data element_type="i32" shape="1" offset="0" size="4" />
			<output>
				<port id="0" precision="I32">
					<dim>1</dim>
				</port>
			</output>
		</layer>
		<layer id="4" name="__module.blocks.0.norm1/aten::layer_norm/MVN" type="MVN" version="opset6">
			<data eps="9.9999999747524271e-07" normalize_variance="true" eps_mode="INSIDE_SQRT" />
			<input>
				<port id="0" precision="FP32">
					<dim>-1</dim>
					<dim>-1</dim>
				</port>
				<port id="1" precision="I32">
					<dim>1</dim>
				</port>
			</input>
			<output>
				<port id="2" precision="FP32">
					<dim>-1</dim>
					<dim>-1</dim>
				</port>
			</output>
		</layer>
		<layer id="5" name="Constant_106482" type="Const" version="opset1">
			<data element_type="f32" shape="1, 1280" offset="4" size="5120" />
			<output>
				<port id="0" precision="FP32">
					<dim>1</dim>
					<dim>1280</dim>
				</port>
			</output>
		</layer>
		<layer id="6" name="__module.blocks.0.norm1/aten::layer_norm/Multiply_1" type="Multiply" version="opset1">
			<data auto_broadcast="numpy" />
			<input>
				<port id="0" precision="FP32">
					<dim>-1</dim>
					<dim>-1</dim>
				</port>
				<port id="1" precision="FP32">
					<dim>1</dim>
					<dim>1280</dim>
				</port>
			</input>
			<output>
				<port id="2" precision="FP32">
					<dim>-1</dim>
					<dim>1280</dim>
				</port>
			</output>
		</layer>
		<layer id="7" name="Constant_106483" type="Const" version="opset1">
			<data element_type="f32" shape="1, 1280" offset="5124" size="5120" />
			<output>
				<port id="0" precision="FP32">
					<dim>1</dim>
					<dim>1280</dim>
				</port>
			</output>
		</layer>
		<layer id="8" name="__module.blocks.0.norm1/aten::layer_norm/Add" type="Add" version="opset1">
			<data auto_broadcast="numpy" />
			<input>
				<port id="0" precision="FP32">
					<dim>-1</dim>
					<dim>1280</dim>
				</port>
				<port id="1" precision="FP32">
					<dim>1</dim>
					<dim>1280</dim>
				</port>
			</input>
			<output>
				<port id="2" precision="FP32" names="125,hidden_states.3">
					<dim>-1</dim>
					<dim>1280</dim>
				</port>
			</output>
		</layer>
		<layer id="9" name="self.blocks.0.attn.qkv.weight" type="Const" version="opset1">
			<data element_type="u4" shape="3840, 10, 128" offset="10244" size="2457600" />
			<output>
				<port id="0" precision="U4">
					<dim>3840</dim>
					<dim>10</dim>
					<dim>128</dim>
				</port>
			</output>
		</layer>
		<layer id="10" name="Convert_116160" type="Convert" version="opset1">
			<data destination_type="f16" />
			<input>
				<port id="0" precision="U4">
					<dim>3840</dim>
					<dim>10</dim>
					<dim>128</dim>
				</port>
			</input>
			<output>
				<port id="1" precision="FP16">
					<dim>3840</dim>
					<dim>10</dim>
					<dim>128</dim>
				</port>
			</output>
		</layer>
		<layer id="11" name="self.blocks.0.attn.qkv.weight/zero_point" type="Const" version="opset1">
			<data element_type="u4" shape="3840, 10, 1" offset="2467844" size="19200" />
			<output>
				<port id="0" precision="U4">
					<dim>3840</dim>
					<dim>10</dim>
					<dim>1</dim>
				</port>
			</output>
		</layer>
		<layer id="12" name="Convert_116162" type="Convert" version="opset1">
			<data destination_type="f16" />
			<input>
				<port id="0" precision="U4">
					<dim>3840</dim>
					<dim>10</dim>
					<dim>1</dim>
				</port>
			</input>
			<output>
				<port id="1" precision="FP16">
					<dim>3840</dim>
					<dim>10</dim>
					<dim>1</dim>
				</port>
			</output>
		</layer>
		<layer id="13" name="self.blocks.0.attn.qkv.weight/zero_point/subtract" type="Subtract" version="opset1">
			<data auto_broadcast="numpy" />
			<input>
				<port id="0" precision="FP16">
					<dim>3840</dim>
					<dim>10</dim>
					<dim>128</dim>
				</port>
				<port id="1" precision="FP16">
					<dim>3840</dim>
					<dim>10</dim>
					<dim>1</dim>
				</port>
			</input>
			<output>
				<port id="2" precision="FP16">
					<dim>3840</dim>
					<dim>10</dim>
					<dim>128</dim>
				</port>
			</output>
		</layer>
		<layer id="14" name="self.blocks.0.attn.qkv.weight/scale" type="Const" version="opset1">
			<data element_type="f16" shape="3840, 10, 1" offset="2487044" size="76800" />
			<output>
				<port id="0" precision="FP16">
					<dim>3840</dim>
					<dim>10</dim>
					<dim>1</dim>
				</port>
			</output>
		</layer>
		<layer id="15" name="self.blocks.0.attn.qkv.weight/fq_weights_1" type="Multiply" version="opset1">
			<data auto_broadcast="numpy" />
			<input>
				<port id="0" precision="FP16">
					<dim>3840</dim>
					<dim>10</dim>
					<dim>128</dim>
				</port>
				<port id="1" precision="FP16">
					<dim>3840</dim>
					<dim>10</dim>
					<dim>1</dim>
				</port>
			</input>
			<output>
				<port id="2" precision="FP16">
					<dim>3840</dim>
					<dim>10</dim>
					<dim>128</dim>
				</port>
			</output>
		</layer>
		<layer id="16" name="Constant_116167" type="Const" version="opset1">
			<data element_type="i64" shape="2" offset="2563844" size="16" />
			<output>
				<port id="0" precision="I64">
					<dim>2</dim>
				</port>
			</output>
		</layer>
		<layer id="17" name="Reshape_116168" type="Reshape" version="opset1">
			<data special_zero="false" />
			<input>
				<port id="0" precision="FP16">
					<dim>3840</dim>
					<dim>10</dim>
					<dim>128</dim>
				</port>
				<port id="1" precision="I64">
					<dim>2</dim>
				</port>
			</input>
			<output>
				<port id="2" precision="FP16">
					<dim>3840</dim>
					<dim>1280</dim>
				</port>
			</output>
		</layer>
		<layer id="18" name="self.blocks.0.attn.qkv.weight/fq_weights_1/convert" type="Convert" version="opset1">
			<data destination_type="f32" />
			<input>
				<port id="0" precision="FP16">
					<dim>3840</dim>
					<dim>1280</dim>
				</port>
			</input>
			<output>
				<port id="1" precision="FP32">
					<dim>3840</dim>
					<dim>1280</dim>
				</port>
			</output>
		</layer>
		<layer id="19" name="__module.blocks.0.attn.qkv/aten::linear/MatMul" type="MatMul" version="opset1">
			<data transpose_a="false" transpose_b="true" />
			<input>
				<port id="0" precision="FP32">
					<dim>-1</dim>
					<dim>1280</dim>
				</port>
				<port id="1" precision="FP32">
					<dim>3840</dim>
					<dim>1280</dim>
				</port>
			</input>
			<output>
				<port id="2" precision="FP32">
					<dim>-1</dim>
					<dim>3840</dim>
				</port>
			</output>
		</layer>
		<layer id="20" name="Constant_106484" type="Const" version="opset1">
			<data element_type="f32" shape="1, 3840" offset="2563860" size="15360" />
			<output>
				<port id="0" precision="FP32">
					<dim>1</dim>
					<dim>3840</dim>
				</port>
			</output>
		</layer>
		<layer id="21" name="__module.blocks.0.attn.qkv/aten::linear/Add" type="Add" version="opset1">
			<data auto_broadcast="numpy" />
			<input>
				<port id="0" precision="FP32">
					<dim>-1</dim>
					<dim>3840</dim>
				</port>
				<port id="1" precision="FP32">
					<dim>1</dim>
					<dim>3840</dim>
				</port>
			</input>
			<output>
				<port id="2" precision="FP32" names="131">
					<dim>-1</dim>
					<dim>3840</dim>
				</port>
			</output>
		</layer>
		<layer id="22" name="Constant_110297" type="Const" version="opset1">
			<data element_type="i64" shape="4" offset="2579220" size="32" />
			<output>
				<port id="0" precision="I64">
					<dim>4</dim>
				</port>
			</output>
		</layer>
		<layer id="23" name="__module.blocks.0.attn/aten::reshape/Reshape" type="Reshape" version="opset1">
			<data special_zero="true" />
			<input>
				<port id="0" precision="FP32">
					<dim>-1</dim>
					<dim>3840</dim>
				</port>
				<port id="1" precision="I64">
					<dim>4</dim>
				</port>
			</input>
			<output>
				<port id="2" precision="FP32" names="133">
					<dim>-1</dim>
					<dim>3</dim>
					<dim>16</dim>
					<dim>80</dim>
				</port>
			</output>
		</layer>
		<layer id="24" name="Constant_3751" type="Const" version="opset1">
			<data element_type="i64" shape="4" offset="2579252" size="32" />
			<output>
				<port id="0" precision="I64" names="134">
					<dim>4</dim>
				</port>
			</output>
		</layer>
		<layer id="25" name="__module.blocks.0.attn/aten::permute/Transpose" type="Transpose" version="opset1">
			<input>
				<port id="0" precision="FP32">
					<dim>-1</dim>
					<dim>3</dim>
					<dim>16</dim>
					<dim>80</dim>
				</port>
				<port id="1" precision="I64">
					<dim>4</dim>
				</port>
			</input>
			<output>
				<port id="2" precision="FP32" names="135">
					<dim>3</dim>
					<dim>-1</dim>
					<dim>16</dim>
					<dim>80</dim>
				</port>
			</output>
		</layer>
		<layer id="26" name="103" type="Const" version="opset1">
			<data element_type="i64" shape="" offset="2579284" size="8" />
			<output>
				<port id="0" precision="I64" names="103" />
			</output>
		</layer>
		<layer id="27" name="__module.blocks.0.attn/prim::ListUnpack/Split" type="Split" version="opset1">
			<data num_splits="3" />
			<input>
				<port id="0" precision="FP32">
					<dim>3</dim>
					<dim>-1</dim>
					<dim>16</dim>
					<dim>80</dim>
				</port>
				<port id="1" precision="I64" />
			</input>
			<output>
				<port id="2" precision="FP32">
					<dim>1</dim>
					<dim>-1</dim>
					<dim>16</dim>
					<dim>80</dim>
				</port>
				<port id="3" precision="FP32">
					<dim>1</dim>
					<dim>-1</dim>
					<dim>16</dim>
					<dim>80</dim>
				</port>
				<port id="4" precision="FP32">
					<dim>1</dim>
					<dim>-1</dim>
					<dim>16</dim>
					<dim>80</dim>
				</port>
			</output>
		</layer>
		<layer id="28" name="__module.blocks.0.attn/prim::ListUnpack/Squeeze" type="Squeeze" version="opset1">
			<input>
				<port id="0" precision="FP32">
					<dim>1</dim>
					<dim>-1</dim>
					<dim>16</dim>
					<dim>80</dim>
				</port>
				<port id="1" precision="I64" />
			</input>
			<output>
				<port id="2" precision="FP32" names="137,q.1">
					<dim>-1</dim>
					<dim>16</dim>
					<dim>80</dim>
				</port>
			</output>
		</layer>
		<layer id="29" name="__module.blocks.0.attn/aten::unsqueeze/Unsqueeze" type="Unsqueeze" version="opset1">
			<input>
				<port id="0" precision="FP32">
					<dim>-1</dim>
					<dim>16</dim>
					<dim>80</dim>
				</port>
				<port id="1" precision="I64" />
			</input>
			<output>
				<port id="2" precision="FP32" names="140,141,tensor.1,tensor.3">
					<dim>1</dim>
					<dim>-1</dim>
					<dim>16</dim>
					<dim>80</dim>
				</port>
			</output>
		</layer>
		<layer id="30" name="__module.blocks.0.attn/aten::cos/Cos" type="Cos" version="opset1">
			<input>
				<port id="0" precision="FP32">
					<dim>-1</dim>
					<dim>-1</dim>
				</port>
			</input>
			<output>
				<port id="1" precision="FP32" names="1052,1084,1182,1214,1312,1344,142,1442,1474,1572,1604,1702,1734,174,1832,1864,1962,1994,2092,2124,2222,2254,2352,2384,2482,2514,2612,2644,272,2742,2774,2872,2904,3002,3034,304,3132,3164,3262,3294,3392,3424,3522,3554,3652,3684,3782,3814,3912,3944,402,4042,4074,4172,4204,434,532,564,662,694,792,824,922,954,cos.1,cos.101,cos.105,cos.109,cos.113,cos.117,cos.121,cos.125,cos.129,cos.13,cos.133,cos.137,cos.141,cos.145,cos.149,cos.153,cos.157,cos.161,cos.165,cos.169,cos.17,cos.173,cos.177,cos.181,cos.185,cos.189,cos.193,cos.197,cos.201,cos.205,cos.209,cos.21,cos.213,cos.217,cos.221,cos.225,cos.229,cos.233,cos.237,cos.241,cos.245,cos.249,cos.25,cos.253,cos.29,cos.33,cos.37,cos.41,cos.45,cos.49,cos.5,cos.53,cos.57,cos.61,cos.65,cos.69,cos.73,cos.77,cos.81,cos.85,cos.89,cos.9,cos.93,cos.97">
					<dim>-1</dim>
					<dim>-1</dim>
				</port>
			</output>
		</layer>
		<layer id="31" name="107" type="Const" version="opset1">
			<data element_type="i64" shape="" offset="2579292" size="8" />
			<output>
				<port id="0" precision="I64" names="107" />
			</output>
		</layer>
		<layer id="32" name="__module.blocks.0.attn/aten::unsqueeze/Unsqueeze_1" type="Unsqueeze" version="opset1">
			<input>
				<port id="0" precision="FP32">
					<dim>-1</dim>
					<dim>-1</dim>
				</port>
				<port id="1" precision="I64" />
			</input>
			<output>
				<port id="2" precision="FP32" names="1054,1086,1184,1216,1314,1346,144,1444,1476,1574,1606,1704,1736,176,1834,1866,1964,1996,2094,2126,2224,2256,2354,2386,2484,2516,2614,2646,274,2744,2776,2874,2906,3004,3036,306,3134,3166,3264,3296,3394,3426,3524,3556,3654,3686,3784,3816,3914,3946,404,4044,4076,4174,4206,436,534,566,664,696,794,826,924,956">
					<dim>-1</dim>
					<dim>1</dim>
					<dim>-1</dim>
				</port>
			</output>
		</layer>
		<layer id="33" name="Constant_3777" type="Const" version="opset1">
			<data element_type="i64" shape="3" offset="2579300" size="24" />
			<output>
				<port id="0" precision="I64" names="145">
					<dim>3</dim>
				</port>
			</output>
		</layer>
		<layer id="34" name="__module.blocks.0.attn/aten::repeat/Tile" type="Tile" version="opset1">
			<input>
				<port id="0" precision="FP32">
					<dim>-1</dim>
					<dim>1</dim>
					<dim>-1</dim>
				</port>
				<port id="1" precision="I64">
					<dim>3</dim>
				</port>
			</input>
			<output>
				<port id="2" precision="FP32" names="1056,1088,1186,1218,1316,1348,1446,146,1478,1576,1608,1706,1738,178,1836,1868,1966,1998,2096,2128,2226,2258,2356,2388,2486,2518,2616,2648,2746,276,2778,2876,2908,3006,3038,308,3136,3168,3266,3298,3396,3428,3526,3558,3656,3688,3786,3818,3916,3948,4046,406,4078,4176,4208,438,536,568,666,698,796,828,926,958">
					<dim>-1</dim>
					<dim>1</dim>
					<dim>-1</dim>
				</port>
			</output>
		</layer>
		<layer id="35" name="__module.blocks.0.attn/aten::unsqueeze/Unsqueeze_2" type="Unsqueeze" version="opset1">
			<input>
				<port id="0" precision="FP32">
					<dim>-1</dim>
					<dim>1</dim>
					<dim>-1</dim>
				</port>
				<port id="1" precision="I64" />
			</input>
			<output>
				<port id="2" precision="FP32" names="1057,1058,1089,1090,1187,1188,1219,1220,1317,1318,1349,1350,1447,1448,147,1479,148,1480,1577,1578,1609,1610,1707,1708,1739,1740,179,180,1837,1838,1869,1870,1967,1968,1999,2000,2097,2098,2129,2130,2227,2228,2259,2260,2357,2358,2389,2390,2487,2488,2519,2520,2617,2618,2649,2650,2747,2748,277,2779,278,2780,2877,2878,2909,2910,3007,3008,3039,3040,309,310,3137,3138,3169,3170,3267,3268,3299,3300,3397,3398,3429,3430,3527,3528,3559,3560,3657,3658,3689,3690,3787,3788,3819,3820,3917,3918,3949,3950,4047,4048,407,4079,408,4080,4177,4178,4209,4210,439,440,537,538,569,570,667,668,699,700,797,798,829,830,927,928,959,960,cos,cos.103,cos.107,cos.11,cos.111,cos.115,cos.119,cos.123,cos.127,cos.131,cos.135,cos.139,cos.143,cos.147,cos.15,cos.151,cos.155,cos.159,cos.163,cos.167,cos.171,cos.175,cos.179,cos.183,cos.187,cos.19,cos.191,cos.195,cos.199,cos.203,cos.207,cos.211,cos.215,cos.219,cos.223,cos.227,cos.23,cos.231,cos.235,cos.239,cos.243,cos.247,cos.251,cos.27,cos.3,cos.31,cos.35,cos.39,cos.43,cos.47,cos.51,cos.55,cos.59,cos.63,cos.67,cos.7,cos.71,cos.75,cos.79,cos.83,cos.87,cos.91,cos.95,cos.99">
					<dim>1</dim>
					<dim>-1</dim>
					<dim>1</dim>
					<dim>-1</dim>
				</port>
			</output>
		</layer>
		<layer id="36" name="__module.blocks.0.attn/aten::mul/Multiply" type="Multiply" version="opset1">
			<data auto_broadcast="numpy" />
			<input>
				<port id="0" precision="FP32">
					<dim>1</dim>
					<dim>-1</dim>
					<dim>16</dim>
					<dim>80</dim>
				</port>
				<port id="1" precision="FP32">
					<dim>1</dim>
					<dim>-1</dim>
					<dim>1</dim>
					<dim>-1</dim>
				</port>
			</input>
			<output>
				<port id="2" precision="FP32" names="154">
					<dim>1</dim>
					<dim>-1</dim>
					<dim>16</dim>
					<dim>80</dim>
				</port>
			</output>
		</layer>
		<layer id="37" name="__module.blocks.0.attn/aten::size/ShapeOf_2" type="ShapeOf" version="opset3">
			<data output_type="i64" />
			<input>
				<port id="0" precision="FP32">
					<dim>1</dim>
					<dim>-1</dim>
					<dim>16</dim>
					<dim>80</dim>
				</port>
			</input>
			<output>
				<port id="1" precision="I64">
					<dim>4</dim>
				</port>
			</output>
		</layer>
		<layer id="38" name="104" type="Const" version="opset1">
			<data element_type="i64" shape="" offset="2579324" size="8" />
			<output>
				<port id="0" precision="I64" names="104" />
			</output>
		</layer>
		<layer id="39" name="__module.blocks.0.attn/aten::size/Constant_2" type="Const" version="opset1">
			<data element_type="i32" shape="" offset="2579332" size="4" />
			<output>
				<port id="0" precision="I32" />
			</output>
		</layer>
		<layer id="40" name="__module.blocks.0.attn/aten::size/Gather_2" type="Gather" version="opset8">
			<data batch_dims="0" />
			<input>
				<port id="0" precision="I64">
					<dim>4</dim>
				</port>
				<port id="1" precision="I64" />
				<port id="2" precision="I32" />
			</input>
			<output>
				<port id="3" precision="I64" names="155,160" />
			</output>
		</layer>
		<layer id="41" name="Constant_3700" type="Const" version="opset1">
			<data element_type="i64" shape="" offset="2579336" size="8" />
			<output>
				<port id="0" precision="I64" names="112" />
			</output>
		</layer>
		<layer id="42" name="__module.blocks.0.attn/aten::floor_divide/Divide_1" type="Divide" version="opset1">
			<data auto_broadcast="numpy" m_pythondiv="true" />
			<input>
				<port id="0" precision="I64" />
				<port id="1" precision="I64" />
			</input>
			<output>
				<port id="2" precision="I64" />
			</output>
		</layer>
		<layer id="43" name="__module.blocks.0.attn/aten::floor_divide/Floor_1" type="Floor" version="opset1">
			<input>
				<port id="0" precision="I64" />
			</input>
			<output>
				<port id="1" precision="I64" names="157,158,162,163" />
			</output>
		</layer>
		<layer id="44" name="Constant_75587" type="Const" version="opset1">
			<data element_type="i64" shape="1" offset="2579344" size="8" />
			<output>
				<port id="0" precision="I64">
					<dim>1</dim>
				</port>
			</output>
		</layer>
		<layer id="45" name="__module.blocks.0.attn/aten::slice/Reshape_5" type="Reshape" version="opset1">
			<data special_zero="false" />
			<input>
				<port id="0" precision="I64" />
				<port id="1" precision="I64">
					<dim>1</dim>
				</port>
			</input>
			<output>
				<port id="2" precision="I64">
					<dim>1</dim>
				</port>
			</output>
		</layer>
		<layer id="46" name="__module.blocks.0.attn/aten::slice/Reshape_1" type="Const" version="opset1">
			<data element_type="i64" shape="1" offset="2579352" size="8" />
			<output>
				<port id="0" precision="I64">
					<dim>1</dim>
				</port>
			</output>
		</layer>
		<layer id="47" name="__module.blocks.0.attn/aten::slice/Reshape_2" type="Const" version="opset1">
			<data element_type="i64" shape="1" offset="2579292" size="8" />
			<output>
				<port id="0" precision="I64">
					<dim>1</dim>
				</port>
			</output>
		</layer>
		<layer id="48" name="__module.blocks.0.attn/aten::slice/Reshape_3" type="Const" version="opset1">
			<data element_type="i64" shape="1" offset="2579324" size="8" />
			<output>
				<port id="0" precision="I64">
					<dim>1</dim>
				</port>
			</output>
		</layer>
		<layer id="49" name="__module.blocks.0.attn/aten::slice/Slice" type="Slice" version="opset8">
			<input>
				<port id="0" precision="FP32">
					<dim>1</dim>
					<dim>-1</dim>
					<dim>16</dim>
					<dim>80</dim>
				</port>
				<port id="1" precision="I64">
					<dim>1</dim>
				</port>
				<port id="2" precision="I64">
					<dim>1</dim>
				</port>
				<port id="3" precision="I64">
					<dim>1</dim>
				</port>
				<port id="4" precision="I64">
					<dim>1</dim>
				</port>
			</input>
			<output>
				<port id="5" precision="FP32" names="164,x2.1">
					<dim>1</dim>
					<dim>-1</dim>
					<dim>16</dim>
					<dim>40</dim>
				</port>
			</output>
		</layer>
		<layer id="50" name="Constant_106485" type="Const" version="opset1">
			<data element_type="f32" shape="1, 1, 1, 1" offset="2579360" size="4" />
			<output>
				<port id="0" precision="FP32">
					<dim>1</dim>
					<dim>1</dim>
					<dim>1</dim>
					<dim>1</dim>
				</port>
			</output>
		</layer>
		<layer id="51" name="__module.blocks.0.attn/aten::neg/Multiply" type="Multiply" version="opset1">
			<data auto_broadcast="numpy" />
			<input>
				<port id="0" precision="FP32">
					<dim>1</dim>
					<dim>-1</dim>
					<dim>16</dim>
					<dim>40</dim>
				</port>
				<port id="1" precision="FP32">
					<dim>1</dim>
					<dim>1</dim>
					<dim>1</dim>
					<dim>1</dim>
				</port>
			</input>
			<output>
				<port id="2" precision="FP32" names="165">
					<dim>1</dim>
					<dim>-1</dim>
					<dim>16</dim>
					<dim>40</dim>
				</port>
			</output>
		</layer>
		<layer id="52" name="__module.blocks.0.attn/aten::slice/Reshape_4" type="Const" version="opset1">
			<data element_type="i64" shape="1" offset="2579284" size="8" />
			<output>
				<port id="0" precision="I64">
					<dim>1</dim>
				</port>
			</output>
		</layer>
		<layer id="53" name="__module.blocks.0.attn/aten::slice/Reshape_6" type="Const" version="opset1">
			<data element_type="i64" shape="1" offset="2579292" size="8" />
			<output>
				<port id="0" precision="I64">
					<dim>1</dim>
				</port>
			</output>
		</layer>
		<layer id="54" name="__module.blocks.0.attn/aten::slice/Reshape_7" type="Const" version="opset1">
			<data element_type="i64" shape="1" offset="2579324" size="8" />
			<output>
				<port id="0" precision="I64">
					<dim>1</dim>
				</port>
			</output>
		</layer>
		<layer id="55" name="__module.blocks.0.attn/aten::slice/Slice_1" type="Slice" version="opset8">
			<input>
				<port id="0" precision="FP32">
					<dim>1</dim>
					<dim>-1</dim>
					<dim>16</dim>
					<dim>80</dim>
				</port>
				<port id="1" precision="I64">
					<dim>1</dim>
				</port>
				<port id="2" precision="I64">
					<dim>1</dim>
				</port>
				<port id="3" precision="I64">
					<dim>1</dim>
				</port>
				<port id="4" precision="I64">
					<dim>1</dim>
				</port>
			</input>
			<output>
				<port id="5" precision="FP32" names="159">
					<dim>1</dim>
					<dim>-1</dim>
					<dim>16</dim>
					<dim>40</dim>
				</port>
			</output>
		</layer>
		<layer id="56" name="__module.blocks.0.attn/aten::cat/Concat" type="Concat" version="opset1">
			<data axis="-1" />
			<input>
				<port id="0" precision="FP32">
					<dim>1</dim>
					<dim>-1</dim>
					<dim>16</dim>
					<dim>40</dim>
				</port>
				<port id="1" precision="FP32">
					<dim>1</dim>
					<dim>-1</dim>
					<dim>16</dim>
					<dim>40</dim>
				</port>
			</input>
			<output>
				<port id="2" precision="FP32" names="167">
					<dim>1</dim>
					<dim>-1</dim>
					<dim>16</dim>
					<dim>80</dim>
				</port>
			</output>
		</layer>
		<layer id="57" name="__module.blocks.0.attn/aten::sin/Sin" type="Sin" version="opset1">
			<input>
				<port id="0" precision="FP32">
					<dim>-1</dim>
					<dim>-1</dim>
				</port>
			</input>
			<output>
				<port id="1" precision="FP32" names="1053,1085,1183,1215,1313,1345,143,1443,1475,1573,1605,1703,1735,175,1833,1865,1963,1995,2093,2125,2223,2255,2353,2385,2483,2515,2613,2645,273,2743,2775,2873,2905,3003,3035,305,3133,3165,3263,3295,3393,3425,3523,3555,3653,3685,3783,3815,3913,3945,403,4043,4075,4173,4205,435,533,565,663,695,793,825,923,955,sin.1,sin.101,sin.105,sin.109,sin.113,sin.117,sin.121,sin.125,sin.129,sin.13,sin.133,sin.137,sin.141,sin.145,sin.149,sin.153,sin.157,sin.161,sin.165,sin.169,sin.17,sin.173,sin.177,sin.181,sin.185,sin.189,sin.193,sin.197,sin.201,sin.205,sin.209,sin.21,sin.213,sin.217,sin.221,sin.225,sin.229,sin.233,sin.237,sin.241,sin.245,sin.249,sin.25,sin.253,sin.29,sin.33,sin.37,sin.41,sin.45,sin.49,sin.5,sin.53,sin.57,sin.61,sin.65,sin.69,sin.73,sin.77,sin.81,sin.85,sin.89,sin.9,sin.93,sin.97">
					<dim>-1</dim>
					<dim>-1</dim>
				</port>
			</output>
		</layer>
		<layer id="58" name="__module.blocks.0.attn/aten::unsqueeze/Unsqueeze_3" type="Unsqueeze" version="opset1">
			<input>
				<port id="0" precision="FP32">
					<dim>-1</dim>
					<dim>-1</dim>
				</port>
				<port id="1" precision="I64" />
			</input>
			<output>
				<port id="2" precision="FP32" names="1059,1091,1189,1221,1319,1351,1449,1481,149,1579,1611,1709,1741,181,1839,1871,1969,2001,2099,2131,2229,2261,2359,2391,2489,2521,2619,2651,2749,2781,279,2879,2911,3009,3041,311,3139,3171,3269,3301,3399,3431,3529,3561,3659,3691,3789,3821,3919,3951,4049,4081,409,4179,4211,441,539,571,669,701,799,831,929,961">
					<dim>-1</dim>
					<dim>1</dim>
					<dim>-1</dim>
				</port>
			</output>
		</layer>
		<layer id="59" name="Constant_3787" type="Const" version="opset1">
			<data element_type="i64" shape="3" offset="2579300" size="24" />
			<output>
				<port id="0" precision="I64" names="150">
					<dim>3</dim>
				</port>
			</output>
		</layer>
		<layer id="60" name="__module.blocks.0.attn/aten::repeat/Tile_1" type="Tile" version="opset1">
			<input>
				<port id="0" precision="FP32">
					<dim>-1</dim>
					<dim>1</dim>
					<dim>-1</dim>
				</port>
				<port id="1" precision="I64">
					<dim>3</dim>
				</port>
			</input>
			<output>
				<port id="2" precision="FP32" names="1061,1093,1191,1223,1321,1353,1451,1483,151,1581,1613,1711,1743,183,1841,1873,1971,2003,2101,2133,2231,2263,2361,2393,2491,2523,2621,2653,2751,2783,281,2881,2913,3011,3043,313,3141,3173,3271,3303,3401,3433,3531,3563,3661,3693,3791,3823,3921,3953,4051,4083,411,4181,4213,443,541,573,671,703,801,833,931,963">
					<dim>-1</dim>
					<dim>1</dim>
					<dim>-1</dim>
				</port>
			</output>
		</layer>
		<layer id="61" name="__module.blocks.0.attn/aten::unsqueeze/Unsqueeze_4" type="Unsqueeze" version="opset1">
			<input>
				<port id="0" precision="FP32">
					<dim>-1</dim>
					<dim>1</dim>
					<dim>-1</dim>
				</port>
				<port id="1" precision="I64" />
			</input>
			<output>
				<port id="2" precision="FP32" names="1062,1063,1094,1095,1192,1193,1224,1225,1322,1323,1354,1355,1452,1453,1484,1485,152,153,1582,1583,1614,1615,1712,1713,1744,1745,184,1842,1843,185,1874,1875,1972,1973,2004,2005,2102,2103,2134,2135,2232,2233,2264,2265,2362,2363,2394,2395,2492,2493,2524,2525,2622,2623,2654,2655,2752,2753,2784,2785,282,283,2882,2883,2914,2915,3012,3013,3044,3045,314,3142,3143,315,3174,3175,3272,3273,3304,3305,3402,3403,3434,3435,3532,3533,3564,3565,3662,3663,3694,3695,3792,3793,3824,3825,3922,3923,3954,3955,4052,4053,4084,4085,412,413,4182,4183,4214,4215,444,445,542,543,574,575,672,673,704,705,802,803,834,835,932,933,964,965,sin,sin.103,sin.107,sin.11,sin.111,sin.115,sin.119,sin.123,sin.127,sin.131,sin.135,sin.139,sin.143,sin.147,sin.15,sin.151,sin.155,sin.159,sin.163,sin.167,sin.171,sin.175,sin.179,sin.183,sin.187,sin.19,sin.191,sin.195,sin.199,sin.203,sin.207,sin.211,sin.215,sin.219,sin.223,sin.227,sin.23,sin.231,sin.235,sin.239,sin.243,sin.247,sin.251,sin.27,sin.3,sin.31,sin.35,sin.39,sin.43,sin.47,sin.51,sin.55,sin.59,sin.63,sin.67,sin.7,sin.71,sin.75,sin.79,sin.83,sin.87,sin.91,sin.95,sin.99">
					<dim>1</dim>
					<dim>-1</dim>
					<dim>1</dim>
					<dim>-1</dim>
				</port>
			</output>
		</layer>
		<layer id="62" name="__module.blocks.0.attn/aten::mul/Multiply_1" type="Multiply" version="opset1">
			<data auto_broadcast="numpy" />
			<input>
				<port id="0" precision="FP32">
					<dim>1</dim>
					<dim>-1</dim>
					<dim>16</dim>
					<dim>80</dim>
				</port>
				<port id="1" precision="FP32">
					<dim>1</dim>
					<dim>-1</dim>
					<dim>1</dim>
					<dim>-1</dim>
				</port>
			</input>
			<output>
				<port id="2" precision="FP32" names="168">
					<dim>1</dim>
					<dim>-1</dim>
					<dim>16</dim>
					<dim>80</dim>
				</port>
			</output>
		</layer>
		<layer id="63" name="__module.blocks.0.attn/aten::add/Add" type="Add" version="opset1">
			<data auto_broadcast="numpy" />
			<input>
				<port id="0" precision="FP32">
					<dim>1</dim>
					<dim>-1</dim>
					<dim>16</dim>
					<dim>80</dim>
				</port>
				<port id="1" precision="FP32">
					<dim>1</dim>
					<dim>-1</dim>
					<dim>16</dim>
					<dim>80</dim>
				</port>
			</input>
			<output>
				<port id="2" precision="FP32" names="169,170,output.1">
					<dim>1</dim>
					<dim>-1</dim>
					<dim>16</dim>
					<dim>80</dim>
				</port>
			</output>
		</layer>
		<layer id="64" name="__module.blocks.0.attn/aten::squeeze/Squeeze" type="Squeeze" version="opset1">
			<input>
				<port id="0" precision="FP32">
					<dim>1</dim>
					<dim>-1</dim>
					<dim>16</dim>
					<dim>80</dim>
				</port>
				<port id="1" precision="I64" />
			</input>
			<output>
				<port id="2" precision="FP32" names="171,q.3">
					<dim>-1</dim>
					<dim>16</dim>
					<dim>80</dim>
				</port>
			</output>
		</layer>
		<layer id="65" name="__module.blocks.0.attn/aten::transpose/ScatterElementsUpdate" type="Const" version="opset1">
			<data element_type="i32" shape="3" offset="2579364" size="12" />
			<output>
				<port id="0" precision="I32">
					<dim>3</dim>
				</port>
			</output>
		</layer>
		<layer id="66" name="__module.blocks.0.attn/aten::transpose/Transpose" type="Transpose" version="opset1">
			<input>
				<port id="0" precision="FP32">
					<dim>-1</dim>
					<dim>16</dim>
					<dim>80</dim>
				</port>
				<port id="1" precision="I32">
					<dim>3</dim>
				</port>
			</input>
			<output>
				<port id="2" precision="FP32" names="204">
					<dim>16</dim>
					<dim>-1</dim>
					<dim>80</dim>
				</port>
			</output>
		</layer>
		<layer id="67" name="__module.blocks.0.attn/prim::ListUnpack/Squeeze_0" type="Squeeze" version="opset1">
			<input>
				<port id="0" precision="FP32">
					<dim>1</dim>
					<dim>-1</dim>
					<dim>16</dim>
					<dim>80</dim>
				</port>
				<port id="1" precision="I64" />
			</input>
			<output>
				<port id="2" precision="FP32" names="138,k.1">
					<dim>-1</dim>
					<dim>16</dim>
					<dim>80</dim>
				</port>
			</output>
		</layer>
		<layer id="68" name="__module.blocks.0.attn/aten::unsqueeze/Unsqueeze_5" type="Unsqueeze" version="opset1">
			<input>
				<port id="0" precision="FP32">
					<dim>-1</dim>
					<dim>16</dim>
					<dim>80</dim>
				</port>
				<port id="1" precision="I64" />
			</input>
			<output>
				<port id="2" precision="FP32" names="172,173,tensor.5,tensor.7">
					<dim>1</dim>
					<dim>-1</dim>
					<dim>16</dim>
					<dim>80</dim>
				</port>
			</output>
		</layer>
		<layer id="69" name="__module.blocks.0.attn/aten::mul/Multiply_2" type="Multiply" version="opset1">
			<data auto_broadcast="numpy" />
			<input>
				<port id="0" precision="FP32">
					<dim>1</dim>
					<dim>-1</dim>
					<dim>16</dim>
					<dim>80</dim>
				</port>
				<port id="1" precision="FP32">
					<dim>1</dim>
					<dim>-1</dim>
					<dim>1</dim>
					<dim>-1</dim>
				</port>
			</input>
			<output>
				<port id="2" precision="FP32" names="186">
					<dim>1</dim>
					<dim>-1</dim>
					<dim>16</dim>
					<dim>80</dim>
				</port>
			</output>
		</layer>
		<layer id="70" name="__module.blocks.0.attn/aten::size/ShapeOf_4" type="ShapeOf" version="opset3">
			<data output_type="i64" />
			<input>
				<port id="0" precision="FP32">
					<dim>1</dim>
					<dim>-1</dim>
					<dim>16</dim>
					<dim>80</dim>
				</port>
			</input>
			<output>
				<port id="1" precision="I64">
					<dim>4</dim>
				</port>
			</output>
		</layer>
		<layer id="71" name="__module.blocks.0.attn/aten::size/Constant_4" type="Const" version="opset1">
			<data element_type="i32" shape="" offset="2579332" size="4" />
			<output>
				<port id="0" precision="I32" />
			</output>
		</layer>
		<layer id="72" name="__module.blocks.0.attn/aten::size/Gather_4" type="Gather" version="opset8">
			<data batch_dims="0" />
			<input>
				<port id="0" precision="I64">
					<dim>4</dim>
				</port>
				<port id="1" precision="I64" />
				<port id="2" precision="I32" />
			</input>
			<output>
				<port id="3" precision="I64" names="187,192" />
			</output>
		</layer>
		<layer id="73" name="__module.blocks.0.attn/aten::floor_divide/Divide_3" type="Divide" version="opset1">
			<data auto_broadcast="numpy" m_pythondiv="true" />
			<input>
				<port id="0" precision="I64" />
				<port id="1" precision="I64" />
			</input>
			<output>
				<port id="2" precision="I64" />
			</output>
		</layer>
		<layer id="74" name="__module.blocks.0.attn/aten::floor_divide/Floor_3" type="Floor" version="opset1">
			<input>
				<port id="0" precision="I64" />
			</input>
			<output>
				<port id="1" precision="I64" names="189,190,194,195" />
			</output>
		</layer>
		<layer id="75" name="Constant_75588" type="Const" version="opset1">
			<data element_type="i64" shape="1" offset="2579344" size="8" />
			<output>
				<port id="0" precision="I64">
					<dim>1</dim>
				</port>
			</output>
		</layer>
		<layer id="76" name="__module.blocks.0.attn/aten::slice/Reshape_13" type="Reshape" version="opset1">
			<data special_zero="false" />
			<input>
				<port id="0" precision="I64" />
				<port id="1" precision="I64">
					<dim>1</dim>
				</port>
			</input>
			<output>
				<port id="2" precision="I64">
					<dim>1</dim>
				</port>
			</output>
		</layer>
		<layer id="77" name="__module.blocks.0.attn/aten::slice/Reshape_9" type="Const" version="opset1">
			<data element_type="i64" shape="1" offset="2579352" size="8" />
			<output>
				<port id="0" precision="I64">
					<dim>1</dim>
				</port>
			</output>
		</layer>
		<layer id="78" name="__module.blocks.0.attn/aten::slice/Reshape_10" type="Const" version="opset1">
			<data element_type="i64" shape="1" offset="2579292" size="8" />
			<output>
				<port id="0" precision="I64">
					<dim>1</dim>
				</port>
			</output>
		</layer>
		<layer id="79" name="__module.blocks.0.attn/aten::slice/Reshape_11" type="Const" version="opset1">
			<data element_type="i64" shape="1" offset="2579324" size="8" />
			<output>
				<port id="0" precision="I64">
					<dim>1</dim>
				</port>
			</output>
		</layer>
		<layer id="80" name="__module.blocks.0.attn/aten::slice/Slice_2" type="Slice" version="opset8">
			<input>
				<port id="0" precision="FP32">
					<dim>1</dim>
					<dim>-1</dim>
					<dim>16</dim>
					<dim>80</dim>
				</port>
				<port id="1" precision="I64">
					<dim>1</dim>
				</port>
				<port id="2" precision="I64">
					<dim>1</dim>
				</port>
				<port id="3" precision="I64">
					<dim>1</dim>
				</port>
				<port id="4" precision="I64">
					<dim>1</dim>
				</port>
			</input>
			<output>
				<port id="5" precision="FP32" names="196,x2.3">
					<dim>1</dim>
					<dim>-1</dim>
					<dim>16</dim>
					<dim>40</dim>
				</port>
			</output>
		</layer>
		<layer id="81" name="Constant_106486" type="Const" version="opset1">
			<data element_type="f32" shape="1, 1, 1, 1" offset="2579360" size="4" />
			<output>
				<port id="0" precision="FP32">
					<dim>1</dim>
					<dim>1</dim>
					<dim>1</dim>
					<dim>1</dim>
				</port>
			</output>
		</layer>
		<layer id="82" name="__module.blocks.0.attn/aten::neg/Multiply_1" type="Multiply" version="opset1">
			<data auto_broadcast="numpy" />
			<input>
				<port id="0" precision="FP32">
					<dim>1</dim>
					<dim>-1</dim>
					<dim>16</dim>
					<dim>40</dim>
				</port>
				<port id="1" precision="FP32">
					<dim>1</dim>
					<dim>1</dim>
					<dim>1</dim>
					<dim>1</dim>
				</port>
			</input>
			<output>
				<port id="2" precision="FP32" names="197">
					<dim>1</dim>
					<dim>-1</dim>
					<dim>16</dim>
					<dim>40</dim>
				</port>
			</output>
		</layer>
		<layer id="83" name="__module.blocks.0.attn/aten::slice/Reshape_12" type="Const" version="opset1">
			<data element_type="i64" shape="1" offset="2579284" size="8" />
			<output>
				<port id="0" precision="I64">
					<dim>1</dim>
				</port>
			</output>
		</layer>
		<layer id="84" name="__module.blocks.0.attn/aten::slice/Reshape_14" type="Const" version="opset1">
			<data element_type="i64" shape="1" offset="2579292" size="8" />
			<output>
				<port id="0" precision="I64">
					<dim>1</dim>
				</port>
			</output>
		</layer>
		<layer id="85" name="__module.blocks.0.attn/aten::slice/Reshape_15" type="Const" version="opset1">
			<data element_type="i64" shape="1" offset="2579324" size="8" />
			<output>
				<port id="0" precision="I64">
					<dim>1</dim>
				</port>
			</output>
		</layer>
		<layer id="86" name="__module.blocks.0.attn/aten::slice/Slice_3" type="Slice" version="opset8">
			<input>
				<port id="0" precision="FP32">
					<dim>1</dim>
					<dim>-1</dim>
					<dim>16</dim>
					<dim>80</dim>
				</port>
				<port id="1" precision="I64">
					<dim>1</dim>
				</port>
				<port id="2" precision="I64">
					<dim>1</dim>
				</port>
				<port id="3" precision="I64">
					<dim>1</dim>
				</port>
				<port id="4" precision="I64">
					<dim>1</dim>
				</port>
			</input>
			<output>
				<port id="5" precision="FP32" names="191">
					<dim>1</dim>
					<dim>-1</dim>
					<dim>16</dim>
					<dim>40</dim>
				</port>
			</output>
		</layer>
		<layer id="87" name="__module.blocks.0.attn/aten::cat/Concat_1" type="Concat" version="opset1">
			<data axis="-1" />
			<input>
				<port id="0" precision="FP32">
					<dim>1</dim>
					<dim>-1</dim>
					<dim>16</dim>
					<dim>40</dim>
				</port>
				<port id="1" precision="FP32">
					<dim>1</dim>
					<dim>-1</dim>
					<dim>16</dim>
					<dim>40</dim>
				</port>
			</input>
			<output>
				<port id="2" precision="FP32" names="199">
					<dim>1</dim>
					<dim>-1</dim>
					<dim>16</dim>
					<dim>80</dim>
				</port>
			</output>
		</layer>
		<layer id="88" name="__module.blocks.0.attn/aten::mul/Multiply_3" type="Multiply" version="opset1">
			<data auto_broadcast="numpy" />
			<input>
				<port id="0" precision="FP32">
					<dim>1</dim>
					<dim>-1</dim>
					<dim>16</dim>
					<dim>80</dim>
				</port>
				<port id="1" precision="FP32">
					<dim>1</dim>
					<dim>-1</dim>
					<dim>1</dim>
					<dim>-1</dim>
				</port>
			</input>
			<output>
				<port id="2" precision="FP32" names="200">
					<dim>1</dim>
					<dim>-1</dim>
					<dim>16</dim>
					<dim>80</dim>
				</port>
			</output>
		</layer>
		<layer id="89" name="__module.blocks.0.attn/aten::add/Add_1" type="Add" version="opset1">
			<data auto_broadcast="numpy" />
			<input>
				<port id="0" precision="FP32">
					<dim>1</dim>
					<dim>-1</dim>
					<dim>16</dim>
					<dim>80</dim>
				</port>
				<port id="1" precision="FP32">
					<dim>1</dim>
					<dim>-1</dim>
					<dim>16</dim>
					<dim>80</dim>
				</port>
			</input>
			<output>
				<port id="2" precision="FP32" names="201,202,output.3">
					<dim>1</dim>
					<dim>-1</dim>
					<dim>16</dim>
					<dim>80</dim>
				</port>
			</output>
		</layer>
		<layer id="90" name="__module.blocks.0.attn/aten::squeeze/Squeeze_1" type="Squeeze" version="opset1">
			<input>
				<port id="0" precision="FP32">
					<dim>1</dim>
					<dim>-1</dim>
					<dim>16</dim>
					<dim>80</dim>
				</port>
				<port id="1" precision="I64" />
			</input>
			<output>
				<port id="2" precision="FP32" names="203,k.3">
					<dim>-1</dim>
					<dim>16</dim>
					<dim>80</dim>
				</port>
			</output>
		</layer>
		<layer id="91" name="__module.blocks.0.attn/aten::transpose/ScatterElementsUpdate_1" type="Const" version="opset1">
			<data element_type="i32" shape="3" offset="2579364" size="12" />
			<output>
				<port id="0" precision="I32">
					<dim>3</dim>
				</port>
			</output>
		</layer>
		<layer id="92" name="__module.blocks.0.attn/aten::transpose/Transpose_1" type="Transpose" version="opset1">
			<input>
				<port id="0" precision="FP32">
					<dim>-1</dim>
					<dim>16</dim>
					<dim>80</dim>
				</port>
				<port id="1" precision="I32">
					<dim>3</dim>
				</port>
			</input>
			<output>
				<port id="2" precision="FP32" names="205">
					<dim>16</dim>
					<dim>-1</dim>
					<dim>80</dim>
				</port>
			</output>
		</layer>
		<layer id="93" name="__module.blocks.0.attn/prim::ListUnpack/Squeeze_1" type="Squeeze" version="opset1">
			<input>
				<port id="0" precision="FP32">
					<dim>1</dim>
					<dim>-1</dim>
					<dim>16</dim>
					<dim>80</dim>
				</port>
				<port id="1" precision="I64" />
			</input>
			<output>
				<port id="2" precision="FP32" names="139,v.1">
					<dim>-1</dim>
					<dim>16</dim>
					<dim>80</dim>
				</port>
			</output>
		</layer>
		<layer id="94" name="__module.blocks.0.attn/aten::transpose/ScatterElementsUpdate_2" type="Const" version="opset1">
			<data element_type="i32" shape="3" offset="2579364" size="12" />
			<output>
				<port id="0" precision="I32">
					<dim>3</dim>
				</port>
			</output>
		</layer>
		<layer id="95" name="__module.blocks.0.attn/aten::transpose/Transpose_2" type="Transpose" version="opset1">
			<input>
				<port id="0" precision="FP32">
					<dim>-1</dim>
					<dim>16</dim>
					<dim>80</dim>
				</port>
				<port id="1" precision="I32">
					<dim>3</dim>
				</port>
			</input>
			<output>
				<port id="2" precision="FP32" names="206">
					<dim>16</dim>
					<dim>-1</dim>
					<dim>80</dim>
				</port>
			</output>
		</layer>
		<layer id="96" name="__module.blocks.0.attn/aten::scaled_dot_product_attention/ScaledDotProductAttention" type="ScaledDotProductAttention" version="opset13">
			<data causal="false" />
			<input>
				<port id="0" precision="FP32">
					<dim>16</dim>
					<dim>-1</dim>
					<dim>80</dim>
				</port>
				<port id="1" precision="FP32">
					<dim>16</dim>
					<dim>-1</dim>
					<dim>80</dim>
				</port>
				<port id="2" precision="FP32">
					<dim>16</dim>
					<dim>-1</dim>
					<dim>80</dim>
				</port>
				<port id="3" precision="FP32">
					<dim>-1</dim>
					<dim>-1</dim>
					<dim>-1</dim>
				</port>
			</input>
			<output>
				<port id="4" precision="FP32" names="207,attn_output.1">
					<dim>16</dim>
					<dim>-1</dim>
					<dim>80</dim>
				</port>
			</output>
		</layer>
		<layer id="97" name="__module.blocks.0.attn/aten::transpose/ScatterElementsUpdate_3" type="Const" version="opset1">
			<data element_type="i32" shape="3" offset="2579364" size="12" />
			<output>
				<port id="0" precision="I32">
					<dim>3</dim>
				</port>
			</output>
		</layer>
		<layer id="98" name="__module.blocks.0.attn/aten::transpose/Transpose_3" type="Transpose" version="opset1">
			<input>
				<port id="0" precision="FP32">
					<dim>16</dim>
					<dim>-1</dim>
					<dim>80</dim>
				</port>
				<port id="1" precision="I32">
					<dim>3</dim>
				</port>
			</input>
			<output>
				<port id="2" precision="FP32" names="208,attn_output.3">
					<dim>-1</dim>
					<dim>16</dim>
					<dim>80</dim>
				</port>
			</output>
		</layer>
		<layer id="99" name="Concat_80854" type="Const" version="opset1">
			<data element_type="i64" shape="2" offset="2579376" size="16" />
			<output>
				<port id="0" precision="I64">
					<dim>2</dim>
				</port>
			</output>
		</layer>
		<layer id="100" name="__module.blocks.0.attn/aten::reshape/Reshape_1" type="Reshape" version="opset1">
			<data special_zero="false" />
			<input>
				<port id="0" precision="FP32">
					<dim>-1</dim>
					<dim>16</dim>
					<dim>80</dim>
				</port>
				<port id="1" precision="I64">
					<dim>2</dim>
				</port>
			</input>
			<output>
				<port id="2" precision="FP32" names="210">
					<dim>-1</dim>
					<dim>1280</dim>
				</port>
			</output>
		</layer>
		<layer id="101" name="self.blocks.0.attn.proj.weight" type="Const" version="opset1">
			<data element_type="u4" shape="1280, 10, 128" offset="2579392" size="819200" />
			<output>
				<port id="0" precision="U4">
					<dim>1280</dim>
					<dim>10</dim>
					<dim>128</dim>
				</port>
			</output>
		</layer>
		<layer id="102" name="Convert_116512" type="Convert" version="opset1">
			<data destination_type="f16" />
			<input>
				<port id="0" precision="U4">
					<dim>1280</dim>
					<dim>10</dim>
					<dim>128</dim>
				</port>
			</input>
			<output>
				<port id="1" precision="FP16">
					<dim>1280</dim>
					<dim>10</dim>
					<dim>128</dim>
				</port>
			</output>
		</layer>
		<layer id="103" name="self.blocks.0.attn.proj.weight/zero_point" type="Const" version="opset1">
			<data element_type="u4" shape="1280, 10, 1" offset="3398592" size="6400" />
			<output>
				<port id="0" precision="U4">
					<dim>1280</dim>
					<dim>10</dim>
					<dim>1</dim>
				</port>
			</output>
		</layer>
		<layer id="104" name="Convert_116514" type="Convert" version="opset1">
			<data destination_type="f16" />
			<input>
				<port id="0" precision="U4">
					<dim>1280</dim>
					<dim>10</dim>
					<dim>1</dim>
				</port>
			</input>
			<output>
				<port id="1" precision="FP16">
					<dim>1280</dim>
					<dim>10</dim>
					<dim>1</dim>
				</port>
			</output>
		</layer>
		<layer id="105" name="self.blocks.0.attn.proj.weight/zero_point/subtract" type="Subtract" version="opset1">
			<data auto_broadcast="numpy" />
			<input>
				<port id="0" precision="FP16">
					<dim>1280</dim>
					<dim>10</dim>
					<dim>128</dim>
				</port>
				<port id="1" precision="FP16">
					<dim>1280</dim>
					<dim>10</dim>
					<dim>1</dim>
				</port>
			</input>
			<output>
				<port id="2" precision="FP16">
					<dim>1280</dim>
					<dim>10</dim>
					<dim>128</dim>
				</port>
			</output>
		</layer>
		<layer id="106" name="self.blocks.0.attn.proj.weight/scale" type="Const" version="opset1">
			<data element_type="f16" shape="1280, 10, 1" offset="3404992" size="25600" />
			<output>
				<port id="0" precision="FP16">
					<dim>1280</dim>
					<dim>10</dim>
					<dim>1</dim>
				</port>
			</output>
		</layer>
		<layer id="107" name="self.blocks.0.attn.proj.weight/fq_weights_1" type="Multiply" version="opset1">
			<data auto_broadcast="numpy" />
			<input>
				<port id="0" precision="FP16">
					<dim>1280</dim>
					<dim>10</dim>
					<dim>128</dim>
				</port>
				<port id="1" precision="FP16">
					<dim>1280</dim>
					<dim>10</dim>
					<dim>1</dim>
				</port>
			</input>
			<output>
				<port id="2" precision="FP16">
					<dim>1280</dim>
					<dim>10</dim>
					<dim>128</dim>
				</port>
			</output>
		</layer>
		<layer id="108" name="Constant_116519" type="Const" version="opset1">
			<data element_type="i64" shape="2" offset="3430592" size="16" />
			<output>
				<port id="0" precision="I64">
					<dim>2</dim>
				</port>
			</output>
		</layer>
		<layer id="109" name="Reshape_116520" type="Reshape" version="opset1">
			<data special_zero="false" />
			<input>
				<port id="0" precision="FP16">
					<dim>1280</dim>
					<dim>10</dim>
					<dim>128</dim>
				</port>
				<port id="1" precision="I64">
					<dim>2</dim>
				</port>
			</input>
			<output>
				<port id="2" precision="FP16">
					<dim>1280</dim>
					<dim>1280</dim>
				</port>
			</output>
		</layer>
		<layer id="110" name="self.blocks.0.attn.proj.weight/fq_weights_1/convert" type="Convert" version="opset1">
			<data destination_type="f32" />
			<input>
				<port id="0" precision="FP16">
					<dim>1280</dim>
					<dim>1280</dim>
				</port>
			</input>
			<output>
				<port id="1" precision="FP32">
					<dim>1280</dim>
					<dim>1280</dim>
				</port>
			</output>
		</layer>
		<layer id="111" name="__module.blocks.0.attn.proj/aten::linear/MatMul" type="MatMul" version="opset1">
			<data transpose_a="false" transpose_b="true" />
			<input>
				<port id="0" precision="FP32">
					<dim>-1</dim>
					<dim>1280</dim>
				</port>
				<port id="1" precision="FP32">
					<dim>1280</dim>
					<dim>1280</dim>
				</port>
			</input>
			<output>
				<port id="2" precision="FP32">
					<dim>-1</dim>
					<dim>1280</dim>
				</port>
			</output>
		</layer>
		<layer id="112" name="Constant_106487" type="Const" version="opset1">
			<data element_type="f32" shape="1, 1280" offset="3430608" size="5120" />
			<output>
				<port id="0" precision="FP32">
					<dim>1</dim>
					<dim>1280</dim>
				</port>
			</output>
		</layer>
		<layer id="113" name="__module.blocks.0.attn.proj/aten::linear/Add" type="Add" version="opset1">
			<data auto_broadcast="numpy" />
			<input>
				<port id="0" precision="FP32">
					<dim>-1</dim>
					<dim>1280</dim>
				</port>
				<port id="1" precision="FP32">
					<dim>1</dim>
					<dim>1280</dim>
				</port>
			</input>
			<output>
				<port id="2" precision="FP32" names="213">
					<dim>-1</dim>
					<dim>1280</dim>
				</port>
			</output>
		</layer>
		<layer id="114" name="__module.blocks.0/aten::add/Add" type="Add" version="opset1">
			<data auto_broadcast="numpy" />
			<input>
				<port id="0" precision="FP32">
					<dim>-1</dim>
					<dim>-1</dim>
				</port>
				<port id="1" precision="FP32">
					<dim>-1</dim>
					<dim>1280</dim>
				</port>
			</input>
			<output>
				<port id="2" precision="FP32" names="214,hidden_states.5">
					<dim>-1</dim>
					<dim>1280</dim>
				</port>
			</output>
		</layer>
		<layer id="115" name="__module.blocks.0.norm2/aten::layer_norm/Multiply" type="Const" version="opset1">
			<data element_type="i32" shape="1" offset="0" size="4" />
			<output>
				<port id="0" precision="I32">
					<dim>1</dim>
				</port>
			</output>
		</layer>
		<layer id="116" name="__module.blocks.0.norm2/aten::layer_norm/MVN" type="MVN" version="opset6">
			<data eps="9.9999999747524271e-07" normalize_variance="true" eps_mode="INSIDE_SQRT" />
			<input>
				<port id="0" precision="FP32">
					<dim>-1</dim>
					<dim>1280</dim>
				</port>
				<port id="1" precision="I32">
					<dim>1</dim>
				</port>
			</input>
			<output>
				<port id="2" precision="FP32">
					<dim>-1</dim>
					<dim>1280</dim>
				</port>
			</output>
		</layer>
		<layer id="117" name="Constant_106488" type="Const" version="opset1">
			<data element_type="f32" shape="1, 1280" offset="3435728" size="5120" />
			<output>
				<port id="0" precision="FP32">
					<dim>1</dim>
					<dim>1280</dim>
				</port>
			</output>
		</layer>
		<layer id="118" name="__module.blocks.0.norm2/aten::layer_norm/Multiply_1" type="Multiply" version="opset1">
			<data auto_broadcast="numpy" />
			<input>
				<port id="0" precision="FP32">
					<dim>-1</dim>
					<dim>1280</dim>
				</port>
				<port id="1" precision="FP32">
					<dim>1</dim>
					<dim>1280</dim>
				</port>
			</input>
			<output>
				<port id="2" precision="FP32">
					<dim>-1</dim>
					<dim>1280</dim>
				</port>
			</output>
		</layer>
		<layer id="119" name="Constant_106489" type="Const" version="opset1">
			<data element_type="f32" shape="1, 1280" offset="3440848" size="5120" />
			<output>
				<port id="0" precision="FP32">
					<dim>1</dim>
					<dim>1280</dim>
				</port>
			</output>
		</layer>
		<layer id="120" name="__module.blocks.0.norm2/aten::layer_norm/Add" type="Add" version="opset1">
			<data auto_broadcast="numpy" />
			<input>
				<port id="0" precision="FP32">
					<dim>-1</dim>
					<dim>1280</dim>
				</port>
				<port id="1" precision="FP32">
					<dim>1</dim>
					<dim>1280</dim>
				</port>
			</input>
			<output>
				<port id="2" precision="FP32" names="218">
					<dim>-1</dim>
					<dim>1280</dim>
				</port>
			</output>
		</layer>
		<layer id="121" name="self.blocks.0.mlp.fc1.weight" type="Const" version="opset1">
			<data element_type="u4" shape="5120, 10, 128" offset="3445968" size="3276800" />
			<output>
				<port id="0" precision="U4">
					<dim>5120</dim>
					<dim>10</dim>
					<dim>128</dim>
				</port>
			</output>
		</layer>
		<layer id="122" name="Convert_115456" type="Convert" version="opset1">
			<data destination_type="f16" />
			<input>
				<port id="0" precision="U4">
					<dim>5120</dim>
					<dim>10</dim>
					<dim>128</dim>
				</port>
			</input>
			<output>
				<port id="1" precision="FP16">
					<dim>5120</dim>
					<dim>10</dim>
					<dim>128</dim>
				</port>
			</output>
		</layer>
		<layer id="123" name="self.blocks.0.mlp.fc1.weight/zero_point" type="Const" version="opset1">
			<data element_type="u4" shape="5120, 10, 1" offset="6722768" size="25600" />
			<output>
				<port id="0" precision="U4">
					<dim>5120</dim>
					<dim>10</dim>
					<dim>1</dim>
				</port>
			</output>
		</layer>
		<layer id="124" name="Convert_115458" type="Convert" version="opset1">
			<data destination_type="f16" />
			<input>
				<port id="0" precision="U4">
					<dim>5120</dim>
					<dim>10</dim>
					<dim>1</dim>
				</port>
			</input>
			<output>
				<port id="1" precision="FP16">
					<dim>5120</dim>
					<dim>10</dim>
					<dim>1</dim>
				</port>
			</output>
		</layer>
		<layer id="125" name="self.blocks.0.mlp.fc1.weight/zero_point/subtract" type="Subtract" version="opset1">
			<data auto_broadcast="numpy" />
			<input>
				<port id="0" precision="FP16">
					<dim>5120</dim>
					<dim>10</dim>
					<dim>128</dim>
				</port>
				<port id="1" precision="FP16">
					<dim>5120</dim>
					<dim>10</dim>
					<dim>1</dim>
				</port>
			</input>
			<output>
				<port id="2" precision="FP16">
					<dim>5120</dim>
					<dim>10</dim>
					<dim>128</dim>
				</port>
			</output>
		</layer>
		<layer id="126" name="self.blocks.0.mlp.fc1.weight/scale" type="Const" version="opset1">
			<data element_type="f16" shape="5120, 10, 1" offset="6748368" size="102400" />
			<output>
				<port id="0" precision="FP16">
					<dim>5120</dim>
					<dim>10</dim>
					<dim>1</dim>
				</port>
			</output>
		</layer>
		<layer id="127" name="self.blocks.0.mlp.fc1.weight/fq_weights_1" type="Multiply" version="opset1">
			<data auto_broadcast="numpy" />
			<input>
				<port id="0" precision="FP16">
					<dim>5120</dim>
					<dim>10</dim>
					<dim>128</dim>
				</port>
				<port id="1" precision="FP16">
					<dim>5120</dim>
					<dim>10</dim>
					<dim>1</dim>
				</port>
			</input>
			<output>
				<port id="2" precision="FP16">
					<dim>5120</dim>
					<dim>10</dim>
					<dim>128</dim>
				</port>
			</output>
		</layer>
		<layer id="128" name="Constant_115463" type="Const" version="opset1">
			<data element_type="i64" shape="2" offset="6850768" size="16" />
			<output>
				<port id="0" precision="I64">
					<dim>2</dim>
				</port>
			</output>
		</layer>
		<layer id="129" name="Reshape_115464" type="Reshape" version="opset1">
			<data special_zero="false" />
			<input>
				<port id="0" precision="FP16">
					<dim>5120</dim>
					<dim>10</dim>
					<dim>128</dim>
				</port>
				<port id="1" precision="I64">
					<dim>2</dim>
				</port>
			</input>
			<output>
				<port id="2" precision="FP16">
					<dim>5120</dim>
					<dim>1280</dim>
				</port>
			</output>
		</layer>
		<layer id="130" name="self.blocks.0.mlp.fc1.weight/fq_weights_1/convert" type="Convert" version="opset1">
			<data destination_type="f32" />
			<input>
				<port id="0" precision="FP16">
					<dim>5120</dim>
					<dim>1280</dim>
				</port>
			</input>
			<output>
				<port id="1" precision="FP32">
					<dim>5120</dim>
					<dim>1280</dim>
				</port>
			</output>
		</layer>
		<layer id="131" name="__module.blocks.0.mlp.fc1/aten::linear/MatMul" type="MatMul" version="opset1">
			<data transpose_a="false" transpose_b="true" />
			<input>
				<port id="0" precision="FP32">
					<dim>-1</dim>
					<dim>1280</dim>
				</port>
				<port id="1" precision="FP32">
					<dim>5120</dim>
					<dim>1280</dim>
				</port>
			</input>
			<output>
				<port id="2" precision="FP32">
					<dim>-1</dim>
					<dim>5120</dim>
				</port>
			</output>
		</layer>
		<layer id="132" name="Constant_106490" type="Const" version="opset1">
			<data element_type="f32" shape="1, 5120" offset="6850784" size="20480" />
			<output>
				<port id="0" precision="FP32">
					<dim>1</dim>
					<dim>5120</dim>
				</port>
			</output>
		</layer>
		<layer id="133" name="__module.blocks.0.mlp.fc1/aten::linear/Add" type="Add" version="opset1">
			<data auto_broadcast="numpy" />
			<input>
				<port id="0" precision="FP32">
					<dim>-1</dim>
					<dim>5120</dim>
				</port>
				<port id="1" precision="FP32">
					<dim>1</dim>
					<dim>5120</dim>
				</port>
			</input>
			<output>
				<port id="2" precision="FP32" names="224,input.1">
					<dim>-1</dim>
					<dim>5120</dim>
				</port>
			</output>
		</layer>
		<layer id="134" name="Constant_104417" type="Const" version="opset1">
			<data element_type="f32" shape="" offset="6871264" size="4" />
			<output>
				<port id="0" precision="FP32" />
			</output>
		</layer>
		<layer id="135" name="__module.blocks.0.mlp.act/aten::mul/Multiply_1" type="Swish" version="opset4">
			<input>
				<port id="0" precision="FP32">
					<dim>-1</dim>
					<dim>5120</dim>
				</port>
				<port id="1" precision="FP32" />
			</input>
			<output>
				<port id="2" precision="FP32" names="227">
					<dim>-1</dim>
					<dim>5120</dim>
				</port>
			</output>
		</layer>
		<layer id="136" name="self.blocks.0.mlp.fc2.weight" type="Const" version="opset1">
			<data element_type="u4" shape="1280, 40, 128" offset="6871268" size="3276800" />
			<output>
				<port id="0" precision="U4">
					<dim>1280</dim>
					<dim>40</dim>
					<dim>128</dim>
				</port>
			</output>
		</layer>
		<layer id="137" name="Convert_115467" type="Convert" version="opset1">
			<data destination_type="f16" />
			<input>
				<port id="0" precision="U4">
					<dim>1280</dim>
					<dim>40</dim>
					<dim>128</dim>
				</port>
			</input>
			<output>
				<port id="1" precision="FP16">
					<dim>1280</dim>
					<dim>40</dim>
					<dim>128</dim>
				</port>
			</output>
		</layer>
		<layer id="138" name="self.blocks.0.mlp.fc2.weight/zero_point" type="Const" version="opset1">
			<data element_type="u4" shape="1280, 40, 1" offset="10148068" size="25600" />
			<output>
				<port id="0" precision="U4">
					<dim>1280</dim>
					<dim>40</dim>
					<dim>1</dim>
				</port>
			</output>
		</layer>
		<layer id="139" name="Convert_115469" type="Convert" version="opset1">
			<data destination_type="f16" />
			<input>
				<port id="0" precision="U4">
					<dim>1280</dim>
					<dim>40</dim>
					<dim>1</dim>
				</port>
			</input>
			<output>
				<port id="1" precision="FP16">
					<dim>1280</dim>
					<dim>40</dim>
					<dim>1</dim>
				</port>
			</output>
		</layer>
		<layer id="140" name="self.blocks.0.mlp.fc2.weight/zero_point/subtract" type="Subtract" version="opset1">
			<data auto_broadcast="numpy" />
			<input>
				<port id="0" precision="FP16">
					<dim>1280</dim>
					<dim>40</dim>
					<dim>128</dim>
				</port>
				<port id="1" precision="FP16">
					<dim>1280</dim>
					<dim>40</dim>
					<dim>1</dim>
				</port>
			</input>
			<output>
				<port id="2" precision="FP16">
					<dim>1280</dim>
					<dim>40</dim>
					<dim>128</dim>
				</port>
			</output>
		</layer>
		<layer id="141" name="self.blocks.0.mlp.fc2.weight/scale" type="Const" version="opset1">
			<data element_type="f16" shape="1280, 40, 1" offset="10173668" size="102400" />
			<output>
				<port id="0" precision="FP16">
					<dim>1280</dim>
					<dim>40</dim>
					<dim>1</dim>
				</port>
			</output>
		</layer>
		<layer id="142" name="self.blocks.0.mlp.fc2.weight/fq_weights_1" type="Multiply" version="opset1">
			<data auto_broadcast="numpy" />
			<input>
				<port id="0" precision="FP16">
					<dim>1280</dim>
					<dim>40</dim>
					<dim>128</dim>
				</port>
				<port id="1" precision="FP16">
					<dim>1280</dim>
					<dim>40</dim>
					<dim>1</dim>
				</port>
			</input>
			<output>
				<port id="2" precision="FP16">
					<dim>1280</dim>
					<dim>40</dim>
					<dim>128</dim>
				</port>
			</output>
		</layer>
		<layer id="143" name="Constant_115474" type="Const" version="opset1">
			<data element_type="i64" shape="2" offset="10276068" size="16" />
			<output>
				<port id="0" precision="I64">
					<dim>2</dim>
				</port>
			</output>
		</layer>
		<layer id="144" name="Reshape_115475" type="Reshape" version="opset1">
			<data special_zero="false" />
			<input>
				<port id="0" precision="FP16">
					<dim>1280</dim>
					<dim>40</dim>
					<dim>128</dim>
				</port>
				<port id="1" precision="I64">
					<dim>2</dim>
				</port>
			</input>
			<output>
				<port id="2" precision="FP16">
					<dim>1280</dim>
					<dim>5120</dim>
				</port>
			</output>
		</layer>
		<layer id="145" name="self.blocks.0.mlp.fc2.weight/fq_weights_1/convert" type="Convert" version="opset1">
			<data destination_type="f32" />
			<input>
				<port id="0" precision="FP16">
					<dim>1280</dim>
					<dim>5120</dim>
				</port>
			</input>
			<output>
				<port id="1" precision="FP32">
					<dim>1280</dim>
					<dim>5120</dim>
				</port>
			</output>
		</layer>
		<layer id="146" name="__module.blocks.0.mlp.fc2/aten::linear/MatMul" type="MatMul" version="opset1">
			<data transpose_a="false" transpose_b="true" />
			<input>
				<port id="0" precision="FP32">
					<dim>-1</dim>
					<dim>5120</dim>
				</port>
				<port id="1" precision="FP32">
					<dim>1280</dim>
					<dim>5120</dim>
				</port>
			</input>
			<output>
				<port id="2" precision="FP32">
					<dim>-1</dim>
					<dim>1280</dim>
				</port>
			</output>
		</layer>
		<layer id="147" name="Constant_106491" type="Const" version="opset1">
			<data element_type="f32" shape="1, 1280" offset="10276084" size="5120" />
			<output>
				<port id="0" precision="FP32">
					<dim>1</dim>
					<dim>1280</dim>
				</port>
			</output>
		</layer>
		<layer id="148" name="__module.blocks.0.mlp.fc2/aten::linear/Add" type="Add" version="opset1">
			<data auto_broadcast="numpy" />
			<input>
				<port id="0" precision="FP32">
					<dim>-1</dim>
					<dim>1280</dim>
				</port>
				<port id="1" precision="FP32">
					<dim>1</dim>
					<dim>1280</dim>
				</port>
			</input>
			<output>
				<port id="2" precision="FP32" names="230">
					<dim>-1</dim>
					<dim>1280</dim>
				</port>
			</output>
		</layer>
		<layer id="149" name="__module.blocks.0/aten::add/Add_1" type="Add" version="opset1">
			<data auto_broadcast="numpy" />
			<input>
				<port id="0" precision="FP32">
					<dim>-1</dim>
					<dim>1280</dim>
				</port>
				<port id="1" precision="FP32">
					<dim>-1</dim>
					<dim>1280</dim>
				</port>
			</input>
			<output>
				<port id="2" precision="FP32" names="231,hidden_states.9">
					<dim>-1</dim>
					<dim>1280</dim>
				</port>
			</output>
		</layer>
		<layer id="150" name="__module.blocks.1.norm1/aten::layer_norm/Multiply" type="Const" version="opset1">
			<data element_type="i32" shape="1" offset="0" size="4" />
			<output>
				<port id="0" precision="I32">
					<dim>1</dim>
				</port>
			</output>
		</layer>
		<layer id="151" name="__module.blocks.1.norm1/aten::layer_norm/MVN" type="MVN" version="opset6">
			<data eps="9.9999999747524271e-07" normalize_variance="true" eps_mode="INSIDE_SQRT" />
			<input>
				<port id="0" precision="FP32">
					<dim>-1</dim>
					<dim>1280</dim>
				</port>
				<port id="1" precision="I32">
					<dim>1</dim>
				</port>
			</input>
			<output>
				<port id="2" precision="FP32">
					<dim>-1</dim>
					<dim>1280</dim>
				</port>
			</output>
		</layer>
		<layer id="152" name="Constant_106492" type="Const" version="opset1">
			<data element_type="f32" shape="1, 1280" offset="10281204" size="5120" />
			<output>
				<port id="0" precision="FP32">
					<dim>1</dim>
					<dim>1280</dim>
				</port>
			</output>
		</layer>
		<layer id="153" name="__module.blocks.1.norm1/aten::layer_norm/Multiply_1" type="Multiply" version="opset1">
			<data auto_broadcast="numpy" />
			<input>
				<port id="0" precision="FP32">
					<dim>-1</dim>
					<dim>1280</dim>
				</port>
				<port id="1" precision="FP32">
					<dim>1</dim>
					<dim>1280</dim>
				</port>
			</input>
			<output>
				<port id="2" precision="FP32">
					<dim>-1</dim>
					<dim>1280</dim>
				</port>
			</output>
		</layer>
		<layer id="154" name="Constant_106493" type="Const" version="opset1">
			<data element_type="f32" shape="1, 1280" offset="10286324" size="5120" />
			<output>
				<port id="0" precision="FP32">
					<dim>1</dim>
					<dim>1280</dim>
				</port>
			</output>
		</layer>
		<layer id="155" name="__module.blocks.1.norm1/aten::layer_norm/Add" type="Add" version="opset1">
			<data auto_broadcast="numpy" />
			<input>
				<port id="0" precision="FP32">
					<dim>-1</dim>
					<dim>1280</dim>
				</port>
				<port id="1" precision="FP32">
					<dim>1</dim>
					<dim>1280</dim>
				</port>
			</input>
			<output>
				<port id="2" precision="FP32" names="255,hidden_states.7">
					<dim>-1</dim>
					<dim>1280</dim>
				</port>
			</output>
		</layer>
		<layer id="156" name="self.blocks.1.attn.qkv.weight" type="Const" version="opset1">
			<data element_type="u8" shape="3840, 1280" offset="10291444" size="4915200" />
			<output>
				<port id="0" precision="U8">
					<dim>3840</dim>
					<dim>1280</dim>
				</port>
			</output>
		</layer>
		<layer id="157" name="Convert_116172" type="Convert" version="opset1">
			<data destination_type="f16" />
			<input>
				<port id="0" precision="U8">
					<dim>3840</dim>
					<dim>1280</dim>
				</port>
			</input>
			<output>
				<port id="1" precision="FP16">
					<dim>3840</dim>
					<dim>1280</dim>
				</port>
			</output>
		</layer>
		<layer id="158" name="self.blocks.1.attn.qkv.weight/zero_point" type="Const" version="opset1">
			<data element_type="u8" shape="3840, 1" offset="15206644" size="3840" />
			<output>
				<port id="0" precision="U8">
					<dim>3840</dim>
					<dim>1</dim>
				</port>
			</output>
		</layer>
		<layer id="159" name="Convert_116175" type="Convert" version="opset1">
			<data destination_type="f16" />
			<input>
				<port id="0" precision="U8">
					<dim>3840</dim>
					<dim>1</dim>
				</port>
			</input>
			<output>
				<port id="1" precision="FP16">
					<dim>3840</dim>
					<dim>1</dim>
				</port>
			</output>
		</layer>
		<layer id="160" name="self.blocks.1.attn.qkv.weight/zero_point/subtract" type="Subtract" version="opset1">
			<data auto_broadcast="numpy" />
			<input>
				<port id="0" precision="FP16">
					<dim>3840</dim>
					<dim>1280</dim>
				</port>
				<port id="1" precision="FP16">
					<dim>3840</dim>
					<dim>1</dim>
				</port>
			</input>
			<output>
				<port id="2" precision="FP16">
					<dim>3840</dim>
					<dim>1280</dim>
				</port>
			</output>
		</layer>
		<layer id="161" name="self.blocks.1.attn.qkv.weight/scale" type="Const" version="opset1">
			<data element_type="f16" shape="3840, 1" offset="15210484" size="7680" />
			<output>
				<port id="0" precision="FP16">
					<dim>3840</dim>
					<dim>1</dim>
				</port>
			</output>
		</layer>
		<layer id="162" name="self.blocks.1.attn.qkv.weight/fq_weights_1" type="Multiply" version="opset1">
			<data auto_broadcast="numpy" />
			<input>
				<port id="0" precision="FP16">
					<dim>3840</dim>
					<dim>1280</dim>
				</port>
				<port id="1" precision="FP16">
					<dim>3840</dim>
					<dim>1</dim>
				</port>
			</input>
			<output>
				<port id="2" precision="FP16">
					<dim>3840</dim>
					<dim>1280</dim>
				</port>
			</output>
		</layer>
		<layer id="163" name="self.blocks.1.attn.qkv.weight/fq_weights_1/convert" type="Convert" version="opset1">
			<data destination_type="f32" />
			<input>
				<port id="0" precision="FP16">
					<dim>3840</dim>
					<dim>1280</dim>
				</port>
			</input>
			<output>
				<port id="1" precision="FP32">
					<dim>3840</dim>
					<dim>1280</dim>
				</port>
			</output>
		</layer>
		<layer id="164" name="__module.blocks.1.attn.qkv/aten::linear/MatMul" type="MatMul" version="opset1">
			<data transpose_a="false" transpose_b="true" />
			<input>
				<port id="0" precision="FP32">
					<dim>-1</dim>
					<dim>1280</dim>
				</port>
				<port id="1" precision="FP32">
					<dim>3840</dim>
					<dim>1280</dim>
				</port>
			</input>
			<output>
				<port id="2" precision="FP32">
					<dim>-1</dim>
					<dim>3840</dim>
				</port>
			</output>
		</layer>
		<layer id="165" name="Constant_106494" type="Const" version="opset1">
			<data element_type="f32" shape="1, 3840" offset="15218164" size="15360" />
			<output>
				<port id="0" precision="FP32">
					<dim>1</dim>
					<dim>3840</dim>
				</port>
			</output>
		</layer>
		<layer id="166" name="__module.blocks.1.attn.qkv/aten::linear/Add" type="Add" version="opset1">
			<data auto_broadcast="numpy" />
			<input>
				<port id="0" precision="FP32">
					<dim>-1</dim>
					<dim>3840</dim>
				</port>
				<port id="1" precision="FP32">
					<dim>1</dim>
					<dim>3840</dim>
				</port>
			</input>
			<output>
				<port id="2" precision="FP32" names="261">
					<dim>-1</dim>
					<dim>3840</dim>
				</port>
			</output>
		</layer>
		<layer id="167" name="Constant_110298" type="Const" version="opset1">
			<data element_type="i64" shape="4" offset="2579220" size="32" />
			<output>
				<port id="0" precision="I64">
					<dim>4</dim>
				</port>
			</output>
		</layer>
		<layer id="168" name="__module.blocks.1.attn/aten::reshape/Reshape" type="Reshape" version="opset1">
			<data special_zero="true" />
			<input>
				<port id="0" precision="FP32">
					<dim>-1</dim>
					<dim>3840</dim>
				</port>
				<port id="1" precision="I64">
					<dim>4</dim>
				</port>
			</input>
			<output>
				<port id="2" precision="FP32" names="263">
					<dim>-1</dim>
					<dim>3</dim>
					<dim>16</dim>
					<dim>80</dim>
				</port>
			</output>
		</layer>
		<layer id="169" name="Constant_4468" type="Const" version="opset1">
			<data element_type="i64" shape="4" offset="2579252" size="32" />
			<output>
				<port id="0" precision="I64" names="264">
					<dim>4</dim>
				</port>
			</output>
		</layer>
		<layer id="170" name="__module.blocks.1.attn/aten::permute/Transpose" type="Transpose" version="opset1">
			<input>
				<port id="0" precision="FP32">
					<dim>-1</dim>
					<dim>3</dim>
					<dim>16</dim>
					<dim>80</dim>
				</port>
				<port id="1" precision="I64">
					<dim>4</dim>
				</port>
			</input>
			<output>
				<port id="2" precision="FP32" names="265">
					<dim>3</dim>
					<dim>-1</dim>
					<dim>16</dim>
					<dim>80</dim>
				</port>
			</output>
		</layer>
		<layer id="171" name="233" type="Const" version="opset1">
			<data element_type="i64" shape="" offset="2579284" size="8" />
			<output>
				<port id="0" precision="I64" names="233" />
			</output>
		</layer>
		<layer id="172" name="__module.blocks.1.attn/prim::ListUnpack/Split" type="Split" version="opset1">
			<data num_splits="3" />
			<input>
				<port id="0" precision="FP32">
					<dim>3</dim>
					<dim>-1</dim>
					<dim>16</dim>
					<dim>80</dim>
				</port>
				<port id="1" precision="I64" />
			</input>
			<output>
				<port id="2" precision="FP32">
					<dim>1</dim>
					<dim>-1</dim>
					<dim>16</dim>
					<dim>80</dim>
				</port>
				<port id="3" precision="FP32">
					<dim>1</dim>
					<dim>-1</dim>
					<dim>16</dim>
					<dim>80</dim>
				</port>
				<port id="4" precision="FP32">
					<dim>1</dim>
					<dim>-1</dim>
					<dim>16</dim>
					<dim>80</dim>
				</port>
			</output>
		</layer>
		<layer id="173" name="__module.blocks.1.attn/prim::ListUnpack/Squeeze" type="Squeeze" version="opset1">
			<input>
				<port id="0" precision="FP32">
					<dim>1</dim>
					<dim>-1</dim>
					<dim>16</dim>
					<dim>80</dim>
				</port>
				<port id="1" precision="I64" />
			</input>
			<output>
				<port id="2" precision="FP32" names="267,q.5">
					<dim>-1</dim>
					<dim>16</dim>
					<dim>80</dim>
				</port>
			</output>
		</layer>
		<layer id="174" name="__module.blocks.1.attn/aten::unsqueeze/Unsqueeze" type="Unsqueeze" version="opset1">
			<input>
				<port id="0" precision="FP32">
					<dim>-1</dim>
					<dim>16</dim>
					<dim>80</dim>
				</port>
				<port id="1" precision="I64" />
			</input>
			<output>
				<port id="2" precision="FP32" names="270,271,tensor.11,tensor.9">
					<dim>1</dim>
					<dim>-1</dim>
					<dim>16</dim>
					<dim>80</dim>
				</port>
			</output>
		</layer>
		<layer id="175" name="__module.blocks.1.attn/aten::mul/Multiply" type="Multiply" version="opset1">
			<data auto_broadcast="numpy" />
			<input>
				<port id="0" precision="FP32">
					<dim>1</dim>
					<dim>-1</dim>
					<dim>16</dim>
					<dim>80</dim>
				</port>
				<port id="1" precision="FP32">
					<dim>1</dim>
					<dim>-1</dim>
					<dim>1</dim>
					<dim>-1</dim>
				</port>
			</input>
			<output>
				<port id="2" precision="FP32" names="284">
					<dim>1</dim>
					<dim>-1</dim>
					<dim>16</dim>
					<dim>80</dim>
				</port>
			</output>
		</layer>
		<layer id="176" name="__module.blocks.1.attn/aten::size/ShapeOf_2" type="ShapeOf" version="opset3">
			<data output_type="i64" />
			<input>
				<port id="0" precision="FP32">
					<dim>1</dim>
					<dim>-1</dim>
					<dim>16</dim>
					<dim>80</dim>
				</port>
			</input>
			<output>
				<port id="1" precision="I64">
					<dim>4</dim>
				</port>
			</output>
		</layer>
		<layer id="177" name="234" type="Const" version="opset1">
			<data element_type="i64" shape="" offset="2579324" size="8" />
			<output>
				<port id="0" precision="I64" names="234" />
			</output>
		</layer>
		<layer id="178" name="__module.blocks.1.attn/aten::size/Constant_2" type="Const" version="opset1">
			<data element_type="i32" shape="" offset="2579332" size="4" />
			<output>
				<port id="0" precision="I32" />
			</output>
		</layer>
		<layer id="179" name="__module.blocks.1.attn/aten::size/Gather_2" type="Gather" version="opset8">
			<data batch_dims="0" />
			<input>
				<port id="0" precision="I64">
					<dim>4</dim>
				</port>
				<port id="1" precision="I64" />
				<port id="2" precision="I32" />
			</input>
			<output>
				<port id="3" precision="I64" names="285,290" />
			</output>
		</layer>
		<layer id="180" name="Constant_4418" type="Const" version="opset1">
			<data element_type="i64" shape="" offset="2579336" size="8" />
			<output>
				<port id="0" precision="I64" names="242" />
			</output>
		</layer>
		<layer id="181" name="__module.blocks.1.attn/aten::floor_divide/Divide_1" type="Divide" version="opset1">
			<data auto_broadcast="numpy" m_pythondiv="true" />
			<input>
				<port id="0" precision="I64" />
				<port id="1" precision="I64" />
			</input>
			<output>
				<port id="2" precision="I64" />
			</output>
		</layer>
		<layer id="182" name="__module.blocks.1.attn/aten::floor_divide/Floor_1" type="Floor" version="opset1">
			<input>
				<port id="0" precision="I64" />
			</input>
			<output>
				<port id="1" precision="I64" names="287,288,292,293" />
			</output>
		</layer>
		<layer id="183" name="Constant_75593" type="Const" version="opset1">
			<data element_type="i64" shape="1" offset="2579344" size="8" />
			<output>
				<port id="0" precision="I64">
					<dim>1</dim>
				</port>
			</output>
		</layer>
		<layer id="184" name="__module.blocks.1.attn/aten::slice/Reshape_5" type="Reshape" version="opset1">
			<data special_zero="false" />
			<input>
				<port id="0" precision="I64" />
				<port id="1" precision="I64">
					<dim>1</dim>
				</port>
			</input>
			<output>
				<port id="2" precision="I64">
					<dim>1</dim>
				</port>
			</output>
		</layer>
		<layer id="185" name="__module.blocks.1.attn/aten::slice/Reshape_1" type="Const" version="opset1">
			<data element_type="i64" shape="1" offset="2579352" size="8" />
			<output>
				<port id="0" precision="I64">
					<dim>1</dim>
				</port>
			</output>
		</layer>
		<layer id="186" name="__module.blocks.1.attn/aten::slice/Reshape_2" type="Const" version="opset1">
			<data element_type="i64" shape="1" offset="2579292" size="8" />
			<output>
				<port id="0" precision="I64">
					<dim>1</dim>
				</port>
			</output>
		</layer>
		<layer id="187" name="__module.blocks.1.attn/aten::slice/Reshape_3" type="Const" version="opset1">
			<data element_type="i64" shape="1" offset="2579324" size="8" />
			<output>
				<port id="0" precision="I64">
					<dim>1</dim>
				</port>
			</output>
		</layer>
		<layer id="188" name="__module.blocks.1.attn/aten::slice/Slice" type="Slice" version="opset8">
			<input>
				<port id="0" precision="FP32">
					<dim>1</dim>
					<dim>-1</dim>
					<dim>16</dim>
					<dim>80</dim>
				</port>
				<port id="1" precision="I64">
					<dim>1</dim>
				</port>
				<port id="2" precision="I64">
					<dim>1</dim>
				</port>
				<port id="3" precision="I64">
					<dim>1</dim>
				</port>
				<port id="4" precision="I64">
					<dim>1</dim>
				</port>
			</input>
			<output>
				<port id="5" precision="FP32" names="294,x2.5">
					<dim>1</dim>
					<dim>-1</dim>
					<dim>16</dim>
					<dim>40</dim>
				</port>
			</output>
		</layer>
		<layer id="189" name="Constant_106495" type="Const" version="opset1">
			<data element_type="f32" shape="1, 1, 1, 1" offset="2579360" size="4" />
			<output>
				<port id="0" precision="FP32">
					<dim>1</dim>
					<dim>1</dim>
					<dim>1</dim>
					<dim>1</dim>
				</port>
			</output>
		</layer>
		<layer id="190" name="__module.blocks.1.attn/aten::neg/Multiply" type="Multiply" version="opset1">
			<data auto_broadcast="numpy" />
			<input>
				<port id="0" precision="FP32">
					<dim>1</dim>
					<dim>-1</dim>
					<dim>16</dim>
					<dim>40</dim>
				</port>
				<port id="1" precision="FP32">
					<dim>1</dim>
					<dim>1</dim>
					<dim>1</dim>
					<dim>1</dim>
				</port>
			</input>
			<output>
				<port id="2" precision="FP32" names="295">
					<dim>1</dim>
					<dim>-1</dim>
					<dim>16</dim>
					<dim>40</dim>
				</port>
			</output>
		</layer>
		<layer id="191" name="__module.blocks.1.attn/aten::slice/Reshape_4" type="Const" version="opset1">
			<data element_type="i64" shape="1" offset="2579284" size="8" />
			<output>
				<port id="0" precision="I64">
					<dim>1</dim>
				</port>
			</output>
		</layer>
		<layer id="192" name="__module.blocks.1.attn/aten::slice/Reshape_6" type="Const" version="opset1">
			<data element_type="i64" shape="1" offset="2579292" size="8" />
			<output>
				<port id="0" precision="I64">
					<dim>1</dim>
				</port>
			</output>
		</layer>
		<layer id="193" name="__module.blocks.1.attn/aten::slice/Reshape_7" type="Const" version="opset1">
			<data element_type="i64" shape="1" offset="2579324" size="8" />
			<output>
				<port id="0" precision="I64">
					<dim>1</dim>
				</port>
			</output>
		</layer>
		<layer id="194" name="__module.blocks.1.attn/aten::slice/Slice_1" type="Slice" version="opset8">
			<input>
				<port id="0" precision="FP32">
					<dim>1</dim>
					<dim>-1</dim>
					<dim>16</dim>
					<dim>80</dim>
				</port>
				<port id="1" precision="I64">
					<dim>1</dim>
				</port>
				<port id="2" precision="I64">
					<dim>1</dim>
				</port>
				<port id="3" precision="I64">
					<dim>1</dim>
				</port>
				<port id="4" precision="I64">
					<dim>1</dim>
				</port>
			</input>
			<output>
				<port id="5" precision="FP32" names="289">
					<dim>1</dim>
					<dim>-1</dim>
					<dim>16</dim>
					<dim>40</dim>
				</port>
			</output>
		</layer>
		<layer id="195" name="__module.blocks.1.attn/aten::cat/Concat" type="Concat" version="opset1">
			<data axis="-1" />
			<input>
				<port id="0" precision="FP32">
					<dim>1</dim>
					<dim>-1</dim>
					<dim>16</dim>
					<dim>40</dim>
				</port>
				<port id="1" precision="FP32">
					<dim>1</dim>
					<dim>-1</dim>
					<dim>16</dim>
					<dim>40</dim>
				</port>
			</input>
			<output>
				<port id="2" precision="FP32" names="297">
					<dim>1</dim>
					<dim>-1</dim>
					<dim>16</dim>
					<dim>80</dim>
				</port>
			</output>
		</layer>
		<layer id="196" name="__module.blocks.1.attn/aten::mul/Multiply_1" type="Multiply" version="opset1">
			<data auto_broadcast="numpy" />
			<input>
				<port id="0" precision="FP32">
					<dim>1</dim>
					<dim>-1</dim>
					<dim>16</dim>
					<dim>80</dim>
				</port>
				<port id="1" precision="FP32">
					<dim>1</dim>
					<dim>-1</dim>
					<dim>1</dim>
					<dim>-1</dim>
				</port>
			</input>
			<output>
				<port id="2" precision="FP32" names="298">
					<dim>1</dim>
					<dim>-1</dim>
					<dim>16</dim>
					<dim>80</dim>
				</port>
			</output>
		</layer>
		<layer id="197" name="__module.blocks.1.attn/aten::add/Add" type="Add" version="opset1">
			<data auto_broadcast="numpy" />
			<input>
				<port id="0" precision="FP32">
					<dim>1</dim>
					<dim>-1</dim>
					<dim>16</dim>
					<dim>80</dim>
				</port>
				<port id="1" precision="FP32">
					<dim>1</dim>
					<dim>-1</dim>
					<dim>16</dim>
					<dim>80</dim>
				</port>
			</input>
			<output>
				<port id="2" precision="FP32" names="299,300,output.5">
					<dim>1</dim>
					<dim>-1</dim>
					<dim>16</dim>
					<dim>80</dim>
				</port>
			</output>
		</layer>
		<layer id="198" name="__module.blocks.1.attn/aten::squeeze/Squeeze" type="Squeeze" version="opset1">
			<input>
				<port id="0" precision="FP32">
					<dim>1</dim>
					<dim>-1</dim>
					<dim>16</dim>
					<dim>80</dim>
				</port>
				<port id="1" precision="I64" />
			</input>
			<output>
				<port id="2" precision="FP32" names="301,q.7">
					<dim>-1</dim>
					<dim>16</dim>
					<dim>80</dim>
				</port>
			</output>
		</layer>
		<layer id="199" name="__module.blocks.1.attn/aten::transpose/ScatterElementsUpdate" type="Const" version="opset1">
			<data element_type="i32" shape="3" offset="2579364" size="12" />
			<output>
				<port id="0" precision="I32">
					<dim>3</dim>
				</port>
			</output>
		</layer>
		<layer id="200" name="__module.blocks.1.attn/aten::transpose/Transpose" type="Transpose" version="opset1">
			<input>
				<port id="0" precision="FP32">
					<dim>-1</dim>
					<dim>16</dim>
					<dim>80</dim>
				</port>
				<port id="1" precision="I32">
					<dim>3</dim>
				</port>
			</input>
			<output>
				<port id="2" precision="FP32" names="334">
					<dim>16</dim>
					<dim>-1</dim>
					<dim>80</dim>
				</port>
			</output>
		</layer>
		<layer id="201" name="__module.blocks.1.attn/prim::ListUnpack/Squeeze_0" type="Squeeze" version="opset1">
			<input>
				<port id="0" precision="FP32">
					<dim>1</dim>
					<dim>-1</dim>
					<dim>16</dim>
					<dim>80</dim>
				</port>
				<port id="1" precision="I64" />
			</input>
			<output>
				<port id="2" precision="FP32" names="268,k.5">
					<dim>-1</dim>
					<dim>16</dim>
					<dim>80</dim>
				</port>
			</output>
		</layer>
		<layer id="202" name="__module.blocks.1.attn/aten::unsqueeze/Unsqueeze_5" type="Unsqueeze" version="opset1">
			<input>
				<port id="0" precision="FP32">
					<dim>-1</dim>
					<dim>16</dim>
					<dim>80</dim>
				</port>
				<port id="1" precision="I64" />
			</input>
			<output>
				<port id="2" precision="FP32" names="302,303,tensor.13,tensor.15">
					<dim>1</dim>
					<dim>-1</dim>
					<dim>16</dim>
					<dim>80</dim>
				</port>
			</output>
		</layer>
		<layer id="203" name="__module.blocks.1.attn/aten::mul/Multiply_2" type="Multiply" version="opset1">
			<data auto_broadcast="numpy" />
			<input>
				<port id="0" precision="FP32">
					<dim>1</dim>
					<dim>-1</dim>
					<dim>16</dim>
					<dim>80</dim>
				</port>
				<port id="1" precision="FP32">
					<dim>1</dim>
					<dim>-1</dim>
					<dim>1</dim>
					<dim>-1</dim>
				</port>
			</input>
			<output>
				<port id="2" precision="FP32" names="316">
					<dim>1</dim>
					<dim>-1</dim>
					<dim>16</dim>
					<dim>80</dim>
				</port>
			</output>
		</layer>
		<layer id="204" name="__module.blocks.1.attn/aten::size/ShapeOf_4" type="ShapeOf" version="opset3">
			<data output_type="i64" />
			<input>
				<port id="0" precision="FP32">
					<dim>1</dim>
					<dim>-1</dim>
					<dim>16</dim>
					<dim>80</dim>
				</port>
			</input>
			<output>
				<port id="1" precision="I64">
					<dim>4</dim>
				</port>
			</output>
		</layer>
		<layer id="205" name="__module.blocks.1.attn/aten::size/Constant_4" type="Const" version="opset1">
			<data element_type="i32" shape="" offset="2579332" size="4" />
			<output>
				<port id="0" precision="I32" />
			</output>
		</layer>
		<layer id="206" name="__module.blocks.1.attn/aten::size/Gather_4" type="Gather" version="opset8">
			<data batch_dims="0" />
			<input>
				<port id="0" precision="I64">
					<dim>4</dim>
				</port>
				<port id="1" precision="I64" />
				<port id="2" precision="I32" />
			</input>
			<output>
				<port id="3" precision="I64" names="317,322" />
			</output>
		</layer>
		<layer id="207" name="__module.blocks.1.attn/aten::floor_divide/Divide_3" type="Divide" version="opset1">
			<data auto_broadcast="numpy" m_pythondiv="true" />
			<input>
				<port id="0" precision="I64" />
				<port id="1" precision="I64" />
			</input>
			<output>
				<port id="2" precision="I64" />
			</output>
		</layer>
		<layer id="208" name="__module.blocks.1.attn/aten::floor_divide/Floor_3" type="Floor" version="opset1">
			<input>
				<port id="0" precision="I64" />
			</input>
			<output>
				<port id="1" precision="I64" names="319,320,324,325" />
			</output>
		</layer>
		<layer id="209" name="Constant_75594" type="Const" version="opset1">
			<data element_type="i64" shape="1" offset="2579344" size="8" />
			<output>
				<port id="0" precision="I64">
					<dim>1</dim>
				</port>
			</output>
		</layer>
		<layer id="210" name="__module.blocks.1.attn/aten::slice/Reshape_13" type="Reshape" version="opset1">
			<data special_zero="false" />
			<input>
				<port id="0" precision="I64" />
				<port id="1" precision="I64">
					<dim>1</dim>
				</port>
			</input>
			<output>
				<port id="2" precision="I64">
					<dim>1</dim>
				</port>
			</output>
		</layer>
		<layer id="211" name="__module.blocks.1.attn/aten::slice/Reshape_9" type="Const" version="opset1">
			<data element_type="i64" shape="1" offset="2579352" size="8" />
			<output>
				<port id="0" precision="I64">
					<dim>1</dim>
				</port>
			</output>
		</layer>
		<layer id="212" name="__module.blocks.1.attn/aten::slice/Reshape_10" type="Const" version="opset1">
			<data element_type="i64" shape="1" offset="2579292" size="8" />
			<output>
				<port id="0" precision="I64">
					<dim>1</dim>
				</port>
			</output>
		</layer>
		<layer id="213" name="__module.blocks.1.attn/aten::slice/Reshape_11" type="Const" version="opset1">
			<data element_type="i64" shape="1" offset="2579324" size="8" />
			<output>
				<port id="0" precision="I64">
					<dim>1</dim>
				</port>
			</output>
		</layer>
		<layer id="214" name="__module.blocks.1.attn/aten::slice/Slice_2" type="Slice" version="opset8">
			<input>
				<port id="0" precision="FP32">
					<dim>1</dim>
					<dim>-1</dim>
					<dim>16</dim>
					<dim>80</dim>
				</port>
				<port id="1" precision="I64">
					<dim>1</dim>
				</port>
				<port id="2" precision="I64">
					<dim>1</dim>
				</port>
				<port id="3" precision="I64">
					<dim>1</dim>
				</port>
				<port id="4" precision="I64">
					<dim>1</dim>
				</port>
			</input>
			<output>
				<port id="5" precision="FP32" names="326,x2.7">
					<dim>1</dim>
					<dim>-1</dim>
					<dim>16</dim>
					<dim>40</dim>
				</port>
			</output>
		</layer>
		<layer id="215" name="Constant_106496" type="Const" version="opset1">
			<data element_type="f32" shape="1, 1, 1, 1" offset="2579360" size="4" />
			<output>
				<port id="0" precision="FP32">
					<dim>1</dim>
					<dim>1</dim>
					<dim>1</dim>
					<dim>1</dim>
				</port>
			</output>
		</layer>
		<layer id="216" name="__module.blocks.1.attn/aten::neg/Multiply_1" type="Multiply" version="opset1">
			<data auto_broadcast="numpy" />
			<input>
				<port id="0" precision="FP32">
					<dim>1</dim>
					<dim>-1</dim>
					<dim>16</dim>
					<dim>40</dim>
				</port>
				<port id="1" precision="FP32">
					<dim>1</dim>
					<dim>1</dim>
					<dim>1</dim>
					<dim>1</dim>
				</port>
			</input>
			<output>
				<port id="2" precision="FP32" names="327">
					<dim>1</dim>
					<dim>-1</dim>
					<dim>16</dim>
					<dim>40</dim>
				</port>
			</output>
		</layer>
		<layer id="217" name="__module.blocks.1.attn/aten::slice/Reshape_12" type="Const" version="opset1">
			<data element_type="i64" shape="1" offset="2579284" size="8" />
			<output>
				<port id="0" precision="I64">
					<dim>1</dim>
				</port>
			</output>
		</layer>
		<layer id="218" name="__module.blocks.1.attn/aten::slice/Reshape_14" type="Const" version="opset1">
			<data element_type="i64" shape="1" offset="2579292" size="8" />
			<output>
				<port id="0" precision="I64">
					<dim>1</dim>
				</port>
			</output>
		</layer>
		<layer id="219" name="__module.blocks.1.attn/aten::slice/Reshape_15" type="Const" version="opset1">
			<data element_type="i64" shape="1" offset="2579324" size="8" />
			<output>
				<port id="0" precision="I64">
					<dim>1</dim>
				</port>
			</output>
		</layer>
		<layer id="220" name="__module.blocks.1.attn/aten::slice/Slice_3" type="Slice" version="opset8">
			<input>
				<port id="0" precision="FP32">
					<dim>1</dim>
					<dim>-1</dim>
					<dim>16</dim>
					<dim>80</dim>
				</port>
				<port id="1" precision="I64">
					<dim>1</dim>
				</port>
				<port id="2" precision="I64">
					<dim>1</dim>
				</port>
				<port id="3" precision="I64">
					<dim>1</dim>
				</port>
				<port id="4" precision="I64">
					<dim>1</dim>
				</port>
			</input>
			<output>
				<port id="5" precision="FP32" names="321">
					<dim>1</dim>
					<dim>-1</dim>
					<dim>16</dim>
					<dim>40</dim>
				</port>
			</output>
		</layer>
		<layer id="221" name="__module.blocks.1.attn/aten::cat/Concat_1" type="Concat" version="opset1">
			<data axis="-1" />
			<input>
				<port id="0" precision="FP32">
					<dim>1</dim>
					<dim>-1</dim>
					<dim>16</dim>
					<dim>40</dim>
				</port>
				<port id="1" precision="FP32">
					<dim>1</dim>
					<dim>-1</dim>
					<dim>16</dim>
					<dim>40</dim>
				</port>
			</input>
			<output>
				<port id="2" precision="FP32" names="329">
					<dim>1</dim>
					<dim>-1</dim>
					<dim>16</dim>
					<dim>80</dim>
				</port>
			</output>
		</layer>
		<layer id="222" name="__module.blocks.1.attn/aten::mul/Multiply_3" type="Multiply" version="opset1">
			<data auto_broadcast="numpy" />
			<input>
				<port id="0" precision="FP32">
					<dim>1</dim>
					<dim>-1</dim>
					<dim>16</dim>
					<dim>80</dim>
				</port>
				<port id="1" precision="FP32">
					<dim>1</dim>
					<dim>-1</dim>
					<dim>1</dim>
					<dim>-1</dim>
				</port>
			</input>
			<output>
				<port id="2" precision="FP32" names="330">
					<dim>1</dim>
					<dim>-1</dim>
					<dim>16</dim>
					<dim>80</dim>
				</port>
			</output>
		</layer>
		<layer id="223" name="__module.blocks.1.attn/aten::add/Add_1" type="Add" version="opset1">
			<data auto_broadcast="numpy" />
			<input>
				<port id="0" precision="FP32">
					<dim>1</dim>
					<dim>-1</dim>
					<dim>16</dim>
					<dim>80</dim>
				</port>
				<port id="1" precision="FP32">
					<dim>1</dim>
					<dim>-1</dim>
					<dim>16</dim>
					<dim>80</dim>
				</port>
			</input>
			<output>
				<port id="2" precision="FP32" names="331,332,output.7">
					<dim>1</dim>
					<dim>-1</dim>
					<dim>16</dim>
					<dim>80</dim>
				</port>
			</output>
		</layer>
		<layer id="224" name="__module.blocks.1.attn/aten::squeeze/Squeeze_1" type="Squeeze" version="opset1">
			<input>
				<port id="0" precision="FP32">
					<dim>1</dim>
					<dim>-1</dim>
					<dim>16</dim>
					<dim>80</dim>
				</port>
				<port id="1" precision="I64" />
			</input>
			<output>
				<port id="2" precision="FP32" names="333,k.7">
					<dim>-1</dim>
					<dim>16</dim>
					<dim>80</dim>
				</port>
			</output>
		</layer>
		<layer id="225" name="__module.blocks.1.attn/aten::transpose/ScatterElementsUpdate_1" type="Const" version="opset1">
			<data element_type="i32" shape="3" offset="2579364" size="12" />
			<output>
				<port id="0" precision="I32">
					<dim>3</dim>
				</port>
			</output>
		</layer>
		<layer id="226" name="__module.blocks.1.attn/aten::transpose/Transpose_1" type="Transpose" version="opset1">
			<input>
				<port id="0" precision="FP32">
					<dim>-1</dim>
					<dim>16</dim>
					<dim>80</dim>
				</port>
				<port id="1" precision="I32">
					<dim>3</dim>
				</port>
			</input>
			<output>
				<port id="2" precision="FP32" names="335">
					<dim>16</dim>
					<dim>-1</dim>
					<dim>80</dim>
				</port>
			</output>
		</layer>
		<layer id="227" name="__module.blocks.1.attn/prim::ListUnpack/Squeeze_1" type="Squeeze" version="opset1">
			<input>
				<port id="0" precision="FP32">
					<dim>1</dim>
					<dim>-1</dim>
					<dim>16</dim>
					<dim>80</dim>
				</port>
				<port id="1" precision="I64" />
			</input>
			<output>
				<port id="2" precision="FP32" names="269,v.3">
					<dim>-1</dim>
					<dim>16</dim>
					<dim>80</dim>
				</port>
			</output>
		</layer>
		<layer id="228" name="__module.blocks.1.attn/aten::transpose/ScatterElementsUpdate_2" type="Const" version="opset1">
			<data element_type="i32" shape="3" offset="2579364" size="12" />
			<output>
				<port id="0" precision="I32">
					<dim>3</dim>
				</port>
			</output>
		</layer>
		<layer id="229" name="__module.blocks.1.attn/aten::transpose/Transpose_2" type="Transpose" version="opset1">
			<input>
				<port id="0" precision="FP32">
					<dim>-1</dim>
					<dim>16</dim>
					<dim>80</dim>
				</port>
				<port id="1" precision="I32">
					<dim>3</dim>
				</port>
			</input>
			<output>
				<port id="2" precision="FP32" names="336">
					<dim>16</dim>
					<dim>-1</dim>
					<dim>80</dim>
				</port>
			</output>
		</layer>
		<layer id="230" name="__module.blocks.1.attn/aten::scaled_dot_product_attention/ScaledDotProductAttention" type="ScaledDotProductAttention" version="opset13">
			<data causal="false" />
			<input>
				<port id="0" precision="FP32">
					<dim>16</dim>
					<dim>-1</dim>
					<dim>80</dim>
				</port>
				<port id="1" precision="FP32">
					<dim>16</dim>
					<dim>-1</dim>
					<dim>80</dim>
				</port>
				<port id="2" precision="FP32">
					<dim>16</dim>
					<dim>-1</dim>
					<dim>80</dim>
				</port>
				<port id="3" precision="FP32">
					<dim>-1</dim>
					<dim>-1</dim>
					<dim>-1</dim>
				</port>
			</input>
			<output>
				<port id="4" precision="FP32" names="337,attn_output.5">
					<dim>16</dim>
					<dim>-1</dim>
					<dim>80</dim>
				</port>
			</output>
		</layer>
		<layer id="231" name="__module.blocks.1.attn/aten::transpose/ScatterElementsUpdate_3" type="Const" version="opset1">
			<data element_type="i32" shape="3" offset="2579364" size="12" />
			<output>
				<port id="0" precision="I32">
					<dim>3</dim>
				</port>
			</output>
		</layer>
		<layer id="232" name="__module.blocks.1.attn/aten::transpose/Transpose_3" type="Transpose" version="opset1">
			<input>
				<port id="0" precision="FP32">
					<dim>16</dim>
					<dim>-1</dim>
					<dim>80</dim>
				</port>
				<port id="1" precision="I32">
					<dim>3</dim>
				</port>
			</input>
			<output>
				<port id="2" precision="FP32" names="338,attn_output.7">
					<dim>-1</dim>
					<dim>16</dim>
					<dim>80</dim>
				</port>
			</output>
		</layer>
		<layer id="233" name="Concat_80860" type="Const" version="opset1">
			<data element_type="i64" shape="2" offset="2579376" size="16" />
			<output>
				<port id="0" precision="I64">
					<dim>2</dim>
				</port>
			</output>
		</layer>
		<layer id="234" name="__module.blocks.1.attn/aten::reshape/Reshape_1" type="Reshape" version="opset1">
			<data special_zero="false" />
			<input>
				<port id="0" precision="FP32">
					<dim>-1</dim>
					<dim>16</dim>
					<dim>80</dim>
				</port>
				<port id="1" precision="I64">
					<dim>2</dim>
				</port>
			</input>
			<output>
				<port id="2" precision="FP32" names="340">
					<dim>-1</dim>
					<dim>1280</dim>
				</port>
			</output>
		</layer>
		<layer id="235" name="self.blocks.1.attn.proj.weight" type="Const" version="opset1">
			<data element_type="u4" shape="1280, 10, 128" offset="15233524" size="819200" />
			<output>
				<port id="0" precision="U4">
					<dim>1280</dim>
					<dim>10</dim>
					<dim>128</dim>
				</port>
			</output>
		</layer>
		<layer id="236" name="Convert_116523" type="Convert" version="opset1">
			<data destination_type="f16" />
			<input>
				<port id="0" precision="U4">
					<dim>1280</dim>
					<dim>10</dim>
					<dim>128</dim>
				</port>
			</input>
			<output>
				<port id="1" precision="FP16">
					<dim>1280</dim>
					<dim>10</dim>
					<dim>128</dim>
				</port>
			</output>
		</layer>
		<layer id="237" name="self.blocks.1.attn.proj.weight/zero_point" type="Const" version="opset1">
			<data element_type="u4" shape="1280, 10, 1" offset="16052724" size="6400" />
			<output>
				<port id="0" precision="U4">
					<dim>1280</dim>
					<dim>10</dim>
					<dim>1</dim>
				</port>
			</output>
		</layer>
		<layer id="238" name="Convert_116525" type="Convert" version="opset1">
			<data destination_type="f16" />
			<input>
				<port id="0" precision="U4">
					<dim>1280</dim>
					<dim>10</dim>
					<dim>1</dim>
				</port>
			</input>
			<output>
				<port id="1" precision="FP16">
					<dim>1280</dim>
					<dim>10</dim>
					<dim>1</dim>
				</port>
			</output>
		</layer>
		<layer id="239" name="self.blocks.1.attn.proj.weight/zero_point/subtract" type="Subtract" version="opset1">
			<data auto_broadcast="numpy" />
			<input>
				<port id="0" precision="FP16">
					<dim>1280</dim>
					<dim>10</dim>
					<dim>128</dim>
				</port>
				<port id="1" precision="FP16">
					<dim>1280</dim>
					<dim>10</dim>
					<dim>1</dim>
				</port>
			</input>
			<output>
				<port id="2" precision="FP16">
					<dim>1280</dim>
					<dim>10</dim>
					<dim>128</dim>
				</port>
			</output>
		</layer>
		<layer id="240" name="self.blocks.1.attn.proj.weight/scale" type="Const" version="opset1">
			<data element_type="f16" shape="1280, 10, 1" offset="16059124" size="25600" />
			<output>
				<port id="0" precision="FP16">
					<dim>1280</dim>
					<dim>10</dim>
					<dim>1</dim>
				</port>
			</output>
		</layer>
		<layer id="241" name="self.blocks.1.attn.proj.weight/fq_weights_1" type="Multiply" version="opset1">
			<data auto_broadcast="numpy" />
			<input>
				<port id="0" precision="FP16">
					<dim>1280</dim>
					<dim>10</dim>
					<dim>128</dim>
				</port>
				<port id="1" precision="FP16">
					<dim>1280</dim>
					<dim>10</dim>
					<dim>1</dim>
				</port>
			</input>
			<output>
				<port id="2" precision="FP16">
					<dim>1280</dim>
					<dim>10</dim>
					<dim>128</dim>
				</port>
			</output>
		</layer>
		<layer id="242" name="Constant_116530" type="Const" version="opset1">
			<data element_type="i64" shape="2" offset="3430592" size="16" />
			<output>
				<port id="0" precision="I64">
					<dim>2</dim>
				</port>
			</output>
		</layer>
		<layer id="243" name="Reshape_116531" type="Reshape" version="opset1">
			<data special_zero="false" />
			<input>
				<port id="0" precision="FP16">
					<dim>1280</dim>
					<dim>10</dim>
					<dim>128</dim>
				</port>
				<port id="1" precision="I64">
					<dim>2</dim>
				</port>
			</input>
			<output>
				<port id="2" precision="FP16">
					<dim>1280</dim>
					<dim>1280</dim>
				</port>
			</output>
		</layer>
		<layer id="244" name="self.blocks.1.attn.proj.weight/fq_weights_1/convert" type="Convert" version="opset1">
			<data destination_type="f32" />
			<input>
				<port id="0" precision="FP16">
					<dim>1280</dim>
					<dim>1280</dim>
				</port>
			</input>
			<output>
				<port id="1" precision="FP32">
					<dim>1280</dim>
					<dim>1280</dim>
				</port>
			</output>
		</layer>
		<layer id="245" name="__module.blocks.1.attn.proj/aten::linear/MatMul" type="MatMul" version="opset1">
			<data transpose_a="false" transpose_b="true" />
			<input>
				<port id="0" precision="FP32">
					<dim>-1</dim>
					<dim>1280</dim>
				</port>
				<port id="1" precision="FP32">
					<dim>1280</dim>
					<dim>1280</dim>
				</port>
			</input>
			<output>
				<port id="2" precision="FP32">
					<dim>-1</dim>
					<dim>1280</dim>
				</port>
			</output>
		</layer>
		<layer id="246" name="Constant_106497" type="Const" version="opset1">
			<data element_type="f32" shape="1, 1280" offset="16084724" size="5120" />
			<output>
				<port id="0" precision="FP32">
					<dim>1</dim>
					<dim>1280</dim>
				</port>
			</output>
		</layer>
		<layer id="247" name="__module.blocks.1.attn.proj/aten::linear/Add" type="Add" version="opset1">
			<data auto_broadcast="numpy" />
			<input>
				<port id="0" precision="FP32">
					<dim>-1</dim>
					<dim>1280</dim>
				</port>
				<port id="1" precision="FP32">
					<dim>1</dim>
					<dim>1280</dim>
				</port>
			</input>
			<output>
				<port id="2" precision="FP32" names="343">
					<dim>-1</dim>
					<dim>1280</dim>
				</port>
			</output>
		</layer>
		<layer id="248" name="__module.blocks.1/aten::add/Add" type="Add" version="opset1">
			<data auto_broadcast="numpy" />
			<input>
				<port id="0" precision="FP32">
					<dim>-1</dim>
					<dim>1280</dim>
				</port>
				<port id="1" precision="FP32">
					<dim>-1</dim>
					<dim>1280</dim>
				</port>
			</input>
			<output>
				<port id="2" precision="FP32" names="344,hidden_states.11">
					<dim>-1</dim>
					<dim>1280</dim>
				</port>
			</output>
		</layer>
		<layer id="249" name="__module.blocks.1.norm2/aten::layer_norm/Multiply" type="Const" version="opset1">
			<data element_type="i32" shape="1" offset="0" size="4" />
			<output>
				<port id="0" precision="I32">
					<dim>1</dim>
				</port>
			</output>
		</layer>
		<layer id="250" name="__module.blocks.1.norm2/aten::layer_norm/MVN" type="MVN" version="opset6">
			<data eps="9.9999999747524271e-07" normalize_variance="true" eps_mode="INSIDE_SQRT" />
			<input>
				<port id="0" precision="FP32">
					<dim>-1</dim>
					<dim>1280</dim>
				</port>
				<port id="1" precision="I32">
					<dim>1</dim>
				</port>
			</input>
			<output>
				<port id="2" precision="FP32">
					<dim>-1</dim>
					<dim>1280</dim>
				</port>
			</output>
		</layer>
		<layer id="251" name="Constant_106498" type="Const" version="opset1">
			<data element_type="f32" shape="1, 1280" offset="16089844" size="5120" />
			<output>
				<port id="0" precision="FP32">
					<dim>1</dim>
					<dim>1280</dim>
				</port>
			</output>
		</layer>
		<layer id="252" name="__module.blocks.1.norm2/aten::layer_norm/Multiply_1" type="Multiply" version="opset1">
			<data auto_broadcast="numpy" />
			<input>
				<port id="0" precision="FP32">
					<dim>-1</dim>
					<dim>1280</dim>
				</port>
				<port id="1" precision="FP32">
					<dim>1</dim>
					<dim>1280</dim>
				</port>
			</input>
			<output>
				<port id="2" precision="FP32">
					<dim>-1</dim>
					<dim>1280</dim>
				</port>
			</output>
		</layer>
		<layer id="253" name="Constant_106499" type="Const" version="opset1">
			<data element_type="f32" shape="1, 1280" offset="16094964" size="5120" />
			<output>
				<port id="0" precision="FP32">
					<dim>1</dim>
					<dim>1280</dim>
				</port>
			</output>
		</layer>
		<layer id="254" name="__module.blocks.1.norm2/aten::layer_norm/Add" type="Add" version="opset1">
			<data auto_broadcast="numpy" />
			<input>
				<port id="0" precision="FP32">
					<dim>-1</dim>
					<dim>1280</dim>
				</port>
				<port id="1" precision="FP32">
					<dim>1</dim>
					<dim>1280</dim>
				</port>
			</input>
			<output>
				<port id="2" precision="FP32" names="348">
					<dim>-1</dim>
					<dim>1280</dim>
				</port>
			</output>
		</layer>
		<layer id="255" name="self.blocks.1.mlp.fc1.weight" type="Const" version="opset1">
			<data element_type="u4" shape="5120, 10, 128" offset="16100084" size="3276800" />
			<output>
				<port id="0" precision="U4">
					<dim>5120</dim>
					<dim>10</dim>
					<dim>128</dim>
				</port>
			</output>
		</layer>
		<layer id="256" name="Convert_115478" type="Convert" version="opset1">
			<data destination_type="f16" />
			<input>
				<port id="0" precision="U4">
					<dim>5120</dim>
					<dim>10</dim>
					<dim>128</dim>
				</port>
			</input>
			<output>
				<port id="1" precision="FP16">
					<dim>5120</dim>
					<dim>10</dim>
					<dim>128</dim>
				</port>
			</output>
		</layer>
		<layer id="257" name="self.blocks.1.mlp.fc1.weight/zero_point" type="Const" version="opset1">
			<data element_type="u4" shape="5120, 10, 1" offset="19376884" size="25600" />
			<output>
				<port id="0" precision="U4">
					<dim>5120</dim>
					<dim>10</dim>
					<dim>1</dim>
				</port>
			</output>
		</layer>
		<layer id="258" name="Convert_115480" type="Convert" version="opset1">
			<data destination_type="f16" />
			<input>
				<port id="0" precision="U4">
					<dim>5120</dim>
					<dim>10</dim>
					<dim>1</dim>
				</port>
			</input>
			<output>
				<port id="1" precision="FP16">
					<dim>5120</dim>
					<dim>10</dim>
					<dim>1</dim>
				</port>
			</output>
		</layer>
		<layer id="259" name="self.blocks.1.mlp.fc1.weight/zero_point/subtract" type="Subtract" version="opset1">
			<data auto_broadcast="numpy" />
			<input>
				<port id="0" precision="FP16">
					<dim>5120</dim>
					<dim>10</dim>
					<dim>128</dim>
				</port>
				<port id="1" precision="FP16">
					<dim>5120</dim>
					<dim>10</dim>
					<dim>1</dim>
				</port>
			</input>
			<output>
				<port id="2" precision="FP16">
					<dim>5120</dim>
					<dim>10</dim>
					<dim>128</dim>
				</port>
			</output>
		</layer>
		<layer id="260" name="self.blocks.1.mlp.fc1.weight/scale" type="Const" version="opset1">
			<data element_type="f16" shape="5120, 10, 1" offset="19402484" size="102400" />
			<output>
				<port id="0" precision="FP16">
					<dim>5120</dim>
					<dim>10</dim>
					<dim>1</dim>
				</port>
			</output>
		</layer>
		<layer id="261" name="self.blocks.1.mlp.fc1.weight/fq_weights_1" type="Multiply" version="opset1">
			<data auto_broadcast="numpy" />
			<input>
				<port id="0" precision="FP16">
					<dim>5120</dim>
					<dim>10</dim>
					<dim>128</dim>
				</port>
				<port id="1" precision="FP16">
					<dim>5120</dim>
					<dim>10</dim>
					<dim>1</dim>
				</port>
			</input>
			<output>
				<port id="2" precision="FP16">
					<dim>5120</dim>
					<dim>10</dim>
					<dim>128</dim>
				</port>
			</output>
		</layer>
		<layer id="262" name="Constant_115485" type="Const" version="opset1">
			<data element_type="i64" shape="2" offset="6850768" size="16" />
			<output>
				<port id="0" precision="I64">
					<dim>2</dim>
				</port>
			</output>
		</layer>
		<layer id="263" name="Reshape_115486" type="Reshape" version="opset1">
			<data special_zero="false" />
			<input>
				<port id="0" precision="FP16">
					<dim>5120</dim>
					<dim>10</dim>
					<dim>128</dim>
				</port>
				<port id="1" precision="I64">
					<dim>2</dim>
				</port>
			</input>
			<output>
				<port id="2" precision="FP16">
					<dim>5120</dim>
					<dim>1280</dim>
				</port>
			</output>
		</layer>
		<layer id="264" name="self.blocks.1.mlp.fc1.weight/fq_weights_1/convert" type="Convert" version="opset1">
			<data destination_type="f32" />
			<input>
				<port id="0" precision="FP16">
					<dim>5120</dim>
					<dim>1280</dim>
				</port>
			</input>
			<output>
				<port id="1" precision="FP32">
					<dim>5120</dim>
					<dim>1280</dim>
				</port>
			</output>
		</layer>
		<layer id="265" name="__module.blocks.1.mlp.fc1/aten::linear/MatMul" type="MatMul" version="opset1">
			<data transpose_a="false" transpose_b="true" />
			<input>
				<port id="0" precision="FP32">
					<dim>-1</dim>
					<dim>1280</dim>
				</port>
				<port id="1" precision="FP32">
					<dim>5120</dim>
					<dim>1280</dim>
				</port>
			</input>
			<output>
				<port id="2" precision="FP32">
					<dim>-1</dim>
					<dim>5120</dim>
				</port>
			</output>
		</layer>
		<layer id="266" name="Constant_106500" type="Const" version="opset1">
			<data element_type="f32" shape="1, 5120" offset="19504884" size="20480" />
			<output>
				<port id="0" precision="FP32">
					<dim>1</dim>
					<dim>5120</dim>
				</port>
			</output>
		</layer>
		<layer id="267" name="__module.blocks.1.mlp.fc1/aten::linear/Add" type="Add" version="opset1">
			<data auto_broadcast="numpy" />
			<input>
				<port id="0" precision="FP32">
					<dim>-1</dim>
					<dim>5120</dim>
				</port>
				<port id="1" precision="FP32">
					<dim>1</dim>
					<dim>5120</dim>
				</port>
			</input>
			<output>
				<port id="2" precision="FP32" names="354,input.3">
					<dim>-1</dim>
					<dim>5120</dim>
				</port>
			</output>
		</layer>
		<layer id="268" name="Constant_104457" type="Const" version="opset1">
			<data element_type="f32" shape="" offset="6871264" size="4" />
			<output>
				<port id="0" precision="FP32" />
			</output>
		</layer>
		<layer id="269" name="__module.blocks.1.mlp.act/aten::mul/Multiply_1" type="Swish" version="opset4">
			<input>
				<port id="0" precision="FP32">
					<dim>-1</dim>
					<dim>5120</dim>
				</port>
				<port id="1" precision="FP32" />
			</input>
			<output>
				<port id="2" precision="FP32" names="357">
					<dim>-1</dim>
					<dim>5120</dim>
				</port>
			</output>
		</layer>
		<layer id="270" name="self.blocks.1.mlp.fc2.weight" type="Const" version="opset1">
			<data element_type="u4" shape="1280, 40, 128" offset="19525364" size="3276800" />
			<output>
				<port id="0" precision="U4">
					<dim>1280</dim>
					<dim>40</dim>
					<dim>128</dim>
				</port>
			</output>
		</layer>
		<layer id="271" name="Convert_115489" type="Convert" version="opset1">
			<data destination_type="f16" />
			<input>
				<port id="0" precision="U4">
					<dim>1280</dim>
					<dim>40</dim>
					<dim>128</dim>
				</port>
			</input>
			<output>
				<port id="1" precision="FP16">
					<dim>1280</dim>
					<dim>40</dim>
					<dim>128</dim>
				</port>
			</output>
		</layer>
		<layer id="272" name="self.blocks.1.mlp.fc2.weight/zero_point" type="Const" version="opset1">
			<data element_type="u4" shape="1280, 40, 1" offset="22802164" size="25600" />
			<output>
				<port id="0" precision="U4">
					<dim>1280</dim>
					<dim>40</dim>
					<dim>1</dim>
				</port>
			</output>
		</layer>
		<layer id="273" name="Convert_115491" type="Convert" version="opset1">
			<data destination_type="f16" />
			<input>
				<port id="0" precision="U4">
					<dim>1280</dim>
					<dim>40</dim>
					<dim>1</dim>
				</port>
			</input>
			<output>
				<port id="1" precision="FP16">
					<dim>1280</dim>
					<dim>40</dim>
					<dim>1</dim>
				</port>
			</output>
		</layer>
		<layer id="274" name="self.blocks.1.mlp.fc2.weight/zero_point/subtract" type="Subtract" version="opset1">
			<data auto_broadcast="numpy" />
			<input>
				<port id="0" precision="FP16">
					<dim>1280</dim>
					<dim>40</dim>
					<dim>128</dim>
				</port>
				<port id="1" precision="FP16">
					<dim>1280</dim>
					<dim>40</dim>
					<dim>1</dim>
				</port>
			</input>
			<output>
				<port id="2" precision="FP16">
					<dim>1280</dim>
					<dim>40</dim>
					<dim>128</dim>
				</port>
			</output>
		</layer>
		<layer id="275" name="self.blocks.1.mlp.fc2.weight/scale" type="Const" version="opset1">
			<data element_type="f16" shape="1280, 40, 1" offset="22827764" size="102400" />
			<output>
				<port id="0" precision="FP16">
					<dim>1280</dim>
					<dim>40</dim>
					<dim>1</dim>
				</port>
			</output>
		</layer>
		<layer id="276" name="self.blocks.1.mlp.fc2.weight/fq_weights_1" type="Multiply" version="opset1">
			<data auto_broadcast="numpy" />
			<input>
				<port id="0" precision="FP16">
					<dim>1280</dim>
					<dim>40</dim>
					<dim>128</dim>
				</port>
				<port id="1" precision="FP16">
					<dim>1280</dim>
					<dim>40</dim>
					<dim>1</dim>
				</port>
			</input>
			<output>
				<port id="2" precision="FP16">
					<dim>1280</dim>
					<dim>40</dim>
					<dim>128</dim>
				</port>
			</output>
		</layer>
		<layer id="277" name="Constant_115496" type="Const" version="opset1">
			<data element_type="i64" shape="2" offset="10276068" size="16" />
			<output>
				<port id="0" precision="I64">
					<dim>2</dim>
				</port>
			</output>
		</layer>
		<layer id="278" name="Reshape_115497" type="Reshape" version="opset1">
			<data special_zero="false" />
			<input>
				<port id="0" precision="FP16">
					<dim>1280</dim>
					<dim>40</dim>
					<dim>128</dim>
				</port>
				<port id="1" precision="I64">
					<dim>2</dim>
				</port>
			</input>
			<output>
				<port id="2" precision="FP16">
					<dim>1280</dim>
					<dim>5120</dim>
				</port>
			</output>
		</layer>
		<layer id="279" name="self.blocks.1.mlp.fc2.weight/fq_weights_1/convert" type="Convert" version="opset1">
			<data destination_type="f32" />
			<input>
				<port id="0" precision="FP16">
					<dim>1280</dim>
					<dim>5120</dim>
				</port>
			</input>
			<output>
				<port id="1" precision="FP32">
					<dim>1280</dim>
					<dim>5120</dim>
				</port>
			</output>
		</layer>
		<layer id="280" name="__module.blocks.1.mlp.fc2/aten::linear/MatMul" type="MatMul" version="opset1">
			<data transpose_a="false" transpose_b="true" />
			<input>
				<port id="0" precision="FP32">
					<dim>-1</dim>
					<dim>5120</dim>
				</port>
				<port id="1" precision="FP32">
					<dim>1280</dim>
					<dim>5120</dim>
				</port>
			</input>
			<output>
				<port id="2" precision="FP32">
					<dim>-1</dim>
					<dim>1280</dim>
				</port>
			</output>
		</layer>
		<layer id="281" name="Constant_106501" type="Const" version="opset1">
			<data element_type="f32" shape="1, 1280" offset="22930164" size="5120" />
			<output>
				<port id="0" precision="FP32">
					<dim>1</dim>
					<dim>1280</dim>
				</port>
			</output>
		</layer>
		<layer id="282" name="__module.blocks.1.mlp.fc2/aten::linear/Add" type="Add" version="opset1">
			<data auto_broadcast="numpy" />
			<input>
				<port id="0" precision="FP32">
					<dim>-1</dim>
					<dim>1280</dim>
				</port>
				<port id="1" precision="FP32">
					<dim>1</dim>
					<dim>1280</dim>
				</port>
			</input>
			<output>
				<port id="2" precision="FP32" names="360">
					<dim>-1</dim>
					<dim>1280</dim>
				</port>
			</output>
		</layer>
		<layer id="283" name="__module.blocks.1/aten::add/Add_1" type="Add" version="opset1">
			<data auto_broadcast="numpy" />
			<input>
				<port id="0" precision="FP32">
					<dim>-1</dim>
					<dim>1280</dim>
				</port>
				<port id="1" precision="FP32">
					<dim>-1</dim>
					<dim>1280</dim>
				</port>
			</input>
			<output>
				<port id="2" precision="FP32" names="361,hidden_states.15">
					<dim>-1</dim>
					<dim>1280</dim>
				</port>
			</output>
		</layer>
		<layer id="284" name="__module.blocks.2.norm1/aten::layer_norm/Multiply" type="Const" version="opset1">
			<data element_type="i32" shape="1" offset="0" size="4" />
			<output>
				<port id="0" precision="I32">
					<dim>1</dim>
				</port>
			</output>
		</layer>
		<layer id="285" name="__module.blocks.2.norm1/aten::layer_norm/MVN" type="MVN" version="opset6">
			<data eps="9.9999999747524271e-07" normalize_variance="true" eps_mode="INSIDE_SQRT" />
			<input>
				<port id="0" precision="FP32">
					<dim>-1</dim>
					<dim>1280</dim>
				</port>
				<port id="1" precision="I32">
					<dim>1</dim>
				</port>
			</input>
			<output>
				<port id="2" precision="FP32">
					<dim>-1</dim>
					<dim>1280</dim>
				</port>
			</output>
		</layer>
		<layer id="286" name="Constant_106502" type="Const" version="opset1">
			<data element_type="f32" shape="1, 1280" offset="22935284" size="5120" />
			<output>
				<port id="0" precision="FP32">
					<dim>1</dim>
					<dim>1280</dim>
				</port>
			</output>
		</layer>
		<layer id="287" name="__module.blocks.2.norm1/aten::layer_norm/Multiply_1" type="Multiply" version="opset1">
			<data auto_broadcast="numpy" />
			<input>
				<port id="0" precision="FP32">
					<dim>-1</dim>
					<dim>1280</dim>
				</port>
				<port id="1" precision="FP32">
					<dim>1</dim>
					<dim>1280</dim>
				</port>
			</input>
			<output>
				<port id="2" precision="FP32">
					<dim>-1</dim>
					<dim>1280</dim>
				</port>
			</output>
		</layer>
		<layer id="288" name="Constant_106503" type="Const" version="opset1">
			<data element_type="f32" shape="1, 1280" offset="22940404" size="5120" />
			<output>
				<port id="0" precision="FP32">
					<dim>1</dim>
					<dim>1280</dim>
				</port>
			</output>
		</layer>
		<layer id="289" name="__module.blocks.2.norm1/aten::layer_norm/Add" type="Add" version="opset1">
			<data auto_broadcast="numpy" />
			<input>
				<port id="0" precision="FP32">
					<dim>-1</dim>
					<dim>1280</dim>
				</port>
				<port id="1" precision="FP32">
					<dim>1</dim>
					<dim>1280</dim>
				</port>
			</input>
			<output>
				<port id="2" precision="FP32" names="385,hidden_states.13">
					<dim>-1</dim>
					<dim>1280</dim>
				</port>
			</output>
		</layer>
		<layer id="290" name="self.blocks.2.attn.qkv.weight" type="Const" version="opset1">
			<data element_type="u4" shape="3840, 10, 128" offset="22945524" size="2457600" />
			<output>
				<port id="0" precision="U4">
					<dim>3840</dim>
					<dim>10</dim>
					<dim>128</dim>
				</port>
			</output>
		</layer>
		<layer id="291" name="Convert_116182" type="Convert" version="opset1">
			<data destination_type="f16" />
			<input>
				<port id="0" precision="U4">
					<dim>3840</dim>
					<dim>10</dim>
					<dim>128</dim>
				</port>
			</input>
			<output>
				<port id="1" precision="FP16">
					<dim>3840</dim>
					<dim>10</dim>
					<dim>128</dim>
				</port>
			</output>
		</layer>
		<layer id="292" name="self.blocks.2.attn.qkv.weight/zero_point" type="Const" version="opset1">
			<data element_type="u4" shape="3840, 10, 1" offset="25403124" size="19200" />
			<output>
				<port id="0" precision="U4">
					<dim>3840</dim>
					<dim>10</dim>
					<dim>1</dim>
				</port>
			</output>
		</layer>
		<layer id="293" name="Convert_116184" type="Convert" version="opset1">
			<data destination_type="f16" />
			<input>
				<port id="0" precision="U4">
					<dim>3840</dim>
					<dim>10</dim>
					<dim>1</dim>
				</port>
			</input>
			<output>
				<port id="1" precision="FP16">
					<dim>3840</dim>
					<dim>10</dim>
					<dim>1</dim>
				</port>
			</output>
		</layer>
		<layer id="294" name="self.blocks.2.attn.qkv.weight/zero_point/subtract" type="Subtract" version="opset1">
			<data auto_broadcast="numpy" />
			<input>
				<port id="0" precision="FP16">
					<dim>3840</dim>
					<dim>10</dim>
					<dim>128</dim>
				</port>
				<port id="1" precision="FP16">
					<dim>3840</dim>
					<dim>10</dim>
					<dim>1</dim>
				</port>
			</input>
			<output>
				<port id="2" precision="FP16">
					<dim>3840</dim>
					<dim>10</dim>
					<dim>128</dim>
				</port>
			</output>
		</layer>
		<layer id="295" name="self.blocks.2.attn.qkv.weight/scale" type="Const" version="opset1">
			<data element_type="f16" shape="3840, 10, 1" offset="25422324" size="76800" />
			<output>
				<port id="0" precision="FP16">
					<dim>3840</dim>
					<dim>10</dim>
					<dim>1</dim>
				</port>
			</output>
		</layer>
		<layer id="296" name="self.blocks.2.attn.qkv.weight/fq_weights_1" type="Multiply" version="opset1">
			<data auto_broadcast="numpy" />
			<input>
				<port id="0" precision="FP16">
					<dim>3840</dim>
					<dim>10</dim>
					<dim>128</dim>
				</port>
				<port id="1" precision="FP16">
					<dim>3840</dim>
					<dim>10</dim>
					<dim>1</dim>
				</port>
			</input>
			<output>
				<port id="2" precision="FP16">
					<dim>3840</dim>
					<dim>10</dim>
					<dim>128</dim>
				</port>
			</output>
		</layer>
		<layer id="297" name="Constant_116189" type="Const" version="opset1">
			<data element_type="i64" shape="2" offset="2563844" size="16" />
			<output>
				<port id="0" precision="I64">
					<dim>2</dim>
				</port>
			</output>
		</layer>
		<layer id="298" name="Reshape_116190" type="Reshape" version="opset1">
			<data special_zero="false" />
			<input>
				<port id="0" precision="FP16">
					<dim>3840</dim>
					<dim>10</dim>
					<dim>128</dim>
				</port>
				<port id="1" precision="I64">
					<dim>2</dim>
				</port>
			</input>
			<output>
				<port id="2" precision="FP16">
					<dim>3840</dim>
					<dim>1280</dim>
				</port>
			</output>
		</layer>
		<layer id="299" name="self.blocks.2.attn.qkv.weight/fq_weights_1/convert" type="Convert" version="opset1">
			<data destination_type="f32" />
			<input>
				<port id="0" precision="FP16">
					<dim>3840</dim>
					<dim>1280</dim>
				</port>
			</input>
			<output>
				<port id="1" precision="FP32">
					<dim>3840</dim>
					<dim>1280</dim>
				</port>
			</output>
		</layer>
		<layer id="300" name="__module.blocks.2.attn.qkv/aten::linear/MatMul" type="MatMul" version="opset1">
			<data transpose_a="false" transpose_b="true" />
			<input>
				<port id="0" precision="FP32">
					<dim>-1</dim>
					<dim>1280</dim>
				</port>
				<port id="1" precision="FP32">
					<dim>3840</dim>
					<dim>1280</dim>
				</port>
			</input>
			<output>
				<port id="2" precision="FP32">
					<dim>-1</dim>
					<dim>3840</dim>
				</port>
			</output>
		</layer>
		<layer id="301" name="Constant_106504" type="Const" version="opset1">
			<data element_type="f32" shape="1, 3840" offset="25499124" size="15360" />
			<output>
				<port id="0" precision="FP32">
					<dim>1</dim>
					<dim>3840</dim>
				</port>
			</output>
		</layer>
		<layer id="302" name="__module.blocks.2.attn.qkv/aten::linear/Add" type="Add" version="opset1">
			<data auto_broadcast="numpy" />
			<input>
				<port id="0" precision="FP32">
					<dim>-1</dim>
					<dim>3840</dim>
				</port>
				<port id="1" precision="FP32">
					<dim>1</dim>
					<dim>3840</dim>
				</port>
			</input>
			<output>
				<port id="2" precision="FP32" names="391">
					<dim>-1</dim>
					<dim>3840</dim>
				</port>
			</output>
		</layer>
		<layer id="303" name="Constant_110299" type="Const" version="opset1">
			<data element_type="i64" shape="4" offset="2579220" size="32" />
			<output>
				<port id="0" precision="I64">
					<dim>4</dim>
				</port>
			</output>
		</layer>
		<layer id="304" name="__module.blocks.2.attn/aten::reshape/Reshape" type="Reshape" version="opset1">
			<data special_zero="true" />
			<input>
				<port id="0" precision="FP32">
					<dim>-1</dim>
					<dim>3840</dim>
				</port>
				<port id="1" precision="I64">
					<dim>4</dim>
				</port>
			</input>
			<output>
				<port id="2" precision="FP32" names="393">
					<dim>-1</dim>
					<dim>3</dim>
					<dim>16</dim>
					<dim>80</dim>
				</port>
			</output>
		</layer>
		<layer id="305" name="Constant_5184" type="Const" version="opset1">
			<data element_type="i64" shape="4" offset="2579252" size="32" />
			<output>
				<port id="0" precision="I64" names="394">
					<dim>4</dim>
				</port>
			</output>
		</layer>
		<layer id="306" name="__module.blocks.2.attn/aten::permute/Transpose" type="Transpose" version="opset1">
			<input>
				<port id="0" precision="FP32">
					<dim>-1</dim>
					<dim>3</dim>
					<dim>16</dim>
					<dim>80</dim>
				</port>
				<port id="1" precision="I64">
					<dim>4</dim>
				</port>
			</input>
			<output>
				<port id="2" precision="FP32" names="395">
					<dim>3</dim>
					<dim>-1</dim>
					<dim>16</dim>
					<dim>80</dim>
				</port>
			</output>
		</layer>
		<layer id="307" name="363" type="Const" version="opset1">
			<data element_type="i64" shape="" offset="2579284" size="8" />
			<output>
				<port id="0" precision="I64" names="363" />
			</output>
		</layer>
		<layer id="308" name="__module.blocks.2.attn/prim::ListUnpack/Split" type="Split" version="opset1">
			<data num_splits="3" />
			<input>
				<port id="0" precision="FP32">
					<dim>3</dim>
					<dim>-1</dim>
					<dim>16</dim>
					<dim>80</dim>
				</port>
				<port id="1" precision="I64" />
			</input>
			<output>
				<port id="2" precision="FP32">
					<dim>1</dim>
					<dim>-1</dim>
					<dim>16</dim>
					<dim>80</dim>
				</port>
				<port id="3" precision="FP32">
					<dim>1</dim>
					<dim>-1</dim>
					<dim>16</dim>
					<dim>80</dim>
				</port>
				<port id="4" precision="FP32">
					<dim>1</dim>
					<dim>-1</dim>
					<dim>16</dim>
					<dim>80</dim>
				</port>
			</output>
		</layer>
		<layer id="309" name="__module.blocks.2.attn/prim::ListUnpack/Squeeze" type="Squeeze" version="opset1">
			<input>
				<port id="0" precision="FP32">
					<dim>1</dim>
					<dim>-1</dim>
					<dim>16</dim>
					<dim>80</dim>
				</port>
				<port id="1" precision="I64" />
			</input>
			<output>
				<port id="2" precision="FP32" names="397,q.9">
					<dim>-1</dim>
					<dim>16</dim>
					<dim>80</dim>
				</port>
			</output>
		</layer>
		<layer id="310" name="__module.blocks.2.attn/aten::unsqueeze/Unsqueeze" type="Unsqueeze" version="opset1">
			<input>
				<port id="0" precision="FP32">
					<dim>-1</dim>
					<dim>16</dim>
					<dim>80</dim>
				</port>
				<port id="1" precision="I64" />
			</input>
			<output>
				<port id="2" precision="FP32" names="400,401,tensor.17,tensor.19">
					<dim>1</dim>
					<dim>-1</dim>
					<dim>16</dim>
					<dim>80</dim>
				</port>
			</output>
		</layer>
		<layer id="311" name="__module.blocks.2.attn/aten::mul/Multiply" type="Multiply" version="opset1">
			<data auto_broadcast="numpy" />
			<input>
				<port id="0" precision="FP32">
					<dim>1</dim>
					<dim>-1</dim>
					<dim>16</dim>
					<dim>80</dim>
				</port>
				<port id="1" precision="FP32">
					<dim>1</dim>
					<dim>-1</dim>
					<dim>1</dim>
					<dim>-1</dim>
				</port>
			</input>
			<output>
				<port id="2" precision="FP32" names="414">
					<dim>1</dim>
					<dim>-1</dim>
					<dim>16</dim>
					<dim>80</dim>
				</port>
			</output>
		</layer>
		<layer id="312" name="__module.blocks.2.attn/aten::size/ShapeOf_2" type="ShapeOf" version="opset3">
			<data output_type="i64" />
			<input>
				<port id="0" precision="FP32">
					<dim>1</dim>
					<dim>-1</dim>
					<dim>16</dim>
					<dim>80</dim>
				</port>
			</input>
			<output>
				<port id="1" precision="I64">
					<dim>4</dim>
				</port>
			</output>
		</layer>
		<layer id="313" name="364" type="Const" version="opset1">
			<data element_type="i64" shape="" offset="2579324" size="8" />
			<output>
				<port id="0" precision="I64" names="364" />
			</output>
		</layer>
		<layer id="314" name="__module.blocks.2.attn/aten::size/Constant_2" type="Const" version="opset1">
			<data element_type="i32" shape="" offset="2579332" size="4" />
			<output>
				<port id="0" precision="I32" />
			</output>
		</layer>
		<layer id="315" name="__module.blocks.2.attn/aten::size/Gather_2" type="Gather" version="opset8">
			<data batch_dims="0" />
			<input>
				<port id="0" precision="I64">
					<dim>4</dim>
				</port>
				<port id="1" precision="I64" />
				<port id="2" precision="I32" />
			</input>
			<output>
				<port id="3" precision="I64" names="415,420" />
			</output>
		</layer>
		<layer id="316" name="Constant_5134" type="Const" version="opset1">
			<data element_type="i64" shape="" offset="2579336" size="8" />
			<output>
				<port id="0" precision="I64" names="372" />
			</output>
		</layer>
		<layer id="317" name="__module.blocks.2.attn/aten::floor_divide/Divide_1" type="Divide" version="opset1">
			<data auto_broadcast="numpy" m_pythondiv="true" />
			<input>
				<port id="0" precision="I64" />
				<port id="1" precision="I64" />
			</input>
			<output>
				<port id="2" precision="I64" />
			</output>
		</layer>
		<layer id="318" name="__module.blocks.2.attn/aten::floor_divide/Floor_1" type="Floor" version="opset1">
			<input>
				<port id="0" precision="I64" />
			</input>
			<output>
				<port id="1" precision="I64" names="417,418,422,423" />
			</output>
		</layer>
		<layer id="319" name="Constant_75599" type="Const" version="opset1">
			<data element_type="i64" shape="1" offset="2579344" size="8" />
			<output>
				<port id="0" precision="I64">
					<dim>1</dim>
				</port>
			</output>
		</layer>
		<layer id="320" name="__module.blocks.2.attn/aten::slice/Reshape_5" type="Reshape" version="opset1">
			<data special_zero="false" />
			<input>
				<port id="0" precision="I64" />
				<port id="1" precision="I64">
					<dim>1</dim>
				</port>
			</input>
			<output>
				<port id="2" precision="I64">
					<dim>1</dim>
				</port>
			</output>
		</layer>
		<layer id="321" name="__module.blocks.2.attn/aten::slice/Reshape_1" type="Const" version="opset1">
			<data element_type="i64" shape="1" offset="2579352" size="8" />
			<output>
				<port id="0" precision="I64">
					<dim>1</dim>
				</port>
			</output>
		</layer>
		<layer id="322" name="__module.blocks.2.attn/aten::slice/Reshape_2" type="Const" version="opset1">
			<data element_type="i64" shape="1" offset="2579292" size="8" />
			<output>
				<port id="0" precision="I64">
					<dim>1</dim>
				</port>
			</output>
		</layer>
		<layer id="323" name="__module.blocks.2.attn/aten::slice/Reshape_3" type="Const" version="opset1">
			<data element_type="i64" shape="1" offset="2579324" size="8" />
			<output>
				<port id="0" precision="I64">
					<dim>1</dim>
				</port>
			</output>
		</layer>
		<layer id="324" name="__module.blocks.2.attn/aten::slice/Slice" type="Slice" version="opset8">
			<input>
				<port id="0" precision="FP32">
					<dim>1</dim>
					<dim>-1</dim>
					<dim>16</dim>
					<dim>80</dim>
				</port>
				<port id="1" precision="I64">
					<dim>1</dim>
				</port>
				<port id="2" precision="I64">
					<dim>1</dim>
				</port>
				<port id="3" precision="I64">
					<dim>1</dim>
				</port>
				<port id="4" precision="I64">
					<dim>1</dim>
				</port>
			</input>
			<output>
				<port id="5" precision="FP32" names="424,x2.9">
					<dim>1</dim>
					<dim>-1</dim>
					<dim>16</dim>
					<dim>40</dim>
				</port>
			</output>
		</layer>
		<layer id="325" name="Constant_106505" type="Const" version="opset1">
			<data element_type="f32" shape="1, 1, 1, 1" offset="2579360" size="4" />
			<output>
				<port id="0" precision="FP32">
					<dim>1</dim>
					<dim>1</dim>
					<dim>1</dim>
					<dim>1</dim>
				</port>
			</output>
		</layer>
		<layer id="326" name="__module.blocks.2.attn/aten::neg/Multiply" type="Multiply" version="opset1">
			<data auto_broadcast="numpy" />
			<input>
				<port id="0" precision="FP32">
					<dim>1</dim>
					<dim>-1</dim>
					<dim>16</dim>
					<dim>40</dim>
				</port>
				<port id="1" precision="FP32">
					<dim>1</dim>
					<dim>1</dim>
					<dim>1</dim>
					<dim>1</dim>
				</port>
			</input>
			<output>
				<port id="2" precision="FP32" names="425">
					<dim>1</dim>
					<dim>-1</dim>
					<dim>16</dim>
					<dim>40</dim>
				</port>
			</output>
		</layer>
		<layer id="327" name="__module.blocks.2.attn/aten::slice/Reshape_4" type="Const" version="opset1">
			<data element_type="i64" shape="1" offset="2579284" size="8" />
			<output>
				<port id="0" precision="I64">
					<dim>1</dim>
				</port>
			</output>
		</layer>
		<layer id="328" name="__module.blocks.2.attn/aten::slice/Reshape_6" type="Const" version="opset1">
			<data element_type="i64" shape="1" offset="2579292" size="8" />
			<output>
				<port id="0" precision="I64">
					<dim>1</dim>
				</port>
			</output>
		</layer>
		<layer id="329" name="__module.blocks.2.attn/aten::slice/Reshape_7" type="Const" version="opset1">
			<data element_type="i64" shape="1" offset="2579324" size="8" />
			<output>
				<port id="0" precision="I64">
					<dim>1</dim>
				</port>
			</output>
		</layer>
		<layer id="330" name="__module.blocks.2.attn/aten::slice/Slice_1" type="Slice" version="opset8">
			<input>
				<port id="0" precision="FP32">
					<dim>1</dim>
					<dim>-1</dim>
					<dim>16</dim>
					<dim>80</dim>
				</port>
				<port id="1" precision="I64">
					<dim>1</dim>
				</port>
				<port id="2" precision="I64">
					<dim>1</dim>
				</port>
				<port id="3" precision="I64">
					<dim>1</dim>
				</port>
				<port id="4" precision="I64">
					<dim>1</dim>
				</port>
			</input>
			<output>
				<port id="5" precision="FP32" names="419">
					<dim>1</dim>
					<dim>-1</dim>
					<dim>16</dim>
					<dim>40</dim>
				</port>
			</output>
		</layer>
		<layer id="331" name="__module.blocks.2.attn/aten::cat/Concat" type="Concat" version="opset1">
			<data axis="-1" />
			<input>
				<port id="0" precision="FP32">
					<dim>1</dim>
					<dim>-1</dim>
					<dim>16</dim>
					<dim>40</dim>
				</port>
				<port id="1" precision="FP32">
					<dim>1</dim>
					<dim>-1</dim>
					<dim>16</dim>
					<dim>40</dim>
				</port>
			</input>
			<output>
				<port id="2" precision="FP32" names="427">
					<dim>1</dim>
					<dim>-1</dim>
					<dim>16</dim>
					<dim>80</dim>
				</port>
			</output>
		</layer>
		<layer id="332" name="__module.blocks.2.attn/aten::mul/Multiply_1" type="Multiply" version="opset1">
			<data auto_broadcast="numpy" />
			<input>
				<port id="0" precision="FP32">
					<dim>1</dim>
					<dim>-1</dim>
					<dim>16</dim>
					<dim>80</dim>
				</port>
				<port id="1" precision="FP32">
					<dim>1</dim>
					<dim>-1</dim>
					<dim>1</dim>
					<dim>-1</dim>
				</port>
			</input>
			<output>
				<port id="2" precision="FP32" names="428">
					<dim>1</dim>
					<dim>-1</dim>
					<dim>16</dim>
					<dim>80</dim>
				</port>
			</output>
		</layer>
		<layer id="333" name="__module.blocks.2.attn/aten::add/Add" type="Add" version="opset1">
			<data auto_broadcast="numpy" />
			<input>
				<port id="0" precision="FP32">
					<dim>1</dim>
					<dim>-1</dim>
					<dim>16</dim>
					<dim>80</dim>
				</port>
				<port id="1" precision="FP32">
					<dim>1</dim>
					<dim>-1</dim>
					<dim>16</dim>
					<dim>80</dim>
				</port>
			</input>
			<output>
				<port id="2" precision="FP32" names="429,430,output.9">
					<dim>1</dim>
					<dim>-1</dim>
					<dim>16</dim>
					<dim>80</dim>
				</port>
			</output>
		</layer>
		<layer id="334" name="__module.blocks.2.attn/aten::squeeze/Squeeze" type="Squeeze" version="opset1">
			<input>
				<port id="0" precision="FP32">
					<dim>1</dim>
					<dim>-1</dim>
					<dim>16</dim>
					<dim>80</dim>
				</port>
				<port id="1" precision="I64" />
			</input>
			<output>
				<port id="2" precision="FP32" names="431,q.11">
					<dim>-1</dim>
					<dim>16</dim>
					<dim>80</dim>
				</port>
			</output>
		</layer>
		<layer id="335" name="__module.blocks.2.attn/aten::transpose/ScatterElementsUpdate" type="Const" version="opset1">
			<data element_type="i32" shape="3" offset="2579364" size="12" />
			<output>
				<port id="0" precision="I32">
					<dim>3</dim>
				</port>
			</output>
		</layer>
		<layer id="336" name="__module.blocks.2.attn/aten::transpose/Transpose" type="Transpose" version="opset1">
			<input>
				<port id="0" precision="FP32">
					<dim>-1</dim>
					<dim>16</dim>
					<dim>80</dim>
				</port>
				<port id="1" precision="I32">
					<dim>3</dim>
				</port>
			</input>
			<output>
				<port id="2" precision="FP32" names="464">
					<dim>16</dim>
					<dim>-1</dim>
					<dim>80</dim>
				</port>
			</output>
		</layer>
		<layer id="337" name="__module.blocks.2.attn/prim::ListUnpack/Squeeze_0" type="Squeeze" version="opset1">
			<input>
				<port id="0" precision="FP32">
					<dim>1</dim>
					<dim>-1</dim>
					<dim>16</dim>
					<dim>80</dim>
				</port>
				<port id="1" precision="I64" />
			</input>
			<output>
				<port id="2" precision="FP32" names="398,k.9">
					<dim>-1</dim>
					<dim>16</dim>
					<dim>80</dim>
				</port>
			</output>
		</layer>
		<layer id="338" name="__module.blocks.2.attn/aten::unsqueeze/Unsqueeze_5" type="Unsqueeze" version="opset1">
			<input>
				<port id="0" precision="FP32">
					<dim>-1</dim>
					<dim>16</dim>
					<dim>80</dim>
				</port>
				<port id="1" precision="I64" />
			</input>
			<output>
				<port id="2" precision="FP32" names="432,433,tensor.21,tensor.23">
					<dim>1</dim>
					<dim>-1</dim>
					<dim>16</dim>
					<dim>80</dim>
				</port>
			</output>
		</layer>
		<layer id="339" name="__module.blocks.2.attn/aten::mul/Multiply_2" type="Multiply" version="opset1">
			<data auto_broadcast="numpy" />
			<input>
				<port id="0" precision="FP32">
					<dim>1</dim>
					<dim>-1</dim>
					<dim>16</dim>
					<dim>80</dim>
				</port>
				<port id="1" precision="FP32">
					<dim>1</dim>
					<dim>-1</dim>
					<dim>1</dim>
					<dim>-1</dim>
				</port>
			</input>
			<output>
				<port id="2" precision="FP32" names="446">
					<dim>1</dim>
					<dim>-1</dim>
					<dim>16</dim>
					<dim>80</dim>
				</port>
			</output>
		</layer>
		<layer id="340" name="__module.blocks.2.attn/aten::size/ShapeOf_4" type="ShapeOf" version="opset3">
			<data output_type="i64" />
			<input>
				<port id="0" precision="FP32">
					<dim>1</dim>
					<dim>-1</dim>
					<dim>16</dim>
					<dim>80</dim>
				</port>
			</input>
			<output>
				<port id="1" precision="I64">
					<dim>4</dim>
				</port>
			</output>
		</layer>
		<layer id="341" name="__module.blocks.2.attn/aten::size/Constant_4" type="Const" version="opset1">
			<data element_type="i32" shape="" offset="2579332" size="4" />
			<output>
				<port id="0" precision="I32" />
			</output>
		</layer>
		<layer id="342" name="__module.blocks.2.attn/aten::size/Gather_4" type="Gather" version="opset8">
			<data batch_dims="0" />
			<input>
				<port id="0" precision="I64">
					<dim>4</dim>
				</port>
				<port id="1" precision="I64" />
				<port id="2" precision="I32" />
			</input>
			<output>
				<port id="3" precision="I64" names="447,452" />
			</output>
		</layer>
		<layer id="343" name="__module.blocks.2.attn/aten::floor_divide/Divide_3" type="Divide" version="opset1">
			<data auto_broadcast="numpy" m_pythondiv="true" />
			<input>
				<port id="0" precision="I64" />
				<port id="1" precision="I64" />
			</input>
			<output>
				<port id="2" precision="I64" />
			</output>
		</layer>
		<layer id="344" name="__module.blocks.2.attn/aten::floor_divide/Floor_3" type="Floor" version="opset1">
			<input>
				<port id="0" precision="I64" />
			</input>
			<output>
				<port id="1" precision="I64" names="449,450,454,455" />
			</output>
		</layer>
		<layer id="345" name="Constant_75600" type="Const" version="opset1">
			<data element_type="i64" shape="1" offset="2579344" size="8" />
			<output>
				<port id="0" precision="I64">
					<dim>1</dim>
				</port>
			</output>
		</layer>
		<layer id="346" name="__module.blocks.2.attn/aten::slice/Reshape_13" type="Reshape" version="opset1">
			<data special_zero="false" />
			<input>
				<port id="0" precision="I64" />
				<port id="1" precision="I64">
					<dim>1</dim>
				</port>
			</input>
			<output>
				<port id="2" precision="I64">
					<dim>1</dim>
				</port>
			</output>
		</layer>
		<layer id="347" name="__module.blocks.2.attn/aten::slice/Reshape_9" type="Const" version="opset1">
			<data element_type="i64" shape="1" offset="2579352" size="8" />
			<output>
				<port id="0" precision="I64">
					<dim>1</dim>
				</port>
			</output>
		</layer>
		<layer id="348" name="__module.blocks.2.attn/aten::slice/Reshape_10" type="Const" version="opset1">
			<data element_type="i64" shape="1" offset="2579292" size="8" />
			<output>
				<port id="0" precision="I64">
					<dim>1</dim>
				</port>
			</output>
		</layer>
		<layer id="349" name="__module.blocks.2.attn/aten::slice/Reshape_11" type="Const" version="opset1">
			<data element_type="i64" shape="1" offset="2579324" size="8" />
			<output>
				<port id="0" precision="I64">
					<dim>1</dim>
				</port>
			</output>
		</layer>
		<layer id="350" name="__module.blocks.2.attn/aten::slice/Slice_2" type="Slice" version="opset8">
			<input>
				<port id="0" precision="FP32">
					<dim>1</dim>
					<dim>-1</dim>
					<dim>16</dim>
					<dim>80</dim>
				</port>
				<port id="1" precision="I64">
					<dim>1</dim>
				</port>
				<port id="2" precision="I64">
					<dim>1</dim>
				</port>
				<port id="3" precision="I64">
					<dim>1</dim>
				</port>
				<port id="4" precision="I64">
					<dim>1</dim>
				</port>
			</input>
			<output>
				<port id="5" precision="FP32" names="456,x2.11">
					<dim>1</dim>
					<dim>-1</dim>
					<dim>16</dim>
					<dim>40</dim>
				</port>
			</output>
		</layer>
		<layer id="351" name="Constant_106506" type="Const" version="opset1">
			<data element_type="f32" shape="1, 1, 1, 1" offset="2579360" size="4" />
			<output>
				<port id="0" precision="FP32">
					<dim>1</dim>
					<dim>1</dim>
					<dim>1</dim>
					<dim>1</dim>
				</port>
			</output>
		</layer>
		<layer id="352" name="__module.blocks.2.attn/aten::neg/Multiply_1" type="Multiply" version="opset1">
			<data auto_broadcast="numpy" />
			<input>
				<port id="0" precision="FP32">
					<dim>1</dim>
					<dim>-1</dim>
					<dim>16</dim>
					<dim>40</dim>
				</port>
				<port id="1" precision="FP32">
					<dim>1</dim>
					<dim>1</dim>
					<dim>1</dim>
					<dim>1</dim>
				</port>
			</input>
			<output>
				<port id="2" precision="FP32" names="457">
					<dim>1</dim>
					<dim>-1</dim>
					<dim>16</dim>
					<dim>40</dim>
				</port>
			</output>
		</layer>
		<layer id="353" name="__module.blocks.2.attn/aten::slice/Reshape_12" type="Const" version="opset1">
			<data element_type="i64" shape="1" offset="2579284" size="8" />
			<output>
				<port id="0" precision="I64">
					<dim>1</dim>
				</port>
			</output>
		</layer>
		<layer id="354" name="__module.blocks.2.attn/aten::slice/Reshape_14" type="Const" version="opset1">
			<data element_type="i64" shape="1" offset="2579292" size="8" />
			<output>
				<port id="0" precision="I64">
					<dim>1</dim>
				</port>
			</output>
		</layer>
		<layer id="355" name="__module.blocks.2.attn/aten::slice/Reshape_15" type="Const" version="opset1">
			<data element_type="i64" shape="1" offset="2579324" size="8" />
			<output>
				<port id="0" precision="I64">
					<dim>1</dim>
				</port>
			</output>
		</layer>
		<layer id="356" name="__module.blocks.2.attn/aten::slice/Slice_3" type="Slice" version="opset8">
			<input>
				<port id="0" precision="FP32">
					<dim>1</dim>
					<dim>-1</dim>
					<dim>16</dim>
					<dim>80</dim>
				</port>
				<port id="1" precision="I64">
					<dim>1</dim>
				</port>
				<port id="2" precision="I64">
					<dim>1</dim>
				</port>
				<port id="3" precision="I64">
					<dim>1</dim>
				</port>
				<port id="4" precision="I64">
					<dim>1</dim>
				</port>
			</input>
			<output>
				<port id="5" precision="FP32" names="451">
					<dim>1</dim>
					<dim>-1</dim>
					<dim>16</dim>
					<dim>40</dim>
				</port>
			</output>
		</layer>
		<layer id="357" name="__module.blocks.2.attn/aten::cat/Concat_1" type="Concat" version="opset1">
			<data axis="-1" />
			<input>
				<port id="0" precision="FP32">
					<dim>1</dim>
					<dim>-1</dim>
					<dim>16</dim>
					<dim>40</dim>
				</port>
				<port id="1" precision="FP32">
					<dim>1</dim>
					<dim>-1</dim>
					<dim>16</dim>
					<dim>40</dim>
				</port>
			</input>
			<output>
				<port id="2" precision="FP32" names="459">
					<dim>1</dim>
					<dim>-1</dim>
					<dim>16</dim>
					<dim>80</dim>
				</port>
			</output>
		</layer>
		<layer id="358" name="__module.blocks.2.attn/aten::mul/Multiply_3" type="Multiply" version="opset1">
			<data auto_broadcast="numpy" />
			<input>
				<port id="0" precision="FP32">
					<dim>1</dim>
					<dim>-1</dim>
					<dim>16</dim>
					<dim>80</dim>
				</port>
				<port id="1" precision="FP32">
					<dim>1</dim>
					<dim>-1</dim>
					<dim>1</dim>
					<dim>-1</dim>
				</port>
			</input>
			<output>
				<port id="2" precision="FP32" names="460">
					<dim>1</dim>
					<dim>-1</dim>
					<dim>16</dim>
					<dim>80</dim>
				</port>
			</output>
		</layer>
		<layer id="359" name="__module.blocks.2.attn/aten::add/Add_1" type="Add" version="opset1">
			<data auto_broadcast="numpy" />
			<input>
				<port id="0" precision="FP32">
					<dim>1</dim>
					<dim>-1</dim>
					<dim>16</dim>
					<dim>80</dim>
				</port>
				<port id="1" precision="FP32">
					<dim>1</dim>
					<dim>-1</dim>
					<dim>16</dim>
					<dim>80</dim>
				</port>
			</input>
			<output>
				<port id="2" precision="FP32" names="461,462,output.11">
					<dim>1</dim>
					<dim>-1</dim>
					<dim>16</dim>
					<dim>80</dim>
				</port>
			</output>
		</layer>
		<layer id="360" name="__module.blocks.2.attn/aten::squeeze/Squeeze_1" type="Squeeze" version="opset1">
			<input>
				<port id="0" precision="FP32">
					<dim>1</dim>
					<dim>-1</dim>
					<dim>16</dim>
					<dim>80</dim>
				</port>
				<port id="1" precision="I64" />
			</input>
			<output>
				<port id="2" precision="FP32" names="463,k.11">
					<dim>-1</dim>
					<dim>16</dim>
					<dim>80</dim>
				</port>
			</output>
		</layer>
		<layer id="361" name="__module.blocks.2.attn/aten::transpose/ScatterElementsUpdate_1" type="Const" version="opset1">
			<data element_type="i32" shape="3" offset="2579364" size="12" />
			<output>
				<port id="0" precision="I32">
					<dim>3</dim>
				</port>
			</output>
		</layer>
		<layer id="362" name="__module.blocks.2.attn/aten::transpose/Transpose_1" type="Transpose" version="opset1">
			<input>
				<port id="0" precision="FP32">
					<dim>-1</dim>
					<dim>16</dim>
					<dim>80</dim>
				</port>
				<port id="1" precision="I32">
					<dim>3</dim>
				</port>
			</input>
			<output>
				<port id="2" precision="FP32" names="465">
					<dim>16</dim>
					<dim>-1</dim>
					<dim>80</dim>
				</port>
			</output>
		</layer>
		<layer id="363" name="__module.blocks.2.attn/prim::ListUnpack/Squeeze_1" type="Squeeze" version="opset1">
			<input>
				<port id="0" precision="FP32">
					<dim>1</dim>
					<dim>-1</dim>
					<dim>16</dim>
					<dim>80</dim>
				</port>
				<port id="1" precision="I64" />
			</input>
			<output>
				<port id="2" precision="FP32" names="399,v.5">
					<dim>-1</dim>
					<dim>16</dim>
					<dim>80</dim>
				</port>
			</output>
		</layer>
		<layer id="364" name="__module.blocks.2.attn/aten::transpose/ScatterElementsUpdate_2" type="Const" version="opset1">
			<data element_type="i32" shape="3" offset="2579364" size="12" />
			<output>
				<port id="0" precision="I32">
					<dim>3</dim>
				</port>
			</output>
		</layer>
		<layer id="365" name="__module.blocks.2.attn/aten::transpose/Transpose_2" type="Transpose" version="opset1">
			<input>
				<port id="0" precision="FP32">
					<dim>-1</dim>
					<dim>16</dim>
					<dim>80</dim>
				</port>
				<port id="1" precision="I32">
					<dim>3</dim>
				</port>
			</input>
			<output>
				<port id="2" precision="FP32" names="466">
					<dim>16</dim>
					<dim>-1</dim>
					<dim>80</dim>
				</port>
			</output>
		</layer>
		<layer id="366" name="__module.blocks.2.attn/aten::scaled_dot_product_attention/ScaledDotProductAttention" type="ScaledDotProductAttention" version="opset13">
			<data causal="false" />
			<input>
				<port id="0" precision="FP32">
					<dim>16</dim>
					<dim>-1</dim>
					<dim>80</dim>
				</port>
				<port id="1" precision="FP32">
					<dim>16</dim>
					<dim>-1</dim>
					<dim>80</dim>
				</port>
				<port id="2" precision="FP32">
					<dim>16</dim>
					<dim>-1</dim>
					<dim>80</dim>
				</port>
				<port id="3" precision="FP32">
					<dim>-1</dim>
					<dim>-1</dim>
					<dim>-1</dim>
				</port>
			</input>
			<output>
				<port id="4" precision="FP32" names="467,attn_output.9">
					<dim>16</dim>
					<dim>-1</dim>
					<dim>80</dim>
				</port>
			</output>
		</layer>
		<layer id="367" name="__module.blocks.2.attn/aten::transpose/ScatterElementsUpdate_3" type="Const" version="opset1">
			<data element_type="i32" shape="3" offset="2579364" size="12" />
			<output>
				<port id="0" precision="I32">
					<dim>3</dim>
				</port>
			</output>
		</layer>
		<layer id="368" name="__module.blocks.2.attn/aten::transpose/Transpose_3" type="Transpose" version="opset1">
			<input>
				<port id="0" precision="FP32">
					<dim>16</dim>
					<dim>-1</dim>
					<dim>80</dim>
				</port>
				<port id="1" precision="I32">
					<dim>3</dim>
				</port>
			</input>
			<output>
				<port id="2" precision="FP32" names="468,attn_output.11">
					<dim>-1</dim>
					<dim>16</dim>
					<dim>80</dim>
				</port>
			</output>
		</layer>
		<layer id="369" name="Concat_80866" type="Const" version="opset1">
			<data element_type="i64" shape="2" offset="2579376" size="16" />
			<output>
				<port id="0" precision="I64">
					<dim>2</dim>
				</port>
			</output>
		</layer>
		<layer id="370" name="__module.blocks.2.attn/aten::reshape/Reshape_1" type="Reshape" version="opset1">
			<data special_zero="false" />
			<input>
				<port id="0" precision="FP32">
					<dim>-1</dim>
					<dim>16</dim>
					<dim>80</dim>
				</port>
				<port id="1" precision="I64">
					<dim>2</dim>
				</port>
			</input>
			<output>
				<port id="2" precision="FP32" names="470">
					<dim>-1</dim>
					<dim>1280</dim>
				</port>
			</output>
		</layer>
		<layer id="371" name="self.blocks.2.attn.proj.weight" type="Const" version="opset1">
			<data element_type="u4" shape="1280, 10, 128" offset="25514484" size="819200" />
			<output>
				<port id="0" precision="U4">
					<dim>1280</dim>
					<dim>10</dim>
					<dim>128</dim>
				</port>
			</output>
		</layer>
		<layer id="372" name="Convert_116534" type="Convert" version="opset1">
			<data destination_type="f16" />
			<input>
				<port id="0" precision="U4">
					<dim>1280</dim>
					<dim>10</dim>
					<dim>128</dim>
				</port>
			</input>
			<output>
				<port id="1" precision="FP16">
					<dim>1280</dim>
					<dim>10</dim>
					<dim>128</dim>
				</port>
			</output>
		</layer>
		<layer id="373" name="self.blocks.2.attn.proj.weight/zero_point" type="Const" version="opset1">
			<data element_type="u4" shape="1280, 10, 1" offset="26333684" size="6400" />
			<output>
				<port id="0" precision="U4">
					<dim>1280</dim>
					<dim>10</dim>
					<dim>1</dim>
				</port>
			</output>
		</layer>
		<layer id="374" name="Convert_116536" type="Convert" version="opset1">
…
		<edge from-layer="3698" from-port="0" to-layer="3699" to-port="1" />
		<edge from-layer="3699" from-port="2" to-layer="3700" to-port="1" />
		<edge from-layer="3700" from-port="2" to-layer="3733" to-port="0" />
		<edge from-layer="3700" from-port="2" to-layer="3702" to-port="0" />
		<edge from-layer="3701" from-port="0" to-layer="3702" to-port="1" />
		<edge from-layer="3702" from-port="2" to-layer="3704" to-port="0" />
		<edge from-layer="3703" from-port="0" to-layer="3704" to-port="1" />
		<edge from-layer="3704" from-port="2" to-layer="3706" to-port="0" />
		<edge from-layer="3705" from-port="0" to-layer="3706" to-port="1" />
		<edge from-layer="3706" from-port="2" to-layer="3717" to-port="0" />
		<edge from-layer="3707" from-port="0" to-layer="3708" to-port="0" />
		<edge from-layer="3708" from-port="1" to-layer="3711" to-port="0" />
		<edge from-layer="3709" from-port="0" to-layer="3710" to-port="0" />
		<edge from-layer="3710" from-port="1" to-layer="3711" to-port="1" />
		<edge from-layer="3711" from-port="2" to-layer="3713" to-port="0" />
		<edge from-layer="3712" from-port="0" to-layer="3713" to-port="1" />
		<edge from-layer="3713" from-port="2" to-layer="3715" to-port="0" />
		<edge from-layer="3714" from-port="0" to-layer="3715" to-port="1" />
		<edge from-layer="3715" from-port="2" to-layer="3716" to-port="0" />
		<edge from-layer="3716" from-port="1" to-layer="3717" to-port="1" />
		<edge from-layer="3717" from-port="2" to-layer="3719" to-port="0" />
		<edge from-layer="3718" from-port="0" to-layer="3719" to-port="1" />
		<edge from-layer="3719" from-port="2" to-layer="3721" to-port="0" />
		<edge from-layer="3720" from-port="0" to-layer="3721" to-port="1" />
		<edge from-layer="3721" from-port="2" to-layer="3730" to-port="0" />
		<edge from-layer="3722" from-port="0" to-layer="3723" to-port="0" />
		<edge from-layer="3723" from-port="1" to-layer="3726" to-port="0" />
		<edge from-layer="3724" from-port="0" to-layer="3725" to-port="0" />
		<edge from-layer="3725" from-port="1" to-layer="3726" to-port="1" />
		<edge from-layer="3726" from-port="2" to-layer="3728" to-port="0" />
		<edge from-layer="3727" from-port="0" to-layer="3728" to-port="1" />
		<edge from-layer="3728" from-port="2" to-layer="3729" to-port="0" />
		<edge from-layer="3729" from-port="1" to-layer="3730" to-port="1" />
		<edge from-layer="3730" from-port="2" to-layer="3732" to-port="0" />
		<edge from-layer="3731" from-port="0" to-layer="3732" to-port="1" />
		<edge from-layer="3732" from-port="2" to-layer="3733" to-port="1" />
		<edge from-layer="3733" from-port="2" to-layer="3735" to-port="0" />
		<edge from-layer="3733" from-port="2" to-layer="3832" to-port="0" />
		<edge from-layer="3734" from-port="0" to-layer="3735" to-port="1" />
		<edge from-layer="3735" from-port="2" to-layer="3737" to-port="0" />
		<edge from-layer="3736" from-port="0" to-layer="3737" to-port="1" />
		<edge from-layer="3737" from-port="2" to-layer="3739" to-port="0" />
		<edge from-layer="3738" from-port="0" to-layer="3739" to-port="1" />
		<edge from-layer="3739" from-port="2" to-layer="3748" to-port="0" />
		<edge from-layer="3740" from-port="0" to-layer="3741" to-port="0" />
		<edge from-layer="3741" from-port="1" to-layer="3744" to-port="0" />
		<edge from-layer="3742" from-port="0" to-layer="3743" to-port="0" />
		<edge from-layer="3743" from-port="1" to-layer="3744" to-port="1" />
		<edge from-layer="3744" from-port="2" to-layer="3746" to-port="0" />
		<edge from-layer="3745" from-port="0" to-layer="3746" to-port="1" />
		<edge from-layer="3746" from-port="2" to-layer="3747" to-port="0" />
		<edge from-layer="3747" from-port="1" to-layer="3748" to-port="1" />
		<edge from-layer="3748" from-port="2" to-layer="3750" to-port="0" />
		<edge from-layer="3749" from-port="0" to-layer="3750" to-port="1" />
		<edge from-layer="3750" from-port="2" to-layer="3752" to-port="0" />
		<edge from-layer="3751" from-port="0" to-layer="3752" to-port="1" />
		<edge from-layer="3752" from-port="2" to-layer="3754" to-port="0" />
		<edge from-layer="3753" from-port="0" to-layer="3754" to-port="1" />
		<edge from-layer="3754" from-port="2" to-layer="3756" to-port="0" />
		<edge from-layer="3755" from-port="0" to-layer="3811" to-port="1" />
		<edge from-layer="3755" from-port="0" to-layer="3786" to-port="1" />
		<edge from-layer="3755" from-port="0" to-layer="3785" to-port="1" />
		<edge from-layer="3755" from-port="0" to-layer="3782" to-port="1" />
		<edge from-layer="3755" from-port="0" to-layer="3756" to-port="1" />
		<edge from-layer="3755" from-port="0" to-layer="3757" to-port="1" />
		<edge from-layer="3755" from-port="0" to-layer="3758" to-port="1" />
		<edge from-layer="3755" from-port="0" to-layer="3808" to-port="1" />
		<edge from-layer="3756" from-port="2" to-layer="3757" to-port="0" />
		<edge from-layer="3756" from-port="3" to-layer="3785" to-port="0" />
		<edge from-layer="3756" from-port="4" to-layer="3811" to-port="0" />
		<edge from-layer="3757" from-port="2" to-layer="3758" to-port="0" />
		<edge from-layer="3758" from-port="2" to-layer="3759" to-port="0" />
		<edge from-layer="3758" from-port="2" to-layer="3760" to-port="0" />
		<edge from-layer="3758" from-port="2" to-layer="3778" to-port="0" />
		<edge from-layer="3758" from-port="2" to-layer="3772" to-port="0" />
		<edge from-layer="3759" from-port="2" to-layer="3781" to-port="0" />
		<edge from-layer="3760" from-port="1" to-layer="3763" to-port="0" />
		<edge from-layer="3761" from-port="0" to-layer="3790" to-port="1" />
		<edge from-layer="3761" from-port="0" to-layer="3763" to-port="1" />
		<edge from-layer="3762" from-port="0" to-layer="3763" to-port="2" />
		<edge from-layer="3763" from-port="3" to-layer="3765" to-port="0" />
		<edge from-layer="3764" from-port="0" to-layer="3765" to-port="1" />
		<edge from-layer="3764" from-port="0" to-layer="3791" to-port="1" />
		<edge from-layer="3765" from-port="2" to-layer="3766" to-port="0" />
		<edge from-layer="3766" from-port="1" to-layer="3768" to-port="0" />
		<edge from-layer="3767" from-port="0" to-layer="3768" to-port="1" />
		<edge from-layer="3768" from-port="2" to-layer="3778" to-port="2" />
		<edge from-layer="3768" from-port="2" to-layer="3772" to-port="1" />
		<edge from-layer="3769" from-port="0" to-layer="3772" to-port="2" />
		<edge from-layer="3770" from-port="0" to-layer="3772" to-port="3" />
		<edge from-layer="3771" from-port="0" to-layer="3772" to-port="4" />
		<edge from-layer="3772" from-port="5" to-layer="3774" to-port="0" />
		<edge from-layer="3773" from-port="0" to-layer="3774" to-port="1" />
		<edge from-layer="3774" from-port="2" to-layer="3779" to-port="0" />
		<edge from-layer="3775" from-port="0" to-layer="3778" to-port="1" />
		<edge from-layer="3776" from-port="0" to-layer="3778" to-port="3" />
		<edge from-layer="3777" from-port="0" to-layer="3778" to-port="4" />
		<edge from-layer="3778" from-port="5" to-layer="3779" to-port="1" />
		<edge from-layer="3779" from-port="2" to-layer="3780" to-port="0" />
		<edge from-layer="3780" from-port="2" to-layer="3781" to-port="1" />
		<edge from-layer="3781" from-port="2" to-layer="3782" to-port="0" />
		<edge from-layer="3782" from-port="2" to-layer="3784" to-port="0" />
		<edge from-layer="3783" from-port="0" to-layer="3784" to-port="1" />
		<edge from-layer="3784" from-port="2" to-layer="3814" to-port="0" />
		<edge from-layer="3785" from-port="2" to-layer="3786" to-port="0" />
		<edge from-layer="3786" from-port="2" to-layer="3798" to-port="0" />
		<edge from-layer="3786" from-port="2" to-layer="3788" to-port="0" />
		<edge from-layer="3786" from-port="2" to-layer="3787" to-port="0" />
		<edge from-layer="3786" from-port="2" to-layer="3804" to-port="0" />
		<edge from-layer="3787" from-port="2" to-layer="3807" to-port="0" />
		<edge from-layer="3788" from-port="1" to-layer="3790" to-port="0" />
		<edge from-layer="3789" from-port="0" to-layer="3790" to-port="2" />
		<edge from-layer="3790" from-port="3" to-layer="3791" to-port="0" />
		<edge from-layer="3791" from-port="2" to-layer="3792" to-port="0" />
		<edge from-layer="3792" from-port="1" to-layer="3794" to-port="0" />
		<edge from-layer="3793" from-port="0" to-layer="3794" to-port="1" />
		<edge from-layer="3794" from-port="2" to-layer="3798" to-port="1" />
		<edge from-layer="3794" from-port="2" to-layer="3804" to-port="2" />
		<edge from-layer="3795" from-port="0" to-layer="3798" to-port="2" />
		<edge from-layer="3796" from-port="0" to-layer="3798" to-port="3" />
		<edge from-layer="3797" from-port="0" to-layer="3798" to-port="4" />
		<edge from-layer="3798" from-port="5" to-layer="3800" to-port="0" />
		<edge from-layer="3799" from-port="0" to-layer="3800" to-port="1" />
		<edge from-layer="3800" from-port="2" to-layer="3805" to-port="0" />
		<edge from-layer="3801" from-port="0" to-layer="3804" to-port="1" />
		<edge from-layer="3802" from-port="0" to-layer="3804" to-port="3" />
		<edge from-layer="3803" from-port="0" to-layer="3804" to-port="4" />
		<edge from-layer="3804" from-port="5" to-layer="3805" to-port="1" />
		<edge from-layer="3805" from-port="2" to-layer="3806" to-port="0" />
		<edge from-layer="3806" from-port="2" to-layer="3807" to-port="1" />
		<edge from-layer="3807" from-port="2" to-layer="3808" to-port="0" />
		<edge from-layer="3808" from-port="2" to-layer="3810" to-port="0" />
		<edge from-layer="3809" from-port="0" to-layer="3810" to-port="1" />
		<edge from-layer="3810" from-port="2" to-layer="3814" to-port="1" />
		<edge from-layer="3811" from-port="2" to-layer="3813" to-port="0" />
		<edge from-layer="3812" from-port="0" to-layer="3813" to-port="1" />
		<edge from-layer="3813" from-port="2" to-layer="3814" to-port="2" />
		<edge from-layer="3814" from-port="4" to-layer="3816" to-port="0" />
		<edge from-layer="3815" from-port="0" to-layer="3816" to-port="1" />
		<edge from-layer="3816" from-port="2" to-layer="3818" to-port="0" />
		<edge from-layer="3817" from-port="0" to-layer="3818" to-port="1" />
		<edge from-layer="3818" from-port="2" to-layer="3829" to-port="0" />
		<edge from-layer="3819" from-port="0" to-layer="3820" to-port="0" />
		<edge from-layer="3820" from-port="1" to-layer="3823" to-port="0" />
		<edge from-layer="3821" from-port="0" to-layer="3822" to-port="0" />
		<edge from-layer="3822" from-port="1" to-layer="3823" to-port="1" />
		<edge from-layer="3823" from-port="2" to-layer="3825" to-port="0" />
		<edge from-layer="3824" from-port="0" to-layer="3825" to-port="1" />
		<edge from-layer="3825" from-port="2" to-layer="3827" to-port="0" />
		<edge from-layer="3826" from-port="0" to-layer="3827" to-port="1" />
		<edge from-layer="3827" from-port="2" to-layer="3828" to-port="0" />
		<edge from-layer="3828" from-port="1" to-layer="3829" to-port="1" />
		<edge from-layer="3829" from-port="2" to-layer="3831" to-port="0" />
		<edge from-layer="3830" from-port="0" to-layer="3831" to-port="1" />
		<edge from-layer="3831" from-port="2" to-layer="3832" to-port="1" />
		<edge from-layer="3832" from-port="2" to-layer="3834" to-port="0" />
		<edge from-layer="3832" from-port="2" to-layer="3867" to-port="0" />
		<edge from-layer="3833" from-port="0" to-layer="3834" to-port="1" />
		<edge from-layer="3834" from-port="2" to-layer="3836" to-port="0" />
		<edge from-layer="3835" from-port="0" to-layer="3836" to-port="1" />
		<edge from-layer="3836" from-port="2" to-layer="3838" to-port="0" />
		<edge from-layer="3837" from-port="0" to-layer="3838" to-port="1" />
		<edge from-layer="3838" from-port="2" to-layer="3849" to-port="0" />
		<edge from-layer="3839" from-port="0" to-layer="3840" to-port="0" />
		<edge from-layer="3840" from-port="1" to-layer="3843" to-port="0" />
		<edge from-layer="3841" from-port="0" to-layer="3842" to-port="0" />
		<edge from-layer="3842" from-port="1" to-layer="3843" to-port="1" />
		<edge from-layer="3843" from-port="2" to-layer="3845" to-port="0" />
		<edge from-layer="3844" from-port="0" to-layer="3845" to-port="1" />
		<edge from-layer="3845" from-port="2" to-layer="3847" to-port="0" />
		<edge from-layer="3846" from-port="0" to-layer="3847" to-port="1" />
		<edge from-layer="3847" from-port="2" to-layer="3848" to-port="0" />
		<edge from-layer="3848" from-port="1" to-layer="3849" to-port="1" />
		<edge from-layer="3849" from-port="2" to-layer="3851" to-port="0" />
		<edge from-layer="3850" from-port="0" to-layer="3851" to-port="1" />
		<edge from-layer="3851" from-port="2" to-layer="3853" to-port="0" />
		<edge from-layer="3852" from-port="0" to-layer="3853" to-port="1" />
		<edge from-layer="3853" from-port="2" to-layer="3864" to-port="0" />
		<edge from-layer="3854" from-port="0" to-layer="3855" to-port="0" />
		<edge from-layer="3855" from-port="1" to-layer="3858" to-port="0" />
		<edge from-layer="3856" from-port="0" to-layer="3857" to-port="0" />
		<edge from-layer="3857" from-port="1" to-layer="3858" to-port="1" />
		<edge from-layer="3858" from-port="2" to-layer="3860" to-port="0" />
		<edge from-layer="3859" from-port="0" to-layer="3860" to-port="1" />
		<edge from-layer="3860" from-port="2" to-layer="3862" to-port="0" />
		<edge from-layer="3861" from-port="0" to-layer="3862" to-port="1" />
		<edge from-layer="3862" from-port="2" to-layer="3863" to-port="0" />
		<edge from-layer="3863" from-port="1" to-layer="3864" to-port="1" />
		<edge from-layer="3864" from-port="2" to-layer="3866" to-port="0" />
		<edge from-layer="3865" from-port="0" to-layer="3866" to-port="1" />
		<edge from-layer="3866" from-port="2" to-layer="3867" to-port="1" />
		<edge from-layer="3867" from-port="2" to-layer="3869" to-port="0" />
		<edge from-layer="3867" from-port="2" to-layer="3966" to-port="0" />
		<edge from-layer="3868" from-port="0" to-layer="3869" to-port="1" />
		<edge from-layer="3869" from-port="2" to-layer="3871" to-port="0" />
		<edge from-layer="3870" from-port="0" to-layer="3871" to-port="1" />
		<edge from-layer="3871" from-port="2" to-layer="3873" to-port="0" />
		<edge from-layer="3872" from-port="0" to-layer="3873" to-port="1" />
		<edge from-layer="3873" from-port="2" to-layer="3882" to-port="0" />
		<edge from-layer="3874" from-port="0" to-layer="3875" to-port="0" />
		<edge from-layer="3875" from-port="1" to-layer="3878" to-port="0" />
		<edge from-layer="3876" from-port="0" to-layer="3877" to-port="0" />
		<edge from-layer="3877" from-port="1" to-layer="3878" to-port="1" />
		<edge from-layer="3878" from-port="2" to-layer="3880" to-port="0" />
		<edge from-layer="3879" from-port="0" to-layer="3880" to-port="1" />
		<edge from-layer="3880" from-port="2" to-layer="3881" to-port="0" />
		<edge from-layer="3881" from-port="1" to-layer="3882" to-port="1" />
		<edge from-layer="3882" from-port="2" to-layer="3884" to-port="0" />
		<edge from-layer="3883" from-port="0" to-layer="3884" to-port="1" />
		<edge from-layer="3884" from-port="2" to-layer="3886" to-port="0" />
		<edge from-layer="3885" from-port="0" to-layer="3886" to-port="1" />
		<edge from-layer="3886" from-port="2" to-layer="3888" to-port="0" />
		<edge from-layer="3887" from-port="0" to-layer="3888" to-port="1" />
		<edge from-layer="3888" from-port="2" to-layer="3890" to-port="0" />
		<edge from-layer="3889" from-port="0" to-layer="3920" to-port="1" />
		<edge from-layer="3889" from-port="0" to-layer="3942" to-port="1" />
		<edge from-layer="3889" from-port="0" to-layer="3919" to-port="1" />
		<edge from-layer="3889" from-port="0" to-layer="3945" to-port="1" />
		<edge from-layer="3889" from-port="0" to-layer="3890" to-port="1" />
		<edge from-layer="3889" from-port="0" to-layer="3891" to-port="1" />
		<edge from-layer="3889" from-port="0" to-layer="3916" to-port="1" />
		<edge from-layer="3889" from-port="0" to-layer="3892" to-port="1" />
		<edge from-layer="3890" from-port="4" to-layer="3945" to-port="0" />
		<edge from-layer="3890" from-port="3" to-layer="3919" to-port="0" />
		<edge from-layer="3890" from-port="2" to-layer="3891" to-port="0" />
		<edge from-layer="3891" from-port="2" to-layer="3892" to-port="0" />
		<edge from-layer="3892" from-port="2" to-layer="3893" to-port="0" />
		<edge from-layer="3892" from-port="2" to-layer="3894" to-port="0" />
		<edge from-layer="3892" from-port="2" to-layer="3912" to-port="0" />
		<edge from-layer="3892" from-port="2" to-layer="3906" to-port="0" />
		<edge from-layer="3893" from-port="2" to-layer="3915" to-port="0" />
		<edge from-layer="3894" from-port="1" to-layer="3897" to-port="0" />
		<edge from-layer="3895" from-port="0" to-layer="3897" to-port="1" />
		<edge from-layer="3895" from-port="0" to-layer="3924" to-port="1" />
		<edge from-layer="3896" from-port="0" to-layer="3897" to-port="2" />
		<edge from-layer="3897" from-port="3" to-layer="3899" to-port="0" />
		<edge from-layer="3898" from-port="0" to-layer="3925" to-port="1" />
		<edge from-layer="3898" from-port="0" to-layer="3899" to-port="1" />
		<edge from-layer="3899" from-port="2" to-layer="3900" to-port="0" />
		<edge from-layer="3900" from-port="1" to-layer="3902" to-port="0" />
		<edge from-layer="3901" from-port="0" to-layer="3902" to-port="1" />
		<edge from-layer="3902" from-port="2" to-layer="3906" to-port="1" />
		<edge from-layer="3902" from-port="2" to-layer="3912" to-port="2" />
		<edge from-layer="3903" from-port="0" to-layer="3906" to-port="2" />
		<edge from-layer="3904" from-port="0" to-layer="3906" to-port="3" />
		<edge from-layer="3905" from-port="0" to-layer="3906" to-port="4" />
		<edge from-layer="3906" from-port="5" to-layer="3908" to-port="0" />
		<edge from-layer="3907" from-port="0" to-layer="3908" to-port="1" />
		<edge from-layer="3908" from-port="2" to-layer="3913" to-port="0" />
		<edge from-layer="3909" from-port="0" to-layer="3912" to-port="1" />
		<edge from-layer="3910" from-port="0" to-layer="3912" to-port="3" />
		<edge from-layer="3911" from-port="0" to-layer="3912" to-port="4" />
		<edge from-layer="3912" from-port="5" to-layer="3913" to-port="1" />
		<edge from-layer="3913" from-port="2" to-layer="3914" to-port="0" />
		<edge from-layer="3914" from-port="2" to-layer="3915" to-port="1" />
		<edge from-layer="3915" from-port="2" to-layer="3916" to-port="0" />
		<edge from-layer="3916" from-port="2" to-layer="3918" to-port="0" />
		<edge from-layer="3917" from-port="0" to-layer="3918" to-port="1" />
		<edge from-layer="3918" from-port="2" to-layer="3948" to-port="0" />
		<edge from-layer="3919" from-port="2" to-layer="3920" to-port="0" />
		<edge from-layer="3920" from-port="2" to-layer="3921" to-port="0" />
		<edge from-layer="3920" from-port="2" to-layer="3938" to-port="0" />
		<edge from-layer="3920" from-port="2" to-layer="3932" to-port="0" />
		<edge from-layer="3920" from-port="2" to-layer="3922" to-port="0" />
		<edge from-layer="3921" from-port="2" to-layer="3941" to-port="0" />
		<edge from-layer="3922" from-port="1" to-layer="3924" to-port="0" />
		<edge from-layer="3923" from-port="0" to-layer="3924" to-port="2" />
		<edge from-layer="3924" from-port="3" to-layer="3925" to-port="0" />
		<edge from-layer="3925" from-port="2" to-layer="3926" to-port="0" />
		<edge from-layer="3926" from-port="1" to-layer="3928" to-port="0" />
		<edge from-layer="3927" from-port="0" to-layer="3928" to-port="1" />
		<edge from-layer="3928" from-port="2" to-layer="3938" to-port="2" />
		<edge from-layer="3928" from-port="2" to-layer="3932" to-port="1" />
		<edge from-layer="3929" from-port="0" to-layer="3932" to-port="2" />
		<edge from-layer="3930" from-port="0" to-layer="3932" to-port="3" />
		<edge from-layer="3931" from-port="0" to-layer="3932" to-port="4" />
		<edge from-layer="3932" from-port="5" to-layer="3934" to-port="0" />
		<edge from-layer="3933" from-port="0" to-layer="3934" to-port="1" />
		<edge from-layer="3934" from-port="2" to-layer="3939" to-port="0" />
		<edge from-layer="3935" from-port="0" to-layer="3938" to-port="1" />
		<edge from-layer="3936" from-port="0" to-layer="3938" to-port="3" />
		<edge from-layer="3937" from-port="0" to-layer="3938" to-port="4" />
		<edge from-layer="3938" from-port="5" to-layer="3939" to-port="1" />
		<edge from-layer="3939" from-port="2" to-layer="3940" to-port="0" />
		<edge from-layer="3940" from-port="2" to-layer="3941" to-port="1" />
		<edge from-layer="3941" from-port="2" to-layer="3942" to-port="0" />
		<edge from-layer="3942" from-port="2" to-layer="3944" to-port="0" />
		<edge from-layer="3943" from-port="0" to-layer="3944" to-port="1" />
		<edge from-layer="3944" from-port="2" to-layer="3948" to-port="1" />
		<edge from-layer="3945" from-port="2" to-layer="3947" to-port="0" />
		<edge from-layer="3946" from-port="0" to-layer="3947" to-port="1" />
		<edge from-layer="3947" from-port="2" to-layer="3948" to-port="2" />
		<edge from-layer="3948" from-port="4" to-layer="3950" to-port="0" />
		<edge from-layer="3949" from-port="0" to-layer="3950" to-port="1" />
		<edge from-layer="3950" from-port="2" to-layer="3952" to-port="0" />
		<edge from-layer="3951" from-port="0" to-layer="3952" to-port="1" />
		<edge from-layer="3952" from-port="2" to-layer="3963" to-port="0" />
		<edge from-layer="3953" from-port="0" to-layer="3954" to-port="0" />
		<edge from-layer="3954" from-port="1" to-layer="3957" to-port="0" />
		<edge from-layer="3955" from-port="0" to-layer="3956" to-port="0" />
		<edge from-layer="3956" from-port="1" to-layer="3957" to-port="1" />
		<edge from-layer="3957" from-port="2" to-layer="3959" to-port="0" />
		<edge from-layer="3958" from-port="0" to-layer="3959" to-port="1" />
		<edge from-layer="3959" from-port="2" to-layer="3961" to-port="0" />
		<edge from-layer="3960" from-port="0" to-layer="3961" to-port="1" />
		<edge from-layer="3961" from-port="2" to-layer="3962" to-port="0" />
		<edge from-layer="3962" from-port="1" to-layer="3963" to-port="1" />
		<edge from-layer="3963" from-port="2" to-layer="3965" to-port="0" />
		<edge from-layer="3964" from-port="0" to-layer="3965" to-port="1" />
		<edge from-layer="3965" from-port="2" to-layer="3966" to-port="1" />
		<edge from-layer="3966" from-port="2" to-layer="4001" to-port="0" />
		<edge from-layer="3966" from-port="2" to-layer="3968" to-port="0" />
		<edge from-layer="3967" from-port="0" to-layer="3968" to-port="1" />
		<edge from-layer="3968" from-port="2" to-layer="3970" to-port="0" />
		<edge from-layer="3969" from-port="0" to-layer="3970" to-port="1" />
		<edge from-layer="3970" from-port="2" to-layer="3972" to-port="0" />
		<edge from-layer="3971" from-port="0" to-layer="3972" to-port="1" />
		<edge from-layer="3972" from-port="2" to-layer="3983" to-port="0" />
		<edge from-layer="3973" from-port="0" to-layer="3974" to-port="0" />
		<edge from-layer="3974" from-port="1" to-layer="3977" to-port="0" />
		<edge from-layer="3975" from-port="0" to-layer="3976" to-port="0" />
		<edge from-layer="3976" from-port="1" to-layer="3977" to-port="1" />
		<edge from-layer="3977" from-port="2" to-layer="3979" to-port="0" />
		<edge from-layer="3978" from-port="0" to-layer="3979" to-port="1" />
		<edge from-layer="3979" from-port="2" to-layer="3981" to-port="0" />
		<edge from-layer="3980" from-port="0" to-layer="3981" to-port="1" />
		<edge from-layer="3981" from-port="2" to-layer="3982" to-port="0" />
		<edge from-layer="3982" from-port="1" to-layer="3983" to-port="1" />
		<edge from-layer="3983" from-port="2" to-layer="3985" to-port="0" />
		<edge from-layer="3984" from-port="0" to-layer="3985" to-port="1" />
		<edge from-layer="3985" from-port="2" to-layer="3987" to-port="0" />
		<edge from-layer="3986" from-port="0" to-layer="3987" to-port="1" />
		<edge from-layer="3987" from-port="2" to-layer="3998" to-port="0" />
		<edge from-layer="3988" from-port="0" to-layer="3989" to-port="0" />
		<edge from-layer="3989" from-port="1" to-layer="3992" to-port="0" />
		<edge from-layer="3990" from-port="0" to-layer="3991" to-port="0" />
		<edge from-layer="3991" from-port="1" to-layer="3992" to-port="1" />
		<edge from-layer="3992" from-port="2" to-layer="3994" to-port="0" />
		<edge from-layer="3993" from-port="0" to-layer="3994" to-port="1" />
		<edge from-layer="3994" from-port="2" to-layer="3996" to-port="0" />
		<edge from-layer="3995" from-port="0" to-layer="3996" to-port="1" />
		<edge from-layer="3996" from-port="2" to-layer="3997" to-port="0" />
		<edge from-layer="3997" from-port="1" to-layer="3998" to-port="1" />
		<edge from-layer="3998" from-port="2" to-layer="4000" to-port="0" />
		<edge from-layer="3999" from-port="0" to-layer="4000" to-port="1" />
		<edge from-layer="4000" from-port="2" to-layer="4001" to-port="1" />
		<edge from-layer="4001" from-port="2" to-layer="4003" to-port="0" />
		<edge from-layer="4001" from-port="2" to-layer="4100" to-port="0" />
		<edge from-layer="4002" from-port="0" to-layer="4003" to-port="1" />
		<edge from-layer="4003" from-port="2" to-layer="4005" to-port="0" />
		<edge from-layer="4004" from-port="0" to-layer="4005" to-port="1" />
		<edge from-layer="4005" from-port="2" to-layer="4007" to-port="0" />
		<edge from-layer="4006" from-port="0" to-layer="4007" to-port="1" />
		<edge from-layer="4007" from-port="2" to-layer="4016" to-port="0" />
		<edge from-layer="4008" from-port="0" to-layer="4009" to-port="0" />
		<edge from-layer="4009" from-port="1" to-layer="4012" to-port="0" />
		<edge from-layer="4010" from-port="0" to-layer="4011" to-port="0" />
		<edge from-layer="4011" from-port="1" to-layer="4012" to-port="1" />
		<edge from-layer="4012" from-port="2" to-layer="4014" to-port="0" />
		<edge from-layer="4013" from-port="0" to-layer="4014" to-port="1" />
		<edge from-layer="4014" from-port="2" to-layer="4015" to-port="0" />
		<edge from-layer="4015" from-port="1" to-layer="4016" to-port="1" />
		<edge from-layer="4016" from-port="2" to-layer="4018" to-port="0" />
		<edge from-layer="4017" from-port="0" to-layer="4018" to-port="1" />
		<edge from-layer="4018" from-port="2" to-layer="4020" to-port="0" />
		<edge from-layer="4019" from-port="0" to-layer="4020" to-port="1" />
		<edge from-layer="4020" from-port="2" to-layer="4022" to-port="0" />
		<edge from-layer="4021" from-port="0" to-layer="4022" to-port="1" />
		<edge from-layer="4022" from-port="2" to-layer="4024" to-port="0" />
		<edge from-layer="4023" from-port="0" to-layer="4079" to-port="1" />
		<edge from-layer="4023" from-port="0" to-layer="4076" to-port="1" />
		<edge from-layer="4023" from-port="0" to-layer="4054" to-port="1" />
		<edge from-layer="4023" from-port="0" to-layer="4050" to-port="1" />
		<edge from-layer="4023" from-port="0" to-layer="4053" to-port="1" />
		<edge from-layer="4023" from-port="0" to-layer="4025" to-port="1" />
		<edge from-layer="4023" from-port="0" to-layer="4026" to-port="1" />
		<edge from-layer="4023" from-port="0" to-layer="4024" to-port="1" />
		<edge from-layer="4024" from-port="4" to-layer="4079" to-port="0" />
		<edge from-layer="4024" from-port="3" to-layer="4053" to-port="0" />
		<edge from-layer="4024" from-port="2" to-layer="4025" to-port="0" />
		<edge from-layer="4025" from-port="2" to-layer="4026" to-port="0" />
		<edge from-layer="4026" from-port="2" to-layer="4046" to-port="0" />
		<edge from-layer="4026" from-port="2" to-layer="4027" to-port="0" />
		<edge from-layer="4026" from-port="2" to-layer="4028" to-port="0" />
		<edge from-layer="4026" from-port="2" to-layer="4040" to-port="0" />
		<edge from-layer="4027" from-port="2" to-layer="4049" to-port="0" />
		<edge from-layer="4028" from-port="1" to-layer="4031" to-port="0" />
		<edge from-layer="4029" from-port="0" to-layer="4031" to-port="1" />
		<edge from-layer="4029" from-port="0" to-layer="4058" to-port="1" />
		<edge from-layer="4030" from-port="0" to-layer="4031" to-port="2" />
		<edge from-layer="4031" from-port="3" to-layer="4033" to-port="0" />
		<edge from-layer="4032" from-port="0" to-layer="4059" to-port="1" />
		<edge from-layer="4032" from-port="0" to-layer="4033" to-port="1" />
		<edge from-layer="4033" from-port="2" to-layer="4034" to-port="0" />
		<edge from-layer="4034" from-port="1" to-layer="4036" to-port="0" />
		<edge from-layer="4035" from-port="0" to-layer="4036" to-port="1" />
		<edge from-layer="4036" from-port="2" to-layer="4040" to-port="1" />
		<edge from-layer="4036" from-port="2" to-layer="4046" to-port="2" />
		<edge from-layer="4037" from-port="0" to-layer="4040" to-port="2" />
		<edge from-layer="4038" from-port="0" to-layer="4040" to-port="3" />
		<edge from-layer="4039" from-port="0" to-layer="4040" to-port="4" />
		<edge from-layer="4040" from-port="5" to-layer="4042" to-port="0" />
		<edge from-layer="4041" from-port="0" to-layer="4042" to-port="1" />
		<edge from-layer="4042" from-port="2" to-layer="4047" to-port="0" />
		<edge from-layer="4043" from-port="0" to-layer="4046" to-port="1" />
		<edge from-layer="4044" from-port="0" to-layer="4046" to-port="3" />
		<edge from-layer="4045" from-port="0" to-layer="4046" to-port="4" />
		<edge from-layer="4046" from-port="5" to-layer="4047" to-port="1" />
		<edge from-layer="4047" from-port="2" to-layer="4048" to-port="0" />
		<edge from-layer="4048" from-port="2" to-layer="4049" to-port="1" />
		<edge from-layer="4049" from-port="2" to-layer="4050" to-port="0" />
		<edge from-layer="4050" from-port="2" to-layer="4052" to-port="0" />
		<edge from-layer="4051" from-port="0" to-layer="4052" to-port="1" />
		<edge from-layer="4052" from-port="2" to-layer="4082" to-port="0" />
		<edge from-layer="4053" from-port="2" to-layer="4054" to-port="0" />
		<edge from-layer="4054" from-port="2" to-layer="4072" to-port="0" />
		<edge from-layer="4054" from-port="2" to-layer="4056" to-port="0" />
		<edge from-layer="4054" from-port="2" to-layer="4055" to-port="0" />
		<edge from-layer="4054" from-port="2" to-layer="4066" to-port="0" />
		<edge from-layer="4055" from-port="2" to-layer="4075" to-port="0" />
		<edge from-layer="4056" from-port="1" to-layer="4058" to-port="0" />
		<edge from-layer="4057" from-port="0" to-layer="4058" to-port="2" />
		<edge from-layer="4058" from-port="3" to-layer="4059" to-port="0" />
		<edge from-layer="4059" from-port="2" to-layer="4060" to-port="0" />
		<edge from-layer="4060" from-port="1" to-layer="4062" to-port="0" />
		<edge from-layer="4061" from-port="0" to-layer="4062" to-port="1" />
		<edge from-layer="4062" from-port="2" to-layer="4066" to-port="1" />
		<edge from-layer="4062" from-port="2" to-layer="4072" to-port="2" />
		<edge from-layer="4063" from-port="0" to-layer="4066" to-port="2" />
		<edge from-layer="4064" from-port="0" to-layer="4066" to-port="3" />
		<edge from-layer="4065" from-port="0" to-layer="4066" to-port="4" />
		<edge from-layer="4066" from-port="5" to-layer="4068" to-port="0" />
		<edge from-layer="4067" from-port="0" to-layer="4068" to-port="1" />
		<edge from-layer="4068" from-port="2" to-layer="4073" to-port="0" />
		<edge from-layer="4069" from-port="0" to-layer="4072" to-port="1" />
		<edge from-layer="4070" from-port="0" to-layer="4072" to-port="3" />
		<edge from-layer="4071" from-port="0" to-layer="4072" to-port="4" />
		<edge from-layer="4072" from-port="5" to-layer="4073" to-port="1" />
		<edge from-layer="4073" from-port="2" to-layer="4074" to-port="0" />
		<edge from-layer="4074" from-port="2" to-layer="4075" to-port="1" />
		<edge from-layer="4075" from-port="2" to-layer="4076" to-port="0" />
		<edge from-layer="4076" from-port="2" to-layer="4078" to-port="0" />
		<edge from-layer="4077" from-port="0" to-layer="4078" to-port="1" />
		<edge from-layer="4078" from-port="2" to-layer="4082" to-port="1" />
		<edge from-layer="4079" from-port="2" to-layer="4081" to-port="0" />
		<edge from-layer="4080" from-port="0" to-layer="4081" to-port="1" />
		<edge from-layer="4081" from-port="2" to-layer="4082" to-port="2" />
		<edge from-layer="4082" from-port="4" to-layer="4084" to-port="0" />
		<edge from-layer="4083" from-port="0" to-layer="4084" to-port="1" />
		<edge from-layer="4084" from-port="2" to-layer="4086" to-port="0" />
		<edge from-layer="4085" from-port="0" to-layer="4086" to-port="1" />
		<edge from-layer="4086" from-port="2" to-layer="4097" to-port="0" />
		<edge from-layer="4087" from-port="0" to-layer="4088" to-port="0" />
		<edge from-layer="4088" from-port="1" to-layer="4091" to-port="0" />
		<edge from-layer="4089" from-port="0" to-layer="4090" to-port="0" />
		<edge from-layer="4090" from-port="1" to-layer="4091" to-port="1" />
		<edge from-layer="4091" from-port="2" to-layer="4093" to-port="0" />
		<edge from-layer="4092" from-port="0" to-layer="4093" to-port="1" />
		<edge from-layer="4093" from-port="2" to-layer="4095" to-port="0" />
		<edge from-layer="4094" from-port="0" to-layer="4095" to-port="1" />
		<edge from-layer="4095" from-port="2" to-layer="4096" to-port="0" />
		<edge from-layer="4096" from-port="1" to-layer="4097" to-port="1" />
		<edge from-layer="4097" from-port="2" to-layer="4099" to-port="0" />
		<edge from-layer="4098" from-port="0" to-layer="4099" to-port="1" />
		<edge from-layer="4099" from-port="2" to-layer="4100" to-port="1" />
		<edge from-layer="4100" from-port="2" to-layer="4102" to-port="0" />
		<edge from-layer="4100" from-port="2" to-layer="4133" to-port="0" />
		<edge from-layer="4101" from-port="0" to-layer="4102" to-port="1" />
		<edge from-layer="4102" from-port="2" to-layer="4104" to-port="0" />
		<edge from-layer="4103" from-port="0" to-layer="4104" to-port="1" />
		<edge from-layer="4104" from-port="2" to-layer="4106" to-port="0" />
		<edge from-layer="4105" from-port="0" to-layer="4106" to-port="1" />
		<edge from-layer="4106" from-port="2" to-layer="4115" to-port="0" />
		<edge from-layer="4107" from-port="0" to-layer="4108" to-port="0" />
		<edge from-layer="4108" from-port="1" to-layer="4111" to-port="0" />
		<edge from-layer="4109" from-port="0" to-layer="4110" to-port="0" />
		<edge from-layer="4110" from-port="1" to-layer="4111" to-port="1" />
		<edge from-layer="4111" from-port="2" to-layer="4113" to-port="0" />
		<edge from-layer="4112" from-port="0" to-layer="4113" to-port="1" />
		<edge from-layer="4113" from-port="2" to-layer="4114" to-port="0" />
		<edge from-layer="4114" from-port="1" to-layer="4115" to-port="1" />
		<edge from-layer="4115" from-port="2" to-layer="4117" to-port="0" />
		<edge from-layer="4116" from-port="0" to-layer="4117" to-port="1" />
		<edge from-layer="4117" from-port="2" to-layer="4119" to-port="0" />
		<edge from-layer="4118" from-port="0" to-layer="4119" to-port="1" />
		<edge from-layer="4119" from-port="2" to-layer="4130" to-port="0" />
		<edge from-layer="4120" from-port="0" to-layer="4121" to-port="0" />
		<edge from-layer="4121" from-port="1" to-layer="4124" to-port="0" />
		<edge from-layer="4122" from-port="0" to-layer="4123" to-port="0" />
		<edge from-layer="4123" from-port="1" to-layer="4124" to-port="1" />
		<edge from-layer="4124" from-port="2" to-layer="4126" to-port="0" />
		<edge from-layer="4125" from-port="0" to-layer="4126" to-port="1" />
		<edge from-layer="4126" from-port="2" to-layer="4128" to-port="0" />
		<edge from-layer="4127" from-port="0" to-layer="4128" to-port="1" />
		<edge from-layer="4128" from-port="2" to-layer="4129" to-port="0" />
		<edge from-layer="4129" from-port="1" to-layer="4130" to-port="1" />
		<edge from-layer="4130" from-port="2" to-layer="4132" to-port="0" />
		<edge from-layer="4131" from-port="0" to-layer="4132" to-port="1" />
		<edge from-layer="4132" from-port="2" to-layer="4133" to-port="1" />
		<edge from-layer="4133" from-port="2" to-layer="4135" to-port="0" />
		<edge from-layer="4133" from-port="2" to-layer="4234" to-port="0" />
		<edge from-layer="4134" from-port="0" to-layer="4135" to-port="1" />
		<edge from-layer="4135" from-port="2" to-layer="4137" to-port="0" />
		<edge from-layer="4136" from-port="0" to-layer="4137" to-port="1" />
		<edge from-layer="4137" from-port="2" to-layer="4139" to-port="0" />
		<edge from-layer="4138" from-port="0" to-layer="4139" to-port="1" />
		<edge from-layer="4139" from-port="2" to-layer="4150" to-port="0" />
		<edge from-layer="4140" from-port="0" to-layer="4141" to-port="0" />
		<edge from-layer="4141" from-port="1" to-layer="4144" to-port="0" />
		<edge from-layer="4142" from-port="0" to-layer="4143" to-port="0" />
		<edge from-layer="4143" from-port="1" to-layer="4144" to-port="1" />
		<edge from-layer="4144" from-port="2" to-layer="4146" to-port="0" />
		<edge from-layer="4145" from-port="0" to-layer="4146" to-port="1" />
		<edge from-layer="4146" from-port="2" to-layer="4148" to-port="0" />
		<edge from-layer="4147" from-port="0" to-layer="4148" to-port="1" />
		<edge from-layer="4148" from-port="2" to-layer="4149" to-port="0" />
		<edge from-layer="4149" from-port="1" to-layer="4150" to-port="1" />
		<edge from-layer="4150" from-port="2" to-layer="4152" to-port="0" />
		<edge from-layer="4151" from-port="0" to-layer="4152" to-port="1" />
		<edge from-layer="4152" from-port="2" to-layer="4154" to-port="0" />
		<edge from-layer="4153" from-port="0" to-layer="4154" to-port="1" />
		<edge from-layer="4154" from-port="2" to-layer="4156" to-port="0" />
		<edge from-layer="4155" from-port="0" to-layer="4156" to-port="1" />
		<edge from-layer="4156" from-port="2" to-layer="4158" to-port="0" />
		<edge from-layer="4157" from-port="0" to-layer="4188" to-port="1" />
		<edge from-layer="4157" from-port="0" to-layer="4213" to-port="1" />
		<edge from-layer="4157" from-port="0" to-layer="4210" to-port="1" />
		<edge from-layer="4157" from-port="0" to-layer="4187" to-port="1" />
		<edge from-layer="4157" from-port="0" to-layer="4160" to-port="1" />
		<edge from-layer="4157" from-port="0" to-layer="4184" to-port="1" />
		<edge from-layer="4157" from-port="0" to-layer="4159" to-port="1" />
		<edge from-layer="4157" from-port="0" to-layer="4158" to-port="1" />
		<edge from-layer="4158" from-port="2" to-layer="4159" to-port="0" />
		<edge from-layer="4158" from-port="3" to-layer="4187" to-port="0" />
		<edge from-layer="4158" from-port="4" to-layer="4213" to-port="0" />
		<edge from-layer="4159" from-port="2" to-layer="4160" to-port="0" />
		<edge from-layer="4160" from-port="2" to-layer="4174" to-port="0" />
		<edge from-layer="4160" from-port="2" to-layer="4180" to-port="0" />
		<edge from-layer="4160" from-port="2" to-layer="4162" to-port="0" />
		<edge from-layer="4160" from-port="2" to-layer="4161" to-port="0" />
		<edge from-layer="4161" from-port="2" to-layer="4183" to-port="0" />
		<edge from-layer="4162" from-port="1" to-layer="4165" to-port="0" />
		<edge from-layer="4163" from-port="0" to-layer="4192" to-port="1" />
		<edge from-layer="4163" from-port="0" to-layer="4165" to-port="1" />
		<edge from-layer="4164" from-port="0" to-layer="4165" to-port="2" />
		<edge from-layer="4165" from-port="3" to-layer="4167" to-port="0" />
		<edge from-layer="4166" from-port="0" to-layer="4167" to-port="1" />
		<edge from-layer="4166" from-port="0" to-layer="4193" to-port="1" />
		<edge from-layer="4167" from-port="2" to-layer="4168" to-port="0" />
		<edge from-layer="4168" from-port="1" to-layer="4170" to-port="0" />
		<edge from-layer="4169" from-port="0" to-layer="4170" to-port="1" />
		<edge from-layer="4170" from-port="2" to-layer="4174" to-port="1" />
		<edge from-layer="4170" from-port="2" to-layer="4180" to-port="2" />
		<edge from-layer="4171" from-port="0" to-layer="4174" to-port="2" />
		<edge from-layer="4172" from-port="0" to-layer="4174" to-port="3" />
		<edge from-layer="4173" from-port="0" to-layer="4174" to-port="4" />
		<edge from-layer="4174" from-port="5" to-layer="4176" to-port="0" />
		<edge from-layer="4175" from-port="0" to-layer="4176" to-port="1" />
		<edge from-layer="4176" from-port="2" to-layer="4181" to-port="0" />
		<edge from-layer="4177" from-port="0" to-layer="4180" to-port="1" />
		<edge from-layer="4178" from-port="0" to-layer="4180" to-port="3" />
		<edge from-layer="4179" from-port="0" to-layer="4180" to-port="4" />
		<edge from-layer="4180" from-port="5" to-layer="4181" to-port="1" />
		<edge from-layer="4181" from-port="2" to-layer="4182" to-port="0" />
		<edge from-layer="4182" from-port="2" to-layer="4183" to-port="1" />
		<edge from-layer="4183" from-port="2" to-layer="4184" to-port="0" />
		<edge from-layer="4184" from-port="2" to-layer="4186" to-port="0" />
		<edge from-layer="4185" from-port="0" to-layer="4186" to-port="1" />
		<edge from-layer="4186" from-port="2" to-layer="4216" to-port="0" />
		<edge from-layer="4187" from-port="2" to-layer="4188" to-port="0" />
		<edge from-layer="4188" from-port="2" to-layer="4190" to-port="0" />
		<edge from-layer="4188" from-port="2" to-layer="4206" to-port="0" />
		<edge from-layer="4188" from-port="2" to-layer="4189" to-port="0" />
		<edge from-layer="4188" from-port="2" to-layer="4200" to-port="0" />
		<edge from-layer="4189" from-port="2" to-layer="4209" to-port="0" />
		<edge from-layer="4190" from-port="1" to-layer="4192" to-port="0" />
		<edge from-layer="4191" from-port="0" to-layer="4192" to-port="2" />
		<edge from-layer="4192" from-port="3" to-layer="4193" to-port="0" />
		<edge from-layer="4193" from-port="2" to-layer="4194" to-port="0" />
		<edge from-layer="4194" from-port="1" to-layer="4196" to-port="0" />
		<edge from-layer="4195" from-port="0" to-layer="4196" to-port="1" />
		<edge from-layer="4196" from-port="2" to-layer="4200" to-port="1" />
		<edge from-layer="4196" from-port="2" to-layer="4206" to-port="2" />
		<edge from-layer="4197" from-port="0" to-layer="4200" to-port="2" />
		<edge from-layer="4198" from-port="0" to-layer="4200" to-port="3" />
		<edge from-layer="4199" from-port="0" to-layer="4200" to-port="4" />
		<edge from-layer="4200" from-port="5" to-layer="4202" to-port="0" />
		<edge from-layer="4201" from-port="0" to-layer="4202" to-port="1" />
		<edge from-layer="4202" from-port="2" to-layer="4207" to-port="0" />
		<edge from-layer="4203" from-port="0" to-layer="4206" to-port="1" />
		<edge from-layer="4204" from-port="0" to-layer="4206" to-port="3" />
		<edge from-layer="4205" from-port="0" to-layer="4206" to-port="4" />
		<edge from-layer="4206" from-port="5" to-layer="4207" to-port="1" />
		<edge from-layer="4207" from-port="2" to-layer="4208" to-port="0" />
		<edge from-layer="4208" from-port="2" to-layer="4209" to-port="1" />
		<edge from-layer="4209" from-port="2" to-layer="4210" to-port="0" />
		<edge from-layer="4210" from-port="2" to-layer="4212" to-port="0" />
		<edge from-layer="4211" from-port="0" to-layer="4212" to-port="1" />
		<edge from-layer="4212" from-port="2" to-layer="4216" to-port="1" />
		<edge from-layer="4213" from-port="2" to-layer="4215" to-port="0" />
		<edge from-layer="4214" from-port="0" to-layer="4215" to-port="1" />
		<edge from-layer="4215" from-port="2" to-layer="4216" to-port="2" />
		<edge from-layer="4216" from-port="4" to-layer="4218" to-port="0" />
		<edge from-layer="4217" from-port="0" to-layer="4218" to-port="1" />
		<edge from-layer="4218" from-port="2" to-layer="4220" to-port="0" />
		<edge from-layer="4219" from-port="0" to-layer="4220" to-port="1" />
		<edge from-layer="4220" from-port="2" to-layer="4231" to-port="0" />
		<edge from-layer="4221" from-port="0" to-layer="4222" to-port="0" />
		<edge from-layer="4222" from-port="1" to-layer="4225" to-port="0" />
		<edge from-layer="4223" from-port="0" to-layer="4224" to-port="0" />
		<edge from-layer="4224" from-port="1" to-layer="4225" to-port="1" />
		<edge from-layer="4225" from-port="2" to-layer="4227" to-port="0" />
		<edge from-layer="4226" from-port="0" to-layer="4227" to-port="1" />
		<edge from-layer="4227" from-port="2" to-layer="4229" to-port="0" />
		<edge from-layer="4228" from-port="0" to-layer="4229" to-port="1" />
		<edge from-layer="4229" from-port="2" to-layer="4230" to-port="0" />
		<edge from-layer="4230" from-port="1" to-layer="4231" to-port="1" />
		<edge from-layer="4231" from-port="2" to-layer="4233" to-port="0" />
		<edge from-layer="4232" from-port="0" to-layer="4233" to-port="1" />
		<edge from-layer="4233" from-port="2" to-layer="4234" to-port="1" />
		<edge from-layer="4234" from-port="2" to-layer="4236" to-port="0" />
		<edge from-layer="4234" from-port="2" to-layer="4269" to-port="0" />
		<edge from-layer="4235" from-port="0" to-layer="4236" to-port="1" />
		<edge from-layer="4236" from-port="2" to-layer="4238" to-port="0" />
		<edge from-layer="4237" from-port="0" to-layer="4238" to-port="1" />
		<edge from-layer="4238" from-port="2" to-layer="4240" to-port="0" />
		<edge from-layer="4239" from-port="0" to-layer="4240" to-port="1" />
		<edge from-layer="4240" from-port="2" to-layer="4251" to-port="0" />
		<edge from-layer="4241" from-port="0" to-layer="4242" to-port="0" />
		<edge from-layer="4242" from-port="1" to-layer="4245" to-port="0" />
		<edge from-layer="4243" from-port="0" to-layer="4244" to-port="0" />
		<edge from-layer="4244" from-port="1" to-layer="4245" to-port="1" />
		<edge from-layer="4245" from-port="2" to-layer="4247" to-port="0" />
		<edge from-layer="4246" from-port="0" to-layer="4247" to-port="1" />
		<edge from-layer="4247" from-port="2" to-layer="4249" to-port="0" />
		<edge from-layer="4248" from-port="0" to-layer="4249" to-port="1" />
		<edge from-layer="4249" from-port="2" to-layer="4250" to-port="0" />
		<edge from-layer="4250" from-port="1" to-layer="4251" to-port="1" />
		<edge from-layer="4251" from-port="2" to-layer="4253" to-port="0" />
		<edge from-layer="4252" from-port="0" to-layer="4253" to-port="1" />
		<edge from-layer="4253" from-port="2" to-layer="4255" to-port="0" />
		<edge from-layer="4254" from-port="0" to-layer="4255" to-port="1" />
		<edge from-layer="4255" from-port="2" to-layer="4266" to-port="0" />
		<edge from-layer="4256" from-port="0" to-layer="4257" to-port="0" />
		<edge from-layer="4257" from-port="1" to-layer="4260" to-port="0" />
		<edge from-layer="4258" from-port="0" to-layer="4259" to-port="0" />
		<edge from-layer="4259" from-port="1" to-layer="4260" to-port="1" />
		<edge from-layer="4260" from-port="2" to-layer="4262" to-port="0" />
		<edge from-layer="4261" from-port="0" to-layer="4262" to-port="1" />
		<edge from-layer="4262" from-port="2" to-layer="4264" to-port="0" />
		<edge from-layer="4263" from-port="0" to-layer="4264" to-port="1" />
		<edge from-layer="4264" from-port="2" to-layer="4265" to-port="0" />
		<edge from-layer="4265" from-port="1" to-layer="4266" to-port="1" />
		<edge from-layer="4266" from-port="2" to-layer="4268" to-port="0" />
		<edge from-layer="4267" from-port="0" to-layer="4268" to-port="1" />
		<edge from-layer="4268" from-port="2" to-layer="4269" to-port="1" />
		<edge from-layer="4269" from-port="2" to-layer="4271" to-port="0" />
		<edge from-layer="4270" from-port="0" to-layer="4271" to-port="1" />
		<edge from-layer="4271" from-port="2" to-layer="4273" to-port="0" />
		<edge from-layer="4272" from-port="0" to-layer="4273" to-port="1" />
		<edge from-layer="4273" from-port="2" to-layer="4275" to-port="0" />
		<edge from-layer="4274" from-port="0" to-layer="4275" to-port="1" />
		<edge from-layer="4275" from-port="2" to-layer="4277" to-port="0" />
		<edge from-layer="4276" from-port="0" to-layer="4277" to-port="1" />
		<edge from-layer="4277" from-port="2" to-layer="4286" to-port="0" />
		<edge from-layer="4278" from-port="0" to-layer="4279" to-port="0" />
		<edge from-layer="4279" from-port="1" to-layer="4282" to-port="0" />
		<edge from-layer="4280" from-port="0" to-layer="4281" to-port="0" />
		<edge from-layer="4281" from-port="1" to-layer="4282" to-port="1" />
		<edge from-layer="4282" from-port="2" to-layer="4284" to-port="0" />
		<edge from-layer="4283" from-port="0" to-layer="4284" to-port="1" />
		<edge from-layer="4284" from-port="2" to-layer="4285" to-port="0" />
		<edge from-layer="4285" from-port="1" to-layer="4286" to-port="1" />
		<edge from-layer="4286" from-port="2" to-layer="4288" to-port="0" />
		<edge from-layer="4287" from-port="0" to-layer="4288" to-port="1" />
		<edge from-layer="4288" from-port="2" to-layer="4289" to-port="0" />
		<edge from-layer="4289" from-port="1" to-layer="4298" to-port="0" />
		<edge from-layer="4290" from-port="0" to-layer="4291" to-port="0" />
		<edge from-layer="4291" from-port="1" to-layer="4294" to-port="0" />
		<edge from-layer="4292" from-port="0" to-layer="4293" to-port="0" />
		<edge from-layer="4293" from-port="1" to-layer="4294" to-port="1" />
		<edge from-layer="4294" from-port="2" to-layer="4296" to-port="0" />
		<edge from-layer="4295" from-port="0" to-layer="4296" to-port="1" />
		<edge from-layer="4296" from-port="2" to-layer="4297" to-port="0" />
		<edge from-layer="4297" from-port="1" to-layer="4298" to-port="1" />
		<edge from-layer="4298" from-port="2" to-layer="4300" to-port="0" />
		<edge from-layer="4299" from-port="0" to-layer="4300" to-port="1" />
		<edge from-layer="4300" from-port="2" to-layer="4301" to-port="0" />
	</edges>
	<rt_info>
		<Runtime_version value="2024.4.0-16579-c3152d32c9c-releases/2024/4" />
		<conversion_parameters>
			<framework value="pytorch" />
			<is_python_object value="True" />
		</conversion_parameters>
		<nncf>
			<friendly_names_were_updated value="True" />
			<weight_compression>
				<advanced_parameters value="{'awq_params': {'subset_size': 32, 'percent_to_apply': 0.002, 'alpha_min': 0.0, 'alpha_max': 1.0, 'steps': 100}, 'scale_estimation_params': {'subset_size': 64, 'initial_steps': 5, 'scale_steps': 5, 'weight_penalty': -1.0}, 'gptq_params': {'damp_percent': 0.1, 'block_size': 128, 'subset_size': 128}, 'lora_correction_params': {'adapter_rank': 8, 'num_iterations': 3, 'apply_regularization': True, 'subset_size': 128, 'use_int8_adapters': True}}" />
				<all_layers value="False" />
				<awq value="False" />
				<gptq value="False" />
				<group_size value="128" />
				<ignored_scope value="[]" />
				<lora_correction value="False" />
				<mode value="int4_asym" />
				<ratio value="0.6" />
				<scale_estimation value="False" />
				<sensitivity_metric value="weight_quantization_error" />
			</weight_compression>
		</nncf>
	</rt_info>
</net>
