<?xml version="1.0"?>
<net name="Model9" version="11">
	<layers>
		<layer id="3" name="attention_mask" type="Parameter" version="opset1">
			<data shape="?,?" element_type="i64" />
			<output>
				<port id="0" precision="I64" names="attention_mask">
					<dim>-1</dim>
					<dim>-1</dim>
				</port>
			</output>
		</layer>
		<layer id="2" name="position_ids" type="Parameter" version="opset1">
			<data shape="?,?,?" element_type="i64" />
			<output>
				<port id="0" precision="I64" names="position_ids">
					<dim>-1</dim>
					<dim>-1</dim>
					<dim>-1</dim>
				</port>
			</output>
		</layer>
		<layer id="1" name="inputs_embeds" type="Parameter" version="opset1">
			<data shape="?,?,?" element_type="f32" />
			<output>
				<port id="0" precision="FP32" names="inputs_embeds">
					<dim>-1</dim>
					<dim>-1</dim>
					<dim>-1</dim>
				</port>
			</output>
		</layer>
		<layer id="0" name="beam_idx" type="Parameter" version="opset1">
			<data shape="?" element_type="i32" />
			<output>
				<port id="0" precision="I32" names="beam_idx">
					<dim>-1</dim>
				</port>
			</output>
		</layer>
		<layer id="4" name="Constant_329024" type="Const" version="opset1">
			<data element_type="f32" shape="" offset="0" size="4" />
			<output>
				<port id="0" precision="FP32" />
			</output>
		</layer>
		<layer id="5" name="ShapeOf_329010" type="ShapeOf" version="opset3">
			<data output_type="i64" />
			<input>
				<port id="0" precision="FP32">
					<dim>-1</dim>
					<dim>-1</dim>
					<dim>-1</dim>
				</port>
			</input>
			<output>
				<port id="1" precision="I64">
					<dim>3</dim>
				</port>
			</output>
		</layer>
		<layer id="6" name="Constant_329012" type="Const" version="opset1">
			<data element_type="i64" shape="1" offset="4" size="8" />
			<output>
				<port id="0" precision="I64">
					<dim>1</dim>
				</port>
			</output>
		</layer>
		<layer id="7" name="Constant_329014" type="Const" version="opset1">
			<data element_type="i64" shape="" offset="4" size="8" />
			<output>
				<port id="0" precision="I64" />
			</output>
		</layer>
		<layer id="8" name="Gather_329015" type="Gather" version="opset8">
			<data batch_dims="0" />
			<input>
				<port id="0" precision="I64">
					<dim>3</dim>
				</port>
				<port id="1" precision="I64">
					<dim>1</dim>
				</port>
				<port id="2" precision="I64" />
			</input>
			<output>
				<port id="3" precision="I64">
					<dim>1</dim>
				</port>
			</output>
		</layer>
		<layer id="9" name="Constant_329017" type="Const" version="opset1">
			<data element_type="i64" shape="1" offset="12" size="8" />
			<output>
				<port id="0" precision="I64">
					<dim>1</dim>
				</port>
			</output>
		</layer>
		<layer id="10" name="Constant_329019" type="Const" version="opset1">
			<data element_type="i64" shape="1" offset="4" size="8" />
			<output>
				<port id="0" precision="I64">
					<dim>1</dim>
				</port>
			</output>
		</layer>
		<layer id="11" name="Constant_329021" type="Const" version="opset1">
			<data element_type="i64" shape="1" offset="20" size="8" />
			<output>
				<port id="0" precision="I64">
					<dim>1</dim>
				</port>
			</output>
		</layer>
		<layer id="12" name="Concat_329022" type="Concat" version="opset1">
			<data axis="0" />
			<input>
				<port id="0" precision="I64">
					<dim>1</dim>
				</port>
				<port id="1" precision="I64">
					<dim>1</dim>
				</port>
				<port id="2" precision="I64">
					<dim>1</dim>
				</port>
				<port id="3" precision="I64">
					<dim>1</dim>
				</port>
			</input>
			<output>
				<port id="4" precision="I64">
					<dim>4</dim>
				</port>
			</output>
		</layer>
		<layer id="13" name="Broadcast_329025" type="Broadcast" version="opset3">
			<data mode="numpy" />
			<input>
				<port id="0" precision="FP32" />
				<port id="1" precision="I64">
					<dim>4</dim>
				</port>
			</input>
			<output>
				<port id="2" precision="FP32">
					<dim>-1</dim>
					<dim>2</dim>
					<dim>0</dim>
					<dim>128</dim>
				</port>
			</output>
		</layer>
		<layer id="14" name="ReadValue_324602" type="ReadValue" version="opset6">
			<data variable_id="past_key_values.9.valuepresent.9.value" variable_type="f32" variable_shape="?,2,?,128" />
			<input>
				<port id="0" precision="FP32">
					<dim>-1</dim>
					<dim>2</dim>
					<dim>0</dim>
					<dim>128</dim>
				</port>
			</input>
			<output>
				<port id="1" precision="FP32" names="past_key_values.9.value">
					<dim>-1</dim>
					<dim>2</dim>
					<dim>-1</dim>
					<dim>128</dim>
				</port>
			</output>
		</layer>
		<layer id="15" name="Constant_319976" type="Const" version="opset1">
			<data element_type="i64" shape="" offset="4" size="8" />
			<output>
				<port id="0" precision="I64" />
			</output>
		</layer>
		<layer id="16" name="Gather_319977" type="Gather" version="opset8">
			<data batch_dims="0" />
			<input>
				<port id="0" precision="FP32">
					<dim>-1</dim>
					<dim>2</dim>
					<dim>-1</dim>
					<dim>128</dim>
				</port>
				<port id="1" precision="I32">
					<dim>-1</dim>
				</port>
				<port id="2" precision="I64" />
			</input>
			<output>
				<port id="3" precision="FP32">
					<dim>-1</dim>
					<dim>2</dim>
					<dim>-1</dim>
					<dim>128</dim>
				</port>
			</output>
		</layer>
		<layer id="17" name="Constant_303269" type="Const" version="opset1">
			<data element_type="f32" shape="1, 1, 1536" offset="28" size="6144" />
			<output>
				<port id="0" precision="FP32">
					<dim>1</dim>
					<dim>1</dim>
					<dim>1536</dim>
				</port>
			</output>
		</layer>
		<layer id="18" name="Constant_303151" type="Const" version="opset1">
			<data element_type="f32" shape="1, 1, 1536" offset="6172" size="6144" />
			<output>
				<port id="0" precision="FP32">
					<dim>1</dim>
					<dim>1</dim>
					<dim>1536</dim>
				</port>
			</output>
		</layer>
		<layer id="19" name="Constant_303150" type="Const" version="opset1">
			<data element_type="f32" shape="1, 1, 1" offset="12316" size="4" />
			<output>
				<port id="0" precision="FP32">
					<dim>1</dim>
					<dim>1</dim>
					<dim>1</dim>
				</port>
			</output>
		</layer>
		<layer id="20" name="Constant_303148" type="Const" version="opset1">
			<data element_type="f32" shape="1, 1, 1" offset="12320" size="4" />
			<output>
				<port id="0" precision="FP32">
					<dim>1</dim>
					<dim>1</dim>
					<dim>1</dim>
				</port>
			</output>
		</layer>
		<layer id="21" name="__module.model.layers.0.input_layernorm/aten::pow/Power" type="Power" version="opset1">
			<data auto_broadcast="numpy" />
			<input>
				<port id="0" precision="FP32">
					<dim>-1</dim>
					<dim>-1</dim>
					<dim>-1</dim>
				</port>
				<port id="1" precision="FP32">
					<dim>1</dim>
					<dim>1</dim>
					<dim>1</dim>
				</port>
			</input>
			<output>
				<port id="2" precision="FP32" names="357">
					<dim>-1</dim>
					<dim>-1</dim>
					<dim>-1</dim>
				</port>
			</output>
		</layer>
		<layer id="22" name="Constant_124393" type="Const" version="opset1">
			<data element_type="i64" shape="1" offset="12324" size="8" />
			<output>
				<port id="0" precision="I64" names="358">
					<dim>1</dim>
				</port>
			</output>
		</layer>
		<layer id="23" name="__module.model.layers.0.input_layernorm/aten::mean/ReduceMean" type="ReduceMean" version="opset1">
			<data keep_dims="true" />
			<input>
				<port id="0" precision="FP32">
					<dim>-1</dim>
					<dim>-1</dim>
					<dim>-1</dim>
				</port>
				<port id="1" precision="I64">
					<dim>1</dim>
				</port>
			</input>
			<output>
				<port id="2" precision="FP32" names="359,variance.1">
					<dim>-1</dim>
					<dim>-1</dim>
					<dim>1</dim>
				</port>
			</output>
		</layer>
		<layer id="24" name="Constant_303149" type="Const" version="opset1">
			<data element_type="f32" shape="1, 1, 1" offset="12332" size="4" />
			<output>
				<port id="0" precision="FP32">
					<dim>1</dim>
					<dim>1</dim>
					<dim>1</dim>
				</port>
			</output>
		</layer>
		<layer id="25" name="__module.model.layers.0.input_layernorm/aten::add/Add" type="Add" version="opset1">
			<data auto_broadcast="numpy" />
			<input>
				<port id="0" precision="FP32">
					<dim>-1</dim>
					<dim>-1</dim>
					<dim>1</dim>
				</port>
				<port id="1" precision="FP32">
					<dim>1</dim>
					<dim>1</dim>
					<dim>1</dim>
				</port>
			</input>
			<output>
				<port id="2" precision="FP32" names="360">
					<dim>-1</dim>
					<dim>-1</dim>
					<dim>1</dim>
				</port>
			</output>
		</layer>
		<layer id="26" name="__module.model.layers.0.input_layernorm/aten::rsqrt/Sqrt" type="Sqrt" version="opset1">
			<input>
				<port id="0" precision="FP32">
					<dim>-1</dim>
					<dim>-1</dim>
					<dim>1</dim>
				</port>
			</input>
			<output>
				<port id="1" precision="FP32">
					<dim>-1</dim>
					<dim>-1</dim>
					<dim>1</dim>
				</port>
			</output>
		</layer>
		<layer id="27" name="__module.model.layers.0.input_layernorm/aten::rsqrt/Divide" type="Divide" version="opset1">
			<data auto_broadcast="numpy" m_pythondiv="true" />
			<input>
				<port id="0" precision="FP32">
					<dim>1</dim>
					<dim>1</dim>
					<dim>1</dim>
				</port>
				<port id="1" precision="FP32">
					<dim>-1</dim>
					<dim>-1</dim>
					<dim>1</dim>
				</port>
			</input>
			<output>
				<port id="2" precision="FP32" names="361">
					<dim>-1</dim>
					<dim>-1</dim>
					<dim>1</dim>
				</port>
			</output>
		</layer>
		<layer id="28" name="__module.model.layers.0.input_layernorm/aten::mul/Multiply" type="Multiply" version="opset1">
			<data auto_broadcast="numpy" />
			<input>
				<port id="0" precision="FP32">
					<dim>-1</dim>
					<dim>-1</dim>
					<dim>-1</dim>
				</port>
				<port id="1" precision="FP32">
					<dim>-1</dim>
					<dim>-1</dim>
					<dim>1</dim>
				</port>
			</input>
			<output>
				<port id="2" precision="FP32" names="362,363,hidden_states.3,hidden_states.5">
					<dim>-1</dim>
					<dim>-1</dim>
					<dim>-1</dim>
				</port>
			</output>
		</layer>
		<layer id="29" name="__module.model.layers.0.input_layernorm/aten::mul/Multiply_1" type="Multiply" version="opset1">
			<data auto_broadcast="numpy" />
			<input>
				<port id="0" precision="FP32">
					<dim>1</dim>
					<dim>1</dim>
					<dim>1536</dim>
				</port>
				<port id="1" precision="FP32">
					<dim>-1</dim>
					<dim>-1</dim>
					<dim>-1</dim>
				</port>
			</input>
			<output>
				<port id="2" precision="FP32" names="364,366,hidden_states.7">
					<dim>-1</dim>
					<dim>-1</dim>
					<dim>1536</dim>
				</port>
			</output>
		</layer>
		<layer id="30" name="self.model.layers.0.self_attn.q_proj.weight" type="Const" version="opset1">
			<data element_type="u4" shape="1536, 12, 128" offset="12336" size="1179648" />
			<output>
				<port id="0" precision="U4">
					<dim>1536</dim>
					<dim>12</dim>
					<dim>128</dim>
				</port>
			</output>
		</layer>
		<layer id="31" name="Convert_335254" type="Convert" version="opset1">
			<data destination_type="f16" />
			<input>
				<port id="0" precision="U4">
					<dim>1536</dim>
					<dim>12</dim>
					<dim>128</dim>
				</port>
			</input>
			<output>
				<port id="1" precision="FP16">
					<dim>1536</dim>
					<dim>12</dim>
					<dim>128</dim>
				</port>
			</output>
		</layer>
		<layer id="32" name="self.model.layers.0.self_attn.q_proj.weight/zero_point" type="Const" version="opset1">
			<data element_type="u4" shape="1536, 12, 1" offset="1191984" size="9216" />
			<output>
				<port id="0" precision="U4">
					<dim>1536</dim>
					<dim>12</dim>
					<dim>1</dim>
				</port>
			</output>
		</layer>
		<layer id="33" name="Convert_335256" type="Convert" version="opset1">
			<data destination_type="f16" />
			<input>
				<port id="0" precision="U4">
					<dim>1536</dim>
					<dim>12</dim>
					<dim>1</dim>
				</port>
			</input>
			<output>
				<port id="1" precision="FP16">
					<dim>1536</dim>
					<dim>12</dim>
					<dim>1</dim>
				</port>
			</output>
		</layer>
		<layer id="34" name="self.model.layers.0.self_attn.q_proj.weight/zero_point/subtract" type="Subtract" version="opset1">
			<data auto_broadcast="numpy" />
			<input>
				<port id="0" precision="FP16">
					<dim>1536</dim>
					<dim>12</dim>
					<dim>128</dim>
				</port>
				<port id="1" precision="FP16">
					<dim>1536</dim>
					<dim>12</dim>
					<dim>1</dim>
				</port>
			</input>
			<output>
				<port id="2" precision="FP16">
					<dim>1536</dim>
					<dim>12</dim>
					<dim>128</dim>
				</port>
			</output>
		</layer>
		<layer id="35" name="self.model.layers.0.self_attn.q_proj.weight/scale" type="Const" version="opset1">
			<data element_type="f16" shape="1536, 12, 1" offset="1201200" size="36864" />
			<output>
				<port id="0" precision="FP16">
					<dim>1536</dim>
					<dim>12</dim>
					<dim>1</dim>
				</port>
			</output>
		</layer>
		<layer id="36" name="self.model.layers.0.self_attn.q_proj.weight/fq_weights_1" type="Multiply" version="opset1">
			<data auto_broadcast="numpy" />
			<input>
				<port id="0" precision="FP16">
					<dim>1536</dim>
					<dim>12</dim>
					<dim>128</dim>
				</port>
				<port id="1" precision="FP16">
					<dim>1536</dim>
					<dim>12</dim>
					<dim>1</dim>
				</port>
			</input>
			<output>
				<port id="2" precision="FP16">
					<dim>1536</dim>
					<dim>12</dim>
					<dim>128</dim>
				</port>
			</output>
		</layer>
		<layer id="37" name="Constant_335261" type="Const" version="opset1">
			<data element_type="i64" shape="2" offset="1238064" size="16" />
			<output>
				<port id="0" precision="I64">
					<dim>2</dim>
				</port>
			</output>
		</layer>
		<layer id="38" name="Reshape_335262" type="Reshape" version="opset1">
			<data special_zero="false" />
			<input>
				<port id="0" precision="FP16">
					<dim>1536</dim>
					<dim>12</dim>
					<dim>128</dim>
				</port>
				<port id="1" precision="I64">
					<dim>2</dim>
				</port>
			</input>
			<output>
				<port id="2" precision="FP16">
					<dim>1536</dim>
					<dim>1536</dim>
				</port>
			</output>
		</layer>
		<layer id="39" name="self.model.layers.0.self_attn.q_proj.weight/fq_weights_1/convert" type="Convert" version="opset1">
			<data destination_type="f32" />
			<input>
				<port id="0" precision="FP16">
					<dim>1536</dim>
					<dim>1536</dim>
				</port>
			</input>
			<output>
				<port id="1" precision="FP32">
					<dim>1536</dim>
					<dim>1536</dim>
				</port>
			</output>
		</layer>
		<layer id="40" name="__module.model.layers.0.self_attn.q_proj/aten::linear/MatMul" type="MatMul" version="opset1">
			<data transpose_a="false" transpose_b="true" />
			<input>
				<port id="0" precision="FP32">
					<dim>-1</dim>
					<dim>-1</dim>
					<dim>1536</dim>
				</port>
				<port id="1" precision="FP32">
					<dim>1536</dim>
					<dim>1536</dim>
				</port>
			</input>
			<output>
				<port id="2" precision="FP32">
					<dim>-1</dim>
					<dim>-1</dim>
					<dim>1536</dim>
				</port>
			</output>
		</layer>
		<layer id="41" name="Constant_303152" type="Const" version="opset1">
			<data element_type="f32" shape="1, 1, 1536" offset="1238080" size="6144" />
			<output>
				<port id="0" precision="FP32">
					<dim>1</dim>
					<dim>1</dim>
					<dim>1536</dim>
				</port>
			</output>
		</layer>
		<layer id="42" name="__module.model.layers.0.self_attn.q_proj/aten::linear/Add" type="Add" version="opset1">
			<data auto_broadcast="numpy" />
			<input>
				<port id="0" precision="FP32">
					<dim>-1</dim>
					<dim>-1</dim>
					<dim>1536</dim>
				</port>
				<port id="1" precision="FP32">
					<dim>1</dim>
					<dim>1</dim>
					<dim>1536</dim>
				</port>
			</input>
			<output>
				<port id="2" precision="FP32" names="376,query_states.1">
					<dim>-1</dim>
					<dim>-1</dim>
					<dim>1536</dim>
				</port>
			</output>
		</layer>
		<layer id="43" name="Constant_310375" type="Const" version="opset1">
			<data element_type="i64" shape="4" offset="1244224" size="32" />
			<output>
				<port id="0" precision="I64">
					<dim>4</dim>
				</port>
			</output>
		</layer>
		<layer id="44" name="__module.model.layers.0.self_attn/aten::view/Reshape" type="Reshape" version="opset1">
			<data special_zero="true" />
			<input>
				<port id="0" precision="FP32">
					<dim>-1</dim>
					<dim>-1</dim>
					<dim>1536</dim>
				</port>
				<port id="1" precision="I64">
					<dim>4</dim>
				</port>
			</input>
			<output>
				<port id="2" precision="FP32" names="384">
					<dim>-1</dim>
					<dim>-1</dim>
					<dim>12</dim>
					<dim>128</dim>
				</port>
			</output>
		</layer>
		<layer id="45" name="__module.model.layers.0.self_attn/aten::transpose/ScatterElementsUpdate" type="Const" version="opset1">
			<data element_type="i32" shape="4" offset="1244256" size="16" />
			<output>
				<port id="0" precision="I32">
					<dim>4</dim>
				</port>
			</output>
		</layer>
		<layer id="46" name="__module.model.layers.0.self_attn/aten::transpose/Transpose" type="Transpose" version="opset1">
			<input>
				<port id="0" precision="FP32">
					<dim>-1</dim>
					<dim>-1</dim>
					<dim>12</dim>
					<dim>128</dim>
				</port>
				<port id="1" precision="I32">
					<dim>4</dim>
				</port>
			</input>
			<output>
				<port id="2" precision="FP32" names="385,q.1">
					<dim>-1</dim>
					<dim>12</dim>
					<dim>-1</dim>
					<dim>128</dim>
				</port>
			</output>
		</layer>
		<layer id="47" name="__module.model.rotary_emb/aten::to/Convert" type="Const" version="opset1">
			<data element_type="f32" shape="1, 1, 64, 1" offset="1244272" size="256" />
			<output>
				<port id="0" precision="FP32" names="327">
					<dim>1</dim>
					<dim>1</dim>
					<dim>64</dim>
					<dim>1</dim>
				</port>
			</output>
		</layer>
		<layer id="48" name="Constant_289555" type="Const" version="opset1">
			<data element_type="i64" shape="1" offset="1244528" size="8" />
			<output>
				<port id="0" precision="I64">
					<dim>1</dim>
				</port>
			</output>
		</layer>
		<layer id="49" name="ShapeOf_307926" type="ShapeOf" version="opset3">
			<data output_type="i64" />
			<input>
				<port id="0" precision="I64">
					<dim>-1</dim>
					<dim>-1</dim>
					<dim>-1</dim>
				</port>
			</input>
			<output>
				<port id="1" precision="I64">
					<dim>3</dim>
				</port>
			</output>
		</layer>
		<layer id="50" name="Constant_307927" type="Const" version="opset1">
			<data element_type="i64" shape="1" offset="1244536" size="8" />
			<output>
				<port id="0" precision="I64">
					<dim>1</dim>
				</port>
			</output>
		</layer>
		<layer id="51" name="Constant_307928" type="Const" version="opset1">
			<data element_type="i64" shape="" offset="4" size="8" />
			<output>
				<port id="0" precision="I64" />
			</output>
		</layer>
		<layer id="52" name="Gather_307929" type="Gather" version="opset8">
			<data batch_dims="0" />
			<input>
				<port id="0" precision="I64">
					<dim>3</dim>
				</port>
				<port id="1" precision="I64">
					<dim>1</dim>
				</port>
				<port id="2" precision="I64" />
			</input>
			<output>
				<port id="3" precision="I64" names="328">
					<dim>1</dim>
				</port>
			</output>
		</layer>
		<layer id="53" name="Constant_289558" type="Const" version="opset1">
			<data element_type="i64" shape="1" offset="1244536" size="8" />
			<output>
				<port id="0" precision="I64">
					<dim>1</dim>
				</port>
			</output>
		</layer>
		<layer id="54" name="Constant_289560" type="Const" version="opset1">
			<data element_type="i64" shape="1" offset="1244536" size="8" />
			<output>
				<port id="0" precision="I64">
					<dim>1</dim>
				</port>
			</output>
		</layer>
		<layer id="55" name="__module.model.rotary_emb/prim::ListConstruct/Concat" type="Concat" version="opset1">
			<data axis="0" />
			<input>
				<port id="0" precision="I64">
					<dim>1</dim>
				</port>
				<port id="1" precision="I64">
					<dim>1</dim>
				</port>
				<port id="2" precision="I64">
					<dim>1</dim>
				</port>
				<port id="3" precision="I64">
					<dim>1</dim>
				</port>
			</input>
			<output>
				<port id="4" precision="I64" names="329">
					<dim>4</dim>
				</port>
			</output>
		</layer>
		<layer id="56" name="__module.model.rotary_emb/aten::expand/Broadcast" type="Broadcast" version="opset3">
			<data mode="bidirectional" />
			<input>
				<port id="0" precision="FP32">
					<dim>1</dim>
					<dim>1</dim>
					<dim>64</dim>
					<dim>1</dim>
				</port>
				<port id="1" precision="I64">
					<dim>4</dim>
				</port>
			</input>
			<output>
				<port id="2" precision="FP32" names="330,336,inv_freq_expanded,inv_freq_expanded.1">
					<dim>3</dim>
					<dim>-1</dim>
					<dim>64</dim>
					<dim>1</dim>
				</port>
			</output>
		</layer>
		<layer id="57" name="217" type="Const" version="opset1">
			<data element_type="i64" shape="" offset="12" size="8" />
			<output>
				<port id="0" precision="I64" names="217" />
			</output>
		</layer>
		<layer id="58" name="__module.model.rotary_emb/aten::unsqueeze/Unsqueeze" type="Unsqueeze" version="opset1">
			<input>
				<port id="0" precision="I64">
					<dim>-1</dim>
					<dim>-1</dim>
					<dim>-1</dim>
				</port>
				<port id="1" precision="I64" />
			</input>
			<output>
				<port id="2" precision="I64" names="333,334">
					<dim>-1</dim>
					<dim>-1</dim>
					<dim>1</dim>
					<dim>-1</dim>
				</port>
			</output>
		</layer>
		<layer id="59" name="__module.model.rotary_emb/aten::to/Convert_2" type="Convert" version="opset1">
			<data destination_type="f32" />
			<input>
				<port id="0" precision="I64">
					<dim>-1</dim>
					<dim>-1</dim>
					<dim>1</dim>
					<dim>-1</dim>
				</port>
			</input>
			<output>
				<port id="1" precision="FP32" names="335,337,position_ids_expanded,position_ids_expanded.1">
					<dim>-1</dim>
					<dim>-1</dim>
					<dim>1</dim>
					<dim>-1</dim>
				</port>
			</output>
		</layer>
		<layer id="60" name="__module.model.rotary_emb/aten::matmul/MatMul" type="MatMul" version="opset1">
			<data transpose_a="false" transpose_b="false" />
			<input>
				<port id="0" precision="FP32">
					<dim>3</dim>
					<dim>-1</dim>
					<dim>64</dim>
					<dim>1</dim>
				</port>
				<port id="1" precision="FP32">
					<dim>-1</dim>
					<dim>-1</dim>
					<dim>1</dim>
					<dim>-1</dim>
				</port>
			</input>
			<output>
				<port id="2" precision="FP32" names="338">
					<dim>3</dim>
					<dim>-1</dim>
					<dim>64</dim>
					<dim>-1</dim>
				</port>
			</output>
		</layer>
		<layer id="61" name="__module.model.rotary_emb/aten::transpose/ScatterElementsUpdate" type="Const" version="opset1">
			<data element_type="i32" shape="4" offset="1244544" size="16" />
			<output>
				<port id="0" precision="I32">
					<dim>4</dim>
				</port>
			</output>
		</layer>
		<layer id="62" name="__module.model.rotary_emb/aten::transpose/Transpose" type="Transpose" version="opset1">
			<input>
				<port id="0" precision="FP32">
					<dim>3</dim>
					<dim>-1</dim>
					<dim>64</dim>
					<dim>-1</dim>
				</port>
				<port id="1" precision="I32">
					<dim>4</dim>
				</port>
			</input>
			<output>
				<port id="2" precision="FP32" names="339">
					<dim>3</dim>
					<dim>-1</dim>
					<dim>-1</dim>
					<dim>64</dim>
				</port>
			</output>
		</layer>
		<layer id="63" name="__module.model.rotary_emb/aten::cat/Concat" type="Concat" version="opset1">
			<data axis="-1" />
			<input>
				<port id="0" precision="FP32">
					<dim>3</dim>
					<dim>-1</dim>
					<dim>-1</dim>
					<dim>64</dim>
				</port>
				<port id="1" precision="FP32">
					<dim>3</dim>
					<dim>-1</dim>
					<dim>-1</dim>
					<dim>64</dim>
				</port>
			</input>
			<output>
				<port id="2" precision="FP32" names="341,emb">
					<dim>3</dim>
					<dim>-1</dim>
					<dim>-1</dim>
					<dim>128</dim>
				</port>
			</output>
		</layer>
		<layer id="64" name="__module.model.rotary_emb/aten::cos/Cos" type="Cos" version="opset1">
			<input>
				<port id="0" precision="FP32">
					<dim>3</dim>
					<dim>-1</dim>
					<dim>-1</dim>
					<dim>128</dim>
				</port>
			</input>
			<output>
				<port id="1" precision="FP32" names="342,344,346,349,cos.1,cos.3">
					<dim>3</dim>
					<dim>-1</dim>
					<dim>-1</dim>
					<dim>128</dim>
				</port>
			</output>
		</layer>
		<layer id="65" name="209" type="Const" version="opset1">
			<data element_type="i64" shape="" offset="12324" size="8" />
			<output>
				<port id="0" precision="I64" names="209" />
			</output>
		</layer>
		<layer id="66" name="Constant_124545" type="Const" version="opset1">
			<data element_type="i64" shape="6" offset="1244560" size="48" />
			<output>
				<port id="0" precision="I64" names="392">
					<dim>6</dim>
				</port>
			</output>
		</layer>
		<layer id="67" name="__module.model.layers.0.self_attn/prim::ListUnpack" type="VariadicSplit" version="opset1">
			<input>
				<port id="0" precision="FP32">
					<dim>3</dim>
					<dim>-1</dim>
					<dim>-1</dim>
					<dim>128</dim>
				</port>
				<port id="1" precision="I64" />
				<port id="2" precision="I64">
					<dim>6</dim>
				</port>
			</input>
			<output>
				<port id="3" precision="FP32" names="1153,1342,1531,1720,1909,2098,2287,2476,2665,2854,3043,3232,3421,3610,3799,394,3988,4177,4366,4555,4744,4933,5122,5311,5500,586,775,964,m.1,m.121,m.145,m.169,m.193,m.217,m.241,m.25,m.265,m.289,m.313,m.337,m.361,m.385,m.409,m.433,m.457,m.481,m.49,m.505,m.529,m.553,m.577,m.601,m.625,m.649,m.73,m.97">
					<dim>3</dim>
					<dim>-1</dim>
					<dim>-1</dim>
					<dim>16</dim>
				</port>
				<port id="4" precision="FP32" names="395,m.3">
					<dim>3</dim>
					<dim>-1</dim>
					<dim>-1</dim>
					<dim>24</dim>
				</port>
				<port id="5" precision="FP32" names="396,m.5">
					<dim>3</dim>
					<dim>-1</dim>
					<dim>-1</dim>
					<dim>24</dim>
				</port>
				<port id="6" precision="FP32" names="397,m.7">
					<dim>3</dim>
					<dim>-1</dim>
					<dim>-1</dim>
					<dim>16</dim>
				</port>
				<port id="7" precision="FP32" names="398,m.9">
					<dim>3</dim>
					<dim>-1</dim>
					<dim>-1</dim>
					<dim>24</dim>
				</port>
				<port id="8" precision="FP32" names="399,m.11">
					<dim>3</dim>
					<dim>-1</dim>
					<dim>-1</dim>
					<dim>24</dim>
				</port>
			</output>
		</layer>
		<layer id="68" name="212" type="Const" version="opset1">
			<data element_type="i64" shape="" offset="4" size="8" />
			<output>
				<port id="0" precision="I64" names="212" />
			</output>
		</layer>
		<layer id="69" name="__module.model.layers.0.self_attn/aten::select/Gather" type="Gather" version="opset8">
			<data batch_dims="0" />
			<input>
				<port id="0" precision="FP32">
					<dim>3</dim>
					<dim>-1</dim>
					<dim>-1</dim>
					<dim>16</dim>
				</port>
				<port id="1" precision="I64" />
				<port id="2" precision="I64" />
			</input>
			<output>
				<port id="3" precision="FP32" names="1159,1348,1537,1726,1915,2104,2293,2482,2671,2860,3049,3238,3427,3616,3805,3994,400,4183,4372,4561,4750,4939,5128,5317,5506,592,781,970">
					<dim>-1</dim>
					<dim>-1</dim>
					<dim>16</dim>
				</port>
			</output>
		</layer>
		<layer id="70" name="216" type="Const" version="opset1">
			<data element_type="i64" shape="" offset="1244536" size="8" />
			<output>
				<port id="0" precision="I64" names="216" />
			</output>
		</layer>
		<layer id="71" name="__module.model.layers.0.self_attn/aten::select/Gather_1" type="Gather" version="opset8">
			<data batch_dims="0" />
			<input>
				<port id="0" precision="FP32">
					<dim>3</dim>
					<dim>-1</dim>
					<dim>-1</dim>
					<dim>24</dim>
				</port>
				<port id="1" precision="I64" />
				<port id="2" precision="I64" />
			</input>
			<output>
				<port id="3" precision="FP32" names="401">
					<dim>-1</dim>
					<dim>-1</dim>
					<dim>24</dim>
				</port>
			</output>
		</layer>
		<layer id="72" name="__module.model.layers.0.self_attn/aten::select/Gather_2" type="Gather" version="opset8">
			<data batch_dims="0" />
			<input>
				<port id="0" precision="FP32">
					<dim>3</dim>
					<dim>-1</dim>
					<dim>-1</dim>
					<dim>24</dim>
				</port>
				<port id="1" precision="I64" />
				<port id="2" precision="I64" />
			</input>
			<output>
				<port id="3" precision="FP32" names="402">
					<dim>-1</dim>
					<dim>-1</dim>
					<dim>24</dim>
				</port>
			</output>
		</layer>
		<layer id="73" name="__module.model.layers.0.self_attn/aten::select/Gather_3" type="Gather" version="opset8">
			<data batch_dims="0" />
			<input>
				<port id="0" precision="FP32">
					<dim>3</dim>
					<dim>-1</dim>
					<dim>-1</dim>
					<dim>16</dim>
				</port>
				<port id="1" precision="I64" />
				<port id="2" precision="I64" />
			</input>
			<output>
				<port id="3" precision="FP32" names="403">
					<dim>-1</dim>
					<dim>-1</dim>
					<dim>16</dim>
				</port>
			</output>
		</layer>
		<layer id="74" name="__module.model.layers.0.self_attn/aten::select/Gather_4" type="Gather" version="opset8">
			<data batch_dims="0" />
			<input>
				<port id="0" precision="FP32">
					<dim>3</dim>
					<dim>-1</dim>
					<dim>-1</dim>
					<dim>24</dim>
				</port>
				<port id="1" precision="I64" />
				<port id="2" precision="I64" />
			</input>
			<output>
				<port id="3" precision="FP32" names="404">
					<dim>-1</dim>
					<dim>-1</dim>
					<dim>24</dim>
				</port>
			</output>
		</layer>
		<layer id="75" name="__module.model.layers.0.self_attn/aten::select/Gather_5" type="Gather" version="opset8">
			<data batch_dims="0" />
			<input>
				<port id="0" precision="FP32">
					<dim>3</dim>
					<dim>-1</dim>
					<dim>-1</dim>
					<dim>24</dim>
				</port>
				<port id="1" precision="I64" />
				<port id="2" precision="I64" />
			</input>
			<output>
				<port id="3" precision="FP32" names="405">
					<dim>-1</dim>
					<dim>-1</dim>
					<dim>24</dim>
				</port>
			</output>
		</layer>
		<layer id="76" name="__module.model.layers.0.self_attn/aten::cat/Concat" type="Concat" version="opset1">
			<data axis="-1" />
			<input>
				<port id="0" precision="FP32">
					<dim>-1</dim>
					<dim>-1</dim>
					<dim>16</dim>
				</port>
				<port id="1" precision="FP32">
					<dim>-1</dim>
					<dim>-1</dim>
					<dim>24</dim>
				</port>
				<port id="2" precision="FP32">
					<dim>-1</dim>
					<dim>-1</dim>
					<dim>24</dim>
				</port>
				<port id="3" precision="FP32">
					<dim>-1</dim>
					<dim>-1</dim>
					<dim>16</dim>
				</port>
				<port id="4" precision="FP32">
					<dim>-1</dim>
					<dim>-1</dim>
					<dim>24</dim>
				</port>
				<port id="5" precision="FP32">
					<dim>-1</dim>
					<dim>-1</dim>
					<dim>24</dim>
				</port>
			</input>
			<output>
				<port id="6" precision="FP32" names="407">
					<dim>-1</dim>
					<dim>-1</dim>
					<dim>128</dim>
				</port>
			</output>
		</layer>
		<layer id="77" name="__module.model.layers.0.self_attn/aten::unsqueeze/Unsqueeze" type="Unsqueeze" version="opset1">
			<input>
				<port id="0" precision="FP32">
					<dim>-1</dim>
					<dim>-1</dim>
					<dim>128</dim>
				</port>
				<port id="1" precision="I64" />
			</input>
			<output>
				<port id="2" precision="FP32" names="408,cos.5">
					<dim>-1</dim>
					<dim>1</dim>
					<dim>-1</dim>
					<dim>128</dim>
				</port>
			</output>
		</layer>
		<layer id="78" name="__module.model.layers.0.self_attn/aten::mul/Multiply" type="Multiply" version="opset1">
			<data auto_broadcast="numpy" />
			<input>
				<port id="0" precision="FP32">
					<dim>-1</dim>
					<dim>12</dim>
					<dim>-1</dim>
					<dim>128</dim>
				</port>
				<port id="1" precision="FP32">
					<dim>-1</dim>
					<dim>1</dim>
					<dim>-1</dim>
					<dim>128</dim>
				</port>
			</input>
			<output>
				<port id="2" precision="FP32" names="426">
					<dim>-1</dim>
					<dim>12</dim>
					<dim>-1</dim>
					<dim>128</dim>
				</port>
			</output>
		</layer>
		<layer id="79" name="__module.model.layers.0.self_attn/aten::size/ShapeOf_3" type="ShapeOf" version="opset3">
			<data output_type="i64" />
			<input>
				<port id="0" precision="FP32">
					<dim>-1</dim>
					<dim>12</dim>
					<dim>-1</dim>
					<dim>128</dim>
				</port>
			</input>
			<output>
				<port id="1" precision="I64">
					<dim>4</dim>
				</port>
			</output>
		</layer>
		<layer id="80" name="207" type="Const" version="opset1">
			<data element_type="i64" shape="" offset="1244528" size="8" />
			<output>
				<port id="0" precision="I64" names="207" />
			</output>
		</layer>
		<layer id="81" name="__module.model.layers.0.self_attn/aten::size/Constant_3" type="Const" version="opset1">
			<data element_type="i32" shape="" offset="0" size="4" />
			<output>
				<port id="0" precision="I32" />
			</output>
		</layer>
		<layer id="82" name="__module.model.layers.0.self_attn/aten::size/Gather_3" type="Gather" version="opset8">
			<data batch_dims="0" />
			<input>
				<port id="0" precision="I64">
					<dim>4</dim>
				</port>
				<port id="1" precision="I64" />
				<port id="2" precision="I32" />
			</input>
			<output>
				<port id="3" precision="I64" names="427,432" />
			</output>
		</layer>
		<layer id="83" name="Constant_123989" type="Const" version="opset1">
			<data element_type="i64" shape="" offset="12" size="8" />
			<output>
				<port id="0" precision="I64" names="201" />
			</output>
		</layer>
		<layer id="84" name="__module.model.layers.0.self_attn/aten::floor_divide/Divide_1" type="Divide" version="opset1">
			<data auto_broadcast="numpy" m_pythondiv="true" />
			<input>
				<port id="0" precision="I64" />
				<port id="1" precision="I64" />
			</input>
			<output>
				<port id="2" precision="I64" />
			</output>
		</layer>
		<layer id="85" name="__module.model.layers.0.self_attn/aten::floor_divide/Floor_1" type="Floor" version="opset1">
			<input>
				<port id="0" precision="I64" />
			</input>
			<output>
				<port id="1" precision="I64" names="429,430,434,435" />
			</output>
		</layer>
		<layer id="86" name="Constant_260227" type="Const" version="opset1">
			<data element_type="i64" shape="1" offset="12324" size="8" />
			<output>
				<port id="0" precision="I64">
					<dim>1</dim>
				</port>
			</output>
		</layer>
		<layer id="87" name="__module.model.layers.0.self_attn/aten::slice/Reshape_5" type="Reshape" version="opset1">
			<data special_zero="false" />
			<input>
				<port id="0" precision="I64" />
				<port id="1" precision="I64">
					<dim>1</dim>
				</port>
			</input>
			<output>
				<port id="2" precision="I64">
					<dim>1</dim>
				</port>
			</output>
		</layer>
		<layer id="88" name="__module.model.layers.0.self_attn/aten::slice/Reshape_1" type="Const" version="opset1">
			<data element_type="i64" shape="1" offset="1244608" size="8" />
			<output>
				<port id="0" precision="I64">
					<dim>1</dim>
				</port>
			</output>
		</layer>
		<layer id="89" name="__module.model.layers.0.self_attn/aten::slice/Reshape_2" type="Const" version="opset1">
			<data element_type="i64" shape="1" offset="1244536" size="8" />
			<output>
				<port id="0" precision="I64">
					<dim>1</dim>
				</port>
			</output>
		</layer>
		<layer id="90" name="__module.model.layers.0.self_attn/aten::slice/Reshape_3" type="Const" version="opset1">
			<data element_type="i64" shape="1" offset="1244528" size="8" />
			<output>
				<port id="0" precision="I64">
					<dim>1</dim>
				</port>
			</output>
		</layer>
		<layer id="91" name="__module.model.layers.0.self_attn/aten::slice/Slice" type="Slice" version="opset8">
			<input>
				<port id="0" precision="FP32">
					<dim>-1</dim>
					<dim>12</dim>
					<dim>-1</dim>
					<dim>128</dim>
				</port>
				<port id="1" precision="I64">
					<dim>1</dim>
				</port>
				<port id="2" precision="I64">
					<dim>1</dim>
				</port>
				<port id="3" precision="I64">
					<dim>1</dim>
				</port>
				<port id="4" precision="I64">
					<dim>1</dim>
				</port>
			</input>
			<output>
				<port id="5" precision="FP32" names="436,x2.1">
					<dim>-1</dim>
					<dim>12</dim>
					<dim>-1</dim>
					<dim>64</dim>
				</port>
			</output>
		</layer>
		<layer id="92" name="Constant_303153" type="Const" version="opset1">
			<data element_type="f32" shape="1, 1, 1, 1" offset="1244616" size="4" />
			<output>
				<port id="0" precision="FP32">
					<dim>1</dim>
					<dim>1</dim>
					<dim>1</dim>
					<dim>1</dim>
				</port>
			</output>
		</layer>
		<layer id="93" name="__module.model.layers.0.self_attn/aten::neg/Multiply" type="Multiply" version="opset1">
			<data auto_broadcast="numpy" />
			<input>
				<port id="0" precision="FP32">
					<dim>-1</dim>
					<dim>12</dim>
					<dim>-1</dim>
					<dim>64</dim>
				</port>
				<port id="1" precision="FP32">
					<dim>1</dim>
					<dim>1</dim>
					<dim>1</dim>
					<dim>1</dim>
				</port>
			</input>
			<output>
				<port id="2" precision="FP32" names="437">
					<dim>-1</dim>
					<dim>12</dim>
					<dim>-1</dim>
					<dim>64</dim>
				</port>
			</output>
		</layer>
		<layer id="94" name="__module.model.layers.0.self_attn/aten::slice/Reshape_4" type="Const" version="opset1">
			<data element_type="i64" shape="1" offset="4" size="8" />
			<output>
				<port id="0" precision="I64">
					<dim>1</dim>
				</port>
			</output>
		</layer>
		<layer id="95" name="__module.model.layers.0.self_attn/aten::slice/Reshape_6" type="Const" version="opset1">
			<data element_type="i64" shape="1" offset="1244536" size="8" />
			<output>
				<port id="0" precision="I64">
					<dim>1</dim>
				</port>
			</output>
		</layer>
		<layer id="96" name="__module.model.layers.0.self_attn/aten::slice/Reshape_7" type="Const" version="opset1">
			<data element_type="i64" shape="1" offset="1244528" size="8" />
			<output>
				<port id="0" precision="I64">
					<dim>1</dim>
				</port>
			</output>
		</layer>
		<layer id="97" name="__module.model.layers.0.self_attn/aten::slice/Slice_1" type="Slice" version="opset8">
			<input>
				<port id="0" precision="FP32">
					<dim>-1</dim>
					<dim>12</dim>
					<dim>-1</dim>
					<dim>128</dim>
				</port>
				<port id="1" precision="I64">
					<dim>1</dim>
				</port>
				<port id="2" precision="I64">
					<dim>1</dim>
				</port>
				<port id="3" precision="I64">
					<dim>1</dim>
				</port>
				<port id="4" precision="I64">
					<dim>1</dim>
				</port>
			</input>
			<output>
				<port id="5" precision="FP32" names="431">
					<dim>-1</dim>
					<dim>12</dim>
					<dim>-1</dim>
					<dim>64</dim>
				</port>
			</output>
		</layer>
		<layer id="98" name="__module.model.layers.0.self_attn/aten::cat/Concat_1" type="Concat" version="opset1">
			<data axis="-1" />
			<input>
				<port id="0" precision="FP32">
					<dim>-1</dim>
					<dim>12</dim>
					<dim>-1</dim>
					<dim>64</dim>
				</port>
				<port id="1" precision="FP32">
					<dim>-1</dim>
					<dim>12</dim>
					<dim>-1</dim>
					<dim>64</dim>
				</port>
			</input>
			<output>
				<port id="2" precision="FP32" names="439">
					<dim>-1</dim>
					<dim>12</dim>
					<dim>-1</dim>
					<dim>128</dim>
				</port>
			</output>
		</layer>
		<layer id="99" name="__module.model.rotary_emb/aten::sin/Sin" type="Sin" version="opset1">
			<input>
				<port id="0" precision="FP32">
					<dim>3</dim>
					<dim>-1</dim>
					<dim>-1</dim>
					<dim>128</dim>
				</port>
			</input>
			<output>
				<port id="1" precision="FP32" names="343,345,347,350,sin.1,sin.3">
					<dim>3</dim>
					<dim>-1</dim>
					<dim>-1</dim>
					<dim>128</dim>
				</port>
			</output>
		</layer>
		<layer id="100" name="Constant_124566" type="Const" version="opset1">
			<data element_type="i64" shape="6" offset="1244560" size="48" />
			<output>
				<port id="0" precision="I64" names="409">
					<dim>6</dim>
				</port>
			</output>
		</layer>
		<layer id="101" name="__module.model.layers.0.self_attn/prim::ListUnpack_1" type="VariadicSplit" version="opset1">
			<input>
				<port id="0" precision="FP32">
					<dim>3</dim>
					<dim>-1</dim>
					<dim>-1</dim>
					<dim>128</dim>
				</port>
				<port id="1" precision="I64" />
				<port id="2" precision="I64">
					<dim>6</dim>
				</port>
			</input>
			<output>
				<port id="3" precision="FP32" names="1170,1359,1548,1737,1926,2115,2304,2493,2682,2871,3060,3249,3438,3627,3816,4005,411,4194,4383,4572,4761,4950,5139,5328,5517,603,792,981,m.109,m.13,m.133,m.157,m.181,m.205,m.229,m.253,m.277,m.301,m.325,m.349,m.37,m.373,m.397,m.421,m.445,m.469,m.493,m.517,m.541,m.565,m.589,m.61,m.613,m.637,m.661,m.85">
					<dim>3</dim>
					<dim>-1</dim>
					<dim>-1</dim>
					<dim>16</dim>
				</port>
				<port id="4" precision="FP32" names="412,m.15">
					<dim>3</dim>
					<dim>-1</dim>
					<dim>-1</dim>
					<dim>24</dim>
				</port>
				<port id="5" precision="FP32" names="413,m.17">
					<dim>3</dim>
					<dim>-1</dim>
					<dim>-1</dim>
					<dim>24</dim>
				</port>
				<port id="6" precision="FP32" names="414,m.19">
					<dim>3</dim>
					<dim>-1</dim>
					<dim>-1</dim>
					<dim>16</dim>
				</port>
				<port id="7" precision="FP32" names="415,m.21">
					<dim>3</dim>
					<dim>-1</dim>
					<dim>-1</dim>
					<dim>24</dim>
				</port>
				<port id="8" precision="FP32" names="416,m.23">
					<dim>3</dim>
					<dim>-1</dim>
					<dim>-1</dim>
					<dim>24</dim>
				</port>
			</output>
		</layer>
		<layer id="102" name="__module.model.layers.0.self_attn/aten::select/Gather_6" type="Gather" version="opset8">
			<data batch_dims="0" />
			<input>
				<port id="0" precision="FP32">
					<dim>3</dim>
					<dim>-1</dim>
					<dim>-1</dim>
					<dim>16</dim>
				</port>
				<port id="1" precision="I64" />
				<port id="2" precision="I64" />
			</input>
			<output>
				<port id="3" precision="FP32" names="1176,1365,1554,1743,1932,2121,2310,2499,2688,2877,3066,3255,3444,3633,3822,4011,417,4200,4389,4578,4767,4956,5145,5334,5523,609,798,987">
					<dim>-1</dim>
					<dim>-1</dim>
					<dim>16</dim>
				</port>
			</output>
		</layer>
		<layer id="103" name="__module.model.layers.0.self_attn/aten::select/Gather_7" type="Gather" version="opset8">
			<data batch_dims="0" />
			<input>
				<port id="0" precision="FP32">
					<dim>3</dim>
					<dim>-1</dim>
					<dim>-1</dim>
					<dim>24</dim>
				</port>
				<port id="1" precision="I64" />
				<port id="2" precision="I64" />
			</input>
			<output>
				<port id="3" precision="FP32" names="418">
					<dim>-1</dim>
					<dim>-1</dim>
					<dim>24</dim>
				</port>
			</output>
		</layer>
		<layer id="104" name="__module.model.layers.0.self_attn/aten::select/Gather_8" type="Gather" version="opset8">
			<data batch_dims="0" />
			<input>
				<port id="0" precision="FP32">
					<dim>3</dim>
					<dim>-1</dim>
					<dim>-1</dim>
					<dim>24</dim>
				</port>
				<port id="1" precision="I64" />
				<port id="2" precision="I64" />
			</input>
			<output>
				<port id="3" precision="FP32" names="419">
					<dim>-1</dim>
					<dim>-1</dim>
					<dim>24</dim>
				</port>
			</output>
		</layer>
		<layer id="105" name="__module.model.layers.0.self_attn/aten::select/Gather_9" type="Gather" version="opset8">
			<data batch_dims="0" />
			<input>
				<port id="0" precision="FP32">
					<dim>3</dim>
					<dim>-1</dim>
					<dim>-1</dim>
					<dim>16</dim>
				</port>
				<port id="1" precision="I64" />
				<port id="2" precision="I64" />
			</input>
			<output>
				<port id="3" precision="FP32" names="420">
					<dim>-1</dim>
					<dim>-1</dim>
					<dim>16</dim>
				</port>
			</output>
		</layer>
		<layer id="106" name="__module.model.layers.0.self_attn/aten::select/Gather_10" type="Gather" version="opset8">
			<data batch_dims="0" />
			<input>
				<port id="0" precision="FP32">
					<dim>3</dim>
					<dim>-1</dim>
					<dim>-1</dim>
					<dim>24</dim>
				</port>
				<port id="1" precision="I64" />
				<port id="2" precision="I64" />
			</input>
			<output>
				<port id="3" precision="FP32" names="421">
					<dim>-1</dim>
					<dim>-1</dim>
					<dim>24</dim>
				</port>
			</output>
		</layer>
		<layer id="107" name="__module.model.layers.0.self_attn/aten::select/Gather_11" type="Gather" version="opset8">
			<data batch_dims="0" />
			<input>
				<port id="0" precision="FP32">
					<dim>3</dim>
					<dim>-1</dim>
					<dim>-1</dim>
					<dim>24</dim>
				</port>
				<port id="1" precision="I64" />
				<port id="2" precision="I64" />
			</input>
			<output>
				<port id="3" precision="FP32" names="422">
					<dim>-1</dim>
					<dim>-1</dim>
					<dim>24</dim>
				</port>
			</output>
		</layer>
		<layer id="108" name="__module.model.layers.0.self_attn/aten::cat/Concat_2" type="Concat" version="opset1">
			<data axis="-1" />
			<input>
				<port id="0" precision="FP32">
					<dim>-1</dim>
					<dim>-1</dim>
					<dim>16</dim>
				</port>
				<port id="1" precision="FP32">
					<dim>-1</dim>
					<dim>-1</dim>
					<dim>24</dim>
				</port>
				<port id="2" precision="FP32">
					<dim>-1</dim>
					<dim>-1</dim>
					<dim>24</dim>
				</port>
				<port id="3" precision="FP32">
					<dim>-1</dim>
					<dim>-1</dim>
					<dim>16</dim>
				</port>
				<port id="4" precision="FP32">
					<dim>-1</dim>
					<dim>-1</dim>
					<dim>24</dim>
				</port>
				<port id="5" precision="FP32">
					<dim>-1</dim>
					<dim>-1</dim>
					<dim>24</dim>
				</port>
			</input>
			<output>
				<port id="6" precision="FP32" names="424">
					<dim>-1</dim>
					<dim>-1</dim>
					<dim>128</dim>
				</port>
			</output>
		</layer>
		<layer id="109" name="__module.model.layers.0.self_attn/aten::unsqueeze/Unsqueeze_1" type="Unsqueeze" version="opset1">
			<input>
				<port id="0" precision="FP32">
					<dim>-1</dim>
					<dim>-1</dim>
					<dim>128</dim>
				</port>
				<port id="1" precision="I64" />
			</input>
			<output>
				<port id="2" precision="FP32" names="425,sin.5">
					<dim>-1</dim>
					<dim>1</dim>
					<dim>-1</dim>
					<dim>128</dim>
				</port>
			</output>
		</layer>
		<layer id="110" name="__module.model.layers.0.self_attn/aten::mul/Multiply_1" type="Multiply" version="opset1">
			<data auto_broadcast="numpy" />
			<input>
				<port id="0" precision="FP32">
					<dim>-1</dim>
					<dim>12</dim>
					<dim>-1</dim>
					<dim>128</dim>
				</port>
				<port id="1" precision="FP32">
					<dim>-1</dim>
					<dim>1</dim>
					<dim>-1</dim>
					<dim>128</dim>
				</port>
			</input>
			<output>
				<port id="2" precision="FP32" names="440">
					<dim>-1</dim>
					<dim>12</dim>
					<dim>-1</dim>
					<dim>128</dim>
				</port>
			</output>
		</layer>
		<layer id="111" name="__module.model.layers.0.self_attn/aten::add/Add" type="Add" version="opset1">
			<data auto_broadcast="numpy" />
			<input>
				<port id="0" precision="FP32">
					<dim>-1</dim>
					<dim>12</dim>
					<dim>-1</dim>
					<dim>128</dim>
				</port>
				<port id="1" precision="FP32">
					<dim>-1</dim>
					<dim>12</dim>
					<dim>-1</dim>
					<dim>128</dim>
				</port>
			</input>
			<output>
				<port id="2" precision="FP32" names="441">
					<dim>-1</dim>
					<dim>12</dim>
					<dim>-1</dim>
					<dim>128</dim>
				</port>
			</output>
		</layer>
		<layer id="112" name="Constant_329037" type="Const" version="opset1">
			<data element_type="f32" shape="" offset="0" size="4" />
			<output>
				<port id="0" precision="FP32" />
			</output>
		</layer>
		<layer id="113" name="Constant_329030" type="Const" version="opset1">
			<data element_type="i64" shape="1" offset="12" size="8" />
			<output>
				<port id="0" precision="I64">
					<dim>1</dim>
				</port>
			</output>
		</layer>
		<layer id="114" name="Constant_329032" type="Const" version="opset1">
			<data element_type="i64" shape="1" offset="4" size="8" />
			<output>
				<port id="0" precision="I64">
					<dim>1</dim>
				</port>
			</output>
		</layer>
		<layer id="115" name="Constant_329034" type="Const" version="opset1">
			<data element_type="i64" shape="1" offset="20" size="8" />
			<output>
				<port id="0" precision="I64">
					<dim>1</dim>
				</port>
			</output>
		</layer>
		<layer id="116" name="Concat_329035" type="Concat" version="opset1">
			<data axis="0" />
			<input>
				<port id="0" precision="I64">
					<dim>1</dim>
				</port>
				<port id="1" precision="I64">
					<dim>1</dim>
				</port>
				<port id="2" precision="I64">
					<dim>1</dim>
				</port>
				<port id="3" precision="I64">
					<dim>1</dim>
				</port>
			</input>
			<output>
				<port id="4" precision="I64">
					<dim>4</dim>
				</port>
			</output>
		</layer>
		<layer id="117" name="Broadcast_329038" type="Broadcast" version="opset3">
			<data mode="numpy" />
			<input>
				<port id="0" precision="FP32" />
				<port id="1" precision="I64">
					<dim>4</dim>
				</port>
			</input>
			<output>
				<port id="2" precision="FP32">
					<dim>-1</dim>
					<dim>2</dim>
					<dim>0</dim>
					<dim>128</dim>
				</port>
			</output>
		</layer>
		<layer id="118" name="ReadValue_324492" type="ReadValue" version="opset6">
			<data variable_id="past_key_values.0.keypresent.0.key" variable_type="f32" variable_shape="?,2,?,128" />
			<input>
				<port id="0" precision="FP32">
					<dim>-1</dim>
					<dim>2</dim>
					<dim>0</dim>
					<dim>128</dim>
				</port>
			</input>
			<output>
				<port id="1" precision="FP32" names="past_key_values.0.key">
					<dim>-1</dim>
					<dim>2</dim>
					<dim>-1</dim>
					<dim>128</dim>
				</port>
			</output>
		</layer>
		<layer id="119" name="Constant_319919" type="Const" version="opset1">
			<data element_type="i64" shape="" offset="4" size="8" />
			<output>
				<port id="0" precision="I64" />
			</output>
		</layer>
		<layer id="120" name="Gather_319920" type="Gather" version="opset8">
			<data batch_dims="0" />
			<input>
				<port id="0" precision="FP32">
					<dim>-1</dim>
					<dim>2</dim>
					<dim>-1</dim>
					<dim>128</dim>
				</port>
				<port id="1" precision="I32">
					<dim>-1</dim>
				</port>
				<port id="2" precision="I64" />
			</input>
			<output>
				<port id="3" precision="FP32">
					<dim>-1</dim>
					<dim>2</dim>
					<dim>-1</dim>
					<dim>128</dim>
				</port>
			</output>
		</layer>
		<layer id="121" name="self.model.layers.0.self_attn.k_proj.weight" type="Const" version="opset1">
			<data element_type="u8" shape="256, 1536" offset="1244620" size="393216" />
			<output>
				<port id="0" precision="U8">
					<dim>256</dim>
					<dim>1536</dim>
				</port>
			</output>
		</layer>
		<layer id="122" name="Convert_335871" type="Convert" version="opset1">
			<data destination_type="f16" />
			<input>
				<port id="0" precision="U8">
					<dim>256</dim>
					<dim>1536</dim>
				</port>
			</input>
			<output>
				<port id="1" precision="FP16">
					<dim>256</dim>
					<dim>1536</dim>
				</port>
			</output>
		</layer>
		<layer id="123" name="self.model.layers.0.self_attn.k_proj.weight/zero_point" type="Const" version="opset1">
			<data element_type="u8" shape="256, 1" offset="1637836" size="256" />
			<output>
				<port id="0" precision="U8">
					<dim>256</dim>
					<dim>1</dim>
				</port>
			</output>
		</layer>
		<layer id="124" name="Convert_335874" type="Convert" version="opset1">
			<data destination_type="f16" />
			<input>
				<port id="0" precision="U8">
					<dim>256</dim>
					<dim>1</dim>
				</port>
			</input>
			<output>
				<port id="1" precision="FP16">
					<dim>256</dim>
					<dim>1</dim>
				</port>
			</output>
		</layer>
		<layer id="125" name="self.model.layers.0.self_attn.k_proj.weight/zero_point/subtract" type="Subtract" version="opset1">
			<data auto_broadcast="numpy" />
			<input>
				<port id="0" precision="FP16">
					<dim>256</dim>
					<dim>1536</dim>
				</port>
				<port id="1" precision="FP16">
					<dim>256</dim>
					<dim>1</dim>
				</port>
			</input>
			<output>
				<port id="2" precision="FP16">
					<dim>256</dim>
					<dim>1536</dim>
				</port>
			</output>
		</layer>
		<layer id="126" name="self.model.layers.0.self_attn.k_proj.weight/scale" type="Const" version="opset1">
			<data element_type="f16" shape="256, 1" offset="1638092" size="512" />
			<output>
				<port id="0" precision="FP16">
					<dim>256</dim>
					<dim>1</dim>
				</port>
			</output>
		</layer>
		<layer id="127" name="self.model.layers.0.self_attn.k_proj.weight/fq_weights_1" type="Multiply" version="opset1">
			<data auto_broadcast="numpy" />
			<input>
				<port id="0" precision="FP16">
					<dim>256</dim>
					<dim>1536</dim>
				</port>
				<port id="1" precision="FP16">
					<dim>256</dim>
					<dim>1</dim>
				</port>
			</input>
			<output>
				<port id="2" precision="FP16">
					<dim>256</dim>
					<dim>1536</dim>
				</port>
			</output>
		</layer>
		<layer id="128" name="self.model.layers.0.self_attn.k_proj.weight/fq_weights_1/convert" type="Convert" version="opset1">
			<data destination_type="f32" />
			<input>
				<port id="0" precision="FP16">
					<dim>256</dim>
					<dim>1536</dim>
				</port>
			</input>
			<output>
				<port id="1" precision="FP32">
					<dim>256</dim>
					<dim>1536</dim>
				</port>
			</output>
		</layer>
		<layer id="129" name="__module.model.layers.0.self_attn.k_proj/aten::linear/MatMul" type="MatMul" version="opset1">
			<data transpose_a="false" transpose_b="true" />
			<input>
				<port id="0" precision="FP32">
					<dim>-1</dim>
					<dim>-1</dim>
					<dim>1536</dim>
				</port>
				<port id="1" precision="FP32">
					<dim>256</dim>
					<dim>1536</dim>
				</port>
			</input>
			<output>
				<port id="2" precision="FP32">
					<dim>-1</dim>
					<dim>-1</dim>
					<dim>256</dim>
				</port>
			</output>
		</layer>
		<layer id="130" name="Constant_303154" type="Const" version="opset1">
			<data element_type="f32" shape="1, 1, 256" offset="1638604" size="1024" />
			<output>
				<port id="0" precision="FP32">
					<dim>1</dim>
					<dim>1</dim>
					<dim>256</dim>
				</port>
			</output>
		</layer>
		<layer id="131" name="__module.model.layers.0.self_attn.k_proj/aten::linear/Add" type="Add" version="opset1">
			<data auto_broadcast="numpy" />
			<input>
				<port id="0" precision="FP32">
					<dim>-1</dim>
					<dim>-1</dim>
					<dim>256</dim>
				</port>
				<port id="1" precision="FP32">
					<dim>1</dim>
					<dim>1</dim>
					<dim>256</dim>
				</port>
			</input>
			<output>
				<port id="2" precision="FP32" names="379,key_states.3">
					<dim>-1</dim>
					<dim>-1</dim>
					<dim>256</dim>
				</port>
			</output>
		</layer>
		<layer id="132" name="Constant_310376" type="Const" version="opset1">
			<data element_type="i64" shape="4" offset="1639628" size="32" />
			<output>
				<port id="0" precision="I64">
					<dim>4</dim>
				</port>
			</output>
		</layer>
		<layer id="133" name="__module.model.layers.0.self_attn/aten::view/Reshape_1" type="Reshape" version="opset1">
			<data special_zero="true" />
			<input>
				<port id="0" precision="FP32">
					<dim>-1</dim>
					<dim>-1</dim>
					<dim>256</dim>
				</port>
				<port id="1" precision="I64">
					<dim>4</dim>
				</port>
			</input>
			<output>
				<port id="2" precision="FP32" names="387">
					<dim>-1</dim>
					<dim>-1</dim>
					<dim>2</dim>
					<dim>128</dim>
				</port>
			</output>
		</layer>
		<layer id="134" name="__module.model.layers.0.self_attn/aten::transpose/ScatterElementsUpdate_1" type="Const" version="opset1">
			<data element_type="i32" shape="4" offset="1244256" size="16" />
			<output>
				<port id="0" precision="I32">
					<dim>4</dim>
				</port>
			</output>
		</layer>
		<layer id="135" name="__module.model.layers.0.self_attn/aten::transpose/Transpose_1" type="Transpose" version="opset1">
			<input>
				<port id="0" precision="FP32">
					<dim>-1</dim>
					<dim>-1</dim>
					<dim>2</dim>
					<dim>128</dim>
				</port>
				<port id="1" precision="I32">
					<dim>4</dim>
				</port>
			</input>
			<output>
				<port id="2" precision="FP32" names="388,key_states.5">
					<dim>-1</dim>
					<dim>2</dim>
					<dim>-1</dim>
					<dim>128</dim>
				</port>
			</output>
		</layer>
		<layer id="136" name="__module.model.layers.0.self_attn/aten::mul/Multiply_2" type="Multiply" version="opset1">
			<data auto_broadcast="numpy" />
			<input>
				<port id="0" precision="FP32">
					<dim>-1</dim>
					<dim>2</dim>
					<dim>-1</dim>
					<dim>128</dim>
				</port>
				<port id="1" precision="FP32">
					<dim>-1</dim>
					<dim>1</dim>
					<dim>-1</dim>
					<dim>128</dim>
				</port>
			</input>
			<output>
				<port id="2" precision="FP32" names="442">
					<dim>-1</dim>
					<dim>2</dim>
					<dim>-1</dim>
					<dim>128</dim>
				</port>
			</output>
		</layer>
		<layer id="137" name="__module.model.layers.0.self_attn/aten::size/ShapeOf_5" type="ShapeOf" version="opset3">
			<data output_type="i64" />
			<input>
				<port id="0" precision="FP32">
					<dim>-1</dim>
					<dim>2</dim>
					<dim>-1</dim>
					<dim>128</dim>
				</port>
			</input>
			<output>
				<port id="1" precision="I64">
					<dim>4</dim>
				</port>
			</output>
		</layer>
		<layer id="138" name="__module.model.layers.0.self_attn/aten::size/Constant_5" type="Const" version="opset1">
			<data element_type="i32" shape="" offset="0" size="4" />
			<output>
				<port id="0" precision="I32" />
			</output>
		</layer>
		<layer id="139" name="__module.model.layers.0.self_attn/aten::size/Gather_5" type="Gather" version="opset8">
			<data batch_dims="0" />
			<input>
				<port id="0" precision="I64">
					<dim>4</dim>
				</port>
				<port id="1" precision="I64" />
				<port id="2" precision="I32" />
			</input>
			<output>
				<port id="3" precision="I64" names="443,448" />
			</output>
		</layer>
		<layer id="140" name="__module.model.layers.0.self_attn/aten::floor_divide/Divide_3" type="Divide" version="opset1">
			<data auto_broadcast="numpy" m_pythondiv="true" />
			<input>
				<port id="0" precision="I64" />
				<port id="1" precision="I64" />
			</input>
			<output>
				<port id="2" precision="I64" />
			</output>
		</layer>
		<layer id="141" name="__module.model.layers.0.self_attn/aten::floor_divide/Floor_3" type="Floor" version="opset1">
			<input>
				<port id="0" precision="I64" />
			</input>
			<output>
				<port id="1" precision="I64" names="445,446,450,451" />
			</output>
		</layer>
		<layer id="142" name="Constant_260229" type="Const" version="opset1">
			<data element_type="i64" shape="1" offset="12324" size="8" />
			<output>
				<port id="0" precision="I64">
					<dim>1</dim>
				</port>
			</output>
		</layer>
		<layer id="143" name="__module.model.layers.0.self_attn/aten::slice/Reshape_13" type="Reshape" version="opset1">
			<data special_zero="false" />
			<input>
				<port id="0" precision="I64" />
				<port id="1" precision="I64">
					<dim>1</dim>
				</port>
			</input>
			<output>
				<port id="2" precision="I64">
					<dim>1</dim>
				</port>
			</output>
		</layer>
		<layer id="144" name="__module.model.layers.0.self_attn/aten::slice/Reshape_9" type="Const" version="opset1">
			<data element_type="i64" shape="1" offset="1244608" size="8" />
			<output>
				<port id="0" precision="I64">
					<dim>1</dim>
				</port>
			</output>
		</layer>
		<layer id="145" name="__module.model.layers.0.self_attn/aten::slice/Reshape_10" type="Const" version="opset1">
			<data element_type="i64" shape="1" offset="1244536" size="8" />
			<output>
				<port id="0" precision="I64">
					<dim>1</dim>
				</port>
			</output>
		</layer>
		<layer id="146" name="__module.model.layers.0.self_attn/aten::slice/Reshape_11" type="Const" version="opset1">
			<data element_type="i64" shape="1" offset="1244528" size="8" />
			<output>
				<port id="0" precision="I64">
					<dim>1</dim>
				</port>
			</output>
		</layer>
		<layer id="147" name="__module.model.layers.0.self_attn/aten::slice/Slice_2" type="Slice" version="opset8">
			<input>
				<port id="0" precision="FP32">
					<dim>-1</dim>
					<dim>2</dim>
					<dim>-1</dim>
					<dim>128</dim>
				</port>
				<port id="1" precision="I64">
					<dim>1</dim>
				</port>
				<port id="2" precision="I64">
					<dim>1</dim>
				</port>
				<port id="3" precision="I64">
					<dim>1</dim>
				</port>
				<port id="4" precision="I64">
					<dim>1</dim>
				</port>
			</input>
			<output>
				<port id="5" precision="FP32" names="452,x2.3">
					<dim>-1</dim>
					<dim>2</dim>
					<dim>-1</dim>
					<dim>64</dim>
				</port>
			</output>
		</layer>
		<layer id="148" name="Constant_303155" type="Const" version="opset1">
			<data element_type="f32" shape="1, 1, 1, 1" offset="1244616" size="4" />
			<output>
				<port id="0" precision="FP32">
					<dim>1</dim>
					<dim>1</dim>
					<dim>1</dim>
					<dim>1</dim>
				</port>
			</output>
		</layer>
		<layer id="149" name="__module.model.layers.0.self_attn/aten::neg/Multiply_1" type="Multiply" version="opset1">
			<data auto_broadcast="numpy" />
			<input>
				<port id="0" precision="FP32">
					<dim>-1</dim>
					<dim>2</dim>
					<dim>-1</dim>
					<dim>64</dim>
				</port>
				<port id="1" precision="FP32">
					<dim>1</dim>
					<dim>1</dim>
					<dim>1</dim>
					<dim>1</dim>
				</port>
			</input>
			<output>
				<port id="2" precision="FP32" names="453">
					<dim>-1</dim>
					<dim>2</dim>
					<dim>-1</dim>
					<dim>64</dim>
				</port>
			</output>
		</layer>
		<layer id="150" name="__module.model.layers.0.self_attn/aten::slice/Reshape_12" type="Const" version="opset1">
			<data element_type="i64" shape="1" offset="4" size="8" />
			<output>
				<port id="0" precision="I64">
					<dim>1</dim>
				</port>
			</output>
		</layer>
		<layer id="151" name="__module.model.layers.0.self_attn/aten::slice/Reshape_14" type="Const" version="opset1">
			<data element_type="i64" shape="1" offset="1244536" size="8" />
			<output>
				<port id="0" precision="I64">
					<dim>1</dim>
				</port>
			</output>
		</layer>
		<layer id="152" name="__module.model.layers.0.self_attn/aten::slice/Reshape_15" type="Const" version="opset1">
			<data element_type="i64" shape="1" offset="1244528" size="8" />
			<output>
				<port id="0" precision="I64">
					<dim>1</dim>
				</port>
			</output>
		</layer>
		<layer id="153" name="__module.model.layers.0.self_attn/aten::slice/Slice_3" type="Slice" version="opset8">
			<input>
				<port id="0" precision="FP32">
					<dim>-1</dim>
					<dim>2</dim>
					<dim>-1</dim>
					<dim>128</dim>
				</port>
				<port id="1" precision="I64">
					<dim>1</dim>
				</port>
				<port id="2" precision="I64">
					<dim>1</dim>
				</port>
				<port id="3" precision="I64">
					<dim>1</dim>
				</port>
				<port id="4" precision="I64">
					<dim>1</dim>
				</port>
			</input>
			<output>
				<port id="5" precision="FP32" names="447">
					<dim>-1</dim>
					<dim>2</dim>
					<dim>-1</dim>
					<dim>64</dim>
				</port>
			</output>
		</layer>
		<layer id="154" name="__module.model.layers.0.self_attn/aten::cat/Concat_3" type="Concat" version="opset1">
			<data axis="-1" />
			<input>
				<port id="0" precision="FP32">
					<dim>-1</dim>
					<dim>2</dim>
					<dim>-1</dim>
					<dim>64</dim>
				</port>
				<port id="1" precision="FP32">
					<dim>-1</dim>
					<dim>2</dim>
					<dim>-1</dim>
					<dim>64</dim>
				</port>
			</input>
			<output>
				<port id="2" precision="FP32" names="455">
					<dim>-1</dim>
					<dim>2</dim>
					<dim>-1</dim>
					<dim>128</dim>
				</port>
			</output>
		</layer>
		<layer id="155" name="__module.model.layers.0.self_attn/aten::mul/Multiply_3" type="Multiply" version="opset1">
			<data auto_broadcast="numpy" />
			<input>
				<port id="0" precision="FP32">
					<dim>-1</dim>
					<dim>2</dim>
					<dim>-1</dim>
					<dim>128</dim>
				</port>
				<port id="1" precision="FP32">
					<dim>-1</dim>
					<dim>1</dim>
					<dim>-1</dim>
					<dim>128</dim>
				</port>
			</input>
			<output>
				<port id="2" precision="FP32" names="456">
					<dim>-1</dim>
					<dim>2</dim>
					<dim>-1</dim>
					<dim>128</dim>
				</port>
			</output>
		</layer>
		<layer id="156" name="__module.model.layers.0.self_attn/aten::add/Add_1" type="Add" version="opset1">
			<data auto_broadcast="numpy" />
			<input>
				<port id="0" precision="FP32">
					<dim>-1</dim>
					<dim>2</dim>
					<dim>-1</dim>
					<dim>128</dim>
				</port>
				<port id="1" precision="FP32">
					<dim>-1</dim>
					<dim>2</dim>
					<dim>-1</dim>
					<dim>128</dim>
				</port>
			</input>
			<output>
				<port id="2" precision="FP32" names="457,key_states.7">
					<dim>-1</dim>
					<dim>2</dim>
					<dim>-1</dim>
					<dim>128</dim>
				</port>
			</output>
		</layer>
		<layer id="157" name="__module.model.layers.0.self_attn/aten::cat/Concat_4" type="Concat" version="opset1">
			<data axis="-2" />
			<input>
				<port id="0" precision="FP32">
					<dim>-1</dim>
					<dim>2</dim>
					<dim>-1</dim>
					<dim>128</dim>
				</port>
				<port id="1" precision="FP32">
					<dim>-1</dim>
					<dim>2</dim>
					<dim>-1</dim>
					<dim>128</dim>
				</port>
			</input>
			<output>
				<port id="2" precision="FP32" names="present.0.key">
					<dim>-1</dim>
					<dim>2</dim>
					<dim>-1</dim>
					<dim>128</dim>
				</port>
			</output>
		</layer>
		<layer id="158" name="__module.model.layers.0.self_attn/aten::unsqueeze/Unsqueeze_2" type="Unsqueeze" version="opset1">
			<input>
				<port id="0" precision="FP32">
					<dim>-1</dim>
					<dim>2</dim>
					<dim>-1</dim>
					<dim>128</dim>
				</port>
				<port id="1" precision="I64" />
			</input>
			<output>
				<port id="2" precision="FP32" names="472,473,474">
					<dim>-1</dim>
					<dim>2</dim>
					<dim>1</dim>
					<dim>-1</dim>
					<dim>128</dim>
				</port>
			</output>
		</layer>
		<layer id="159" name="ShapeOf_307959" type="ShapeOf" version="opset3">
			<data output_type="i64" />
			<input>
				<port id="0" precision="FP32">
					<dim>-1</dim>
					<dim>2</dim>
					<dim>-1</dim>
					<dim>128</dim>
				</port>
			</input>
			<output>
				<port id="1" precision="I64">
					<dim>4</dim>
				</port>
			</output>
		</layer>
		<layer id="160" name="Constant_307970" type="Const" version="opset1">
			<data element_type="i64" shape="1" offset="4" size="8" />
			<output>
				<port id="0" precision="I64">
					<dim>1</dim>
				</port>
			</output>
		</layer>
		<layer id="161" name="Constant_307971" type="Const" version="opset1">
			<data element_type="i64" shape="" offset="4" size="8" />
			<output>
				<port id="0" precision="I64" />
			</output>
		</layer>
		<layer id="162" name="Gather_307972" type="Gather" version="opset8">
			<data batch_dims="0" />
			<input>
				<port id="0" precision="I64">
					<dim>4</dim>
				</port>
				<port id="1" precision="I64">
					<dim>1</dim>
				</port>
				<port id="2" precision="I64" />
			</input>
			<output>
				<port id="3" precision="I64" names="465">
					<dim>1</dim>
				</port>
			</output>
		</layer>
		<layer id="163" name="__module.model.layers.0.self_attn/aten::size/ShapeOf_6" type="ShapeOf" version="opset3">
			<data output_type="i64" />
			<input>
				<port id="0" precision="FP32">
					<dim>-1</dim>
					<dim>2</dim>
					<dim>-1</dim>
					<dim>128</dim>
				</port>
			</input>
			<output>
				<port id="1" precision="I64">
					<dim>4</dim>
				</port>
			</output>
		</layer>
		<layer id="164" name="Constant_310640" type="Const" version="opset1">
			<data element_type="i64" shape="1" offset="1244536" size="8" />
			<output>
				<port id="0" precision="I64">
					<dim>1</dim>
				</port>
			</output>
		</layer>
		<layer id="165" name="__module.model.layers.0.self_attn/aten::size/Constant_7" type="Const" version="opset1">
			<data element_type="i32" shape="" offset="0" size="4" />
			<output>
				<port id="0" precision="I32" />
			</output>
		</layer>
		<layer id="166" name="__module.model.layers.0.self_attn/aten::size/Gather_7" type="Gather" version="opset8">
			<data batch_dims="0" />
			<input>
				<port id="0" precision="I64">
					<dim>4</dim>
				</port>
				<port id="1" precision="I64">
					<dim>1</dim>
				</port>
				<port id="2" precision="I32" />
			</input>
			<output>
				<port id="3" precision="I64" names="466">
					<dim>1</dim>
				</port>
			</output>
		</layer>
		<layer id="167" name="Constant_289567" type="Const" version="opset1">
			<data element_type="i64" shape="1" offset="1639660" size="8" />
			<output>
				<port id="0" precision="I64">
					<dim>1</dim>
				</port>
			</output>
		</layer>
		<layer id="168" name="Constant_294554" type="Const" version="opset1">
			<data element_type="i64" shape="2" offset="1639668" size="16" />
			<output>
				<port id="0" precision="I64">
					<dim>2</dim>
				</port>
			</output>
		</layer>
		<layer id="169" name="Constant_294555" type="Const" version="opset1">
			<data element_type="i64" shape="" offset="4" size="8" />
			<output>
				<port id="0" precision="I64" />
			</output>
		</layer>
		<layer id="170" name="Gather_294556" type="Gather" version="opset8">
			<data batch_dims="0" />
			<input>
				<port id="0" precision="I64">
					<dim>4</dim>
				</port>
				<port id="1" precision="I64">
					<dim>2</dim>
				</port>
				<port id="2" precision="I64" />
			</input>
			<output>
				<port id="3" precision="I64">
					<dim>2</dim>
				</port>
			</output>
		</layer>
		<layer id="171" name="__module.model.layers.0.self_attn/prim::ListConstruct/Concat_2" type="Concat" version="opset1">
			<data axis="0" />
			<input>
				<port id="0" precision="I64">
					<dim>1</dim>
				</port>
				<port id="1" precision="I64">
					<dim>1</dim>
				</port>
				<port id="2" precision="I64">
					<dim>1</dim>
				</port>
				<port id="3" precision="I64">
					<dim>2</dim>
				</port>
			</input>
			<output>
				<port id="4" precision="I64" names="475">
					<dim>5</dim>
				</port>
			</output>
		</layer>
		<layer id="172" name="__module.model.layers.0.self_attn/aten::expand/Broadcast" type="Broadcast" version="opset3">
			<data mode="bidirectional" />
			<input>
				<port id="0" precision="FP32">
					<dim>-1</dim>
					<dim>2</dim>
					<dim>1</dim>
					<dim>-1</dim>
					<dim>128</dim>
				</port>
				<port id="1" precision="I64">
					<dim>5</dim>
				</port>
			</input>
			<output>
				<port id="2" precision="FP32" names="476,hidden_states.11">
					<dim>-1</dim>
					<dim>2</dim>
					<dim>6</dim>
					<dim>-1</dim>
					<dim>128</dim>
				</port>
			</output>
		</layer>
		<layer id="173" name="Constant_310377" type="Const" version="opset1">
			<data element_type="i64" shape="4" offset="1639684" size="32" />
			<output>
				<port id="0" precision="I64">
					<dim>4</dim>
				</port>
			</output>
		</layer>
		<layer id="174" name="__module.model.layers.0.self_attn/aten::reshape/Reshape" type="Reshape" version="opset1">
			<data special_zero="true" />
			<input>
				<port id="0" precision="FP32">
					<dim>-1</dim>
					<dim>2</dim>
					<dim>6</dim>
					<dim>-1</dim>
					<dim>128</dim>
				</port>
				<port id="1" precision="I64">
					<dim>4</dim>
				</port>
			</input>
			<output>
				<port id="2" precision="FP32" names="480,key_states.9">
					<dim>-1</dim>
					<dim>12</dim>
					<dim>-1</dim>
					<dim>128</dim>
				</port>
			</output>
		</layer>
		<layer id="175" name="Constant_329050" type="Const" version="opset1">
			<data element_type="f32" shape="" offset="0" size="4" />
			<output>
				<port id="0" precision="FP32" />
			</output>
		</layer>
		<layer id="176" name="Constant_329043" type="Const" version="opset1">
			<data element_type="i64" shape="1" offset="12" size="8" />
			<output>
				<port id="0" precision="I64">
					<dim>1</dim>
				</port>
			</output>
		</layer>
		<layer id="177" name="Constant_329045" type="Const" version="opset1">
			<data element_type="i64" shape="1" offset="4" size="8" />
			<output>
				<port id="0" precision="I64">
					<dim>1</dim>
				</port>
			</output>
		</layer>
		<layer id="178" name="Constant_329047" type="Const" version="opset1">
			<data element_type="i64" shape="1" offset="20" size="8" />
			<output>
				<port id="0" precision="I64">
					<dim>1</dim>
				</port>
			</output>
		</layer>
		<layer id="179" name="Concat_329048" type="Concat" version="opset1">
			<data axis="0" />
			<input>
				<port id="0" precision="I64">
					<dim>1</dim>
				</port>
				<port id="1" precision="I64">
					<dim>1</dim>
				</port>
				<port id="2" precision="I64">
					<dim>1</dim>
				</port>
				<port id="3" precision="I64">
					<dim>1</dim>
				</port>
			</input>
			<output>
				<port id="4" precision="I64">
					<dim>4</dim>
				</port>
			</output>
		</layer>
		<layer id="180" name="Broadcast_329051" type="Broadcast" version="opset3">
			<data mode="numpy" />
			<input>
				<port id="0" precision="FP32" />
				<port id="1" precision="I64">
					<dim>4</dim>
				</port>
			</input>
			<output>
				<port id="2" precision="FP32">
					<dim>-1</dim>
					<dim>2</dim>
					<dim>0</dim>
					<dim>128</dim>
				</port>
			</output>
		</layer>
		<layer id="181" name="ReadValue_324494" type="ReadValue" version="opset6">
			<data variable_id="past_key_values.0.valuepresent.0.value" variable_type="f32" variable_shape="?,2,?,128" />
			<input>
				<port id="0" precision="FP32">
					<dim>-1</dim>
					<dim>2</dim>
					<dim>0</dim>
					<dim>128</dim>
				</port>
			</input>
			<output>
				<port id="1" precision="FP32" names="past_key_values.0.value">
					<dim>-1</dim>
					<dim>2</dim>
					<dim>-1</dim>
					<dim>128</dim>
				</port>
			</output>
		</layer>
		<layer id="182" name="Constant_319922" type="Const" version="opset1">
			<data element_type="i64" shape="" offset="4" size="8" />
			<output>
				<port id="0" precision="I64" />
			</output>
		</layer>
		<layer id="183" name="Gather_319923" type="Gather" version="opset8">
			<data batch_dims="0" />
			<input>
				<port id="0" precision="FP32">
					<dim>-1</dim>
					<dim>2</dim>
					<dim>-1</dim>
					<dim>128</dim>
				</port>
				<port id="1" precision="I32">
					<dim>-1</dim>
				</port>
				<port id="2" precision="I64" />
			</input>
			<output>
				<port id="3" precision="FP32">
					<dim>-1</dim>
					<dim>2</dim>
					<dim>-1</dim>
					<dim>128</dim>
				</port>
			</output>
		</layer>
		<layer id="184" name="self.model.layers.0.self_attn.v_proj.weight" type="Const" version="opset1">
			<data element_type="u8" shape="256, 1536" offset="1639716" size="393216" />
			<output>
				<port id="0" precision="U8">
					<dim>256</dim>
					<dim>1536</dim>
				</port>
			</output>
		</layer>
		<layer id="185" name="Convert_335882" type="Convert" version="opset1">
			<data destination_type="f16" />
			<input>
				<port id="0" precision="U8">
					<dim>256</dim>
					<dim>1536</dim>
				</port>
			</input>
			<output>
				<port id="1" precision="FP16">
					<dim>256</dim>
					<dim>1536</dim>
				</port>
			</output>
		</layer>
		<layer id="186" name="self.model.layers.0.self_attn.v_proj.weight/zero_point" type="Const" version="opset1">
			<data element_type="u8" shape="256, 1" offset="2032932" size="256" />
			<output>
				<port id="0" precision="U8">
					<dim>256</dim>
					<dim>1</dim>
				</port>
			</output>
		</layer>
		<layer id="187" name="Convert_335885" type="Convert" version="opset1">
			<data destination_type="f16" />
			<input>
				<port id="0" precision="U8">
					<dim>256</dim>
					<dim>1</dim>
				</port>
			</input>
			<output>
				<port id="1" precision="FP16">
					<dim>256</dim>
					<dim>1</dim>
				</port>
			</output>
		</layer>
		<layer id="188" name="self.model.layers.0.self_attn.v_proj.weight/zero_point/subtract" type="Subtract" version="opset1">
			<data auto_broadcast="numpy" />
			<input>
				<port id="0" precision="FP16">
					<dim>256</dim>
					<dim>1536</dim>
				</port>
				<port id="1" precision="FP16">
					<dim>256</dim>
					<dim>1</dim>
				</port>
			</input>
			<output>
				<port id="2" precision="FP16">
					<dim>256</dim>
					<dim>1536</dim>
				</port>
			</output>
		</layer>
		<layer id="189" name="self.model.layers.0.self_attn.v_proj.weight/scale" type="Const" version="opset1">
			<data element_type="f16" shape="256, 1" offset="2033188" size="512" />
			<output>
				<port id="0" precision="FP16">
					<dim>256</dim>
					<dim>1</dim>
				</port>
			</output>
		</layer>
		<layer id="190" name="self.model.layers.0.self_attn.v_proj.weight/fq_weights_1" type="Multiply" version="opset1">
			<data auto_broadcast="numpy" />
			<input>
				<port id="0" precision="FP16">
					<dim>256</dim>
					<dim>1536</dim>
				</port>
				<port id="1" precision="FP16">
					<dim>256</dim>
					<dim>1</dim>
				</port>
			</input>
			<output>
				<port id="2" precision="FP16">
					<dim>256</dim>
					<dim>1536</dim>
				</port>
			</output>
		</layer>
		<layer id="191" name="self.model.layers.0.self_attn.v_proj.weight/fq_weights_1/convert" type="Convert" version="opset1">
			<data destination_type="f32" />
			<input>
				<port id="0" precision="FP16">
					<dim>256</dim>
					<dim>1536</dim>
				</port>
			</input>
			<output>
				<port id="1" precision="FP32">
					<dim>256</dim>
					<dim>1536</dim>
				</port>
			</output>
		</layer>
		<layer id="192" name="__module.model.layers.0.self_attn.v_proj/aten::linear/MatMul" type="MatMul" version="opset1">
			<data transpose_a="false" transpose_b="true" />
			<input>
				<port id="0" precision="FP32">
					<dim>-1</dim>
					<dim>-1</dim>
					<dim>1536</dim>
				</port>
				<port id="1" precision="FP32">
					<dim>256</dim>
					<dim>1536</dim>
				</port>
			</input>
			<output>
				<port id="2" precision="FP32">
					<dim>-1</dim>
					<dim>-1</dim>
					<dim>256</dim>
				</port>
			</output>
		</layer>
		<layer id="193" name="Constant_303156" type="Const" version="opset1">
			<data element_type="f32" shape="1, 1, 256" offset="2033700" size="1024" />
			<output>
				<port id="0" precision="FP32">
					<dim>1</dim>
					<dim>1</dim>
					<dim>256</dim>
				</port>
			</output>
		</layer>
		<layer id="194" name="__module.model.layers.0.self_attn.v_proj/aten::linear/Add" type="Add" version="opset1">
			<data auto_broadcast="numpy" />
			<input>
				<port id="0" precision="FP32">
					<dim>-1</dim>
					<dim>-1</dim>
					<dim>256</dim>
				</port>
				<port id="1" precision="FP32">
					<dim>1</dim>
					<dim>1</dim>
					<dim>256</dim>
				</port>
			</input>
			<output>
				<port id="2" precision="FP32" names="382,value_states.1">
					<dim>-1</dim>
					<dim>-1</dim>
					<dim>256</dim>
				</port>
			</output>
		</layer>
		<layer id="195" name="Constant_310378" type="Const" version="opset1">
			<data element_type="i64" shape="4" offset="1639628" size="32" />
			<output>
				<port id="0" precision="I64">
					<dim>4</dim>
				</port>
			</output>
		</layer>
		<layer id="196" name="__module.model.layers.0.self_attn/aten::view/Reshape_2" type="Reshape" version="opset1">
			<data special_zero="true" />
			<input>
				<port id="0" precision="FP32">
					<dim>-1</dim>
					<dim>-1</dim>
					<dim>256</dim>
				</port>
				<port id="1" precision="I64">
					<dim>4</dim>
				</port>
			</input>
			<output>
				<port id="2" precision="FP32" names="390">
					<dim>-1</dim>
					<dim>-1</dim>
					<dim>2</dim>
					<dim>128</dim>
				</port>
			</output>
		</layer>
		<layer id="197" name="__module.model.layers.0.self_attn/aten::transpose/ScatterElementsUpdate_2" type="Const" version="opset1">
			<data element_type="i32" shape="4" offset="1244256" size="16" />
			<output>
				<port id="0" precision="I32">
					<dim>4</dim>
				</port>
			</output>
		</layer>
		<layer id="198" name="__module.model.layers.0.self_attn/aten::transpose/Transpose_2" type="Transpose" version="opset1">
			<input>
				<port id="0" precision="FP32">
					<dim>-1</dim>
					<dim>-1</dim>
					<dim>2</dim>
					<dim>128</dim>
				</port>
				<port id="1" precision="I32">
					<dim>4</dim>
				</port>
			</input>
			<output>
				<port id="2" precision="FP32" names="391">
					<dim>-1</dim>
					<dim>2</dim>
					<dim>-1</dim>
					<dim>128</dim>
				</port>
			</output>
		</layer>
		<layer id="199" name="__module.model.layers.0.self_attn/aten::cat/Concat_5" type="Concat" version="opset1">
			<data axis="-2" />
			<input>
				<port id="0" precision="FP32">
					<dim>-1</dim>
					<dim>2</dim>
					<dim>-1</dim>
					<dim>128</dim>
				</port>
				<port id="1" precision="FP32">
					<dim>-1</dim>
					<dim>2</dim>
					<dim>-1</dim>
					<dim>128</dim>
				</port>
			</input>
			<output>
				<port id="2" precision="FP32" names="present.0.value">
					<dim>-1</dim>
					<dim>2</dim>
					<dim>-1</dim>
					<dim>128</dim>
				</port>
			</output>
		</layer>
		<layer id="200" name="__module.model.layers.0.self_attn/aten::unsqueeze/Unsqueeze_3" type="Unsqueeze" version="opset1">
			<input>
				<port id="0" precision="FP32">
					<dim>-1</dim>
					<dim>2</dim>
					<dim>-1</dim>
					<dim>128</dim>
				</port>
				<port id="1" precision="I64" />
			</input>
			<output>
				<port id="2" precision="FP32" names="488,489,490">
					<dim>-1</dim>
					<dim>2</dim>
					<dim>1</dim>
					<dim>-1</dim>
					<dim>128</dim>
				</port>
			</output>
		</layer>
		<layer id="201" name="ShapeOf_307931" type="ShapeOf" version="opset3">
			<data output_type="i64" />
			<input>
				<port id="0" precision="FP32">
					<dim>-1</dim>
					<dim>-1</dim>
					<dim>1536</dim>
				</port>
			</input>
			<output>
				<port id="1" precision="I64">
					<dim>3</dim>
				</port>
			</output>
		</layer>
		<layer id="202" name="Constant_307965" type="Const" version="opset1">
			<data element_type="i64" shape="1" offset="4" size="8" />
			<output>
				<port id="0" precision="I64">
					<dim>1</dim>
				</port>
			</output>
		</layer>
		<layer id="203" name="Constant_307966" type="Const" version="opset1">
			<data element_type="i64" shape="" offset="4" size="8" />
			<output>
				<port id="0" precision="I64" />
			</output>
		</layer>
		<layer id="204" name="Gather_307967" type="Gather" version="opset8">
			<data batch_dims="0" />
			<input>
				<port id="0" precision="I64">
					<dim>3</dim>
				</port>
				<port id="1" precision="I64">
					<dim>1</dim>
				</port>
				<port id="2" precision="I64" />
			</input>
			<output>
				<port id="3" precision="I64" names="1048,1237,1426,1615,1804,1993,2182,2371,2560,2749,285,2938,3127,3316,3505,3694,3883,4072,4261,4450,4639,481,4828,5017,5206,5395,5584,670,859">
					<dim>1</dim>
				</port>
			</output>
		</layer>
		<layer id="205" name="__module.model.layers.0.self_attn/aten::size/ShapeOf_10" type="ShapeOf" version="opset3">
			<data output_type="i64" />
			<input>
				<port id="0" precision="FP32">
					<dim>-1</dim>
					<dim>2</dim>
					<dim>-1</dim>
					<dim>128</dim>
				</port>
			</input>
			<output>
				<port id="1" precision="I64">
					<dim>4</dim>
				</port>
			</output>
		</layer>
		<layer id="206" name="Constant_310643" type="Const" version="opset1">
			<data element_type="i64" shape="1" offset="1244536" size="8" />
			<output>
				<port id="0" precision="I64">
					<dim>1</dim>
				</port>
			</output>
		</layer>
		<layer id="207" name="__module.model.layers.0.self_attn/aten::size/Constant_11" type="Const" version="opset1">
			<data element_type="i32" shape="" offset="0" size="4" />
			<output>
				<port id="0" precision="I32" />
			</output>
		</layer>
		<layer id="208" name="__module.model.layers.0.self_attn/aten::size/Gather_11" type="Gather" version="opset8">
			<data batch_dims="0" />
			<input>
				<port id="0" precision="I64">
					<dim>4</dim>
				</port>
				<port id="1" precision="I64">
					<dim>1</dim>
				</port>
				<port id="2" precision="I32" />
			</input>
			<output>
				<port id="3" precision="I64" names="482">
					<dim>1</dim>
				</port>
			</output>
		</layer>
		<layer id="209" name="Constant_289585" type="Const" version="opset1">
			<data element_type="i64" shape="1" offset="1639660" size="8" />
			<output>
				<port id="0" precision="I64">
					<dim>1</dim>
				</port>
			</output>
		</layer>
		<layer id="210" name="Constant_294564" type="Const" version="opset1">
			<data element_type="i64" shape="2" offset="1639668" size="16" />
			<output>
				<port id="0" precision="I64">
					<dim>2</dim>
				</port>
			</output>
		</layer>
		<layer id="211" name="Constant_294565" type="Const" version="opset1">
			<data element_type="i64" shape="" offset="4" size="8" />
			<output>
				<port id="0" precision="I64" />
			</output>
		</layer>
		<layer id="212" name="Gather_294566" type="Gather" version="opset8">
			<data batch_dims="0" />
			<input>
				<port id="0" precision="I64">
					<dim>4</dim>
				</port>
				<port id="1" precision="I64">
					<dim>2</dim>
				</port>
				<port id="2" precision="I64" />
			</input>
			<output>
				<port id="3" precision="I64">
					<dim>2</dim>
				</port>
			</output>
		</layer>
		<layer id="213" name="__module.model.layers.0.self_attn/prim::ListConstruct/Concat_5" type="Concat" version="opset1">
			<data axis="0" />
			<input>
				<port id="0" precision="I64">
					<dim>1</dim>
				</port>
				<port id="1" precision="I64">
					<dim>1</dim>
				</port>
				<port id="2" precision="I64">
					<dim>1</dim>
				</port>
				<port id="3" precision="I64">
					<dim>2</dim>
				</port>
			</input>
			<output>
				<port id="4" precision="I64" names="491">
					<dim>5</dim>
				</port>
			</output>
		</layer>
		<layer id="214" name="__module.model.layers.0.self_attn/aten::expand/Broadcast_1" type="Broadcast" version="opset3">
			<data mode="bidirectional" />
			<input>
				<port id="0" precision="FP32">
					<dim>-1</dim>
					<dim>2</dim>
					<dim>1</dim>
					<dim>-1</dim>
					<dim>128</dim>
				</port>
				<port id="1" precision="I64">
					<dim>5</dim>
				</port>
			</input>
			<output>
				<port id="2" precision="FP32" names="492,hidden_states.15">
					<dim>-1</dim>
					<dim>2</dim>
					<dim>6</dim>
					<dim>-1</dim>
					<dim>128</dim>
				</port>
			</output>
		</layer>
		<layer id="215" name="Constant_310379" type="Const" version="opset1">
			<data element_type="i64" shape="4" offset="1639684" size="32" />
			<output>
				<port id="0" precision="I64">
					<dim>4</dim>
				</port>
			</output>
		</layer>
		<layer id="216" name="__module.model.layers.0.self_attn/aten::reshape/Reshape_1" type="Reshape" version="opset1">
			<data special_zero="true" />
			<input>
				<port id="0" precision="FP32">
					<dim>-1</dim>
					<dim>2</dim>
					<dim>6</dim>
					<dim>-1</dim>
					<dim>128</dim>
				</port>
				<port id="1" precision="I64">
					<dim>4</dim>
				</port>
			</input>
			<output>
				<port id="2" precision="FP32" names="496">
					<dim>-1</dim>
					<dim>12</dim>
					<dim>-1</dim>
					<dim>128</dim>
				</port>
			</output>
		</layer>
		<layer id="217" name="__module.model/aten::triu/Constant" type="Const" version="opset1">
			<data element_type="i32" shape="" offset="0" size="4" />
			<output>
				<port id="0" precision="I32" />
			</output>
		</layer>
		<layer id="218" name="ShapeOf_307939" type="ShapeOf" version="opset3">
			<data output_type="i64" />
			<input>
				<port id="0" precision="I64">
					<dim>-1</dim>
					<dim>-1</dim>
				</port>
			</input>
			<output>
				<port id="1" precision="I64">
					<dim>2</dim>
				</port>
			</output>
		</layer>
		<layer id="219" name="Constant_307940" type="Const" version="opset1">
			<data element_type="i64" shape="" offset="1244536" size="8" />
			<output>
				<port id="0" precision="I64" />
			</output>
		</layer>
		<layer id="220" name="Constant_307941" type="Const" version="opset1">
			<data element_type="i64" shape="" offset="4" size="8" />
			<output>
				<port id="0" precision="I64" />
			</output>
		</layer>
		<layer id="221" name="Gather_307942" type="Gather" version="opset8">
			<data batch_dims="0" />
			<input>
				<port id="0" precision="I64">
					<dim>2</dim>
				</port>
				<port id="1" precision="I64" />
				<port id="2" precision="I64" />
			</input>
			<output>
				<port id="3" precision="I64" names="284,301" />
			</output>
		</layer>
		<layer id="222" name="Convert_307947" type="Convert" version="opset1">
			<data destination_type="i32" />
			<input>
				<port id="0" precision="I64" />
			</input>
			<output>
				<port id="1" precision="I32" />
			</output>
		</layer>
		<layer id="223" name="__module.model/aten::triu/Constant_2" type="Const" version="opset1">
			<data element_type="i32" shape="" offset="2034724" size="4" />
			<output>
				<port id="0" precision="I32" />
			</output>
		</layer>
		<layer id="224" name="__module.model/aten::triu/Range" type="Range" version="opset4">
			<data output_type="i32" />
			<input>
				<port id="0" precision="I32" />
				<port id="1" precision="I32" />
				<port id="2" precision="I32" />
			</input>
			<output>
				<port id="3" precision="I32">
					<dim>-1</dim>
				</port>
			</output>
		</layer>
		<layer id="225" name="__module.model/aten::triu/Unsqueeze" type="Unsqueeze" version="opset1">
			<input>
				<port id="0" precision="I32">
					<dim>-1</dim>
				</port>
				<port id="1" precision="I32" />
			</input>
			<output>
				<port id="2" precision="I32">
					<dim>1</dim>
					<dim>-1</dim>
				</port>
			</output>
		</layer>
		<layer id="226" name="__module.model/aten::triu/Convert" type="Const" version="opset1">
			<data element_type="i32" shape="" offset="2034724" size="4" />
			<output>
				<port id="0" precision="I32" />
			</output>
		</layer>
		<layer id="227" name="Constant_307932" type="Const" version="opset1">
			<data element_type="i64" shape="" offset="1244536" size="8" />
			<output>
				<port id="0" precision="I64" />
			</output>
		</layer>
		<layer id="228" name="Constant_307933" type="Const" version="opset1">
			<data element_type="i64" shape="" offset="4" size="8" />
			<output>
				<port id="0" precision="I64" />
			</output>
		</layer>
		<layer id="229" name="Gather_307934" type="Gather" version="opset8">
			<data batch_dims="0" />
			<input>
				<port id="0" precision="I64">
					<dim>3</dim>
				</port>
				<port id="1" precision="I64" />
				<port id="2" precision="I64" />
			</input>
			<output>
				<port id="3" precision="I64" names="278,283" />
			</output>
		</layer>
		<layer id="230" name="Convert_307953" type="Convert" version="opset1">
			<data destination_type="i32" />
			<input>
				<port id="0" precision="I64" />
			</input>
			<output>
				<port id="1" precision="I32" />
			</output>
		</layer>
		<layer id="231" name="__module.model/aten::triu/Add" type="Add" version="opset1">
			<data auto_broadcast="numpy" />
			<input>
				<port id="0" precision="I32" />
				<port id="1" precision="I32" />
			</input>
			<output>
				<port id="2" precision="I32" />
			</output>
		</layer>
		<layer id="232" name="__module.model/aten::triu/Range_1" type="Range" version="opset4">
			<data output_type="i32" />
			<input>
				<port id="0" precision="I32" />
				<port id="1" precision="I32" />
				<port id="2" precision="I32" />
			</input>
			<output>
				<port id="3" precision="I32">
					<dim>-1</dim>
				</port>
			</output>
		</layer>
		<layer id="233" name="__module.model/aten::triu/Unsqueeze_1" type="Unsqueeze" version="opset1">
			<input>
				<port id="0" precision="I32">
					<dim>-1</dim>
				</port>
				<port id="1" precision="I32" />
			</input>
			<output>
				<port id="2" precision="I32">
					<dim>-1</dim>
					<dim>1</dim>
				</port>
			</output>
		</layer>
		<layer id="234" name="__module.model/aten::triu/GreaterEqual" type="GreaterEqual" version="opset1">
			<data auto_broadcast="numpy" />
			<input>
				<port id="0" precision="I32">
					<dim>1</dim>
					<dim>-1</dim>
				</port>
				<port id="1" precision="I32">
					<dim>-1</dim>
					<dim>1</dim>
				</port>
			</input>
			<output>
				<port id="2" precision="BOOL">
					<dim>-1</dim>
					<dim>-1</dim>
				</port>
			</output>
		</layer>
		<layer id="235" name="__module.model/aten::full/Convert" type="Const" version="opset1">
			<data element_type="f32" shape="" offset="2034728" size="4" />
			<output>
				<port id="0" precision="FP32" />
			</output>
		</layer>
		<layer id="236" name="Constant_307936" type="Const" version="opset1">
			<data element_type="i64" shape="1" offset="1244536" size="8" />
			<output>
				<port id="0" precision="I64">
					<dim>1</dim>
				</port>
			</output>
		</layer>
		<layer id="237" name="Reshape_307937" type="Reshape" version="opset1">
			<data special_zero="false" />
			<input>
				<port id="0" precision="I64" />
				<port id="1" precision="I64">
					<dim>1</dim>
				</port>
			</input>
			<output>
				<port id="2" precision="I64">
					<dim>1</dim>
				</port>
			</output>
		</layer>
		<layer id="238" name="Constant_307944" type="Const" version="opset1">
			<data element_type="i64" shape="1" offset="1244536" size="8" />
			<output>
				<port id="0" precision="I64">
					<dim>1</dim>
				</port>
			</output>
		</layer>
		<layer id="239" name="Reshape_307945" type="Reshape" version="opset1">
			<data special_zero="false" />
			<input>
				<port id="0" precision="I64" />
				<port id="1" precision="I64">
					<dim>1</dim>
				</port>
			</input>
			<output>
				<port id="2" precision="I64">
					<dim>1</dim>
				</port>
			</output>
		</layer>
		<layer id="240" name="__module.model/prim::ListConstruct/Concat" type="Concat" version="opset1">
			<data axis="0" />
			<input>
				<port id="0" precision="I64">
					<dim>1</dim>
				</port>
				<port id="1" precision="I64">
					<dim>1</dim>
				</port>
			</input>
			<output>
				<port id="2" precision="I64" names="286">
					<dim>2</dim>
				</port>
			</output>
		</layer>
		<layer id="241" name="__module.model/aten::full/Broadcast" type="Broadcast" version="opset3">
			<data mode="numpy" />
			<input>
				<port id="0" precision="FP32" />
				<port id="1" precision="I64">
					<dim>2</dim>
				</port>
			</input>
			<output>
				<port id="2" precision="FP32" names="287">
					<dim>-1</dim>
					<dim>-1</dim>
				</port>
			</output>
		</layer>
		<layer id="242" name="__module.model/aten::triu/ConvertLike" type="Const" version="opset1">
			<data element_type="f32" shape="" offset="0" size="4" />
			<output>
				<port id="0" precision="FP32" />
			</output>
		</layer>
		<layer id="243" name="__module.model/aten::triu/Select" type="Select" version="opset1">
			<data auto_broadcast="numpy" />
			<input>
				<port id="0" precision="BOOL">
					<dim>-1</dim>
					<dim>-1</dim>
				</port>
				<port id="1" precision="FP32">
					<dim>-1</dim>
					<dim>-1</dim>
				</port>
				<port id="2" precision="FP32" />
			</input>
			<output>
				<port id="3" precision="FP32" names="288_1">
					<dim>-1</dim>
					<dim>-1</dim>
				</port>
			</output>
		</layer>
		<layer id="244" name="__module.model/aten::arange/Constant" type="Const" version="opset1">
			<data element_type="i32" shape="" offset="0" size="4" />
			<output>
				<port id="0" precision="I32" />
			</output>
		</layer>
		<layer id="245" name="__module.model/aten::arange/Constant_1" type="Const" version="opset1">
			<data element_type="i32" shape="" offset="2034724" size="4" />
			<output>
				<port id="0" precision="I32" />
			</output>
		</layer>
		<layer id="246" name="__module.model/aten::arange/Range" type="Range" version="opset4">
			<data output_type="f32" />
			<input>
				<port id="0" precision="I32" />
				<port id="1" precision="I64" />
				<port id="2" precision="I32" />
			</input>
			<output>
				<port id="3" precision="FP32">
					<dim>-1</dim>
				</port>
			</output>
		</layer>
		<layer id="247" name="__module.model/aten::arange/ConvertLike" type="Convert" version="opset1">
			<data destination_type="i64" />
			<input>
				<port id="0" precision="FP32">
					<dim>-1</dim>
				</port>
			</input>
			<output>
				<port id="1" precision="I64" names="289">
					<dim>-1</dim>
				</port>
			</output>
		</layer>
		<layer id="248" name="__module.model/aten::gt/Convert" type="Convert" version="opset1">
			<data destination_type="f32" />
			<input>
				<port id="0" precision="I64">
					<dim>-1</dim>
				</port>
			</input>
			<output>
				<port id="1" precision="FP32">
					<dim>-1</dim>
				</port>
			</output>
		</layer>
		<layer id="249" name="Constant_307960" type="Const" version="opset1">
			<data element_type="i64" shape="" offset="12" size="8" />
			<output>
				<port id="0" precision="I64" />
			</output>
		</layer>
		<layer id="250" name="Constant_307961" type="Const" version="opset1">
			<data element_type="i64" shape="" offset="4" size="8" />
			<output>
				<port id="0" precision="I64" />
			</output>
		</layer>
		<layer id="251" name="Gather_307962" type="Gather" version="opset8">
			<data batch_dims="0" />
			<input>
				<port id="0" precision="I64">
					<dim>4</dim>
				</port>
				<port id="1" precision="I64" />
				<port id="2" precision="I64" />
			</input>
			<output>
				<port id="3" precision="I64" names="276" />
			</output>
		</layer>
		<layer id="252" name="__module.model/aten::add/Add" type="Add" version="opset1">
			<data auto_broadcast="numpy" />
			<input>
				<port id="0" precision="I64" />
				<port id="1" precision="I64" />
			</input>
			<output>
				<port id="2" precision="I64" names="280" />
			</output>
		</layer>
		<layer id="253" name="__module.model/aten::arange/Constant_2" type="Const" version="opset1">
			<data element_type="i32" shape="" offset="2034724" size="4" />
			<output>
				<port id="0" precision="I32" />
			</output>
		</layer>
		<layer id="254" name="__module.model/aten::arange/Range_1" type="Range" version="opset4">
			<data output_type="f32" />
			<input>
				<port id="0" precision="I64" />
				<port id="1" precision="I64" />
				<port id="2" precision="I32" />
			</input>
			<output>
				<port id="3" precision="FP32" names="282,cache_position">
					<dim>-1</dim>
				</port>
			</output>
		</layer>
		<layer id="255" name="Constant_124126" type="Const" version="opset1">
			<data element_type="i64" shape="2" offset="2034732" size="16" />
			<output>
				<port id="0" precision="I64" names="290">
					<dim>2</dim>
				</port>
			</output>
		</layer>
		<layer id="256" name="__module.model/aten::reshape/Reshape" type="Reshape" version="opset1">
			<data special_zero="false" />
			<input>
				<port id="0" precision="FP32">
					<dim>-1</dim>
				</port>
				<port id="1" precision="I64">
					<dim>2</dim>
				</port>
			</input>
			<output>
				<port id="2" precision="FP32" names="291">
					<dim>-1</dim>
					<dim>1</dim>
				</port>
			</output>
		</layer>
		<layer id="257" name="__module.model/aten::gt/Greater" type="Greater" version="opset1">
			<data auto_broadcast="numpy" />
			<input>
				<port id="0" precision="FP32">
					<dim>-1</dim>
				</port>
				<port id="1" precision="FP32">
					<dim>-1</dim>
					<dim>1</dim>
				</port>
			</input>
			<output>
				<port id="2" precision="BOOL" names="292">
					<dim>-1</dim>
					<dim>-1</dim>
				</port>
			</output>
		</layer>
		<layer id="258" name="__module.model/aten::mul_/ConvertLike" type="Convert" version="opset1">
			<data destination_type="f32" />
			<input>
				<port id="0" precision="BOOL">
					<dim>-1</dim>
					<dim>-1</dim>
				</port>
			</input>
			<output>
				<port id="1" precision="FP32">
					<dim>-1</dim>
					<dim>-1</dim>
				</port>
			</output>
		</layer>
		<layer id="259" name="__module.model/aten::mul_/Multiply" type="Multiply" version="opset1">
			<data auto_broadcast="numpy" />
			<input>
				<port id="0" precision="FP32">
					<dim>-1</dim>
					<dim>-1</dim>
				</port>
				<port id="1" precision="FP32">
					<dim>-1</dim>
					<dim>-1</dim>
				</port>
			</input>
			<output>
				<port id="2" precision="FP32" names="288,causal_mask.1">
					<dim>-1</dim>
					<dim>-1</dim>
				</port>
			</output>
		</layer>
		<layer id="260" name="__module.model/aten::unsqueeze/Unsqueeze" type="Unsqueeze" version="opset1">
			<input>
				<port id="0" precision="FP32">
					<dim>-1</dim>
					<dim>-1</dim>
				</port>
				<port id="1" precision="I64" />
			</input>
			<output>
				<port id="2" precision="FP32" names="294">
					<dim>1</dim>
					<dim>-1</dim>
					<dim>-1</dim>
				</port>
			</output>
		</layer>
		<layer id="261" name="__module.model/aten::unsqueeze/Unsqueeze_1" type="Unsqueeze" version="opset1">
			<input>
				<port id="0" precision="FP32">
					<dim>1</dim>
					<dim>-1</dim>
					<dim>-1</dim>
				</port>
				<port id="1" precision="I64" />
			</input>
			<output>
				<port id="2" precision="FP32" names="295,296,297">
					<dim>1</dim>
					<dim>1</dim>
					<dim>-1</dim>
					<dim>-1</dim>
				</port>
			</output>
		</layer>
		<layer id="262" name="Constant_289602" type="Const" version="opset1">
			<data element_type="i64" shape="1" offset="1244536" size="8" />
			<output>
				<port id="0" precision="I64">
					<dim>1</dim>
				</port>
			</output>
		</layer>
		<layer id="263" name="Constant_289604" type="Const" version="opset1">
			<data element_type="i64" shape="1" offset="1244536" size="8" />
			<output>
				<port id="0" precision="I64">
					<dim>1</dim>
				</port>
			</output>
		</layer>
		<layer id="264" name="Constant_289606" type="Const" version="opset1">
			<data element_type="i64" shape="1" offset="1244536" size="8" />
			<output>
				<port id="0" precision="I64">
					<dim>1</dim>
				</port>
			</output>
		</layer>
		<layer id="265" name="__module.model/prim::ListConstruct/Concat_1" type="Concat" version="opset1">
			<data axis="0" />
			<input>
				<port id="0" precision="I64">
					<dim>1</dim>
				</port>
				<port id="1" precision="I64">
					<dim>1</dim>
				</port>
				<port id="2" precision="I64">
					<dim>1</dim>
				</port>
				<port id="3" precision="I64">
					<dim>1</dim>
				</port>
			</input>
			<output>
				<port id="4" precision="I64" names="298">
					<dim>4</dim>
				</port>
			</output>
		</layer>
		<layer id="266" name="__module.model/aten::expand/Broadcast" type="Broadcast" version="opset3">
			<data mode="bidirectional" />
			<input>
				<port id="0" precision="FP32">
					<dim>1</dim>
					<dim>1</dim>
					<dim>-1</dim>
					<dim>-1</dim>
				</port>
				<port id="1" precision="I64">
					<dim>4</dim>
				</port>
			</input>
			<output>
				<port id="2" precision="FP32" names="299,302,303,304,312,313,314,317_1,318_1,319_1,causal_mask.5">
					<dim>-1</dim>
					<dim>1</dim>
					<dim>-1</dim>
					<dim>-1</dim>
				</port>
			</output>
		</layer>
		<layer id="267" name="Constant_260244" type="Const" version="opset1">
			<data element_type="i64" shape="1" offset="12324" size="8" />
			<output>
				<port id="0" precision="I64">
					<dim>1</dim>
				</port>
			</output>
		</layer>
		<layer id="268" name="SliceAssign_124267/Reshape_3" type="Reshape" version="opset1">
			<data special_zero="false" />
			<input>
				<port id="0" precision="FP32">
					<dim>-1</dim>
					<dim>1</dim>
					<dim>-1</dim>
					<dim>-1</dim>
				</port>
				<port id="1" precision="I64">
					<dim>1</dim>
				</port>
			</input>
			<output>
				<port id="2" precision="FP32">
					<dim>-1</dim>
				</port>
			</output>
		</layer>
		<layer id="269" name="Constant_212082" type="Const" version="opset1">
			<data element_type="i64" shape="" offset="4" size="8" />
			<output>
				<port id="0" precision="I64" />
			</output>
		</layer>
		<layer id="270" name="SliceAssign_124267/ShapeOf" type="ShapeOf" version="opset3">
			<data output_type="i64" />
			<input>
				<port id="0" precision="FP32">
					<dim>-1</dim>
					<dim>1</dim>
					<dim>-1</dim>
					<dim>-1</dim>
				</port>
			</input>
			<output>
				<port id="1" precision="I64">
					<dim>4</dim>
				</port>
			</output>
		</layer>
		<layer id="271" name="SliceAssign_124267/ReduceProd" type="ReduceProd" version="opset1">
			<data keep_dims="false" />
			<input>
				<port id="0" precision="I64">
					<dim>4</dim>
				</port>
				<port id="1" precision="I64" />
			</input>
			<output>
				<port id="2" precision="I64" />
			</output>
		</layer>
		<layer id="272" name="Constant_212083" type="Const" version="opset1">
			<data element_type="i64" shape="" offset="1244536" size="8" />
			<output>
				<port id="0" precision="I64" />
			</output>
		</layer>
		<layer id="273" name="SliceAssign_124267/Range" type="Range" version="opset4">
			<data output_type="i64" />
			<input>
				<port id="0" precision="I64" />
				<port id="1" precision="I64" />
				<port id="2" precision="I64" />
			</input>
			<output>
				<port id="3" precision="I64">
					<dim>-1</dim>
				</port>
			</output>
		</layer>
		<layer id="274" name="SliceAssign_124267/Reshape" type="Reshape" version="opset1">
			<data special_zero="false" />
			<input>
				<port id="0" precision="I64">
					<dim>-1</dim>
				</port>
				<port id="1" precision="I64">
					<dim>4</dim>
				</port>
			</input>
			<output>
				<port id="2" precision="I64">
					<dim>-1</dim>
					<dim>1</dim>
					<dim>-1</dim>
					<dim>-1</dim>
				</port>
			</output>
		</layer>
		<layer id="275" name="__module.model/aten::slice/Reshape_20" type="Const" version="opset1">
			<data element_type="i64" shape="1" offset="4" size="8" />
			<output>
				<port id="0" precision="I64">
					<dim>1</dim>
				</port>
			</output>
		</layer>
		<layer id="276" name="__module.model/aten::slice/Reshape_22" type="Const" version="opset1">
			<data element_type="i64" shape="1" offset="1244536" size="8" />
			<output>
				<port id="0" precision="I64">
					<dim>1</dim>
				</port>
			</output>
		</layer>
		<layer id="277" name="__module.model/aten::slice/Reshape_23" type="Const" version="opset1">
			<data element_type="i64" shape="1" offset="1244528" size="8" />
			<output>
				<port id="0" precision="I64">
					<dim>1</dim>
				</port>
			</output>
		</layer>
		<layer id="278" name="SliceAssign_124267/Slice_2" type="Slice" version="opset8">
			<input>
				<port id="0" precision="I64">
					<dim>-1</dim>
					<dim>1</dim>
					<dim>-1</dim>
					<dim>-1</dim>
				</port>
				<port id="1" precision="I64">
					<dim>1</dim>
				</port>
				<port id="2" precision="I64">
					<dim>1</dim>
				</port>
				<port id="3" precision="I64">
					<dim>1</dim>
				</port>
				<port id="4" precision="I64">
					<dim>1</dim>
				</port>
			</input>
			<output>
				<port id="5" precision="I64">
					<dim>-1</dim>
					<dim>1</dim>
					<dim>-1</dim>
					<dim>-1</dim>
				</port>
			</output>
		</layer>
		<layer id="279" name="Constant_212085" type="Const" version="opset1">
			<data element_type="i64" shape="2" offset="2034732" size="16" />
			<output>
				<port id="0" precision="I64">
					<dim>2</dim>
				</port>
			</output>
		</layer>
		<layer id="280" name="SliceAssign_124267/Reshape_4" type="Reshape" version="opset1">
			<data special_zero="false" />
			<input>
				<port id="0" precision="I64">
					<dim>-1</dim>
					<dim>1</dim>
					<dim>-1</dim>
					<dim>-1</dim>
				</port>
				<port id="1" precision="I64">
					<dim>2</dim>
				</port>
			</input>
			<output>
				<port id="2" precision="I64">
					<dim>-1</dim>
					<dim>1</dim>
				</port>
			</output>
		</layer>
		<layer id="281" name="__module.model/aten::slice/Reshape_36" type="Const" version="opset1">
			<data element_type="i64" shape="1" offset="4" size="8" />
			<output>
				<port id="0" precision="I64">
					<dim>1</dim>
				</port>
			</output>
		</layer>
		<layer id="282" name="__module.model/aten::slice/Reshape_38" type="Const" version="opset1">
			<data element_type="i64" shape="1" offset="1244536" size="8" />
			<output>
				<port id="0" precision="I64">
					<dim>1</dim>
				</port>
			</output>
		</layer>
		<layer id="283" name="__module.model/aten::slice/Reshape_39" type="Const" version="opset1">
			<data element_type="i64" shape="1" offset="1244528" size="8" />
			<output>
				<port id="0" precision="I64">
					<dim>1</dim>
				</port>
			</output>
		</layer>
		<layer id="284" name="__module.model/aten::slice/Slice_5" type="Slice" version="opset8">
			<input>
				<port id="0" precision="FP32">
					<dim>-1</dim>
					<dim>1</dim>
					<dim>-1</dim>
					<dim>-1</dim>
				</port>
				<port id="1" precision="I64">
					<dim>1</dim>
				</port>
				<port id="2" precision="I64">
					<dim>1</dim>
				</port>
				<port id="3" precision="I64">
					<dim>1</dim>
				</port>
				<port id="4" precision="I64">
					<dim>1</dim>
				</port>
			</input>
			<output>
				<port id="5" precision="FP32" names="305,315,320_1">
					<dim>-1</dim>
					<dim>1</dim>
					<dim>-1</dim>
					<dim>-1</dim>
				</port>
			</output>
		</layer>
		<layer id="285" name="__module.model/aten::unsqueeze/Unsqueeze_2" type="Unsqueeze" version="opset1">
			<input>
				<port id="0" precision="I64">
					<dim>-1</dim>
					<dim>-1</dim>
				</port>
				<port id="1" precision="I64" />
			</input>
			<output>
				<port id="2" precision="I64" names="307">
					<dim>-1</dim>
					<dim>1</dim>
					<dim>-1</dim>
				</port>
			</output>
		</layer>
		<layer id="286" name="__module.model/aten::unsqueeze/Unsqueeze_3" type="Unsqueeze" version="opset1">
			<input>
				<port id="0" precision="I64">
					<dim>-1</dim>
					<dim>1</dim>
					<dim>-1</dim>
				</port>
				<port id="1" precision="I64" />
			</input>
			<output>
				<port id="2" precision="I64" names="308,309">
					<dim>-1</dim>
					<dim>1</dim>
					<dim>1</dim>
					<dim>-1</dim>
				</port>
			</output>
		</layer>
		<layer id="287" name="__module.model/aten::add/Convert" type="Convert" version="opset1">
			<data destination_type="f32" />
			<input>
				<port id="0" precision="I64">
					<dim>-1</dim>
					<dim>1</dim>
					<dim>1</dim>
					<dim>-1</dim>
				</port>
			</input>
			<output>
				<port id="1" precision="FP32">
					<dim>-1</dim>
					<dim>1</dim>
					<dim>1</dim>
					<dim>-1</dim>
				</port>
			</output>
		</layer>
		<layer id="288" name="__module.model/aten::add/Add_1" type="Add" version="opset1">
			<data auto_broadcast="numpy" />
			<input>
				<port id="0" precision="FP32">
					<dim>-1</dim>
					<dim>1</dim>
					<dim>-1</dim>
					<dim>-1</dim>
				</port>
				<port id="1" precision="FP32">
					<dim>-1</dim>
					<dim>1</dim>
					<dim>1</dim>
					<dim>-1</dim>
				</port>
			</input>
			<output>
				<port id="2" precision="FP32" names="310,padding_mask.1">
					<dim>-1</dim>
					<dim>1</dim>
					<dim>-1</dim>
					<dim>-1</dim>
				</port>
			</output>
		</layer>
		<layer id="289" name="Constant_303157" type="Const" version="opset1">
			<data element_type="f32" shape="1, 1, 1, 1" offset="0" size="4" />
			<output>
				<port id="0" precision="FP32">
					<dim>1</dim>
					<dim>1</dim>
					<dim>1</dim>
					<dim>1</dim>
				</port>
			</output>
		</layer>
		<layer id="290" name="__module.model/aten::eq/Equal" type="Equal" version="opset1">
			<data auto_broadcast="numpy" />
			<input>
				<port id="0" precision="FP32">
					<dim>-1</dim>
					<dim>1</dim>
					<dim>-1</dim>
					<dim>-1</dim>
				</port>
				<port id="1" precision="FP32">
					<dim>1</dim>
					<dim>1</dim>
					<dim>1</dim>
					<dim>1</dim>
				</port>
			</input>
			<output>
				<port id="2" precision="BOOL" names="311,padding_mask">
					<dim>-1</dim>
					<dim>1</dim>
					<dim>-1</dim>
					<dim>-1</dim>
				</port>
			</output>
		</layer>
		<layer id="291" name="__module.model/aten::masked_fill/ConvertLike" type="Const" version="opset1">
			<data element_type="f32" shape="" offset="2034728" size="4" />
			<output>
				<port id="0" precision="FP32" />
			</output>
		</layer>
		<layer id="292" name="__module.model/aten::masked_fill/Select" type="Select" version="opset1">
			<data auto_broadcast="numpy" />
			<input>
				<port id="0" precision="BOOL">
					<dim>-1</dim>
					<dim>1</dim>
					<dim>-1</dim>
					<dim>-1</dim>
				</port>
				<port id="1" precision="FP32" />
				<port id="2" precision="FP32">
					<dim>-1</dim>
					<dim>1</dim>
					<dim>-1</dim>
					<dim>-1</dim>
				</port>
			</input>
			<output>
				<port id="3" precision="FP32" names="316">
					<dim>-1</dim>
					<dim>1</dim>
					<dim>-1</dim>
					<dim>-1</dim>
				</port>
			</output>
		</layer>
		<layer id="293" name="__module.model/aten::copy_/ShapeOf" type="ShapeOf" version="opset3">
			<data output_type="i64" />
			<input>
				<port id="0" precision="FP32">
					<dim>-1</dim>
					<dim>1</dim>
					<dim>-1</dim>
					<dim>-1</dim>
				</port>
			</input>
			<output>
				<port id="1" precision="I64">
					<dim>4</dim>
				</port>
			</output>
		</layer>
		<layer id="294" name="__module.model/aten::copy_/Broadcast" type="Broadcast" version="opset3">
			<data mode="numpy" />
			<input>
				<port id="0" precision="FP32">
					<dim>-1</dim>
					<dim>1</dim>
					<dim>-1</dim>
					<dim>-1</dim>
				</port>
				<port id="1" precision="I64">
					<dim>4</dim>
				</port>
			</input>
			<output>
				<port id="2" precision="FP32" names="320">
					<dim>-1</dim>
					<dim>1</dim>
					<dim>-1</dim>
					<dim>-1</dim>
				</port>
			</output>
		</layer>
		<layer id="295" name="Constant_260245" type="Const" version="opset1">
			<data element_type="i64" shape="1" offset="12324" size="8" />
			<output>
				<port id="0" precision="I64">
					<dim>1</dim>
				</port>
			</output>
		</layer>
		<layer id="296" name="SliceAssign_124267/Reshape_5" type="Reshape" version="opset1">
			<data special_zero="false" />
			<input>
				<port id="0" precision="FP32">
					<dim>-1</dim>
					<dim>1</dim>
					<dim>-1</dim>
					<dim>-1</dim>
				</port>
				<port id="1" precision="I64">
					<dim>1</dim>
				</port>
			</input>
			<output>
				<port id="2" precision="FP32">
					<dim>-1</dim>
				</port>
			</output>
		</layer>
		<layer id="297" name="SliceAssign_124267/ScatterNDUpdate" type="ScatterNDUpdate" version="opset4">
			<input>
				<port id="0" precision="FP32">
					<dim>-1</dim>
				</port>
				<port id="1" precision="I64">
					<dim>-1</dim>
					<dim>1</dim>
				</port>
				<port id="2" precision="FP32">
					<dim>-1</dim>
				</port>
			</input>
			<output>
				<port id="3" precision="FP32">
					<dim>-1</dim>
				</port>
			</output>
		</layer>
		<layer id="298" name="SliceAssign_124267/Reshape_6" type="Reshape" version="opset1">
			<data special_zero="false" />
			<input>
				<port id="0" precision="FP32">
					<dim>-1</dim>
				</port>
				<port id="1" precision="I64">
					<dim>4</dim>
				</port>
			</input>
			<output>
				<port id="2" precision="FP32" names="1065,1066,1067,1254,1255,1256,1443,1444,1445,1632,1633,1634,1821,1822,1823,2010,2011,2012,2199,2200,2201,2388,2389,2390,2577,2578,2579,2766,2767,2768,2955,2956,2957,300,3144,3145,3146,3333,3334,3335,3522,3523,3524,3711,3712,3713,3900,3901,3902,4089,4090,4091,4278,4279,4280,4467,4468,4469,4656,4657,4658,4845,4846,4847,498,499,500,5034,5035,5036,5223,5224,5225,5412,5413,5414,5601,5602,5603,687,688,689,876,877,878">
					<dim>-1</dim>
					<dim>1</dim>
					<dim>-1</dim>
					<dim>-1</dim>
				</port>
			</output>
		</layer>
		<layer id="299" name="__module.model.layers.0.self_attn/aten::slice/Reshape_60" type="Const" version="opset1">
			<data element_type="i64" shape="1" offset="4" size="8" />
			<output>
				<port id="0" precision="I64">
					<dim>1</dim>
				</port>
			</output>
		</layer>
		<layer id="300" name="Constant_307980" type="Const" version="opset1">
			<data element_type="i64" shape="1" offset="1244536" size="8" />
			<output>
				<port id="0" precision="I64">
					<dim>1</dim>
				</port>
			</output>
		</layer>
		<layer id="301" name="Reshape_307981" type="Reshape" version="opset1">
			<data special_zero="false" />
			<input>
				<port id="0" precision="I64" />
				<port id="1" precision="I64">
					<dim>1</dim>
				</port>
			</input>
			<output>
				<port id="2" precision="I64">
					<dim>1</dim>
				</port>
			</output>
		</layer>
		<layer id="302" name="ShapeOf_307982" type="ShapeOf" version="opset3">
			<data output_type="i64" />
			<input>
				<port id="0" precision="FP32">
					<dim>-1</dim>
					<dim>2</dim>
					<dim>-1</dim>
					<dim>128</dim>
				</port>
			</input>
			<output>
				<port id="1" precision="I64">
					<dim>4</dim>
				</port>
			</output>
		</layer>
		<layer id="303" name="Constant_307983" type="Const" version="opset1">
			<data element_type="i64" shape="1" offset="12" size="8" />
			<output>
				<port id="0" precision="I64">
					<dim>1</dim>
				</port>
			</output>
		</layer>
		<layer id="304" name="Constant_307984" type="Const" version="opset1">
			<data element_type="i64" shape="" offset="4" size="8" />
			<output>
				<port id="0" precision="I64" />
			</output>
		</layer>
		<layer id="305" name="Gather_307985" type="Gather" version="opset8">
			<data batch_dims="0" />
			<input>
				<port id="0" precision="I64">
					<dim>4</dim>
				</port>
				<port id="1" precision="I64">
					<dim>1</dim>
				</port>
				<port id="2" precision="I64" />
			</input>
			<output>
				<port id="3" precision="I64">
					<dim>1</dim>
				</port>
			</output>
		</layer>
		<layer id="306" name="Add_307986" type="Add" version="opset1">
			<data auto_broadcast="numpy" />
			<input>
				<port id="0" precision="I64">
					<dim>1</dim>
				</port>
				<port id="1" precision="I64">
					<dim>1</dim>
				</port>
			</input>
			<output>
				<port id="2" precision="I64" names="497">
					<dim>1</dim>
				</port>
			</output>
		</layer>
		<layer id="307" name="__module.model.layers.0.self_attn/aten::slice/Reshape_62" type="Const" version="opset1">
			<data element_type="i64" shape="1" offset="1244536" size="8" />
			<output>
				<port id="0" precision="I64">
					<dim>1</dim>
				</port>
			</output>
		</layer>
		<layer id="308" name="__module.model.layers.0.self_attn/aten::slice/Reshape_63" type="Const" version="opset1">
			<data element_type="i64" shape="1" offset="1244528" size="8" />
			<output>
				<port id="0" precision="I64">
					<dim>1</dim>
				</port>
			</output>
		</layer>
		<layer id="309" name="__module.model.layers.0.self_attn/aten::slice/Slice_15" type="Slice" version="opset8">
			<input>
				<port id="0" precision="FP32">
					<dim>-1</dim>
					<dim>1</dim>
					<dim>-1</dim>
					<dim>-1</dim>
				</port>
				<port id="1" precision="I64">
					<dim>1</dim>
				</port>
				<port id="2" precision="I64">
					<dim>1</dim>
				</port>
				<port id="3" precision="I64">
					<dim>1</dim>
				</port>
				<port id="4" precision="I64">
					<dim>1</dim>
				</port>
			</input>
			<output>
				<port id="5" precision="FP32" names="501">
					<dim>-1</dim>
					<dim>1</dim>
					<dim>-1</dim>
					<dim>-1</dim>
				</port>
			</output>
		</layer>
		<layer id="310" name="__module.model.layers.0.self_attn/aten::scaled_dot_product_attention/ScaledDotProductAttention" type="ScaledDotProductAttention" version="opset13">
			<data causal="false" />
			<input>
				<port id="0" precision="FP32">
					<dim>-1</dim>
					<dim>12</dim>
					<dim>-1</dim>
					<dim>128</dim>
				</port>
				<port id="1" precision="FP32">
					<dim>-1</dim>
					<dim>12</dim>
					<dim>-1</dim>
					<dim>128</dim>
				</port>
				<port id="2" precision="FP32">
					<dim>-1</dim>
					<dim>12</dim>
					<dim>-1</dim>
					<dim>128</dim>
				</port>
				<port id="3" precision="FP32">
					<dim>-1</dim>
					<dim>1</dim>
					<dim>-1</dim>
					<dim>-1</dim>
				</port>
			</input>
			<output>
				<port id="4" precision="FP32" names="502,attn_output.1">
					<dim>-1</dim>
					<dim>12</dim>
					<dim>-1</dim>
					<dim>128</dim>
				</port>
			</output>
		</layer>
		<layer id="311" name="__module.model.layers.0.self_attn/aten::transpose/ScatterElementsUpdate_3" type="Const" version="opset1">
			<data element_type="i32" shape="4" offset="1244256" size="16" />
			<output>
				<port id="0" precision="I32">
					<dim>4</dim>
				</port>
			</output>
		</layer>
		<layer id="312" name="__module.model.layers.0.self_attn/aten::transpose/Transpose_3" type="Transpose" version="opset1">
			<input>
				<port id="0" precision="FP32">
					<dim>-1</dim>
					<dim>12</dim>
					<dim>-1</dim>
					<dim>128</dim>
				</port>
				<port id="1" precision="I32">
					<dim>4</dim>
				</port>
			</input>
			<output>
				<port id="2" precision="FP32" names="503">
					<dim>-1</dim>
					<dim>-1</dim>
					<dim>12</dim>
					<dim>128</dim>
				</port>
			</output>
		</layer>
		<layer id="313" name="Constant_310380" type="Const" version="opset1">
			<data element_type="i64" shape="3" offset="2034748" size="24" />
			<output>
				<port id="0" precision="I64">
					<dim>3</dim>
				</port>
			</output>
		</layer>
		<layer id="314" name="__module.model.layers.0.self_attn/aten::view/Reshape_3" type="Reshape" version="opset1">
			<data special_zero="true" />
			<input>
				<port id="0" precision="FP32">
					<dim>-1</dim>
					<dim>-1</dim>
					<dim>12</dim>
					<dim>128</dim>
				</port>
				<port id="1" precision="I64">
					<dim>3</dim>
				</port>
			</input>
			<output>
				<port id="2" precision="FP32" names="506">
					<dim>-1</dim>
					<dim>-1</dim>
					<dim>1536</dim>
				</port>
			</output>
		</layer>
		<layer id="315" name="self.model.layers.0.self_attn.o_proj.weight" type="Const" version="opset1">
			<data element_type="u8" shape="1536, 1536" offset="2034772" size="2359296" />
			<output>
				<port id="0" precision="U8">
					<dim>1536</dim>
					<dim>1536</dim>
				</port>
			</output>
		</layer>
		<layer id="316" name="Convert_335266" type="Convert" version="opset1">
			<data destination_type="f16" />
			<input>
				<port id="0" precision="U8">
					<dim>1536</dim>
					<dim>1536</dim>
				</port>
			</input>
			<output>
				<port id="1" precision="FP16">
					<dim>1536</dim>
					<dim>1536</dim>
				</port>
			</output>
		</layer>
		<layer id="317" name="self.model.layers.0.self_attn.o_proj.weight/zero_point" type="Const" version="opset1">
			<data element_type="u8" shape="1536, 1" offset="4394068" size="1536" />
			<output>
				<port id="0" precision="U8">
					<dim>1536</dim>
					<dim>1</dim>
				</port>
			</output>
		</layer>
		<layer id="318" name="Convert_335269" type="Convert" version="opset1">
			<data destination_type="f16" />
			<input>
				<port id="0" precision="U8">
					<dim>1536</dim>
					<dim>1</dim>
				</port>
			</input>
			<output>
				<port id="1" precision="FP16">
					<dim>1536</dim>
					<dim>1</dim>
				</port>
			</output>
		</layer>
		<layer id="319" name="self.model.layers.0.self_attn.o_proj.weight/zero_point/subtract" type="Subtract" version="opset1">
			<data auto_broadcast="numpy" />
			<input>
				<port id="0" precision="FP16">
					<dim>1536</dim>
					<dim>1536</dim>
				</port>
				<port id="1" precision="FP16">
					<dim>1536</dim>
					<dim>1</dim>
				</port>
			</input>
			<output>
				<port id="2" precision="FP16">
					<dim>1536</dim>
					<dim>1536</dim>
				</port>
			</output>
		</layer>
		<layer id="320" name="self.model.layers.0.self_attn.o_proj.weight/scale" type="Const" version="opset1">
			<data element_type="f16" shape="1536, 1" offset="4395604" size="3072" />
			<output>
				<port id="0" precision="FP16">
					<dim>1536</dim>
					<dim>1</dim>
				</port>
			</output>
		</layer>
		<layer id="321" name="self.model.layers.0.self_attn.o_proj.weight/fq_weights_1" type="Multiply" version="opset1">
			<data auto_broadcast="numpy" />
			<input>
				<port id="0" precision="FP16">
					<dim>1536</dim>
					<dim>1536</dim>
				</port>
				<port id="1" precision="FP16">
					<dim>1536</dim>
					<dim>1</dim>
				</port>
			</input>
			<output>
				<port id="2" precision="FP16">
					<dim>1536</dim>
					<dim>1536</dim>
				</port>
			</output>
		</layer>
		<layer id="322" name="self.model.layers.0.self_attn.o_proj.weight/fq_weights_1/convert" type="Convert" version="opset1">
			<data destination_type="f32" />
			<input>
				<port id="0" precision="FP16">
					<dim>1536</dim>
					<dim>1536</dim>
				</port>
			</input>
			<output>
				<port id="1" precision="FP32">
					<dim>1536</dim>
					<dim>1536</dim>
				</port>
			</output>
		</layer>
		<layer id="323" name="__module.model.layers.0.self_attn.o_proj/aten::linear/MatMul" type="MatMul" version="opset1">
			<data transpose_a="false" transpose_b="true" />
			<input>
				<port id="0" precision="FP32">
					<dim>-1</dim>
					<dim>-1</dim>
					<dim>1536</dim>
				</port>
				<port id="1" precision="FP32">
					<dim>1536</dim>
					<dim>1536</dim>
				</port>
			</input>
			<output>
				<port id="2" precision="FP32" names="508,510,hidden_states.17">
					<dim>-1</dim>
					<dim>-1</dim>
					<dim>1536</dim>
				</port>
			</output>
		</layer>
		<layer id="324" name="__module.model.layers.0/aten::add/Add" type="Add" version="opset1">
			<data auto_broadcast="numpy" />
			<input>
				<port id="0" precision="FP32">
					<dim>-1</dim>
					<dim>-1</dim>
					<dim>-1</dim>
				</port>
				<port id="1" precision="FP32">
					<dim>-1</dim>
					<dim>-1</dim>
					<dim>1536</dim>
				</port>
			</input>
			<output>
				<port id="2" precision="FP32" names="513,515,526,hidden_states.19,hidden_states.21">
					<dim>-1</dim>
					<dim>-1</dim>
					<dim>1536</dim>
				</port>
			</output>
		</layer>
		<layer id="325" name="Constant_303161" type="Const" version="opset1">
			<data element_type="f32" shape="1, 1, 1536" offset="4398676" size="6144" />
			<output>
				<port id="0" precision="FP32">
					<dim>1</dim>
					<dim>1</dim>
					<dim>1536</dim>
				</port>
			</output>
		</layer>
		<layer id="326" name="Constant_303160" type="Const" version="opset1">
			<data element_type="f32" shape="1, 1, 1" offset="12316" size="4" />
			<output>
				<port id="0" precision="FP32">
					<dim>1</dim>
					<dim>1</dim>
					<dim>1</dim>
				</port>
			</output>
		</layer>
		<layer id="327" name="Constant_303158" type="Const" version="opset1">
			<data element_type="f32" shape="1, 1, 1" offset="12320" size="4" />
			<output>
				<port id="0" precision="FP32">
					<dim>1</dim>
					<dim>1</dim>
					<dim>1</dim>
				</port>
			</output>
		</layer>
		<layer id="328" name="__module.model.layers.0.post_attention_layernorm/aten::pow/Power" type="Power" version="opset1">
			<data auto_broadcast="numpy" />
			<input>
				<port id="0" precision="FP32">
					<dim>-1</dim>
					<dim>-1</dim>
					<dim>1536</dim>
				</port>
				<port id="1" precision="FP32">
					<dim>1</dim>
					<dim>1</dim>
					<dim>1</dim>
				</port>
			</input>
			<output>
				<port id="2" precision="FP32" names="516">
					<dim>-1</dim>
					<dim>-1</dim>
					<dim>1536</dim>
				</port>
			</output>
		</layer>
		<layer id="329" name="Constant_125030" type="Const" version="opset1">
			<data element_type="i64" shape="1" offset="12324" size="8" />
			<output>
				<port id="0" precision="I64" names="517">
					<dim>1</dim>
				</port>
			</output>
		</layer>
		<layer id="330" name="__module.model.layers.0.post_attention_layernorm/aten::mean/ReduceMean" type="ReduceMean" version="opset1">
			<data keep_dims="true" />
			<input>
				<port id="0" precision="FP32">
					<dim>-1</dim>
					<dim>-1</dim>
					<dim>1536</dim>
				</port>
				<port id="1" precision="I64">
					<dim>1</dim>
				</port>
			</input>
			<output>
				<port id="2" precision="FP32" names="518,variance.3">
					<dim>-1</dim>
					<dim>-1</dim>
					<dim>1</dim>
				</port>
			</output>
		</layer>
		<layer id="331" name="Constant_303159" type="Const" version="opset1">
			<data element_type="f32" shape="1, 1, 1" offset="12332" size="4" />
			<output>
				<port id="0" precision="FP32">
					<dim>1</dim>
					<dim>1</dim>
					<dim>1</dim>
				</port>
			</output>
		</layer>
		<layer id="332" name="__module.model.layers.0.post_attention_layernorm/aten::add/Add" type="Add" version="opset1">
			<data auto_broadcast="numpy" />
			<input>
				<port id="0" precision="FP32">
					<dim>-1</dim>
					<dim>-1</dim>
					<dim>1</dim>
				</port>
				<port id="1" precision="FP32">
					<dim>1</dim>
					<dim>1</dim>
					<dim>1</dim>
				</port>
			</input>
			<output>
				<port id="2" precision="FP32" names="519">
					<dim>-1</dim>
					<dim>-1</dim>
					<dim>1</dim>
				</port>
			</output>
		</layer>
		<layer id="333" name="__module.model.layers.0.post_attention_layernorm/aten::rsqrt/Sqrt" type="Sqrt" version="opset1">
			<input>
				<port id="0" precision="FP32">
					<dim>-1</dim>
					<dim>-1</dim>
					<dim>1</dim>
				</port>
			</input>
			<output>
				<port id="1" precision="FP32">
					<dim>-1</dim>
					<dim>-1</dim>
					<dim>1</dim>
				</port>
			</output>
		</layer>
		<layer id="334" name="__module.model.layers.0.post_attention_layernorm/aten::rsqrt/Divide" type="Divide" version="opset1">
			<data auto_broadcast="numpy" m_pythondiv="true" />
			<input>
				<port id="0" precision="FP32">
					<dim>1</dim>
					<dim>1</dim>
					<dim>1</dim>
				</port>
				<port id="1" precision="FP32">
					<dim>-1</dim>
					<dim>-1</dim>
					<dim>1</dim>
				</port>
			</input>
			<output>
				<port id="2" precision="FP32" names="520">
					<dim>-1</dim>
					<dim>-1</dim>
					<dim>1</dim>
				</port>
			</output>
		</layer>
		<layer id="335" name="__module.model.layers.0.post_attention_layernorm/aten::mul/Multiply" type="Multiply" version="opset1">
			<data auto_broadcast="numpy" />
			<input>
				<port id="0" precision="FP32">
					<dim>-1</dim>
					<dim>-1</dim>
					<dim>1536</dim>
				</port>
				<port id="1" precision="FP32">
					<dim>-1</dim>
					<dim>-1</dim>
					<dim>1</dim>
				</port>
			</input>
			<output>
				<port id="2" precision="FP32" names="521,522,hidden_states.23,hidden_states.25">
					<dim>-1</dim>
					<dim>-1</dim>
					<dim>1536</dim>
				</port>
			</output>
		</layer>
		<layer id="336" name="__module.model.layers.0.post_attention_layernorm/aten::mul/Multiply_1" type="Multiply" version="opset1">
			<data auto_broadcast="numpy" />
			<input>
				<port id="0" precision="FP32">
					<dim>1</dim>
					<dim>1</dim>
					<dim>1536</dim>
				</port>
				<port id="1" precision="FP32">
					<dim>-1</dim>
					<dim>-1</dim>
					<dim>1536</dim>
				</port>
			</input>
			<output>
				<port id="2" precision="FP32" names="523,525">
					<dim>-1</dim>
					<dim>-1</dim>
					<dim>1536</dim>
				</port>
			</output>
		</layer>
		<layer id="337" name="self.model.layers.0.mlp.gate_proj.weight" type="Const" version="opset1">
			<data element_type="u8" shape="8960, 1536" offset="4404820" size="13762560" />
			<output>
				<port id="0" precision="U8">
					<dim>8960</dim>
					<dim>1536</dim>
				</port>
			</output>
		</layer>
		<layer id="338" name="Convert_334342" type="Convert" version="opset1">
			<data destination_type="f16" />
			<input>
				<port id="0" precision="U8">
					<dim>8960</dim>
					<dim>1536</dim>
				</port>
			</input>
			<output>
				<port id="1" precision="FP16">
					<dim>8960</dim>
					<dim>1536</dim>
				</port>
			</output>
		</layer>
		<layer id="339" name="self.model.layers.0.mlp.gate_proj.weight/zero_point" type="Const" version="opset1">
			<data element_type="u8" shape="8960, 1" offset="18167380" size="8960" />
			<output>
				<port id="0" precision="U8">
					<dim>8960</dim>
					<dim>1</dim>
				</port>
			</output>
		</layer>
		<layer id="340" name="Convert_334345" type="Convert" version="opset1">
			<data destination_type="f16" />
			<input>
				<port id="0" precision="U8">
					<dim>8960</dim>
					<dim>1</dim>
				</port>
			</input>
			<output>
				<port id="1" precision="FP16">
					<dim>8960</dim>
					<dim>1</dim>
				</port>
			</output>
		</layer>
		<layer id="341" name="self.model.layers.0.mlp.gate_proj.weight/zero_point/subtract" type="Subtract" version="opset1">
			<data auto_broadcast="numpy" />
			<input>
				<port id="0" precision="FP16">
					<dim>8960</dim>
					<dim>1536</dim>
				</port>
				<port id="1" precision="FP16">
					<dim>8960</dim>
					<dim>1</dim>
				</port>
			</input>
			<output>
				<port id="2" precision="FP16">
					<dim>8960</dim>
					<dim>1536</dim>
				</port>
			</output>
		</layer>
		<layer id="342" name="self.model.layers.0.mlp.gate_proj.weight/scale" type="Const" version="opset1">
			<data element_type="f16" shape="8960, 1" offset="18176340" size="17920" />
			<output>
				<port id="0" precision="FP16">
					<dim>8960</dim>
					<dim>1</dim>
				</port>
			</output>
		</layer>
		<layer id="343" name="self.model.layers.0.mlp.gate_proj.weight/fq_weights_1" type="Multiply" version="opset1">
			<data auto_broadcast="numpy" />
			<input>
				<port id="0" precision="FP16">
					<dim>8960</dim>
					<dim>1536</dim>
				</port>
				<port id="1" precision="FP16">
					<dim>8960</dim>
					<dim>1</dim>
				</port>
			</input>
			<output>
				<port id="2" precision="FP16">
					<dim>8960</dim>
					<dim>1536</dim>
				</port>
			</output>
		</layer>
		<layer id="344" name="self.model.layers.0.mlp.gate_proj.weight/fq_weights_1/convert" type="Convert" version="opset1">
			<data destination_type="f32" />
			<input>
				<port id="0" precision="FP16">
					<dim>8960</dim>
					<dim>1536</dim>
				</port>
			</input>
			<output>
				<port id="1" precision="FP32">
					<dim>8960</dim>
					<dim>1536</dim>
				</port>
			</output>
		</layer>
		<layer id="345" name="__module.model.layers.0.mlp.gate_proj/aten::linear/MatMul" type="MatMul" version="opset1">
			<data transpose_a="false" transpose_b="true" />
			<input>
				<port id="0" precision="FP32">
					<dim>-1</dim>
					<dim>-1</dim>
					<dim>1536</dim>
				</port>
				<port id="1" precision="FP32">
					<dim>8960</dim>
					<dim>1536</dim>
				</port>
			</input>
			<output>
				<port id="2" precision="FP32" names="531,input.1">
					<dim>-1</dim>
					<dim>-1</dim>
					<dim>8960</dim>
				</port>
			</output>
		</layer>
		<layer id="346" name="__module.model.layers.0.mlp.act_fn/aten::silu/Swish" type="Swish" version="opset4">
			<input>
				<port id="0" precision="FP32">
					<dim>-1</dim>
					<dim>-1</dim>
					<dim>8960</dim>
				</port>
			</input>
			<output>
				<port id="1" precision="FP32" names="532">
					<dim>-1</dim>
					<dim>-1</dim>
					<dim>8960</dim>
				</port>
			</output>
		</layer>
		<layer id="347" name="self.model.layers.0.mlp.up_proj.weight" type="Const" version="opset1">
			<data element_type="u8" shape="8960, 1536" offset="18194260" size="13762560" />
			<output>
				<port id="0" precision="U8">
					<dim>8960</dim>
					<dim>1536</dim>
				</port>
			</output>
		</layer>
		<layer id="348" name="Convert_334331" type="Convert" version="opset1">
			<data destination_type="f16" />
			<input>
				<port id="0" precision="U8">
					<dim>8960</dim>
					<dim>1536</dim>
				</port>
			</input>
			<output>
				<port id="1" precision="FP16">
					<dim>8960</dim>
					<dim>1536</dim>
				</port>
			</output>
		</layer>
		<layer id="349" name="self.model.layers.0.mlp.up_proj.weight/zero_point" type="Const" version="opset1">
			<data element_type="u8" shape="8960, 1" offset="31956820" size="8960" />
			<output>
				<port id="0" precision="U8">
					<dim>8960</dim>
					<dim>1</dim>
				</port>
			</output>
		</layer>
		<layer id="350" name="Convert_334334" type="Convert" version="opset1">
			<data destination_type="f16" />
			<input>
				<port id="0" precision="U8">
					<dim>8960</dim>
					<dim>1</dim>
				</port>
			</input>
			<output>
				<port id="1" precision="FP16">
					<dim>8960</dim>
					<dim>1</dim>
				</port>
			</output>
		</layer>
		<layer id="351" name="self.model.layers.0.mlp.up_proj.weight/zero_point/subtract" type="Subtract" version="opset1">
			<data auto_broadcast="numpy" />
			<input>
				<port id="0" precision="FP16">
					<dim>8960</dim>
					<dim>1536</dim>
				</port>
				<port id="1" precision="FP16">
					<dim>8960</dim>
					<dim>1</dim>
				</port>
			</input>
			<output>
				<port id="2" precision="FP16">
					<dim>8960</dim>
					<dim>1536</dim>
				</port>
			</output>
		</layer>
		<layer id="352" name="self.model.layers.0.mlp.up_proj.weight/scale" type="Const" version="opset1">
			<data element_type="f16" shape="8960, 1" offset="31965780" size="17920" />
			<output>
				<port id="0" precision="FP16">
					<dim>8960</dim>
					<dim>1</dim>
				</port>
			</output>
		</layer>
		<layer id="353" name="self.model.layers.0.mlp.up_proj.weight/fq_weights_1" type="Multiply" version="opset1">
			<data auto_broadcast="numpy" />
			<input>
				<port id="0" precision="FP16">
					<dim>8960</dim>
					<dim>1536</dim>
				</port>
				<port id="1" precision="FP16">
					<dim>8960</dim>
					<dim>1</dim>
				</port>
			</input>
			<output>
				<port id="2" precision="FP16">
					<dim>8960</dim>
					<dim>1536</dim>
				</port>
			</output>
		</layer>
		<layer id="354" name="self.model.layers.0.mlp.up_proj.weight/fq_weights_1/convert" type="Convert" version="opset1">
			<data destination_type="f32" />
			<input>
				<port id="0" precision="FP16">
					<dim>8960</dim>
					<dim>1536</dim>
				</port>
			</input>
			<output>
				<port id="1" precision="FP32">
					<dim>8960</dim>
					<dim>1536</dim>
				</port>
			</output>
		</layer>
		<layer id="355" name="__module.model.layers.0.mlp.up_proj/aten::linear/MatMul" type="MatMul" version="opset1">
			<data transpose_a="false" transpose_b="true" />
			<input>
				<port id="0" precision="FP32">
					<dim>-1</dim>
					<dim>-1</dim>
					<dim>1536</dim>
				</port>
				<port id="1" precision="FP32">
					<dim>8960</dim>
					<dim>1536</dim>
				</port>
			</input>
			<output>
				<port id="2" precision="FP32" names="534">
					<dim>-1</dim>
					<dim>-1</dim>
					<dim>8960</dim>
				</port>
			</output>
		</layer>
		<layer id="356" name="__module.model.layers.0.mlp/aten::mul/Multiply" type="Multiply" version="opset1">
			<data auto_broadcast="numpy" />
			<input>
				<port id="0" precision="FP32">
					<dim>-1</dim>
					<dim>-1</dim>
					<dim>8960</dim>
				</port>
				<port id="1" precision="FP32">
					<dim>-1</dim>
					<dim>-1</dim>
					<dim>8960</dim>
				</port>
			</input>
			<output>
				<port id="2" precision="FP32" names="535">
					<dim>-1</dim>
					<dim>-1</dim>
					<dim>8960</dim>
				</port>
			</output>
		</layer>
		<layer id="357" name="self.model.layers.0.mlp.down_proj.weight" type="Const" version="opset1">
			<data element_type="u4" shape="1536, 70, 128" offset="31983700" size="6881280" />
			<output>
				<port id="0" precision="U4">
					<dim>1536</dim>
					<dim>70</dim>
					<dim>128</dim>
				</port>
			</output>
		</layer>
		<layer id="358" name="Convert_334352" type="Convert" version="opset1">
			<data destination_type="f16" />
			<input>
				<port id="0" precision="U4">
					<dim>1536</dim>
					<dim>70</dim>
					<dim>128</dim>
				</port>
			</input>
			<output>
				<port id="1" precision="FP16">
					<dim>1536</dim>
					<dim>70</dim>
					<dim>128</dim>
				</port>
			</output>
		</layer>
		<layer id="359" name="self.model.layers.0.mlp.down_proj.weight/zero_point" type="Const" version="opset1">
			<data element_type="u4" shape="1536, 70, 1" offset="38864980" size="53760" />
			<output>
				<port id="0" precision="U4">
					<dim>1536</dim>
					<dim>70</dim>
					<dim>1</dim>
				</port>
			</output>
		</layer>
		<layer id="360" name="Convert_334354" type="Convert" version="opset1">
			<data destination_type="f16" />
			<input>
				<port id="0" precision="U4">
					<dim>1536</dim>
					<dim>70</dim>
					<dim>1</dim>
				</port>
			</input>
			<output>
				<port id="1" precision="FP16">
					<dim>1536</dim>
					<dim>70</dim>
					<dim>1</dim>
				</port>
			</output>
		</layer>
		<layer id="361" name="self.model.layers.0.mlp.down_proj.weight/zero_point/subtract" type="Subtract" version="opset1">
			<data auto_broadcast="numpy" />
			<input>
				<port id="0" precision="FP16">
					<dim>1536</dim>
					<dim>70</dim>
					<dim>128</dim>
				</port>
				<port id="1" precision="FP16">
					<dim>1536</dim>
					<dim>70</dim>
					<dim>1</dim>
				</port>
			</input>
			<output>
				<port id="2" precision="FP16">
					<dim>1536</dim>
					<dim>70</dim>
					<dim>128</dim>
				</port>
			</output>
		</layer>
		<layer id="362" name="self.model.layers.0.mlp.down_proj.weight/scale" type="Const" version="opset1">
			<data element_type="f16" shape="1536, 70, 1" offset="38918740" size="215040" />
			<output>
				<port id="0" precision="FP16">
					<dim>1536</dim>
					<dim>70</dim>
					<dim>1</dim>
				</port>
			</output>
		</layer>
		<layer id="363" name="self.model.layers.0.mlp.down_proj.weight/fq_weights_1" type="Multiply" version="opset1">
			<data auto_broadcast="numpy" />
			<input>
				<port id="0" precision="FP16">
					<dim>1536</dim>
					<dim>70</dim>
					<dim>128</dim>
				</port>
				<port id="1" precision="FP16">
					<dim>1536</dim>
					<dim>70</dim>
					<dim>1</dim>
				</port>
			</input>
			<output>
				<port id="2" precision="FP16">
					<dim>1536</dim>
					<dim>70</dim>
					<dim>128</dim>
				</port>
			</output>
		</layer>
		<layer id="364" name="Constant_334359" type="Const" version="opset1">
			<data element_type="i64" shape="2" offset="39133780" size="16" />
			<output>
				<port id="0" precision="I64">
					<dim>2</dim>
				</port>
			</output>
		</layer>
		<layer id="365" name="Reshape_334360" type="Reshape" version="opset1">
			<data special_zero="false" />
			<input>
				<port id="0" precision="FP16">
					<dim>1536</dim>
					<dim>70</dim>
					<dim>128</dim>
				</port>
				<port id="1" precision="I64">
					<dim>2</dim>
				</port>
			</input>
			<output>
				<port id="2" precision="FP16">
					<dim>1536</dim>
					<dim>8960</dim>
				</port>
			</output>
		</layer>
		<layer id="366" name="self.model.layers.0.mlp.down_proj.weight/fq_weights_1/convert" type="Convert" version="opset1">
			<data destination_type="f32" />
			<input>
				<port id="0" precision="FP16">
					<dim>1536</dim>
					<dim>8960</dim>
				</port>
			</input>
			<output>
				<port id="1" precision="FP32">
					<dim>1536</dim>
					<dim>8960</dim>
				</port>
			</output>
		</layer>
		<layer id="367" name="__module.model.layers.0.mlp.down_proj/aten::linear/MatMul" type="MatMul" version="opset1">
			<data transpose_a="false" transpose_b="true" />
			<input>
				<port id="0" precision="FP32">
					<dim>-1</dim>
					<dim>-1</dim>
					<dim>8960</dim>
				</port>
				<port id="1" precision="FP32">
					<dim>1536</dim>
					<dim>8960</dim>
				</port>
			</input>
			<output>
				<port id="2" precision="FP32" names="537,hidden_states.27">
					<dim>-1</dim>
					<dim>-1</dim>
					<dim>1536</dim>
				</port>
			</output>
		</layer>
		<layer id="368" name="__module.model.layers.0/aten::add/Add_1" type="Add" version="opset1">
			<data auto_broadcast="numpy" />
			<input>
				<port id="0" precision="FP32">
					<dim>-1</dim>
					<dim>-1</dim>
					<dim>1536</dim>
				</port>
				<port id="1" precision="FP32">
					<dim>-1</dim>
					<dim>-1</dim>
					<dim>1536</dim>
				</port>
			</input>
			<output>
				<port id="2" precision="FP32" names="538,540,548,559,hidden_states.29,hidden_states.31">
					<dim>-1</dim>
					<dim>-1</dim>
					<dim>1536</dim>
				</port>
			</output>
		</layer>
		<layer id="369" name="Constant_303165" type="Const" version="opset1">
			<data element_type="f32" shape="1, 1, 1536" offset="39133796" size="6144" />
			<output>
				<port id="0" precision="FP32">
					<dim>1</dim>
					<dim>1</dim>
					<dim>1536</dim>
				</port>
			</output>
		</layer>
		<layer id="370" name="Constant_303164" type="Const" version="opset1">
			<data element_type="f32" shape="1, 1, 1" offset="12316" size="4" />
			<output>
				<port id="0" precision="FP32">
					<dim>1</dim>
					<dim>1</dim>
					<dim>1</dim>
				</port>
			</output>
		</layer>
		<layer id="371" name="Constant_303162" type="Const" version="opset1">
			<data element_type="f32" shape="1, 1, 1" offset="12320" size="4" />
			<output>
				<port id="0" precision="FP32">
					<dim>1</dim>
					<dim>1</dim>
					<dim>1</dim>
				</port>
			</output>
		</layer>
		<layer id="372" name="__module.model.layers.1.input_layernorm/aten::pow/Power" type="Power" version="opset1">
			<data auto_broadcast="numpy" />
			<input>
				<port id="0" precision="FP32">
					<dim>-1</dim>
					<dim>-1</dim>
					<dim>1536</dim>
				</port>
				<port id="1" precision="FP32">
					<dim>1</dim>
					<dim>1</dim>
					<dim>1</dim>
				</port>
			</input>
			<output>
				<port id="2" precision="FP32" names="549">
					<dim>-1</dim>
					<dim>-1</dim>
					<dim>1536</dim>
				</port>
			</output>
		</layer>
		<layer id="373" name="Constant_125101" type="Const" version="opset1">
			<data element_type="i64" shape="1" offset="12324" size="8" />
			<output>
				<port id="0" precision="I64" names="550">
					<dim>1</dim>
				</port>
			</output>
		</layer>
		<layer id="374" name="__module.model.layers.1.input_layernorm/aten::mean/ReduceMean" type="ReduceMean" version="opset1">
			<data keep_dims="true" />
			<input>
				<port id="0" precision="FP32">
					<dim>-1</dim>
					<dim>-1</dim>
					<dim>1536</dim>
				</port>
				<port id="1" precision="I64">
					<dim>1</dim>
				</port>
			</input>
			<output>
				<port id="2" precision="FP32" names="551,variance.5">
					<dim>-1</dim>
					<dim>-1</dim>
					<dim>1</dim>
				</port>
			</output>
		</layer>
		<layer id="375" name="Constant_303163" type="Const" version="opset1">
			<data element_type="f32" shape="1, 1, 1" offset="12332" size="4" />
			<output>
				<port id="0" precision="FP32">
					<dim>1</dim>
					<dim>1</dim>
					<dim>1</dim>
				</port>
			</output>
		</layer>
		<layer id="376" name="__module.model.layers.1.input_layernorm/aten::add/Add" type="Add" version="opset1">
			<data auto_broadcast="numpy" />
			<input>
				<port id="0" precision="FP32">
					<dim>-1</dim>
					<dim>-1</dim>
					<dim>1</dim>
				</port>
				<port id="1" precision="FP32">
					<dim>1</dim>
					<dim>1</dim>
					<dim>1</dim>
				</port>
			</input>
			<output>
				<port id="2" precision="FP32" names="552">
					<dim>-1</dim>
					<dim>-1</dim>
					<dim>1</dim>
				</port>
			</output>
		</layer>
		<layer id="377" name="__module.model.layers.1.input_layernorm/aten::rsqrt/Sqrt" type="Sqrt" version="opset1">
			<input>
				<port id="0" precision="FP32">
					<dim>-1</dim>
					<dim>-1</dim>
					<dim>1</dim>
				</port>
			</input>
			<output>
				<port id="1" precision="FP32">
					<dim>-1</dim>
					<dim>-1</dim>
					<dim>1</dim>
				</port>
			</output>
		</layer>
		<layer id="378" name="__module.model.layers.1.input_layernorm/aten::rsqrt/Divide" type="Divide" version="opset1">
			<data auto_broadcast="numpy" m_pythondiv="true" />
			<input>
				<port id="0" precision="FP32">
					<dim>1</dim>
					<dim>1</dim>
					<dim>1</dim>
				</port>
				<port id="1" precision="FP32">
					<dim>-1</dim>
					<dim>-1</dim>
					<dim>1</dim>
				</port>
			</input>
			<output>
				<port id="2" precision="FP32" names="553">
					<dim>-1</dim>
					<dim>-1</dim>
					<dim>1</dim>
				</port>
			</output>
		</layer>
		<layer id="379" name="__module.model.layers.1.input_layernorm/aten::mul/Multiply" type="Multiply" version="opset1">
			<data auto_broadcast="numpy" />
			<input>
				<port id="0" precision="FP32">
					<dim>-1</dim>
					<dim>-1</dim>
					<dim>1536</dim>
				</port>
				<port id="1" precision="FP32">
					<dim>-1</dim>
					<dim>-1</dim>
					<dim>1</dim>
				</port>
			</input>
			<output>
				<port id="2" precision="FP32" names="554,555,hidden_states.33,hidden_states.35">
					<dim>-1</dim>
					<dim>-1</dim>
					<dim>1536</dim>
				</port>
			</output>
		</layer>
		<layer id="380" name="__module.model.layers.1.input_layernorm/aten::mul/Multiply_1" type="Multiply" version="opset1">
			<data auto_broadcast="numpy" />
			<input>
				<port id="0" precision="FP32">
					<dim>1</dim>
					<dim>1</dim>
					<dim>1536</dim>
				</port>
				<port id="1" precision="FP32">
					<dim>-1</dim>
					<dim>-1</dim>
					<dim>1536</dim>
				</port>
			</input>
			<output>
				<port id="2" precision="FP32" names="556,558,hidden_states.37">
					<dim>-1</dim>
					<dim>-1</dim>
					<dim>1536</dim>
				</port>
			</output>
		</layer>
		<layer id="381" name="self.model.layers.1.self_attn.q_proj.weight" type="Const" version="opset1">
			<data element_type="u8" shape="1536, 1536" offset="39139940" size="2359296" />
			<output>
				<port id="0" precision="U8">
					<dim>1536</dim>
					<dim>1536</dim>
				</port>
			</output>
		</layer>
		<layer id="382" name="Convert_335277" type="Convert" version="opset1">
			<data destination_type="f16" />
			<input>
				<port id="0" precision="U8">
					<dim>1536</dim>
					<dim>1536</dim>
				</port>
			</input>
			<output>
				<port id="1" precision="FP16">
					<dim>1536</dim>
					<dim>1536</dim>
				</port>
			</output>
		</layer>
		<layer id="383" name="self.model.layers.1.self_attn.q_proj.weight/zero_point" type="Const" version="opset1">
			<data element_type="u8" shape="1536, 1" offset="41499236" size="1536" />
			<output>
				<port id="0" precision="U8">
					<dim>1536</dim>
					<dim>1</dim>
				</port>
			</output>
		</layer>
		<layer id="384" name="Convert_335280" type="Convert" version="opset1">
			<data destination_type="f16" />
			<input>
				<port id="0" precision="U8">
					<dim>1536</dim>
					<dim>1</dim>
				</port>
			</input>
			<output>
				<port id="1" precision="FP16">
					<dim>1536</dim>
					<dim>1</dim>
				</port>
			</output>
		</layer>
		<layer id="385" name="self.model.layers.1.self_attn.q_proj.weight/zero_point/subtract" type="Subtract" version="opset1">
			<data auto_broadcast="numpy" />
			<input>
				<port id="0" precision="FP16">
					<dim>1536</dim>
					<dim>1536</dim>
				</port>
				<port id="1" precision="FP16">
					<dim>1536</dim>
					<dim>1</dim>
				</port>
			</input>
			<output>
				<port id="2" precision="FP16">
					<dim>1536</dim>
					<dim>1536</dim>
				</port>
			</output>
		</layer>
		<layer id="386" name="self.model.layers.1.self_attn.q_proj.weight/scale" type="Const" version="opset1">
			<data element_type="f16" shape="1536, 1" offset="41500772" size="3072" />
			<output>
				<port id="0" precision="FP16">
					<dim>1536</dim>
					<dim>1</dim>
				</port>
			</output>
		</layer>
		<layer id="387" name="self.model.layers.1.self_attn.q_proj.weight/fq_weights_1" type="Multiply" version="opset1">
			<data auto_broadcast="numpy" />
			<input>
				<port id="0" precision="FP16">
					<dim>1536</dim>
					<dim>1536</dim>
				</port>
				<port id="1" precision="FP16">
					<dim>1536</dim>
					<dim>1</dim>
				</port>
			</input>
			<output>
				<port id="2" precision="FP16">
					<dim>1536</dim>
					<dim>1536</dim>
				</port>
			</output>
		</layer>
		<layer id="388" name="self.model.layers.1.self_attn.q_proj.weight/fq_weights_1/convert" type="Convert" version="opset1">
			<data destination_type="f32" />
			<input>
				<port id="0" precision="FP16">
					<dim>1536</dim>
…
		<edge from-layer="6200" from-port="1" to-layer="6207" to-port="0" />
		<edge from-layer="6201" from-port="0" to-layer="6203" to-port="1" />
		<edge from-layer="6202" from-port="0" to-layer="6203" to-port="2" />
		<edge from-layer="6203" from-port="3" to-layer="6208" to-port="0" />
		<edge from-layer="6204" from-port="0" to-layer="6208" to-port="1" />
		<edge from-layer="6205" from-port="0" to-layer="6207" to-port="1" />
		<edge from-layer="6206" from-port="0" to-layer="6207" to-port="2" />
		<edge from-layer="6207" from-port="3" to-layer="6208" to-port="2" />
		<edge from-layer="6208" from-port="3" to-layer="6209" to-port="1" />
		<edge from-layer="6209" from-port="2" to-layer="6211" to-port="0" />
		<edge from-layer="6210" from-port="0" to-layer="6211" to-port="1" />
		<edge from-layer="6211" from-port="2" to-layer="6263" to-port="1" />
		<edge from-layer="6212" from-port="0" to-layer="6217" to-port="0" />
		<edge from-layer="6213" from-port="0" to-layer="6216" to-port="1" />
		<edge from-layer="6214" from-port="0" to-layer="6216" to-port="2" />
		<edge from-layer="6215" from-port="0" to-layer="6216" to-port="3" />
		<edge from-layer="6216" from-port="4" to-layer="6217" to-port="1" />
		<edge from-layer="6217" from-port="2" to-layer="6218" to-port="0" />
		<edge from-layer="6218" from-port="1" to-layer="6220" to-port="0" />
		<edge from-layer="6219" from-port="0" to-layer="6220" to-port="2" />
		<edge from-layer="6220" from-port="3" to-layer="6236" to-port="0" />
		<edge from-layer="6221" from-port="0" to-layer="6222" to-port="0" />
		<edge from-layer="6222" from-port="1" to-layer="6225" to-port="0" />
		<edge from-layer="6223" from-port="0" to-layer="6224" to-port="0" />
		<edge from-layer="6224" from-port="1" to-layer="6225" to-port="1" />
		<edge from-layer="6225" from-port="2" to-layer="6227" to-port="0" />
		<edge from-layer="6226" from-port="0" to-layer="6227" to-port="1" />
		<edge from-layer="6227" from-port="2" to-layer="6228" to-port="0" />
		<edge from-layer="6228" from-port="1" to-layer="6229" to-port="1" />
		<edge from-layer="6229" from-port="2" to-layer="6231" to-port="0" />
		<edge from-layer="6230" from-port="0" to-layer="6231" to-port="1" />
		<edge from-layer="6231" from-port="2" to-layer="6233" to-port="0" />
		<edge from-layer="6232" from-port="0" to-layer="6233" to-port="1" />
		<edge from-layer="6233" from-port="2" to-layer="6235" to-port="0" />
		<edge from-layer="6234" from-port="0" to-layer="6235" to-port="1" />
		<edge from-layer="6235" from-port="2" to-layer="6236" to-port="1" />
		<edge from-layer="6236" from-port="2" to-layer="6660" to-port="0" />
		<edge from-layer="6236" from-port="2" to-layer="6237" to-port="0" />
		<edge from-layer="6236" from-port="2" to-layer="6238" to-port="0" />
		<edge from-layer="6237" from-port="2" to-layer="6247" to-port="0" />
		<edge from-layer="6238" from-port="1" to-layer="6245" to-port="0" />
		<edge from-layer="6238" from-port="1" to-layer="6241" to-port="0" />
		<edge from-layer="6239" from-port="0" to-layer="6241" to-port="1" />
		<edge from-layer="6240" from-port="0" to-layer="6241" to-port="2" />
		<edge from-layer="6241" from-port="3" to-layer="6246" to-port="1" />
		<edge from-layer="6242" from-port="0" to-layer="6246" to-port="2" />
		<edge from-layer="6243" from-port="0" to-layer="6245" to-port="1" />
		<edge from-layer="6244" from-port="0" to-layer="6245" to-port="2" />
		<edge from-layer="6245" from-port="3" to-layer="6246" to-port="3" />
		<edge from-layer="6246" from-port="4" to-layer="6247" to-port="1" />
		<edge from-layer="6247" from-port="2" to-layer="6249" to-port="0" />
		<edge from-layer="6248" from-port="0" to-layer="6249" to-port="1" />
		<edge from-layer="6249" from-port="2" to-layer="6263" to-port="2" />
		<edge from-layer="6250" from-port="0" to-layer="6262" to-port="1" />
		<edge from-layer="6251" from-port="1" to-layer="6254" to-port="0" />
		<edge from-layer="6252" from-port="0" to-layer="6254" to-port="1" />
		<edge from-layer="6253" from-port="0" to-layer="6254" to-port="2" />
		<edge from-layer="6254" from-port="3" to-layer="6259" to-port="0" />
		<edge from-layer="6255" from-port="1" to-layer="6258" to-port="0" />
		<edge from-layer="6256" from-port="0" to-layer="6258" to-port="1" />
		<edge from-layer="6257" from-port="0" to-layer="6258" to-port="2" />
		<edge from-layer="6258" from-port="3" to-layer="6259" to-port="1" />
		<edge from-layer="6259" from-port="2" to-layer="6262" to-port="2" />
		<edge from-layer="6260" from-port="0" to-layer="6262" to-port="3" />
		<edge from-layer="6261" from-port="0" to-layer="6262" to-port="4" />
		<edge from-layer="6262" from-port="5" to-layer="6263" to-port="3" />
		<edge from-layer="6263" from-port="4" to-layer="6265" to-port="0" />
		<edge from-layer="6264" from-port="0" to-layer="6265" to-port="1" />
		<edge from-layer="6265" from-port="2" to-layer="6267" to-port="0" />
		<edge from-layer="6266" from-port="0" to-layer="6267" to-port="1" />
		<edge from-layer="6267" from-port="2" to-layer="6278" to-port="0" />
		<edge from-layer="6268" from-port="0" to-layer="6269" to-port="0" />
		<edge from-layer="6269" from-port="1" to-layer="6272" to-port="0" />
		<edge from-layer="6270" from-port="0" to-layer="6271" to-port="0" />
		<edge from-layer="6271" from-port="1" to-layer="6272" to-port="1" />
		<edge from-layer="6272" from-port="2" to-layer="6274" to-port="0" />
		<edge from-layer="6273" from-port="0" to-layer="6274" to-port="1" />
		<edge from-layer="6274" from-port="2" to-layer="6276" to-port="0" />
		<edge from-layer="6275" from-port="0" to-layer="6276" to-port="1" />
		<edge from-layer="6276" from-port="2" to-layer="6277" to-port="0" />
		<edge from-layer="6277" from-port="1" to-layer="6278" to-port="1" />
		<edge from-layer="6278" from-port="2" to-layer="6279" to-port="1" />
		<edge from-layer="6279" from-port="2" to-layer="6290" to-port="0" />
		<edge from-layer="6279" from-port="2" to-layer="6283" to-port="0" />
		<edge from-layer="6279" from-port="2" to-layer="6325" to-port="0" />
		<edge from-layer="6280" from-port="0" to-layer="6291" to-port="0" />
		<edge from-layer="6281" from-port="0" to-layer="6289" to-port="0" />
		<edge from-layer="6282" from-port="0" to-layer="6283" to-port="1" />
		<edge from-layer="6283" from-port="2" to-layer="6285" to-port="0" />
		<edge from-layer="6284" from-port="0" to-layer="6285" to-port="1" />
		<edge from-layer="6285" from-port="2" to-layer="6287" to-port="0" />
		<edge from-layer="6286" from-port="0" to-layer="6287" to-port="1" />
		<edge from-layer="6287" from-port="2" to-layer="6288" to-port="0" />
		<edge from-layer="6288" from-port="1" to-layer="6289" to-port="1" />
		<edge from-layer="6289" from-port="2" to-layer="6290" to-port="1" />
		<edge from-layer="6290" from-port="2" to-layer="6291" to-port="1" />
		<edge from-layer="6291" from-port="2" to-layer="6312" to-port="0" />
		<edge from-layer="6291" from-port="2" to-layer="6302" to-port="0" />
		<edge from-layer="6292" from-port="0" to-layer="6293" to-port="0" />
		<edge from-layer="6293" from-port="1" to-layer="6296" to-port="0" />
		<edge from-layer="6294" from-port="0" to-layer="6295" to-port="0" />
		<edge from-layer="6295" from-port="1" to-layer="6296" to-port="1" />
		<edge from-layer="6296" from-port="2" to-layer="6298" to-port="0" />
		<edge from-layer="6297" from-port="0" to-layer="6298" to-port="1" />
		<edge from-layer="6298" from-port="2" to-layer="6300" to-port="0" />
		<edge from-layer="6299" from-port="0" to-layer="6300" to-port="1" />
		<edge from-layer="6300" from-port="2" to-layer="6301" to-port="0" />
		<edge from-layer="6301" from-port="1" to-layer="6302" to-port="1" />
		<edge from-layer="6302" from-port="2" to-layer="6303" to-port="0" />
		<edge from-layer="6303" from-port="1" to-layer="6313" to-port="0" />
		<edge from-layer="6304" from-port="0" to-layer="6305" to-port="0" />
		<edge from-layer="6305" from-port="1" to-layer="6308" to-port="0" />
		<edge from-layer="6306" from-port="0" to-layer="6307" to-port="0" />
		<edge from-layer="6307" from-port="1" to-layer="6308" to-port="1" />
		<edge from-layer="6308" from-port="2" to-layer="6310" to-port="0" />
		<edge from-layer="6309" from-port="0" to-layer="6310" to-port="1" />
		<edge from-layer="6310" from-port="2" to-layer="6311" to-port="0" />
		<edge from-layer="6311" from-port="1" to-layer="6312" to-port="1" />
		<edge from-layer="6312" from-port="2" to-layer="6313" to-port="1" />
		<edge from-layer="6313" from-port="2" to-layer="6324" to-port="0" />
		<edge from-layer="6314" from-port="0" to-layer="6315" to-port="0" />
		<edge from-layer="6315" from-port="1" to-layer="6318" to-port="0" />
		<edge from-layer="6316" from-port="0" to-layer="6317" to-port="0" />
		<edge from-layer="6317" from-port="1" to-layer="6318" to-port="1" />
		<edge from-layer="6318" from-port="2" to-layer="6320" to-port="0" />
		<edge from-layer="6319" from-port="0" to-layer="6320" to-port="1" />
		<edge from-layer="6320" from-port="2" to-layer="6322" to-port="0" />
		<edge from-layer="6321" from-port="0" to-layer="6322" to-port="1" />
		<edge from-layer="6322" from-port="2" to-layer="6323" to-port="0" />
		<edge from-layer="6323" from-port="1" to-layer="6324" to-port="1" />
		<edge from-layer="6324" from-port="2" to-layer="6325" to-port="1" />
		<edge from-layer="6325" from-port="2" to-layer="6329" to-port="0" />
		<edge from-layer="6325" from-port="2" to-layer="6516" to-port="0" />
		<edge from-layer="6325" from-port="2" to-layer="6336" to-port="0" />
		<edge from-layer="6326" from-port="0" to-layer="6337" to-port="0" />
		<edge from-layer="6327" from-port="0" to-layer="6335" to-port="0" />
		<edge from-layer="6328" from-port="0" to-layer="6329" to-port="1" />
		<edge from-layer="6329" from-port="2" to-layer="6331" to-port="0" />
		<edge from-layer="6330" from-port="0" to-layer="6331" to-port="1" />
		<edge from-layer="6331" from-port="2" to-layer="6333" to-port="0" />
		<edge from-layer="6332" from-port="0" to-layer="6333" to-port="1" />
		<edge from-layer="6333" from-port="2" to-layer="6334" to-port="0" />
		<edge from-layer="6334" from-port="1" to-layer="6335" to-port="1" />
		<edge from-layer="6335" from-port="2" to-layer="6336" to-port="1" />
		<edge from-layer="6336" from-port="2" to-layer="6337" to-port="1" />
		<edge from-layer="6337" from-port="2" to-layer="6468" to-port="0" />
		<edge from-layer="6337" from-port="2" to-layer="6346" to-port="0" />
		<edge from-layer="6337" from-port="2" to-layer="6409" to-port="0" />
		<edge from-layer="6338" from-port="0" to-layer="6339" to-port="0" />
		<edge from-layer="6339" from-port="1" to-layer="6342" to-port="0" />
		<edge from-layer="6340" from-port="0" to-layer="6341" to-port="0" />
		<edge from-layer="6341" from-port="1" to-layer="6342" to-port="1" />
		<edge from-layer="6342" from-port="2" to-layer="6344" to-port="0" />
		<edge from-layer="6343" from-port="0" to-layer="6344" to-port="1" />
		<edge from-layer="6344" from-port="2" to-layer="6345" to-port="0" />
		<edge from-layer="6345" from-port="1" to-layer="6346" to-port="1" />
		<edge from-layer="6346" from-port="2" to-layer="6348" to-port="0" />
		<edge from-layer="6347" from-port="0" to-layer="6348" to-port="1" />
		<edge from-layer="6348" from-port="2" to-layer="6350" to-port="0" />
		<edge from-layer="6349" from-port="0" to-layer="6350" to-port="1" />
		<edge from-layer="6350" from-port="2" to-layer="6352" to-port="0" />
		<edge from-layer="6351" from-port="0" to-layer="6352" to-port="1" />
		<edge from-layer="6352" from-port="2" to-layer="6362" to-port="0" />
		<edge from-layer="6352" from-port="2" to-layer="6363" to-port="0" />
		<edge from-layer="6352" from-port="2" to-layer="6373" to-port="0" />
		<edge from-layer="6352" from-port="2" to-layer="6379" to-port="0" />
		<edge from-layer="6353" from-port="0" to-layer="6354" to-port="2" />
		<edge from-layer="6354" from-port="8" to-layer="6359" to-port="0" />
		<edge from-layer="6354" from-port="7" to-layer="6358" to-port="0" />
		<edge from-layer="6354" from-port="6" to-layer="6357" to-port="0" />
		<edge from-layer="6354" from-port="4" to-layer="6355" to-port="0" />
		<edge from-layer="6354" from-port="5" to-layer="6356" to-port="0" />
		<edge from-layer="6355" from-port="3" to-layer="6360" to-port="1" />
		<edge from-layer="6356" from-port="3" to-layer="6360" to-port="2" />
		<edge from-layer="6357" from-port="3" to-layer="6360" to-port="3" />
		<edge from-layer="6358" from-port="3" to-layer="6360" to-port="4" />
		<edge from-layer="6359" from-port="3" to-layer="6360" to-port="5" />
		<edge from-layer="6360" from-port="6" to-layer="6361" to-port="0" />
		<edge from-layer="6361" from-port="2" to-layer="6362" to-port="1" />
		<edge from-layer="6361" from-port="2" to-layer="6416" to-port="1" />
		<edge from-layer="6362" from-port="2" to-layer="6391" to-port="0" />
		<edge from-layer="6363" from-port="1" to-layer="6365" to-port="0" />
		<edge from-layer="6364" from-port="0" to-layer="6365" to-port="2" />
		<edge from-layer="6365" from-port="3" to-layer="6366" to-port="0" />
		<edge from-layer="6366" from-port="2" to-layer="6367" to-port="0" />
		<edge from-layer="6367" from-port="1" to-layer="6369" to-port="0" />
		<edge from-layer="6368" from-port="0" to-layer="6369" to-port="1" />
		<edge from-layer="6369" from-port="2" to-layer="6379" to-port="2" />
		<edge from-layer="6369" from-port="2" to-layer="6373" to-port="1" />
		<edge from-layer="6370" from-port="0" to-layer="6373" to-port="2" />
		<edge from-layer="6371" from-port="0" to-layer="6373" to-port="3" />
		<edge from-layer="6372" from-port="0" to-layer="6373" to-port="4" />
		<edge from-layer="6373" from-port="5" to-layer="6375" to-port="0" />
		<edge from-layer="6374" from-port="0" to-layer="6375" to-port="1" />
		<edge from-layer="6375" from-port="2" to-layer="6380" to-port="0" />
		<edge from-layer="6376" from-port="0" to-layer="6379" to-port="1" />
		<edge from-layer="6377" from-port="0" to-layer="6379" to-port="3" />
		<edge from-layer="6378" from-port="0" to-layer="6379" to-port="4" />
		<edge from-layer="6379" from-port="5" to-layer="6380" to-port="1" />
		<edge from-layer="6380" from-port="2" to-layer="6390" to-port="0" />
		<edge from-layer="6381" from-port="0" to-layer="6382" to-port="2" />
		<edge from-layer="6382" from-port="7" to-layer="6386" to-port="0" />
		<edge from-layer="6382" from-port="8" to-layer="6387" to-port="0" />
		<edge from-layer="6382" from-port="6" to-layer="6385" to-port="0" />
		<edge from-layer="6382" from-port="4" to-layer="6383" to-port="0" />
		<edge from-layer="6382" from-port="5" to-layer="6384" to-port="0" />
		<edge from-layer="6383" from-port="3" to-layer="6388" to-port="1" />
		<edge from-layer="6384" from-port="3" to-layer="6388" to-port="2" />
		<edge from-layer="6385" from-port="3" to-layer="6388" to-port="3" />
		<edge from-layer="6386" from-port="3" to-layer="6388" to-port="4" />
		<edge from-layer="6387" from-port="3" to-layer="6388" to-port="5" />
		<edge from-layer="6388" from-port="6" to-layer="6389" to-port="0" />
		<edge from-layer="6389" from-port="2" to-layer="6390" to-port="1" />
		<edge from-layer="6389" from-port="2" to-layer="6435" to-port="1" />
		<edge from-layer="6390" from-port="2" to-layer="6391" to-port="1" />
		<edge from-layer="6391" from-port="2" to-layer="6502" to-port="0" />
		<edge from-layer="6392" from-port="0" to-layer="6397" to-port="0" />
		<edge from-layer="6393" from-port="0" to-layer="6396" to-port="1" />
		<edge from-layer="6394" from-port="0" to-layer="6396" to-port="2" />
		<edge from-layer="6395" from-port="0" to-layer="6396" to-port="3" />
		<edge from-layer="6396" from-port="4" to-layer="6397" to-port="1" />
		<edge from-layer="6397" from-port="2" to-layer="6398" to-port="0" />
		<edge from-layer="6398" from-port="1" to-layer="6400" to-port="0" />
		<edge from-layer="6399" from-port="0" to-layer="6400" to-port="2" />
		<edge from-layer="6400" from-port="3" to-layer="6490" to-port="0" />
		<edge from-layer="6400" from-port="3" to-layer="6437" to-port="0" />
		<edge from-layer="6401" from-port="0" to-layer="6402" to-port="0" />
		<edge from-layer="6402" from-port="1" to-layer="6405" to-port="0" />
		<edge from-layer="6403" from-port="0" to-layer="6404" to-port="0" />
		<edge from-layer="6404" from-port="1" to-layer="6405" to-port="1" />
		<edge from-layer="6405" from-port="2" to-layer="6407" to-port="0" />
		<edge from-layer="6406" from-port="0" to-layer="6407" to-port="1" />
		<edge from-layer="6407" from-port="2" to-layer="6408" to-port="0" />
		<edge from-layer="6408" from-port="1" to-layer="6409" to-port="1" />
		<edge from-layer="6409" from-port="2" to-layer="6411" to-port="0" />
		<edge from-layer="6410" from-port="0" to-layer="6411" to-port="1" />
		<edge from-layer="6411" from-port="2" to-layer="6413" to-port="0" />
		<edge from-layer="6412" from-port="0" to-layer="6413" to-port="1" />
		<edge from-layer="6413" from-port="2" to-layer="6415" to-port="0" />
		<edge from-layer="6414" from-port="0" to-layer="6415" to-port="1" />
		<edge from-layer="6415" from-port="2" to-layer="6416" to-port="0" />
		<edge from-layer="6415" from-port="2" to-layer="6433" to-port="0" />
		<edge from-layer="6415" from-port="2" to-layer="6417" to-port="0" />
		<edge from-layer="6415" from-port="2" to-layer="6427" to-port="0" />
		<edge from-layer="6416" from-port="2" to-layer="6436" to-port="0" />
		<edge from-layer="6417" from-port="1" to-layer="6419" to-port="0" />
		<edge from-layer="6418" from-port="0" to-layer="6419" to-port="2" />
		<edge from-layer="6419" from-port="3" to-layer="6420" to-port="0" />
		<edge from-layer="6420" from-port="2" to-layer="6421" to-port="0" />
		<edge from-layer="6421" from-port="1" to-layer="6423" to-port="0" />
		<edge from-layer="6422" from-port="0" to-layer="6423" to-port="1" />
		<edge from-layer="6423" from-port="2" to-layer="6427" to-port="1" />
		<edge from-layer="6423" from-port="2" to-layer="6433" to-port="2" />
		<edge from-layer="6424" from-port="0" to-layer="6427" to-port="2" />
		<edge from-layer="6425" from-port="0" to-layer="6427" to-port="3" />
		<edge from-layer="6426" from-port="0" to-layer="6427" to-port="4" />
		<edge from-layer="6427" from-port="5" to-layer="6429" to-port="0" />
		<edge from-layer="6428" from-port="0" to-layer="6429" to-port="1" />
		<edge from-layer="6429" from-port="2" to-layer="6434" to-port="0" />
		<edge from-layer="6430" from-port="0" to-layer="6433" to-port="1" />
		<edge from-layer="6431" from-port="0" to-layer="6433" to-port="3" />
		<edge from-layer="6432" from-port="0" to-layer="6433" to-port="4" />
		<edge from-layer="6433" from-port="5" to-layer="6434" to-port="1" />
		<edge from-layer="6434" from-port="2" to-layer="6435" to-port="0" />
		<edge from-layer="6435" from-port="2" to-layer="6436" to-port="1" />
		<edge from-layer="6436" from-port="2" to-layer="6494" to-port="0" />
		<edge from-layer="6436" from-port="2" to-layer="6437" to-port="1" />
		<edge from-layer="6437" from-port="2" to-layer="6659" to-port="0" />
		<edge from-layer="6437" from-port="2" to-layer="6438" to-port="0" />
		<edge from-layer="6437" from-port="2" to-layer="6439" to-port="0" />
		<edge from-layer="6438" from-port="2" to-layer="6448" to-port="0" />
		<edge from-layer="6439" from-port="1" to-layer="6446" to-port="0" />
		<edge from-layer="6439" from-port="1" to-layer="6442" to-port="0" />
		<edge from-layer="6440" from-port="0" to-layer="6442" to-port="1" />
		<edge from-layer="6441" from-port="0" to-layer="6442" to-port="2" />
		<edge from-layer="6442" from-port="3" to-layer="6447" to-port="0" />
		<edge from-layer="6443" from-port="0" to-layer="6447" to-port="1" />
		<edge from-layer="6444" from-port="0" to-layer="6446" to-port="1" />
		<edge from-layer="6445" from-port="0" to-layer="6446" to-port="2" />
		<edge from-layer="6446" from-port="3" to-layer="6447" to-port="2" />
		<edge from-layer="6447" from-port="3" to-layer="6448" to-port="1" />
		<edge from-layer="6448" from-port="2" to-layer="6450" to-port="0" />
		<edge from-layer="6449" from-port="0" to-layer="6450" to-port="1" />
		<edge from-layer="6450" from-port="2" to-layer="6502" to-port="1" />
		<edge from-layer="6451" from-port="0" to-layer="6456" to-port="0" />
		<edge from-layer="6452" from-port="0" to-layer="6455" to-port="1" />
		<edge from-layer="6453" from-port="0" to-layer="6455" to-port="2" />
		<edge from-layer="6454" from-port="0" to-layer="6455" to-port="3" />
		<edge from-layer="6455" from-port="4" to-layer="6456" to-port="1" />
		<edge from-layer="6456" from-port="2" to-layer="6457" to-port="0" />
		<edge from-layer="6457" from-port="1" to-layer="6459" to-port="0" />
		<edge from-layer="6458" from-port="0" to-layer="6459" to-port="2" />
		<edge from-layer="6459" from-port="3" to-layer="6475" to-port="0" />
		<edge from-layer="6460" from-port="0" to-layer="6461" to-port="0" />
		<edge from-layer="6461" from-port="1" to-layer="6464" to-port="0" />
		<edge from-layer="6462" from-port="0" to-layer="6463" to-port="0" />
		<edge from-layer="6463" from-port="1" to-layer="6464" to-port="1" />
		<edge from-layer="6464" from-port="2" to-layer="6466" to-port="0" />
		<edge from-layer="6465" from-port="0" to-layer="6466" to-port="1" />
		<edge from-layer="6466" from-port="2" to-layer="6467" to-port="0" />
		<edge from-layer="6467" from-port="1" to-layer="6468" to-port="1" />
		<edge from-layer="6468" from-port="2" to-layer="6470" to-port="0" />
		<edge from-layer="6469" from-port="0" to-layer="6470" to-port="1" />
		<edge from-layer="6470" from-port="2" to-layer="6472" to-port="0" />
		<edge from-layer="6471" from-port="0" to-layer="6472" to-port="1" />
		<edge from-layer="6472" from-port="2" to-layer="6474" to-port="0" />
		<edge from-layer="6473" from-port="0" to-layer="6474" to-port="1" />
		<edge from-layer="6474" from-port="2" to-layer="6475" to-port="1" />
		<edge from-layer="6475" from-port="2" to-layer="6658" to-port="0" />
		<edge from-layer="6475" from-port="2" to-layer="6476" to-port="0" />
		<edge from-layer="6475" from-port="2" to-layer="6477" to-port="0" />
		<edge from-layer="6476" from-port="2" to-layer="6486" to-port="0" />
		<edge from-layer="6477" from-port="1" to-layer="6480" to-port="0" />
		<edge from-layer="6477" from-port="1" to-layer="6484" to-port="0" />
		<edge from-layer="6478" from-port="0" to-layer="6480" to-port="1" />
		<edge from-layer="6479" from-port="0" to-layer="6480" to-port="2" />
		<edge from-layer="6480" from-port="3" to-layer="6485" to-port="1" />
		<edge from-layer="6481" from-port="0" to-layer="6485" to-port="2" />
		<edge from-layer="6482" from-port="0" to-layer="6484" to-port="1" />
		<edge from-layer="6483" from-port="0" to-layer="6484" to-port="2" />
		<edge from-layer="6484" from-port="3" to-layer="6485" to-port="3" />
		<edge from-layer="6485" from-port="4" to-layer="6486" to-port="1" />
		<edge from-layer="6486" from-port="2" to-layer="6488" to-port="0" />
		<edge from-layer="6487" from-port="0" to-layer="6488" to-port="1" />
		<edge from-layer="6488" from-port="2" to-layer="6502" to-port="2" />
		<edge from-layer="6489" from-port="0" to-layer="6501" to-port="1" />
		<edge from-layer="6490" from-port="1" to-layer="6493" to-port="0" />
		<edge from-layer="6491" from-port="0" to-layer="6493" to-port="1" />
		<edge from-layer="6492" from-port="0" to-layer="6493" to-port="2" />
		<edge from-layer="6493" from-port="3" to-layer="6498" to-port="0" />
		<edge from-layer="6494" from-port="1" to-layer="6497" to-port="0" />
		<edge from-layer="6495" from-port="0" to-layer="6497" to-port="1" />
		<edge from-layer="6496" from-port="0" to-layer="6497" to-port="2" />
		<edge from-layer="6497" from-port="3" to-layer="6498" to-port="1" />
		<edge from-layer="6498" from-port="2" to-layer="6501" to-port="2" />
		<edge from-layer="6499" from-port="0" to-layer="6501" to-port="3" />
		<edge from-layer="6500" from-port="0" to-layer="6501" to-port="4" />
		<edge from-layer="6501" from-port="5" to-layer="6502" to-port="3" />
		<edge from-layer="6502" from-port="4" to-layer="6504" to-port="0" />
		<edge from-layer="6503" from-port="0" to-layer="6504" to-port="1" />
		<edge from-layer="6504" from-port="2" to-layer="6506" to-port="0" />
		<edge from-layer="6505" from-port="0" to-layer="6506" to-port="1" />
		<edge from-layer="6506" from-port="2" to-layer="6515" to-port="0" />
		<edge from-layer="6507" from-port="0" to-layer="6508" to-port="0" />
		<edge from-layer="6508" from-port="1" to-layer="6511" to-port="0" />
		<edge from-layer="6509" from-port="0" to-layer="6510" to-port="0" />
		<edge from-layer="6510" from-port="1" to-layer="6511" to-port="1" />
		<edge from-layer="6511" from-port="2" to-layer="6513" to-port="0" />
		<edge from-layer="6512" from-port="0" to-layer="6513" to-port="1" />
		<edge from-layer="6513" from-port="2" to-layer="6514" to-port="0" />
		<edge from-layer="6514" from-port="1" to-layer="6515" to-port="1" />
		<edge from-layer="6515" from-port="2" to-layer="6516" to-port="1" />
		<edge from-layer="6516" from-port="2" to-layer="6527" to-port="0" />
		<edge from-layer="6516" from-port="2" to-layer="6520" to-port="0" />
		<edge from-layer="6516" from-port="2" to-layer="6564" to-port="0" />
		<edge from-layer="6517" from-port="0" to-layer="6528" to-port="0" />
		<edge from-layer="6518" from-port="0" to-layer="6526" to-port="0" />
		<edge from-layer="6519" from-port="0" to-layer="6520" to-port="1" />
		<edge from-layer="6520" from-port="2" to-layer="6522" to-port="0" />
		<edge from-layer="6521" from-port="0" to-layer="6522" to-port="1" />
		<edge from-layer="6522" from-port="2" to-layer="6524" to-port="0" />
		<edge from-layer="6523" from-port="0" to-layer="6524" to-port="1" />
		<edge from-layer="6524" from-port="2" to-layer="6525" to-port="0" />
		<edge from-layer="6525" from-port="1" to-layer="6526" to-port="1" />
		<edge from-layer="6526" from-port="2" to-layer="6527" to-port="1" />
		<edge from-layer="6527" from-port="2" to-layer="6528" to-port="1" />
		<edge from-layer="6528" from-port="2" to-layer="6539" to-port="0" />
		<edge from-layer="6528" from-port="2" to-layer="6551" to-port="0" />
		<edge from-layer="6529" from-port="0" to-layer="6530" to-port="0" />
		<edge from-layer="6530" from-port="1" to-layer="6533" to-port="0" />
		<edge from-layer="6531" from-port="0" to-layer="6532" to-port="0" />
		<edge from-layer="6532" from-port="1" to-layer="6533" to-port="1" />
		<edge from-layer="6533" from-port="2" to-layer="6535" to-port="0" />
		<edge from-layer="6534" from-port="0" to-layer="6535" to-port="1" />
		<edge from-layer="6535" from-port="2" to-layer="6537" to-port="0" />
		<edge from-layer="6536" from-port="0" to-layer="6537" to-port="1" />
		<edge from-layer="6537" from-port="2" to-layer="6538" to-port="0" />
		<edge from-layer="6538" from-port="1" to-layer="6539" to-port="1" />
		<edge from-layer="6539" from-port="2" to-layer="6540" to-port="0" />
		<edge from-layer="6540" from-port="1" to-layer="6552" to-port="0" />
		<edge from-layer="6541" from-port="0" to-layer="6542" to-port="0" />
		<edge from-layer="6542" from-port="1" to-layer="6545" to-port="0" />
		<edge from-layer="6543" from-port="0" to-layer="6544" to-port="0" />
		<edge from-layer="6544" from-port="1" to-layer="6545" to-port="1" />
		<edge from-layer="6545" from-port="2" to-layer="6547" to-port="0" />
		<edge from-layer="6546" from-port="0" to-layer="6547" to-port="1" />
		<edge from-layer="6547" from-port="2" to-layer="6549" to-port="0" />
		<edge from-layer="6548" from-port="0" to-layer="6549" to-port="1" />
		<edge from-layer="6549" from-port="2" to-layer="6550" to-port="0" />
		<edge from-layer="6550" from-port="1" to-layer="6551" to-port="1" />
		<edge from-layer="6551" from-port="2" to-layer="6552" to-port="1" />
		<edge from-layer="6552" from-port="2" to-layer="6563" to-port="0" />
		<edge from-layer="6553" from-port="0" to-layer="6554" to-port="0" />
		<edge from-layer="6554" from-port="1" to-layer="6557" to-port="0" />
		<edge from-layer="6555" from-port="0" to-layer="6556" to-port="0" />
		<edge from-layer="6556" from-port="1" to-layer="6557" to-port="1" />
		<edge from-layer="6557" from-port="2" to-layer="6559" to-port="0" />
		<edge from-layer="6558" from-port="0" to-layer="6559" to-port="1" />
		<edge from-layer="6559" from-port="2" to-layer="6561" to-port="0" />
		<edge from-layer="6560" from-port="0" to-layer="6561" to-port="1" />
		<edge from-layer="6561" from-port="2" to-layer="6562" to-port="0" />
		<edge from-layer="6562" from-port="1" to-layer="6563" to-port="1" />
		<edge from-layer="6563" from-port="2" to-layer="6564" to-port="1" />
		<edge from-layer="6564" from-port="2" to-layer="6790" to-port="0" />
		<edge from-layer="6564" from-port="2" to-layer="6574" to-port="0" />
		<edge from-layer="6564" from-port="2" to-layer="6567" to-port="0" />
		<edge from-layer="6565" from-port="0" to-layer="6573" to-port="0" />
		<edge from-layer="6566" from-port="0" to-layer="6567" to-port="1" />
		<edge from-layer="6567" from-port="2" to-layer="6569" to-port="0" />
		<edge from-layer="6568" from-port="0" to-layer="6569" to-port="1" />
		<edge from-layer="6569" from-port="2" to-layer="6571" to-port="0" />
		<edge from-layer="6570" from-port="0" to-layer="6571" to-port="1" />
		<edge from-layer="6571" from-port="2" to-layer="6572" to-port="0" />
		<edge from-layer="6572" from-port="1" to-layer="6573" to-port="1" />
		<edge from-layer="6573" from-port="2" to-layer="6574" to-port="1" />
		<edge from-layer="6574" from-port="2" to-layer="6575" to-port="1" />
		<edge from-layer="6575" from-port="2" to-layer="6610" to-port="0" />
		<edge from-layer="6575" from-port="2" to-layer="6584" to-port="0" />
		<edge from-layer="6575" from-port="2" to-layer="6707" to-port="0" />
		<edge from-layer="6576" from-port="0" to-layer="6577" to-port="0" />
		<edge from-layer="6577" from-port="1" to-layer="6580" to-port="0" />
		<edge from-layer="6578" from-port="0" to-layer="6579" to-port="0" />
		<edge from-layer="6579" from-port="1" to-layer="6580" to-port="1" />
		<edge from-layer="6580" from-port="2" to-layer="6582" to-port="0" />
		<edge from-layer="6581" from-port="0" to-layer="6582" to-port="1" />
		<edge from-layer="6582" from-port="2" to-layer="6583" to-port="0" />
		<edge from-layer="6583" from-port="1" to-layer="6584" to-port="1" />
		<edge from-layer="6584" from-port="2" to-layer="6586" to-port="0" />
		<edge from-layer="6585" from-port="0" to-layer="6586" to-port="1" />
		<edge from-layer="6586" from-port="2" to-layer="6588" to-port="0" />
		<edge from-layer="6587" from-port="0" to-layer="6588" to-port="1" />
		<edge from-layer="6588" from-port="2" to-layer="6590" to-port="0" />
		<edge from-layer="6589" from-port="0" to-layer="6590" to-port="1" />
		<edge from-layer="6590" from-port="2" to-layer="6591" to-port="1" />
		<edge from-layer="6591" from-port="2" to-layer="6749" to-port="0" />
		<edge from-layer="6591" from-port="2" to-layer="6592" to-port="0" />
		<edge from-layer="6591" from-port="2" to-layer="6748" to-port="0" />
		<edge from-layer="6593" from-port="0" to-layer="6598" to-port="0" />
		<edge from-layer="6594" from-port="0" to-layer="6597" to-port="1" />
		<edge from-layer="6595" from-port="0" to-layer="6597" to-port="2" />
		<edge from-layer="6596" from-port="0" to-layer="6597" to-port="3" />
		<edge from-layer="6597" from-port="4" to-layer="6598" to-port="1" />
		<edge from-layer="6598" from-port="2" to-layer="6599" to-port="0" />
		<edge from-layer="6599" from-port="1" to-layer="6601" to-port="0" />
		<edge from-layer="6600" from-port="0" to-layer="6601" to-port="2" />
		<edge from-layer="6601" from-port="3" to-layer="6656" to-port="0" />
		<edge from-layer="6601" from-port="3" to-layer="6762" to-port="0" />
		<edge from-layer="6602" from-port="0" to-layer="6603" to-port="0" />
		<edge from-layer="6603" from-port="1" to-layer="6606" to-port="0" />
		<edge from-layer="6604" from-port="0" to-layer="6605" to-port="0" />
		<edge from-layer="6605" from-port="1" to-layer="6606" to-port="1" />
		<edge from-layer="6606" from-port="2" to-layer="6608" to-port="0" />
		<edge from-layer="6607" from-port="0" to-layer="6608" to-port="1" />
		<edge from-layer="6608" from-port="2" to-layer="6609" to-port="0" />
		<edge from-layer="6609" from-port="1" to-layer="6610" to-port="1" />
		<edge from-layer="6610" from-port="2" to-layer="6612" to-port="0" />
		<edge from-layer="6611" from-port="0" to-layer="6612" to-port="1" />
		<edge from-layer="6612" from-port="2" to-layer="6614" to-port="0" />
		<edge from-layer="6613" from-port="0" to-layer="6614" to-port="1" />
		<edge from-layer="6614" from-port="2" to-layer="6616" to-port="0" />
		<edge from-layer="6615" from-port="0" to-layer="6616" to-port="1" />
		<edge from-layer="6616" from-port="2" to-layer="6643" to-port="0" />
		<edge from-layer="6616" from-port="2" to-layer="6637" to-port="0" />
		<edge from-layer="6616" from-port="2" to-layer="6626" to-port="0" />
		<edge from-layer="6616" from-port="2" to-layer="6627" to-port="0" />
		<edge from-layer="6617" from-port="0" to-layer="6618" to-port="2" />
		<edge from-layer="6618" from-port="7" to-layer="6622" to-port="0" />
		<edge from-layer="6618" from-port="6" to-layer="6621" to-port="0" />
		<edge from-layer="6618" from-port="5" to-layer="6620" to-port="0" />
		<edge from-layer="6618" from-port="8" to-layer="6623" to-port="0" />
		<edge from-layer="6618" from-port="4" to-layer="6619" to-port="0" />
		<edge from-layer="6619" from-port="3" to-layer="6624" to-port="1" />
		<edge from-layer="6620" from-port="3" to-layer="6624" to-port="2" />
		<edge from-layer="6621" from-port="3" to-layer="6624" to-port="3" />
		<edge from-layer="6622" from-port="3" to-layer="6624" to-port="4" />
		<edge from-layer="6623" from-port="3" to-layer="6624" to-port="5" />
		<edge from-layer="6624" from-port="6" to-layer="6625" to-port="0" />
		<edge from-layer="6625" from-port="2" to-layer="6626" to-port="1" />
		<edge from-layer="6625" from-port="2" to-layer="6714" to-port="1" />
		<edge from-layer="6626" from-port="2" to-layer="6655" to-port="0" />
		<edge from-layer="6627" from-port="1" to-layer="6629" to-port="0" />
		<edge from-layer="6628" from-port="0" to-layer="6629" to-port="2" />
		<edge from-layer="6629" from-port="3" to-layer="6630" to-port="0" />
		<edge from-layer="6630" from-port="2" to-layer="6631" to-port="0" />
		<edge from-layer="6631" from-port="1" to-layer="6633" to-port="0" />
		<edge from-layer="6632" from-port="0" to-layer="6633" to-port="1" />
		<edge from-layer="6633" from-port="2" to-layer="6637" to-port="1" />
		<edge from-layer="6633" from-port="2" to-layer="6643" to-port="2" />
		<edge from-layer="6634" from-port="0" to-layer="6637" to-port="2" />
		<edge from-layer="6635" from-port="0" to-layer="6637" to-port="3" />
		<edge from-layer="6636" from-port="0" to-layer="6637" to-port="4" />
		<edge from-layer="6637" from-port="5" to-layer="6639" to-port="0" />
		<edge from-layer="6638" from-port="0" to-layer="6639" to-port="1" />
		<edge from-layer="6639" from-port="2" to-layer="6644" to-port="0" />
		<edge from-layer="6640" from-port="0" to-layer="6643" to-port="1" />
		<edge from-layer="6641" from-port="0" to-layer="6643" to-port="3" />
		<edge from-layer="6642" from-port="0" to-layer="6643" to-port="4" />
		<edge from-layer="6643" from-port="5" to-layer="6644" to-port="1" />
		<edge from-layer="6644" from-port="2" to-layer="6654" to-port="0" />
		<edge from-layer="6645" from-port="0" to-layer="6646" to-port="2" />
		<edge from-layer="6646" from-port="8" to-layer="6651" to-port="0" />
		<edge from-layer="6646" from-port="6" to-layer="6649" to-port="0" />
		<edge from-layer="6646" from-port="5" to-layer="6648" to-port="0" />
		<edge from-layer="6646" from-port="7" to-layer="6650" to-port="0" />
		<edge from-layer="6646" from-port="4" to-layer="6647" to-port="0" />
		<edge from-layer="6647" from-port="3" to-layer="6652" to-port="1" />
		<edge from-layer="6648" from-port="3" to-layer="6652" to-port="2" />
		<edge from-layer="6649" from-port="3" to-layer="6652" to-port="3" />
		<edge from-layer="6650" from-port="3" to-layer="6652" to-port="4" />
		<edge from-layer="6651" from-port="3" to-layer="6652" to-port="5" />
		<edge from-layer="6652" from-port="6" to-layer="6653" to-port="0" />
		<edge from-layer="6653" from-port="2" to-layer="6654" to-port="1" />
		<edge from-layer="6653" from-port="2" to-layer="6733" to-port="1" />
		<edge from-layer="6654" from-port="2" to-layer="6655" to-port="1" />
		<edge from-layer="6655" from-port="2" to-layer="6656" to-port="1" />
		<edge from-layer="6655" from-port="2" to-layer="6766" to-port="0" />
		<edge from-layer="6656" from-port="2" to-layer="6736" to-port="0" />
		<edge from-layer="6656" from-port="2" to-layer="6735" to-port="0" />
		<edge from-layer="6656" from-port="2" to-layer="6657" to-port="0" />
		<edge from-layer="6698" from-port="0" to-layer="6847" to-port="0" />
		<edge from-layer="6699" from-port="0" to-layer="6700" to-port="0" />
		<edge from-layer="6700" from-port="1" to-layer="6703" to-port="0" />
		<edge from-layer="6701" from-port="0" to-layer="6702" to-port="0" />
		<edge from-layer="6702" from-port="1" to-layer="6703" to-port="1" />
		<edge from-layer="6703" from-port="2" to-layer="6705" to-port="0" />
		<edge from-layer="6704" from-port="0" to-layer="6705" to-port="1" />
		<edge from-layer="6705" from-port="2" to-layer="6706" to-port="0" />
		<edge from-layer="6706" from-port="1" to-layer="6707" to-port="1" />
		<edge from-layer="6707" from-port="2" to-layer="6709" to-port="0" />
		<edge from-layer="6708" from-port="0" to-layer="6709" to-port="1" />
		<edge from-layer="6709" from-port="2" to-layer="6711" to-port="0" />
		<edge from-layer="6710" from-port="0" to-layer="6711" to-port="1" />
		<edge from-layer="6711" from-port="2" to-layer="6713" to-port="0" />
		<edge from-layer="6712" from-port="0" to-layer="6713" to-port="1" />
		<edge from-layer="6713" from-port="2" to-layer="6714" to-port="0" />
		<edge from-layer="6713" from-port="2" to-layer="6731" to-port="0" />
		<edge from-layer="6713" from-port="2" to-layer="6715" to-port="0" />
		<edge from-layer="6713" from-port="2" to-layer="6725" to-port="0" />
		<edge from-layer="6714" from-port="2" to-layer="6734" to-port="0" />
		<edge from-layer="6715" from-port="1" to-layer="6717" to-port="0" />
		<edge from-layer="6716" from-port="0" to-layer="6717" to-port="2" />
		<edge from-layer="6717" from-port="3" to-layer="6718" to-port="0" />
		<edge from-layer="6718" from-port="2" to-layer="6719" to-port="0" />
		<edge from-layer="6719" from-port="1" to-layer="6721" to-port="0" />
		<edge from-layer="6720" from-port="0" to-layer="6721" to-port="1" />
		<edge from-layer="6721" from-port="2" to-layer="6731" to-port="2" />
		<edge from-layer="6721" from-port="2" to-layer="6725" to-port="1" />
		<edge from-layer="6722" from-port="0" to-layer="6725" to-port="2" />
		<edge from-layer="6723" from-port="0" to-layer="6725" to-port="3" />
		<edge from-layer="6724" from-port="0" to-layer="6725" to-port="4" />
		<edge from-layer="6725" from-port="5" to-layer="6727" to-port="0" />
		<edge from-layer="6726" from-port="0" to-layer="6727" to-port="1" />
		<edge from-layer="6727" from-port="2" to-layer="6732" to-port="0" />
		<edge from-layer="6728" from-port="0" to-layer="6731" to-port="1" />
		<edge from-layer="6729" from-port="0" to-layer="6731" to-port="3" />
		<edge from-layer="6730" from-port="0" to-layer="6731" to-port="4" />
		<edge from-layer="6731" from-port="5" to-layer="6732" to-port="1" />
		<edge from-layer="6732" from-port="2" to-layer="6733" to-port="0" />
		<edge from-layer="6733" from-port="2" to-layer="6734" to-port="1" />
		<edge from-layer="6734" from-port="2" to-layer="6774" to-port="0" />
		<edge from-layer="6735" from-port="2" to-layer="6745" to-port="0" />
		<edge from-layer="6736" from-port="1" to-layer="6743" to-port="0" />
		<edge from-layer="6736" from-port="1" to-layer="6739" to-port="0" />
		<edge from-layer="6737" from-port="0" to-layer="6739" to-port="1" />
		<edge from-layer="6738" from-port="0" to-layer="6739" to-port="2" />
		<edge from-layer="6739" from-port="3" to-layer="6744" to-port="0" />
		<edge from-layer="6740" from-port="0" to-layer="6744" to-port="1" />
		<edge from-layer="6741" from-port="0" to-layer="6743" to-port="1" />
		<edge from-layer="6742" from-port="0" to-layer="6743" to-port="2" />
		<edge from-layer="6743" from-port="3" to-layer="6744" to-port="2" />
		<edge from-layer="6744" from-port="3" to-layer="6745" to-port="1" />
		<edge from-layer="6745" from-port="2" to-layer="6747" to-port="0" />
		<edge from-layer="6746" from-port="0" to-layer="6747" to-port="1" />
		<edge from-layer="6747" from-port="2" to-layer="6774" to-port="1" />
		<edge from-layer="6748" from-port="2" to-layer="6758" to-port="0" />
		<edge from-layer="6749" from-port="1" to-layer="6756" to-port="0" />
		<edge from-layer="6749" from-port="1" to-layer="6752" to-port="0" />
		<edge from-layer="6750" from-port="0" to-layer="6752" to-port="1" />
		<edge from-layer="6751" from-port="0" to-layer="6752" to-port="2" />
		<edge from-layer="6752" from-port="3" to-layer="6757" to-port="1" />
		<edge from-layer="6753" from-port="0" to-layer="6757" to-port="2" />
		<edge from-layer="6754" from-port="0" to-layer="6756" to-port="1" />
		<edge from-layer="6755" from-port="0" to-layer="6756" to-port="2" />
		<edge from-layer="6756" from-port="3" to-layer="6757" to-port="3" />
		<edge from-layer="6757" from-port="4" to-layer="6758" to-port="1" />
		<edge from-layer="6758" from-port="2" to-layer="6760" to-port="0" />
		<edge from-layer="6759" from-port="0" to-layer="6760" to-port="1" />
		<edge from-layer="6760" from-port="2" to-layer="6774" to-port="2" />
		<edge from-layer="6761" from-port="0" to-layer="6773" to-port="1" />
		<edge from-layer="6762" from-port="1" to-layer="6765" to-port="0" />
		<edge from-layer="6763" from-port="0" to-layer="6765" to-port="1" />
		<edge from-layer="6764" from-port="0" to-layer="6765" to-port="2" />
		<edge from-layer="6765" from-port="3" to-layer="6770" to-port="0" />
		<edge from-layer="6766" from-port="1" to-layer="6769" to-port="0" />
		<edge from-layer="6767" from-port="0" to-layer="6769" to-port="1" />
		<edge from-layer="6768" from-port="0" to-layer="6769" to-port="2" />
		<edge from-layer="6769" from-port="3" to-layer="6770" to-port="1" />
		<edge from-layer="6770" from-port="2" to-layer="6773" to-port="2" />
		<edge from-layer="6771" from-port="0" to-layer="6773" to-port="3" />
		<edge from-layer="6772" from-port="0" to-layer="6773" to-port="4" />
		<edge from-layer="6773" from-port="5" to-layer="6774" to-port="3" />
		<edge from-layer="6774" from-port="4" to-layer="6776" to-port="0" />
		<edge from-layer="6775" from-port="0" to-layer="6776" to-port="1" />
		<edge from-layer="6776" from-port="2" to-layer="6778" to-port="0" />
		<edge from-layer="6777" from-port="0" to-layer="6778" to-port="1" />
		<edge from-layer="6778" from-port="2" to-layer="6789" to-port="0" />
		<edge from-layer="6779" from-port="0" to-layer="6780" to-port="0" />
		<edge from-layer="6780" from-port="1" to-layer="6783" to-port="0" />
		<edge from-layer="6781" from-port="0" to-layer="6782" to-port="0" />
		<edge from-layer="6782" from-port="1" to-layer="6783" to-port="1" />
		<edge from-layer="6783" from-port="2" to-layer="6785" to-port="0" />
		<edge from-layer="6784" from-port="0" to-layer="6785" to-port="1" />
		<edge from-layer="6785" from-port="2" to-layer="6787" to-port="0" />
		<edge from-layer="6786" from-port="0" to-layer="6787" to-port="1" />
		<edge from-layer="6787" from-port="2" to-layer="6788" to-port="0" />
		<edge from-layer="6788" from-port="1" to-layer="6789" to-port="1" />
		<edge from-layer="6789" from-port="2" to-layer="6790" to-port="1" />
		<edge from-layer="6790" from-port="2" to-layer="6794" to-port="0" />
		<edge from-layer="6790" from-port="2" to-layer="6836" to-port="0" />
		<edge from-layer="6790" from-port="2" to-layer="6801" to-port="0" />
		<edge from-layer="6791" from-port="0" to-layer="6802" to-port="0" />
		<edge from-layer="6792" from-port="0" to-layer="6800" to-port="0" />
		<edge from-layer="6793" from-port="0" to-layer="6794" to-port="1" />
		<edge from-layer="6794" from-port="2" to-layer="6796" to-port="0" />
		<edge from-layer="6795" from-port="0" to-layer="6796" to-port="1" />
		<edge from-layer="6796" from-port="2" to-layer="6798" to-port="0" />
		<edge from-layer="6797" from-port="0" to-layer="6798" to-port="1" />
		<edge from-layer="6798" from-port="2" to-layer="6799" to-port="0" />
		<edge from-layer="6799" from-port="1" to-layer="6800" to-port="1" />
		<edge from-layer="6800" from-port="2" to-layer="6801" to-port="1" />
		<edge from-layer="6801" from-port="2" to-layer="6802" to-port="1" />
		<edge from-layer="6802" from-port="2" to-layer="6823" to-port="0" />
		<edge from-layer="6802" from-port="2" to-layer="6811" to-port="0" />
		<edge from-layer="6803" from-port="0" to-layer="6804" to-port="0" />
		<edge from-layer="6804" from-port="1" to-layer="6807" to-port="0" />
		<edge from-layer="6805" from-port="0" to-layer="6806" to-port="0" />
		<edge from-layer="6806" from-port="1" to-layer="6807" to-port="1" />
		<edge from-layer="6807" from-port="2" to-layer="6809" to-port="0" />
		<edge from-layer="6808" from-port="0" to-layer="6809" to-port="1" />
		<edge from-layer="6809" from-port="2" to-layer="6810" to-port="0" />
		<edge from-layer="6810" from-port="1" to-layer="6811" to-port="1" />
		<edge from-layer="6811" from-port="2" to-layer="6812" to-port="0" />
		<edge from-layer="6812" from-port="1" to-layer="6824" to-port="0" />
		<edge from-layer="6813" from-port="0" to-layer="6814" to-port="0" />
		<edge from-layer="6814" from-port="1" to-layer="6817" to-port="0" />
		<edge from-layer="6815" from-port="0" to-layer="6816" to-port="0" />
		<edge from-layer="6816" from-port="1" to-layer="6817" to-port="1" />
		<edge from-layer="6817" from-port="2" to-layer="6819" to-port="0" />
		<edge from-layer="6818" from-port="0" to-layer="6819" to-port="1" />
		<edge from-layer="6819" from-port="2" to-layer="6821" to-port="0" />
		<edge from-layer="6820" from-port="0" to-layer="6821" to-port="1" />
		<edge from-layer="6821" from-port="2" to-layer="6822" to-port="0" />
		<edge from-layer="6822" from-port="1" to-layer="6823" to-port="1" />
		<edge from-layer="6823" from-port="2" to-layer="6824" to-port="1" />
		<edge from-layer="6824" from-port="2" to-layer="6835" to-port="0" />
		<edge from-layer="6825" from-port="0" to-layer="6826" to-port="0" />
		<edge from-layer="6826" from-port="1" to-layer="6829" to-port="0" />
		<edge from-layer="6827" from-port="0" to-layer="6828" to-port="0" />
		<edge from-layer="6828" from-port="1" to-layer="6829" to-port="1" />
		<edge from-layer="6829" from-port="2" to-layer="6831" to-port="0" />
		<edge from-layer="6830" from-port="0" to-layer="6831" to-port="1" />
		<edge from-layer="6831" from-port="2" to-layer="6833" to-port="0" />
		<edge from-layer="6832" from-port="0" to-layer="6833" to-port="1" />
		<edge from-layer="6833" from-port="2" to-layer="6834" to-port="0" />
		<edge from-layer="6834" from-port="1" to-layer="6835" to-port="1" />
		<edge from-layer="6835" from-port="2" to-layer="6836" to-port="1" />
		<edge from-layer="6836" from-port="2" to-layer="6846" to-port="0" />
		<edge from-layer="6836" from-port="2" to-layer="6839" to-port="0" />
		<edge from-layer="6837" from-port="0" to-layer="6845" to-port="0" />
		<edge from-layer="6838" from-port="0" to-layer="6839" to-port="1" />
		<edge from-layer="6839" from-port="2" to-layer="6841" to-port="0" />
		<edge from-layer="6840" from-port="0" to-layer="6841" to-port="1" />
		<edge from-layer="6841" from-port="2" to-layer="6843" to-port="0" />
		<edge from-layer="6842" from-port="0" to-layer="6843" to-port="1" />
		<edge from-layer="6843" from-port="2" to-layer="6844" to-port="0" />
		<edge from-layer="6844" from-port="1" to-layer="6845" to-port="1" />
		<edge from-layer="6845" from-port="2" to-layer="6846" to-port="1" />
		<edge from-layer="6846" from-port="2" to-layer="6847" to-port="1" />
		<edge from-layer="6847" from-port="2" to-layer="6856" to-port="0" />
		<edge from-layer="6848" from-port="0" to-layer="6849" to-port="0" />
		<edge from-layer="6849" from-port="1" to-layer="6852" to-port="0" />
		<edge from-layer="6850" from-port="0" to-layer="6851" to-port="0" />
		<edge from-layer="6851" from-port="1" to-layer="6852" to-port="1" />
		<edge from-layer="6852" from-port="2" to-layer="6854" to-port="0" />
		<edge from-layer="6853" from-port="0" to-layer="6854" to-port="1" />
		<edge from-layer="6854" from-port="2" to-layer="6855" to-port="0" />
		<edge from-layer="6855" from-port="1" to-layer="6856" to-port="1" />
		<edge from-layer="6856" from-port="2" to-layer="6857" to-port="0" />
	</edges>
	<rt_info>
		<Runtime_version value="2024.4.0-16579-c3152d32c9c-releases/2024/4" />
		<conversion_parameters>
			<framework value="pytorch" />
			<is_python_object value="True" />
		</conversion_parameters>
		<nncf>
			<friendly_names_were_updated value="True" />
			<weight_compression>
				<advanced_parameters value="{'awq_params': {'subset_size': 32, 'percent_to_apply': 0.002, 'alpha_min': 0.0, 'alpha_max': 1.0, 'steps': 100}, 'scale_estimation_params': {'subset_size': 64, 'initial_steps': 5, 'scale_steps': 5, 'weight_penalty': -1.0}, 'gptq_params': {'damp_percent': 0.1, 'block_size': 128, 'subset_size': 128}, 'lora_correction_params': {'adapter_rank': 8, 'num_iterations': 3, 'apply_regularization': True, 'subset_size': 128, 'use_int8_adapters': True}}" />
				<all_layers value="False" />
				<awq value="False" />
				<gptq value="False" />
				<group_size value="128" />
				<ignored_scope value="[]" />
				<lora_correction value="False" />
				<mode value="int4_asym" />
				<ratio value="0.6" />
				<scale_estimation value="False" />
				<sensitivity_metric value="weight_quantization_error" />
			</weight_compression>
		</nncf>
	</rt_info>
</net>
