<?xml version="1.0"?>
<net name="Model0" version="11">
	<layers>
		<layer id="0" name="input_ids" type="Parameter" version="opset1">
			<data shape="?,?" element_type="i32" />
			<output>
				<port id="0" precision="I32" names="input_ids">
					<dim>-1</dim>
					<dim>-1</dim>
				</port>
			</output>
		</layer>
		<layer id="1" name="self.text_model.embeddings.token_embedding.weight_compressed" type="Const" version="opset1">
			<data element_type="u8" shape="49408, 768" offset="0" size="37945344" />
			<output>
				<port id="0" precision="U8">
					<dim>49408</dim>
					<dim>768</dim>
				</port>
			</output>
		</layer>
		<layer id="2" name="Convert_764716" type="Convert" version="opset1">
			<data destination_type="f16" />
			<input>
				<port id="0" precision="U8">
					<dim>49408</dim>
					<dim>768</dim>
				</port>
			</input>
			<output>
				<port id="1" precision="FP16">
					<dim>49408</dim>
					<dim>768</dim>
				</port>
			</output>
		</layer>
		<layer id="3" name="self.text_model.embeddings.token_embedding.weight_compressed/zero_point" type="Const" version="opset1">
			<data element_type="u8" shape="49408, 1" offset="37945344" size="49408" />
			<output>
				<port id="0" precision="U8">
					<dim>49408</dim>
					<dim>1</dim>
				</port>
			</output>
		</layer>
		<layer id="4" name="Convert_764719" type="Convert" version="opset1">
			<data destination_type="f16" />
			<input>
				<port id="0" precision="U8">
					<dim>49408</dim>
					<dim>1</dim>
				</port>
			</input>
			<output>
				<port id="1" precision="FP16">
					<dim>49408</dim>
					<dim>1</dim>
				</port>
			</output>
		</layer>
		<layer id="5" name="self.text_model.embeddings.token_embedding.weight_compressed/zero_point/subtract" type="Subtract" version="opset1">
			<data auto_broadcast="numpy" />
			<input>
				<port id="0" precision="FP16">
					<dim>49408</dim>
					<dim>768</dim>
				</port>
				<port id="1" precision="FP16">
					<dim>49408</dim>
					<dim>1</dim>
				</port>
			</input>
			<output>
				<port id="2" precision="FP16">
					<dim>49408</dim>
					<dim>768</dim>
				</port>
			</output>
		</layer>
		<layer id="6" name="self.text_model.embeddings.token_embedding.weight_compressed/scale" type="Const" version="opset1">
			<data element_type="f16" shape="49408, 1" offset="37994752" size="98816" />
			<output>
				<port id="0" precision="FP16">
					<dim>49408</dim>
					<dim>1</dim>
				</port>
			</output>
		</layer>
		<layer id="7" name="self.text_model.embeddings.token_embedding.weight_compressed/fq_weights_0" type="Multiply" version="opset1">
			<data auto_broadcast="numpy" />
			<input>
				<port id="0" precision="FP16">
					<dim>49408</dim>
					<dim>768</dim>
				</port>
				<port id="1" precision="FP16">
					<dim>49408</dim>
					<dim>1</dim>
				</port>
			</input>
			<output>
				<port id="2" precision="FP16">
					<dim>49408</dim>
					<dim>768</dim>
				</port>
			</output>
		</layer>
		<layer id="8" name="self.text_model.embeddings.token_embedding.weight" type="Convert" version="opset1">
			<data destination_type="f32" />
			<rt_info>
				<attribute name="decompression" version="0" />
			</rt_info>
			<input>
				<port id="0" precision="FP16">
					<dim>49408</dim>
					<dim>768</dim>
				</port>
			</input>
			<output>
				<port id="1" precision="FP32">
					<dim>49408</dim>
					<dim>768</dim>
				</port>
			</output>
		</layer>
		<layer id="9" name="__module.text_model/prim::ListConstruct/Reshape" type="Const" version="opset1">
			<data element_type="i64" shape="1" offset="38093568" size="8" />
			<rt_info>
				<attribute name="precise" version="0" />
			</rt_info>
			<output>
				<port id="0" precision="I64">
					<dim>1</dim>
				</port>
			</output>
		</layer>
		<layer id="10" name="__module.text_model/aten::size/ShapeOf_3" type="ShapeOf" version="opset3">
			<data output_type="i64" />
			<input>
				<port id="0" precision="I32">
					<dim>-1</dim>
					<dim>-1</dim>
				</port>
			</input>
			<output>
				<port id="1" precision="I64">
					<dim>2</dim>
				</port>
			</output>
		</layer>
		<layer id="11" name="27" type="Const" version="opset1">
			<data element_type="i64" shape="" offset="38093576" size="8" />
			<rt_info>
				<attribute name="precise" version="0" />
			</rt_info>
			<output>
				<port id="0" precision="I64" names="27" />
			</output>
		</layer>
		<layer id="12" name="__module.text_model/aten::size/Constant" type="Const" version="opset1">
			<data element_type="i32" shape="" offset="38093584" size="4" />
			<rt_info>
				<attribute name="precise" version="0" />
			</rt_info>
			<output>
				<port id="0" precision="I32" />
			</output>
		</layer>
		<layer id="13" name="__module.text_model/aten::size/Gather" type="Gather" version="opset8">
			<data batch_dims="0" />
			<input>
				<port id="0" precision="I64">
					<dim>2</dim>
				</port>
				<port id="1" precision="I64" />
				<port id="2" precision="I32" />
			</input>
			<output>
				<port id="3" precision="I64" names="33,48,key_value_length" />
			</output>
		</layer>
		<layer id="14" name="Constant_35342" type="Const" version="opset1">
			<data element_type="i64" shape="1" offset="38093568" size="8" />
			<rt_info>
				<attribute name="precise" version="0" />
			</rt_info>
			<output>
				<port id="0" precision="I64">
					<dim>1</dim>
				</port>
			</output>
		</layer>
		<layer id="15" name="__module.text_model/prim::ListConstruct/Reshape_0" type="Reshape" version="opset1">
			<data special_zero="false" />
			<input>
				<port id="0" precision="I64" />
				<port id="1" precision="I64">
					<dim>1</dim>
				</port>
			</input>
			<output>
				<port id="2" precision="I64">
					<dim>1</dim>
				</port>
			</output>
		</layer>
		<layer id="16" name="__module.text_model/prim::ListConstruct/Concat" type="Concat" version="opset1">
			<data axis="0" />
			<input>
				<port id="0" precision="I64">
					<dim>1</dim>
				</port>
				<port id="1" precision="I64">
					<dim>1</dim>
				</port>
			</input>
			<output>
				<port id="2" precision="I64" names="35">
					<dim>2</dim>
				</port>
			</output>
		</layer>
		<layer id="17" name="__module.text_model/aten::view/Reshape" type="Reshape" version="opset1">
			<data special_zero="false" />
			<input>
				<port id="0" precision="I32">
					<dim>-1</dim>
					<dim>-1</dim>
				</port>
				<port id="1" precision="I64">
					<dim>2</dim>
				</port>
			</input>
			<output>
				<port id="2" precision="I32" names="1131,36,input_ids,input_ids.3">
					<dim>-1</dim>
					<dim>-1</dim>
				</port>
			</output>
		</layer>
		<layer id="18" name="__module.text_model.embeddings.token_embedding/aten::embedding/Constant" type="Const" version="opset1">
			<data element_type="i32" shape="" offset="38093584" size="4" />
			<output>
				<port id="0" precision="I32" />
			</output>
		</layer>
		<layer id="19" name="__module.text_model.embeddings.token_embedding/aten::embedding/Gather" type="Gather" version="opset8">
			<data batch_dims="0" />
			<input>
				<port id="0" precision="FP32">
					<dim>49408</dim>
					<dim>768</dim>
				</port>
				<port id="1" precision="I32">
					<dim>-1</dim>
					<dim>-1</dim>
				</port>
				<port id="2" precision="I32" />
			</input>
			<output>
				<port id="3" precision="FP32" names="44,inputs_embeds">
					<dim>-1</dim>
					<dim>-1</dim>
					<dim>768</dim>
				</port>
			</output>
		</layer>
		<layer id="20" name="self.text_model.embeddings.position_embedding.weight_compressed" type="Const" version="opset1">
			<data element_type="u8" shape="77, 768" offset="38093588" size="59136" />
			<output>
				<port id="0" precision="U8">
					<dim>77</dim>
					<dim>768</dim>
				</port>
			</output>
		</layer>
		<layer id="21" name="Convert_764706" type="Convert" version="opset1">
			<data destination_type="f16" />
			<input>
				<port id="0" precision="U8">
					<dim>77</dim>
					<dim>768</dim>
				</port>
			</input>
			<output>
				<port id="1" precision="FP16">
					<dim>77</dim>
					<dim>768</dim>
				</port>
			</output>
		</layer>
		<layer id="22" name="self.text_model.embeddings.position_embedding.weight_compressed/zero_point" type="Const" version="opset1">
			<data element_type="u8" shape="77, 1" offset="38152724" size="77" />
			<output>
				<port id="0" precision="U8">
					<dim>77</dim>
					<dim>1</dim>
				</port>
			</output>
		</layer>
		<layer id="23" name="Convert_764709" type="Convert" version="opset1">
			<data destination_type="f16" />
			<input>
				<port id="0" precision="U8">
					<dim>77</dim>
					<dim>1</dim>
				</port>
			</input>
			<output>
				<port id="1" precision="FP16">
					<dim>77</dim>
					<dim>1</dim>
				</port>
			</output>
		</layer>
		<layer id="24" name="self.text_model.embeddings.position_embedding.weight_compressed/zero_point/subtract" type="Subtract" version="opset1">
			<data auto_broadcast="numpy" />
			<input>
				<port id="0" precision="FP16">
					<dim>77</dim>
					<dim>768</dim>
				</port>
				<port id="1" precision="FP16">
					<dim>77</dim>
					<dim>1</dim>
				</port>
			</input>
			<output>
				<port id="2" precision="FP16">
					<dim>77</dim>
					<dim>768</dim>
				</port>
			</output>
		</layer>
		<layer id="25" name="self.text_model.embeddings.position_embedding.weight_compressed/scale" type="Const" version="opset1">
			<data element_type="f16" shape="77, 1" offset="38152801" size="154" />
			<output>
				<port id="0" precision="FP16">
					<dim>77</dim>
					<dim>1</dim>
				</port>
			</output>
		</layer>
		<layer id="26" name="self.text_model.embeddings.position_embedding.weight_compressed/fq_weights_0" type="Multiply" version="opset1">
			<data auto_broadcast="numpy" />
			<input>
				<port id="0" precision="FP16">
					<dim>77</dim>
					<dim>768</dim>
				</port>
				<port id="1" precision="FP16">
					<dim>77</dim>
					<dim>1</dim>
				</port>
			</input>
			<output>
				<port id="2" precision="FP16">
					<dim>77</dim>
					<dim>768</dim>
				</port>
			</output>
		</layer>
		<layer id="27" name="self.text_model.embeddings.position_embedding.weight" type="Convert" version="opset1">
			<data destination_type="f32" />
			<rt_info>
				<attribute name="decompression" version="0" />
			</rt_info>
			<input>
				<port id="0" precision="FP16">
					<dim>77</dim>
					<dim>768</dim>
				</port>
			</input>
			<output>
				<port id="1" precision="FP32">
					<dim>77</dim>
					<dim>768</dim>
				</port>
			</output>
		</layer>
		<layer id="28" name="__module.text_model.embeddings/aten::slice/Slice" type="Const" version="opset1">
			<data element_type="i64" shape="1, 77" offset="38152955" size="616" />
			<output>
				<port id="0" precision="I64" names="41">
					<dim>1</dim>
					<dim>77</dim>
				</port>
			</output>
		</layer>
		<layer id="29" name="Constant_54497" type="Const" version="opset1">
			<data element_type="i64" shape="2" offset="38153571" size="16" />
			<rt_info>
				<attribute name="precise" version="0" />
			</rt_info>
			<output>
				<port id="0" precision="I64">
					<dim>2</dim>
				</port>
			</output>
		</layer>
		<layer id="30" name="Constant_54498" type="Const" version="opset1">
			<data element_type="i64" shape="2" offset="38153571" size="16" />
			<rt_info>
				<attribute name="precise" version="0" />
			</rt_info>
			<output>
				<port id="0" precision="I64">
					<dim>2</dim>
				</port>
			</output>
		</layer>
		<layer id="31" name="Constant_54494" type="Const" version="opset1">
			<data element_type="i64" shape="1" offset="38093576" size="8" />
			<rt_info>
				<attribute name="precise" version="0" />
			</rt_info>
			<output>
				<port id="0" precision="I64">
					<dim>1</dim>
				</port>
			</output>
		</layer>
		<layer id="32" name="__module.text_model.embeddings/aten::size/ShapeOf" type="ShapeOf" version="opset3">
			<data output_type="i64" />
			<input>
				<port id="0" precision="I32">
					<dim>-1</dim>
					<dim>-1</dim>
				</port>
			</input>
			<output>
				<port id="1" precision="I64">
					<dim>2</dim>
				</port>
			</output>
		</layer>
		<layer id="33" name="Constant_52585" type="Const" version="opset1">
			<data element_type="i64" shape="1" offset="38093576" size="8" />
			<rt_info>
				<attribute name="precise" version="0" />
			</rt_info>
			<output>
				<port id="0" precision="I64">
					<dim>1</dim>
				</port>
			</output>
		</layer>
		<layer id="34" name="__module.text_model.embeddings/aten::size/Constant" type="Const" version="opset1">
			<data element_type="i32" shape="" offset="38093584" size="4" />
			<rt_info>
				<attribute name="precise" version="0" />
			</rt_info>
			<output>
				<port id="0" precision="I32" />
			</output>
		</layer>
		<layer id="35" name="__module.text_model.embeddings/aten::size/Gather" type="Gather" version="opset8">
			<data batch_dims="0" />
			<input>
				<port id="0" precision="I64">
					<dim>2</dim>
				</port>
				<port id="1" precision="I64">
					<dim>1</dim>
				</port>
				<port id="2" precision="I32" />
			</input>
			<output>
				<port id="3" precision="I64" names="40">
					<dim>1</dim>
				</port>
			</output>
		</layer>
		<layer id="36" name="Constant_54493" type="Const" version="opset1">
			<data element_type="i32" shape="1" offset="38093584" size="4" />
			<rt_info>
				<attribute name="precise" version="0" />
			</rt_info>
			<output>
				<port id="0" precision="I32">
					<dim>1</dim>
				</port>
			</output>
		</layer>
		<layer id="37" name="ScatterUpdate_54499" type="ScatterUpdate" version="opset3">
			<input>
				<port id="0" precision="I64">
					<dim>2</dim>
				</port>
				<port id="1" precision="I64">
					<dim>1</dim>
				</port>
				<port id="2" precision="I64">
					<dim>1</dim>
				</port>
				<port id="3" precision="I32">
					<dim>1</dim>
				</port>
			</input>
			<output>
				<port id="4" precision="I64">
					<dim>2</dim>
				</port>
			</output>
		</layer>
		<layer id="38" name="Constant_54502" type="Const" version="opset1">
			<data element_type="i64" shape="2" offset="38153587" size="16" />
			<rt_info>
				<attribute name="precise" version="0" />
			</rt_info>
			<output>
				<port id="0" precision="I64">
					<dim>2</dim>
				</port>
			</output>
		</layer>
		<layer id="39" name="__module.text_model.embeddings/aten::slice/Slice_1" type="StridedSlice" version="opset1">
			<data begin_mask="1, 0" end_mask="1, 0" new_axis_mask="" shrink_axis_mask="" ellipsis_mask="" />
			<input>
				<port id="0" precision="I64">
					<dim>1</dim>
					<dim>77</dim>
				</port>
				<port id="1" precision="I64">
					<dim>2</dim>
				</port>
				<port id="2" precision="I64">
					<dim>2</dim>
				</port>
				<port id="3" precision="I64">
					<dim>2</dim>
				</port>
			</input>
			<output>
				<port id="4" precision="I64" names="42">
					<dim>1</dim>
					<dim>-1</dim>
				</port>
			</output>
		</layer>
		<layer id="40" name="__module.text_model.embeddings.position_embedding/aten::embedding/Convert" type="Convert" version="opset1">
			<data destination_type="i32" />
			<input>
				<port id="0" precision="I64">
					<dim>1</dim>
					<dim>-1</dim>
				</port>
			</input>
			<output>
				<port id="1" precision="I32">
					<dim>1</dim>
					<dim>-1</dim>
				</port>
			</output>
		</layer>
		<layer id="41" name="__module.text_model.embeddings.position_embedding/aten::embedding/Constant" type="Const" version="opset1">
			<data element_type="i32" shape="" offset="38093584" size="4" />
			<output>
				<port id="0" precision="I32" />
			</output>
		</layer>
		<layer id="42" name="__module.text_model.embeddings.position_embedding/aten::embedding/Gather" type="Gather" version="opset8">
			<data batch_dims="0" />
			<input>
				<port id="0" precision="FP32">
					<dim>77</dim>
					<dim>768</dim>
				</port>
				<port id="1" precision="I32">
					<dim>1</dim>
					<dim>-1</dim>
				</port>
				<port id="2" precision="I32" />
			</input>
			<output>
				<port id="3" precision="FP32" names="46,position_embeddings">
					<dim>1</dim>
					<dim>-1</dim>
					<dim>768</dim>
				</port>
			</output>
		</layer>
		<layer id="43" name="__module.text_model.embeddings/aten::add/Add" type="Add" version="opset1">
			<data auto_broadcast="numpy" />
			<input>
				<port id="0" precision="FP32">
					<dim>-1</dim>
					<dim>-1</dim>
					<dim>768</dim>
				</port>
				<port id="1" precision="FP32">
					<dim>1</dim>
					<dim>-1</dim>
					<dim>768</dim>
				</port>
			</input>
			<output>
				<port id="2" precision="FP32" names="47,residual.1">
					<dim>-1</dim>
					<dim>-1</dim>
					<dim>768</dim>
				</port>
			</output>
		</layer>
		<layer id="44" name="__module.text_model.encoder.layers.0.layer_norm1/aten::layer_norm/Constant" type="Const" version="opset1">
			<data element_type="i32" shape="1" offset="38153603" size="4" />
			<output>
				<port id="0" precision="I32">
					<dim>1</dim>
				</port>
			</output>
		</layer>
		<layer id="45" name="__module.text_model.encoder.layers.0.layer_norm1/aten::layer_norm/MVN" type="MVN" version="opset6">
			<data eps="9.9999997473787516e-06" normalize_variance="true" eps_mode="INSIDE_SQRT" />
			<input>
				<port id="0" precision="FP32">
					<dim>-1</dim>
					<dim>-1</dim>
					<dim>768</dim>
				</port>
				<port id="1" precision="I32">
					<dim>1</dim>
				</port>
			</input>
			<output>
				<port id="2" precision="FP32">
					<dim>-1</dim>
					<dim>-1</dim>
					<dim>768</dim>
				</port>
			</output>
		</layer>
		<layer id="46" name="Constant_57368_compressed" type="Const" version="opset1">
			<data element_type="f16" shape="1, 1, 768" offset="38153607" size="1536" />
			<output>
				<port id="0" precision="FP16">
					<dim>1</dim>
					<dim>1</dim>
					<dim>768</dim>
				</port>
			</output>
		</layer>
		<layer id="47" name="Constant_57368" type="Convert" version="opset1">
			<data destination_type="f32" />
			<rt_info>
				<attribute name="decompression" version="0" />
			</rt_info>
			<input>
				<port id="0" precision="FP16">
					<dim>1</dim>
					<dim>1</dim>
					<dim>768</dim>
				</port>
			</input>
			<output>
				<port id="1" precision="FP32">
					<dim>1</dim>
					<dim>1</dim>
					<dim>768</dim>
				</port>
			</output>
		</layer>
		<layer id="48" name="__module.text_model.encoder.layers.0.layer_norm1/aten::layer_norm/Multiply" type="Multiply" version="opset1">
			<data auto_broadcast="numpy" />
			<input>
				<port id="0" precision="FP32">
					<dim>-1</dim>
					<dim>-1</dim>
					<dim>768</dim>
				</port>
				<port id="1" precision="FP32">
					<dim>1</dim>
					<dim>1</dim>
					<dim>768</dim>
				</port>
			</input>
			<output>
				<port id="2" precision="FP32">
					<dim>-1</dim>
					<dim>-1</dim>
					<dim>768</dim>
				</port>
			</output>
		</layer>
		<layer id="49" name="Constant_57369_compressed" type="Const" version="opset1">
			<data element_type="f16" shape="1, 1, 768" offset="38155143" size="1536" />
			<output>
				<port id="0" precision="FP16">
					<dim>1</dim>
					<dim>1</dim>
					<dim>768</dim>
				</port>
			</output>
		</layer>
		<layer id="50" name="Constant_57369" type="Convert" version="opset1">
			<data destination_type="f32" />
			<rt_info>
				<attribute name="decompression" version="0" />
			</rt_info>
			<input>
				<port id="0" precision="FP16">
					<dim>1</dim>
					<dim>1</dim>
					<dim>768</dim>
				</port>
			</input>
			<output>
				<port id="1" precision="FP32">
					<dim>1</dim>
					<dim>1</dim>
					<dim>768</dim>
				</port>
			</output>
		</layer>
		<layer id="51" name="__module.text_model.encoder.layers.0.layer_norm1/aten::layer_norm/Add" type="Add" version="opset1">
			<data auto_broadcast="numpy" />
			<input>
				<port id="0" precision="FP32">
					<dim>-1</dim>
					<dim>-1</dim>
					<dim>768</dim>
				</port>
				<port id="1" precision="FP32">
					<dim>1</dim>
					<dim>1</dim>
					<dim>768</dim>
				</port>
			</input>
			<output>
				<port id="2" precision="FP32" names="100,hidden_states.1">
					<dim>-1</dim>
					<dim>-1</dim>
					<dim>768</dim>
				</port>
			</output>
		</layer>
		<layer id="52" name="Constant_57036_compressed" type="Const" version="opset1">
			<data element_type="u8" shape="768, 768" offset="38156679" size="589824" />
			<output>
				<port id="0" precision="U8">
					<dim>768</dim>
					<dim>768</dim>
				</port>
			</output>
		</layer>
		<layer id="53" name="Convert_764746" type="Convert" version="opset1">
			<data destination_type="f16" />
			<input>
				<port id="0" precision="U8">
					<dim>768</dim>
					<dim>768</dim>
				</port>
			</input>
			<output>
				<port id="1" precision="FP16">
					<dim>768</dim>
					<dim>768</dim>
				</port>
			</output>
		</layer>
		<layer id="54" name="Constant_57036_compressed/zero_point" type="Const" version="opset1">
			<data element_type="u8" shape="768, 1" offset="38746503" size="768" />
			<output>
				<port id="0" precision="U8">
					<dim>768</dim>
					<dim>1</dim>
				</port>
			</output>
		</layer>
		<layer id="55" name="Convert_764749" type="Convert" version="opset1">
			<data destination_type="f16" />
			<input>
				<port id="0" precision="U8">
					<dim>768</dim>
					<dim>1</dim>
				</port>
			</input>
			<output>
				<port id="1" precision="FP16">
					<dim>768</dim>
					<dim>1</dim>
				</port>
			</output>
		</layer>
		<layer id="56" name="Constant_57036_compressed/zero_point/subtract" type="Subtract" version="opset1">
			<data auto_broadcast="numpy" />
			<input>
				<port id="0" precision="FP16">
					<dim>768</dim>
					<dim>768</dim>
				</port>
				<port id="1" precision="FP16">
					<dim>768</dim>
					<dim>1</dim>
				</port>
			</input>
			<output>
				<port id="2" precision="FP16">
					<dim>768</dim>
					<dim>768</dim>
				</port>
			</output>
		</layer>
		<layer id="57" name="Constant_57036_compressed/scale" type="Const" version="opset1">
			<data element_type="f16" shape="768, 1" offset="38747271" size="1536" />
			<output>
				<port id="0" precision="FP16">
					<dim>768</dim>
					<dim>1</dim>
				</port>
			</output>
		</layer>
		<layer id="58" name="Constant_57036_compressed/fq_weights_1" type="Multiply" version="opset1">
			<data auto_broadcast="numpy" />
			<input>
				<port id="0" precision="FP16">
					<dim>768</dim>
					<dim>768</dim>
				</port>
				<port id="1" precision="FP16">
					<dim>768</dim>
					<dim>1</dim>
				</port>
			</input>
			<output>
				<port id="2" precision="FP16">
					<dim>768</dim>
					<dim>768</dim>
				</port>
			</output>
		</layer>
		<layer id="59" name="Constant_57036" type="Convert" version="opset1">
			<data destination_type="f32" />
			<rt_info>
				<attribute name="decompression" version="0" />
			</rt_info>
			<input>
				<port id="0" precision="FP16">
					<dim>768</dim>
					<dim>768</dim>
				</port>
			</input>
			<output>
				<port id="1" precision="FP32">
					<dim>768</dim>
					<dim>768</dim>
				</port>
			</output>
		</layer>
		<layer id="60" name="Multiply_56987" type="MatMul" version="opset1">
			<data transpose_a="false" transpose_b="true" />
			<input>
				<port id="0" precision="FP32">
					<dim>-1</dim>
					<dim>-1</dim>
					<dim>768</dim>
				</port>
				<port id="1" precision="FP32">
					<dim>768</dim>
					<dim>768</dim>
				</port>
			</input>
			<output>
				<port id="2" precision="FP32">
					<dim>-1</dim>
					<dim>-1</dim>
					<dim>768</dim>
				</port>
			</output>
		</layer>
		<layer id="61" name="Constant_57370_compressed" type="Const" version="opset1">
			<data element_type="f16" shape="1, 1, 768" offset="38748807" size="1536" />
			<output>
				<port id="0" precision="FP16">
					<dim>1</dim>
					<dim>1</dim>
					<dim>768</dim>
				</port>
			</output>
		</layer>
		<layer id="62" name="Constant_57370" type="Convert" version="opset1">
			<data destination_type="f32" />
			<rt_info>
				<attribute name="decompression" version="0" />
			</rt_info>
			<input>
				<port id="0" precision="FP16">
					<dim>1</dim>
					<dim>1</dim>
					<dim>768</dim>
				</port>
			</input>
			<output>
				<port id="1" precision="FP32">
					<dim>1</dim>
					<dim>1</dim>
					<dim>768</dim>
				</port>
			</output>
		</layer>
		<layer id="63" name="__module.text_model.encoder.layers.0.self_attn/aten::mul/Multiply" type="Add" version="opset1">
			<data auto_broadcast="numpy" />
			<input>
				<port id="0" precision="FP32">
					<dim>-1</dim>
					<dim>-1</dim>
					<dim>768</dim>
				</port>
				<port id="1" precision="FP32">
					<dim>1</dim>
					<dim>1</dim>
					<dim>768</dim>
				</port>
			</input>
			<output>
				<port id="2" precision="FP32" names="112,tensor.5">
					<dim>-1</dim>
					<dim>-1</dim>
					<dim>768</dim>
				</port>
			</output>
		</layer>
		<layer id="64" name="__module.text_model.encoder.layers.0.self_attn/aten::size/ShapeOf" type="ShapeOf" version="opset3">
			<data output_type="i64" />
			<input>
				<port id="0" precision="FP32">
					<dim>-1</dim>
					<dim>-1</dim>
					<dim>768</dim>
				</port>
			</input>
			<output>
				<port id="1" precision="I64">
					<dim>3</dim>
				</port>
			</output>
		</layer>
		<layer id="65" name="28" type="Const" version="opset1">
			<data element_type="i64" shape="" offset="38750343" size="8" />
			<rt_info>
				<attribute name="precise" version="0" />
			</rt_info>
			<output>
				<port id="0" precision="I64" names="28" />
			</output>
		</layer>
		<layer id="66" name="__module.text_model.encoder.layers.0.self_attn/aten::size/Constant" type="Const" version="opset1">
			<data element_type="i32" shape="" offset="38093584" size="4" />
			<rt_info>
				<attribute name="precise" version="0" />
			</rt_info>
			<output>
				<port id="0" precision="I32" />
			</output>
		</layer>
		<layer id="67" name="__module.text_model.encoder.layers.0.self_attn/aten::size/Gather" type="Gather" version="opset8">
			<data batch_dims="0" />
			<input>
				<port id="0" precision="I64">
					<dim>3</dim>
				</port>
				<port id="1" precision="I64" />
				<port id="2" precision="I32" />
			</input>
			<output>
				<port id="3" precision="I64" names="105" />
			</output>
		</layer>
		<layer id="68" name="Constant_35343" type="Const" version="opset1">
			<data element_type="i64" shape="1" offset="38093568" size="8" />
			<rt_info>
				<attribute name="precise" version="0" />
			</rt_info>
			<output>
				<port id="0" precision="I64">
					<dim>1</dim>
				</port>
			</output>
		</layer>
		<layer id="69" name="__module.text_model.encoder.layers.0.self_attn/prim::ListConstruct/Reshape" type="Reshape" version="opset1">
			<data special_zero="false" />
			<input>
				<port id="0" precision="I64" />
				<port id="1" precision="I64">
					<dim>1</dim>
				</port>
			</input>
			<output>
				<port id="2" precision="I64">
					<dim>1</dim>
				</port>
			</output>
		</layer>
		<layer id="70" name="Constant_52588" type="Const" version="opset1">
			<data element_type="i64" shape="1" offset="38093576" size="8" />
			<rt_info>
				<attribute name="precise" version="0" />
			</rt_info>
			<output>
				<port id="0" precision="I64">
					<dim>1</dim>
				</port>
			</output>
		</layer>
		<layer id="71" name="__module.text_model.encoder.layers.0.self_attn/aten::size/Constant_1" type="Const" version="opset1">
			<data element_type="i32" shape="" offset="38093584" size="4" />
			<rt_info>
				<attribute name="precise" version="0" />
			</rt_info>
			<output>
				<port id="0" precision="I32" />
			</output>
		</layer>
		<layer id="72" name="__module.text_model.encoder.layers.0.self_attn/aten::size/Gather_1" type="Gather" version="opset8">
			<data batch_dims="0" />
			<input>
				<port id="0" precision="I64">
					<dim>3</dim>
				</port>
				<port id="1" precision="I64">
					<dim>1</dim>
				</port>
				<port id="2" precision="I32" />
			</input>
			<output>
				<port id="3" precision="I64" names="107">
					<dim>1</dim>
				</port>
			</output>
		</layer>
		<layer id="73" name="__module.text_model.encoder.layers.0.self_attn/prim::ListConstruct/Reshape_1" type="Const" version="opset1">
			<data element_type="i64" shape="1" offset="38750351" size="8" />
			<rt_info>
				<attribute name="precise" version="0" />
			</rt_info>
			<output>
				<port id="0" precision="I64">
					<dim>1</dim>
				</port>
			</output>
		</layer>
		<layer id="74" name="__module.text_model.encoder.layers.0.self_attn/prim::ListConstruct/Reshape_2" type="Const" version="opset1">
			<data element_type="i64" shape="1" offset="38750359" size="8" />
			<rt_info>
				<attribute name="precise" version="0" />
			</rt_info>
			<output>
				<port id="0" precision="I64">
					<dim>1</dim>
				</port>
			</output>
		</layer>
		<layer id="75" name="__module.text_model.encoder.layers.0.self_attn/prim::ListConstruct/Concat" type="Concat" version="opset1">
			<data axis="0" />
			<input>
				<port id="0" precision="I64">
					<dim>1</dim>
				</port>
				<port id="1" precision="I64">
					<dim>1</dim>
				</port>
				<port id="2" precision="I64">
					<dim>1</dim>
				</port>
				<port id="3" precision="I64">
					<dim>1</dim>
				</port>
			</input>
			<output>
				<port id="4" precision="I64" names="131">
					<dim>4</dim>
				</port>
			</output>
		</layer>
		<layer id="76" name="__module.text_model.encoder.layers.0.self_attn/aten::view/Reshape" type="Reshape" version="opset1">
			<data special_zero="false" />
			<input>
				<port id="0" precision="FP32">
					<dim>-1</dim>
					<dim>-1</dim>
					<dim>768</dim>
				</port>
				<port id="1" precision="I64">
					<dim>4</dim>
				</port>
			</input>
			<output>
				<port id="2" precision="FP32" names="132">
					<dim>-1</dim>
					<dim>-1</dim>
					<dim>12</dim>
					<dim>64</dim>
				</port>
			</output>
		</layer>
		<layer id="77" name="__module.text_model.encoder.layers.0.self_attn/aten::transpose/ScatterElementsUpdate" type="Const" version="opset1">
			<data element_type="i32" shape="4" offset="38750367" size="16" />
			<output>
				<port id="0" precision="I32">
					<dim>4</dim>
				</port>
			</output>
		</layer>
		<layer id="78" name="__module.text_model.encoder.layers.0.self_attn/aten::transpose/Transpose" type="Transpose" version="opset1">
			<input>
				<port id="0" precision="FP32">
					<dim>-1</dim>
					<dim>-1</dim>
					<dim>12</dim>
					<dim>64</dim>
				</port>
				<port id="1" precision="I32">
					<dim>4</dim>
				</port>
			</input>
			<output>
				<port id="2" precision="FP32" names="133">
					<dim>-1</dim>
					<dim>12</dim>
					<dim>-1</dim>
					<dim>64</dim>
				</port>
			</output>
		</layer>
		<layer id="79" name="Constant_8" type="Const" version="opset1">
			<data element_type="i64" shape="" offset="38750351" size="8" />
			<rt_info>
				<attribute name="precise" version="0" />
			</rt_info>
			<output>
				<port id="0" precision="I64" names="11" />
			</output>
		</layer>
		<layer id="80" name="__module.text_model.encoder.layers.0.self_attn/aten::mul/Multiply_1" type="Multiply" version="opset1">
			<data auto_broadcast="numpy" />
			<input>
				<port id="0" precision="I64" />
				<port id="1" precision="I64" />
			</input>
			<output>
				<port id="2" precision="I64" names="127,128,129,130,147,148" />
			</output>
		</layer>
		<layer id="81" name="Constant_35347" type="Const" version="opset1">
			<data element_type="i64" shape="1" offset="38093568" size="8" />
			<rt_info>
				<attribute name="precise" version="0" />
			</rt_info>
			<output>
				<port id="0" precision="I64">
					<dim>1</dim>
				</port>
			</output>
		</layer>
		<layer id="82" name="__module.text_model.encoder.layers.0.self_attn/prim::ListConstruct/Reshape_3" type="Reshape" version="opset1">
			<data special_zero="false" />
			<input>
				<port id="0" precision="I64" />
				<port id="1" precision="I64">
					<dim>1</dim>
				</port>
			</input>
			<output>
				<port id="2" precision="I64">
					<dim>1</dim>
				</port>
			</output>
		</layer>
		<layer id="83" name="__module.text_model.encoder.layers.0.self_attn/prim::ListConstruct/Concat_1" type="Concat" version="opset1">
			<data axis="0" />
			<input>
				<port id="0" precision="I64">
					<dim>1</dim>
				</port>
				<port id="1" precision="I64">
					<dim>1</dim>
				</port>
				<port id="2" precision="I64">
					<dim>1</dim>
				</port>
			</input>
			<output>
				<port id="3" precision="I64" names="135,137,139">
					<dim>3</dim>
				</port>
			</output>
		</layer>
		<layer id="84" name="__module.text_model.encoder.layers.0.self_attn/aten::view/Reshape_1" type="Reshape" version="opset1">
			<data special_zero="false" />
			<input>
				<port id="0" precision="FP32">
					<dim>-1</dim>
					<dim>12</dim>
					<dim>-1</dim>
					<dim>64</dim>
				</port>
				<port id="1" precision="I64">
					<dim>3</dim>
				</port>
			</input>
			<output>
				<port id="2" precision="FP32" names="136">
					<dim>-1</dim>
					<dim>-1</dim>
					<dim>64</dim>
				</port>
			</output>
		</layer>
		<layer id="85" name="self.text_model.encoder.layers.0.self_attn.k_proj.weight_compressed" type="Const" version="opset1">
			<data element_type="u8" shape="768, 768" offset="38750383" size="589824" />
			<output>
				<port id="0" precision="U8">
					<dim>768</dim>
					<dim>768</dim>
				</port>
			</output>
		</layer>
		<layer id="86" name="Convert_764736" type="Convert" version="opset1">
			<data destination_type="f16" />
			<input>
				<port id="0" precision="U8">
					<dim>768</dim>
					<dim>768</dim>
				</port>
			</input>
			<output>
				<port id="1" precision="FP16">
					<dim>768</dim>
					<dim>768</dim>
				</port>
			</output>
		</layer>
		<layer id="87" name="self.text_model.encoder.layers.0.self_attn.k_proj.weight_compressed/zero_point" type="Const" version="opset1">
			<data element_type="u8" shape="768, 1" offset="39340207" size="768" />
			<output>
				<port id="0" precision="U8">
					<dim>768</dim>
					<dim>1</dim>
				</port>
			</output>
		</layer>
		<layer id="88" name="Convert_764739" type="Convert" version="opset1">
			<data destination_type="f16" />
			<input>
				<port id="0" precision="U8">
					<dim>768</dim>
					<dim>1</dim>
				</port>
			</input>
			<output>
				<port id="1" precision="FP16">
					<dim>768</dim>
					<dim>1</dim>
				</port>
			</output>
		</layer>
		<layer id="89" name="self.text_model.encoder.layers.0.self_attn.k_proj.weight_compressed/zero_point/subtract" type="Subtract" version="opset1">
			<data auto_broadcast="numpy" />
			<input>
				<port id="0" precision="FP16">
					<dim>768</dim>
					<dim>768</dim>
				</port>
				<port id="1" precision="FP16">
					<dim>768</dim>
					<dim>1</dim>
				</port>
			</input>
			<output>
				<port id="2" precision="FP16">
					<dim>768</dim>
					<dim>768</dim>
				</port>
			</output>
		</layer>
		<layer id="90" name="self.text_model.encoder.layers.0.self_attn.k_proj.weight_compressed/scale" type="Const" version="opset1">
			<data element_type="f16" shape="768, 1" offset="39340975" size="1536" />
			<output>
				<port id="0" precision="FP16">
					<dim>768</dim>
					<dim>1</dim>
				</port>
			</output>
		</layer>
		<layer id="91" name="self.text_model.encoder.layers.0.self_attn.k_proj.weight_compressed/fq_weights_1" type="Multiply" version="opset1">
			<data auto_broadcast="numpy" />
			<input>
				<port id="0" precision="FP16">
					<dim>768</dim>
					<dim>768</dim>
				</port>
				<port id="1" precision="FP16">
					<dim>768</dim>
					<dim>1</dim>
				</port>
			</input>
			<output>
				<port id="2" precision="FP16">
					<dim>768</dim>
					<dim>768</dim>
				</port>
			</output>
		</layer>
		<layer id="92" name="self.text_model.encoder.layers.0.self_attn.k_proj.weight" type="Convert" version="opset1">
			<data destination_type="f32" />
			<rt_info>
				<attribute name="decompression" version="0" />
			</rt_info>
			<input>
				<port id="0" precision="FP16">
					<dim>768</dim>
					<dim>768</dim>
				</port>
			</input>
			<output>
				<port id="1" precision="FP32">
					<dim>768</dim>
					<dim>768</dim>
				</port>
			</output>
		</layer>
		<layer id="93" name="__module.text_model.encoder.layers.0.self_attn.k_proj/aten::linear/MatMul" type="MatMul" version="opset1">
			<data transpose_a="false" transpose_b="true" />
			<input>
				<port id="0" precision="FP32">
					<dim>-1</dim>
					<dim>-1</dim>
					<dim>768</dim>
				</port>
				<port id="1" precision="FP32">
					<dim>768</dim>
					<dim>768</dim>
				</port>
			</input>
			<output>
				<port id="2" precision="FP32">
					<dim>-1</dim>
					<dim>-1</dim>
					<dim>768</dim>
				</port>
			</output>
		</layer>
		<layer id="94" name="Constant_57371_compressed" type="Const" version="opset1">
			<data element_type="f16" shape="1, 1, 768" offset="39342511" size="1536" />
			<output>
				<port id="0" precision="FP16">
					<dim>1</dim>
					<dim>1</dim>
					<dim>768</dim>
				</port>
			</output>
		</layer>
		<layer id="95" name="Constant_57371" type="Convert" version="opset1">
			<data destination_type="f32" />
			<rt_info>
				<attribute name="decompression" version="0" />
			</rt_info>
			<input>
				<port id="0" precision="FP16">
					<dim>1</dim>
					<dim>1</dim>
					<dim>768</dim>
				</port>
			</input>
			<output>
				<port id="1" precision="FP32">
					<dim>1</dim>
					<dim>1</dim>
					<dim>768</dim>
				</port>
			</output>
		</layer>
		<layer id="96" name="__module.text_model.encoder.layers.0.self_attn.k_proj/aten::linear/Add" type="Add" version="opset1">
			<data auto_broadcast="numpy" />
			<input>
				<port id="0" precision="FP32">
					<dim>-1</dim>
					<dim>-1</dim>
					<dim>768</dim>
				</port>
				<port id="1" precision="FP32">
					<dim>1</dim>
					<dim>1</dim>
					<dim>768</dim>
				</port>
			</input>
			<output>
				<port id="2" precision="FP32" names="115,tensor.1">
					<dim>-1</dim>
					<dim>-1</dim>
					<dim>768</dim>
				</port>
			</output>
		</layer>
		<layer id="97" name="__module.text_model.encoder.layers.0.self_attn/prim::ListConstruct/Concat_2" type="Concat" version="opset1">
			<data axis="0" />
			<input>
				<port id="0" precision="I64">
					<dim>1</dim>
				</port>
				<port id="1" precision="I64">
					<dim>1</dim>
				</port>
				<port id="2" precision="I64">
					<dim>1</dim>
				</port>
				<port id="3" precision="I64">
					<dim>1</dim>
				</port>
			</input>
			<output>
				<port id="4" precision="I64" names="116,123">
					<dim>4</dim>
				</port>
			</output>
		</layer>
		<layer id="98" name="__module.text_model.encoder.layers.0.self_attn/aten::view/Reshape_2" type="Reshape" version="opset1">
			<data special_zero="false" />
			<input>
				<port id="0" precision="FP32">
					<dim>-1</dim>
					<dim>-1</dim>
					<dim>768</dim>
				</port>
				<port id="1" precision="I64">
					<dim>4</dim>
				</port>
			</input>
			<output>
				<port id="2" precision="FP32" names="117">
					<dim>-1</dim>
					<dim>-1</dim>
					<dim>12</dim>
					<dim>64</dim>
				</port>
			</output>
		</layer>
		<layer id="99" name="__module.text_model.encoder.layers.0.self_attn/aten::transpose/ScatterElementsUpdate_1" type="Const" version="opset1">
			<data element_type="i32" shape="4" offset="38750367" size="16" />
			<output>
				<port id="0" precision="I32">
					<dim>4</dim>
				</port>
			</output>
		</layer>
		<layer id="100" name="__module.text_model.encoder.layers.0.self_attn/aten::transpose/Transpose_1" type="Transpose" version="opset1">
			<input>
				<port id="0" precision="FP32">
					<dim>-1</dim>
					<dim>-1</dim>
					<dim>12</dim>
					<dim>64</dim>
				</port>
				<port id="1" precision="I32">
					<dim>4</dim>
				</port>
			</input>
			<output>
				<port id="2" precision="FP32" names="118">
					<dim>-1</dim>
					<dim>12</dim>
					<dim>-1</dim>
					<dim>64</dim>
				</port>
			</output>
		</layer>
		<layer id="101" name="__module.text_model.encoder.layers.0.self_attn/aten::view/Reshape_3" type="Reshape" version="opset1">
			<data special_zero="false" />
			<input>
				<port id="0" precision="FP32">
					<dim>-1</dim>
					<dim>12</dim>
					<dim>-1</dim>
					<dim>64</dim>
				</port>
				<port id="1" precision="I64">
					<dim>3</dim>
				</port>
			</input>
			<output>
				<port id="2" precision="FP32" names="138,key_states.3">
					<dim>-1</dim>
					<dim>-1</dim>
					<dim>64</dim>
				</port>
			</output>
		</layer>
		<layer id="102" name="__module.text_model.encoder.layers.0.self_attn/aten::bmm/MatMul" type="MatMul" version="opset1">
			<data transpose_a="false" transpose_b="true" />
			<input>
				<port id="0" precision="FP32">
					<dim>-1</dim>
					<dim>-1</dim>
					<dim>64</dim>
				</port>
				<port id="1" precision="FP32">
					<dim>-1</dim>
					<dim>-1</dim>
					<dim>64</dim>
				</port>
			</input>
			<output>
				<port id="2" precision="FP32" names="143,attn_weights.1">
					<dim>-1</dim>
					<dim>-1</dim>
					<dim>-1</dim>
				</port>
			</output>
		</layer>
		<layer id="103" name="__module.text_model.encoder.layers.0.self_attn/aten::size/ShapeOf_2" type="ShapeOf" version="opset3">
			<data output_type="i64" />
			<input>
				<port id="0" precision="FP32">
					<dim>-1</dim>
					<dim>-1</dim>
					<dim>64</dim>
				</port>
			</input>
			<output>
				<port id="1" precision="I64">
					<dim>3</dim>
				</port>
			</output>
		</layer>
		<layer id="104" name="Constant_52591" type="Const" version="opset1">
			<data element_type="i64" shape="1" offset="38093576" size="8" />
			<rt_info>
				<attribute name="precise" version="0" />
			</rt_info>
			<output>
				<port id="0" precision="I64">
					<dim>1</dim>
				</port>
			</output>
		</layer>
		<layer id="105" name="__module.text_model.encoder.layers.0.self_attn/aten::size/Constant_2" type="Const" version="opset1">
			<data element_type="i32" shape="" offset="38093584" size="4" />
			<rt_info>
				<attribute name="precise" version="0" />
			</rt_info>
			<output>
				<port id="0" precision="I32" />
			</output>
		</layer>
		<layer id="106" name="__module.text_model.encoder.layers.0.self_attn/aten::size/Gather_2" type="Gather" version="opset8">
			<data batch_dims="0" />
			<input>
				<port id="0" precision="I64">
					<dim>3</dim>
				</port>
				<port id="1" precision="I64">
					<dim>1</dim>
				</port>
				<port id="2" precision="I32" />
			</input>
			<output>
				<port id="3" precision="I64" names="141">
					<dim>1</dim>
				</port>
			</output>
		</layer>
		<layer id="107" name="__module.text_model.encoder.layers.0.self_attn/prim::ListConstruct/Concat_4" type="Concat" version="opset1">
			<data axis="0" />
			<input>
				<port id="0" precision="I64">
					<dim>1</dim>
				</port>
				<port id="1" precision="I64">
					<dim>1</dim>
				</port>
				<port id="2" precision="I64">
					<dim>1</dim>
				</port>
				<port id="3" precision="I64">
					<dim>1</dim>
				</port>
			</input>
			<output>
				<port id="4" precision="I64" names="144">
					<dim>4</dim>
				</port>
			</output>
		</layer>
		<layer id="108" name="__module.text_model.encoder.layers.0.self_attn/aten::view/Reshape_4" type="Reshape" version="opset1">
			<data special_zero="false" />
			<input>
				<port id="0" precision="FP32">
					<dim>-1</dim>
					<dim>-1</dim>
					<dim>-1</dim>
				</port>
				<port id="1" precision="I64">
					<dim>4</dim>
				</port>
			</input>
			<output>
				<port id="2" precision="FP32" names="145">
					<dim>-1</dim>
					<dim>12</dim>
					<dim>-1</dim>
					<dim>-1</dim>
				</port>
			</output>
		</layer>
		<layer id="109" name="__module.text_model/aten::arange/Constant" type="Const" version="opset1">
			<data element_type="i32" shape="" offset="38093584" size="4" />
			<output>
				<port id="0" precision="I32" />
			</output>
		</layer>
		<layer id="110" name="22" type="Const" version="opset1">
			<data element_type="f32" shape="" offset="39344047" size="4" />
			<output>
				<port id="0" precision="FP32" names="22" />
			</output>
		</layer>
		<layer id="111" name="__module.text_model/prim::ListConstruct/Concat_1" type="Concat" version="opset1">
			<data axis="0" />
			<input>
				<port id="0" precision="I64">
					<dim>1</dim>
				</port>
				<port id="1" precision="I64">
					<dim>1</dim>
				</port>
			</input>
			<output>
				<port id="2" precision="I64" names="50">
					<dim>2</dim>
				</port>
			</output>
		</layer>
		<layer id="112" name="__module.text_model/aten::full/Broadcast" type="Broadcast" version="opset3">
			<data mode="numpy" />
			<input>
				<port id="0" precision="FP32" />
				<port id="1" precision="I64">
					<dim>2</dim>
				</port>
			</input>
			<output>
				<port id="2" precision="FP32" names="51_1">
					<dim>-1</dim>
					<dim>-1</dim>
				</port>
			</output>
		</layer>
		<layer id="113" name="__module.text_model/aten::size/ShapeOf_1" type="ShapeOf" version="opset3">
			<data output_type="i64" />
			<input>
				<port id="0" precision="FP32">
					<dim>-1</dim>
					<dim>-1</dim>
				</port>
			</input>
			<output>
				<port id="1" precision="I64">
					<dim>2</dim>
				</port>
			</output>
		</layer>
		<layer id="114" name="26" type="Const" version="opset1">
			<data element_type="i64" shape="" offset="38093568" size="8" />
			<rt_info>
				<attribute name="precise" version="0" />
			</rt_info>
			<output>
				<port id="0" precision="I64" names="26" />
			</output>
		</layer>
		<layer id="115" name="__module.text_model/aten::size/Constant_1" type="Const" version="opset1">
			<data element_type="i32" shape="" offset="38093584" size="4" />
			<rt_info>
				<attribute name="precise" version="0" />
			</rt_info>
			<output>
				<port id="0" precision="I32" />
			</output>
		</layer>
		<layer id="116" name="__module.text_model/aten::size/Gather_1" type="Gather" version="opset8">
			<data batch_dims="0" />
			<input>
				<port id="0" precision="I64">
					<dim>2</dim>
				</port>
				<port id="1" precision="I64" />
				<port id="2" precision="I32" />
			</input>
			<output>
				<port id="3" precision="I64" names="52,55" />
			</output>
		</layer>
		<layer id="117" name="__module.text_model/aten::arange/Constant_1" type="Const" version="opset1">
			<data element_type="i32" shape="" offset="39344051" size="4" />
			<output>
				<port id="0" precision="I32" />
			</output>
		</layer>
		<layer id="118" name="__module.text_model/aten::arange/Range" type="Range" version="opset4">
			<data output_type="f32" />
			<input>
				<port id="0" precision="I32" />
				<port id="1" precision="I64" />
				<port id="2" precision="I32" />
			</input>
			<output>
				<port id="3" precision="FP32">
					<dim>-1</dim>
				</port>
			</output>
		</layer>
		<layer id="119" name="__module.text_model/aten::arange/ConvertLike" type="Convert" version="opset1">
			<data destination_type="i64" />
			<input>
				<port id="0" precision="FP32">
					<dim>-1</dim>
				</port>
			</input>
			<output>
				<port id="1" precision="I64" names="53,mask_cond">
					<dim>-1</dim>
				</port>
			</output>
		</layer>
		<layer id="120" name="Constant_57372" type="Const" version="opset1">
			<data element_type="i64" shape="1" offset="38093576" size="8" />
			<output>
				<port id="0" precision="I64">
					<dim>1</dim>
				</port>
			</output>
		</layer>
		<layer id="121" name="__module.text_model/aten::add/Add" type="Add" version="opset1">
			<data auto_broadcast="numpy" />
			<input>
				<port id="0" precision="I64">
					<dim>-1</dim>
				</port>
				<port id="1" precision="I64">
					<dim>1</dim>
				</port>
			</input>
			<output>
				<port id="2" precision="I64" names="54">
					<dim>-1</dim>
				</port>
			</output>
		</layer>
		<layer id="122" name="Constant_35349" type="Const" version="opset1">
			<data element_type="i64" shape="1" offset="38093568" size="8" />
			<rt_info>
				<attribute name="precise" version="0" />
			</rt_info>
			<output>
				<port id="0" precision="I64">
					<dim>1</dim>
				</port>
			</output>
		</layer>
		<layer id="123" name="__module.text_model/prim::ListConstruct/Reshape_4" type="Reshape" version="opset1">
			<data special_zero="false" />
			<input>
				<port id="0" precision="I64" />
				<port id="1" precision="I64">
					<dim>1</dim>
				</port>
			</input>
			<output>
				<port id="2" precision="I64">
					<dim>1</dim>
				</port>
			</output>
		</layer>
		<layer id="124" name="__module.text_model/prim::ListConstruct/Reshape_0_2" type="Const" version="opset1">
			<data element_type="i64" shape="1" offset="38093576" size="8" />
			<rt_info>
				<attribute name="precise" version="0" />
			</rt_info>
			<output>
				<port id="0" precision="I64">
					<dim>1</dim>
				</port>
			</output>
		</layer>
		<layer id="125" name="__module.text_model/prim::ListConstruct/Concat_2" type="Concat" version="opset1">
			<data axis="0" />
			<input>
				<port id="0" precision="I64">
					<dim>1</dim>
				</port>
				<port id="1" precision="I64">
					<dim>1</dim>
				</port>
			</input>
			<output>
				<port id="2" precision="I64" names="56">
					<dim>2</dim>
				</port>
			</output>
		</layer>
		<layer id="126" name="__module.text_model/aten::view/Reshape_1" type="Reshape" version="opset1">
			<data special_zero="false" />
			<input>
				<port id="0" precision="I64">
					<dim>-1</dim>
				</port>
				<port id="1" precision="I64">
					<dim>2</dim>
				</port>
			</input>
			<output>
				<port id="2" precision="I64" names="57">
					<dim>-1</dim>
					<dim>1</dim>
				</port>
			</output>
		</layer>
		<layer id="127" name="__module.text_model/aten::lt/Less" type="Less" version="opset1">
			<data auto_broadcast="numpy" />
			<input>
				<port id="0" precision="I64">
					<dim>-1</dim>
				</port>
				<port id="1" precision="I64">
					<dim>-1</dim>
					<dim>1</dim>
				</port>
			</input>
			<output>
				<port id="2" precision="BOOL" names="58">
					<dim>-1</dim>
					<dim>-1</dim>
				</port>
			</output>
		</layer>
		<layer id="128" name="__module.text_model/aten::masked_fill_/ConvertLike_compressed" type="Const" version="opset1">
			<data element_type="f16" shape="" offset="39344055" size="2" />
			<output>
				<port id="0" precision="FP16" />
			</output>
		</layer>
		<layer id="129" name="__module.text_model/aten::masked_fill_/ConvertLike" type="Convert" version="opset1">
			<data destination_type="f32" />
			<rt_info>
				<attribute name="decompression" version="0" />
			</rt_info>
			<input>
				<port id="0" precision="FP16" />
			</input>
			<output>
				<port id="1" precision="FP32" />
			</output>
		</layer>
		<layer id="130" name="__module.text_model/aten::masked_fill_/Select" type="Select" version="opset1">
			<data auto_broadcast="numpy" />
			<input>
				<port id="0" precision="BOOL">
					<dim>-1</dim>
					<dim>-1</dim>
				</port>
				<port id="1" precision="FP32" />
				<port id="2" precision="FP32">
					<dim>-1</dim>
					<dim>-1</dim>
				</port>
			</input>
			<output>
				<port id="3" precision="FP32" names="51,60,mask,mask.1">
					<dim>-1</dim>
					<dim>-1</dim>
				</port>
			</output>
		</layer>
		<layer id="131" name="__module.text_model/aten::unsqueeze/Unsqueeze" type="Unsqueeze" version="opset1">
			<input>
				<port id="0" precision="FP32">
					<dim>-1</dim>
					<dim>-1</dim>
				</port>
				<port id="1" precision="I64" />
			</input>
			<output>
				<port id="2" precision="FP32" names="61">
					<dim>1</dim>
					<dim>-1</dim>
					<dim>-1</dim>
				</port>
			</output>
		</layer>
		<layer id="132" name="__module.text_model/aten::unsqueeze/Unsqueeze_1" type="Unsqueeze" version="opset1">
			<input>
				<port id="0" precision="FP32">
					<dim>1</dim>
					<dim>-1</dim>
					<dim>-1</dim>
				</port>
				<port id="1" precision="I64" />
			</input>
			<output>
				<port id="2" precision="FP32" names="62,63,64">
					<dim>1</dim>
					<dim>1</dim>
					<dim>-1</dim>
					<dim>-1</dim>
				</port>
			</output>
		</layer>
		<layer id="133" name="Constant_52594" type="Const" version="opset1">
			<data element_type="i64" shape="1" offset="38750343" size="8" />
			<rt_info>
				<attribute name="precise" version="0" />
			</rt_info>
			<output>
				<port id="0" precision="I64">
					<dim>1</dim>
				</port>
			</output>
		</layer>
		<layer id="134" name="__module.text_model/aten::size/Constant_3" type="Const" version="opset1">
			<data element_type="i32" shape="" offset="38093584" size="4" />
			<rt_info>
				<attribute name="precise" version="0" />
			</rt_info>
			<output>
				<port id="0" precision="I32" />
			</output>
		</layer>
		<layer id="135" name="__module.text_model/aten::size/Gather_3" type="Gather" version="opset8">
			<data batch_dims="0" />
			<input>
				<port id="0" precision="I64">
					<dim>2</dim>
				</port>
				<port id="1" precision="I64">
					<dim>1</dim>
				</port>
				<port id="2" precision="I32" />
			</input>
			<output>
				<port id="3" precision="I64" names="32">
					<dim>1</dim>
				</port>
			</output>
		</layer>
		<layer id="136" name="__module.text_model/aten::sub/Subtract" type="Subtract" version="opset1">
			<data auto_broadcast="numpy" />
			<input>
				<port id="0" precision="I64" />
				<port id="1" precision="I64" />
			</input>
			<output>
				<port id="2" precision="I64" names="49,past_key_values_length" />
			</output>
		</layer>
		<layer id="137" name="__module.text_model/aten::add/Add_2" type="Add" version="opset1">
			<data auto_broadcast="numpy" />
			<input>
				<port id="0" precision="I64" />
				<port id="1" precision="I64" />
			</input>
			<output>
				<port id="2" precision="I64" names="65,66" />
			</output>
		</layer>
		<layer id="138" name="Constant_35352" type="Const" version="opset1">
			<data element_type="i64" shape="1" offset="38093568" size="8" />
			<rt_info>
				<attribute name="precise" version="0" />
			</rt_info>
			<output>
				<port id="0" precision="I64">
					<dim>1</dim>
				</port>
			</output>
		</layer>
		<layer id="139" name="__module.text_model/prim::ListConstruct/Reshape_2" type="Reshape" version="opset1">
			<data special_zero="false" />
			<input>
				<port id="0" precision="I64" />
				<port id="1" precision="I64">
					<dim>1</dim>
				</port>
			</input>
			<output>
				<port id="2" precision="I64">
					<dim>1</dim>
				</port>
			</output>
		</layer>
		<layer id="140" name="__module.text_model/prim::ListConstruct/Concat_3" type="Concat" version="opset1">
			<data axis="0" />
			<input>
				<port id="0" precision="I64">
					<dim>1</dim>
				</port>
				<port id="1" precision="I64">
					<dim>1</dim>
				</port>
				<port id="2" precision="I64">
					<dim>1</dim>
				</port>
				<port id="3" precision="I64">
					<dim>1</dim>
				</port>
			</input>
			<output>
				<port id="4" precision="I64" names="67">
					<dim>4</dim>
				</port>
			</output>
		</layer>
		<layer id="141" name="__module.text_model/aten::expand/Abs" type="Abs" version="opset1">
			<input>
				<port id="0" precision="I64">
					<dim>4</dim>
				</port>
			</input>
			<output>
				<port id="1" precision="I64">
					<dim>4</dim>
				</port>
			</output>
		</layer>
		<layer id="142" name="__module.text_model/aten::expand/Broadcast" type="Broadcast" version="opset3">
			<data mode="bidirectional" />
			<input>
				<port id="0" precision="FP32">
					<dim>1</dim>
					<dim>1</dim>
					<dim>-1</dim>
					<dim>-1</dim>
				</port>
				<port id="1" precision="I64">
					<dim>4</dim>
				</port>
			</input>
			<output>
				<port id="2" precision="FP32" names="68,causal_attention_mask">
					<dim>-1</dim>
					<dim>1</dim>
					<dim>-1</dim>
					<dim>-1</dim>
				</port>
			</output>
		</layer>
		<layer id="143" name="__module.text_model.encoder.layers.0.self_attn/aten::add/Add" type="Add" version="opset1">
			<data auto_broadcast="numpy" />
			<input>
				<port id="0" precision="FP32">
					<dim>-1</dim>
					<dim>12</dim>
					<dim>-1</dim>
					<dim>-1</dim>
				</port>
				<port id="1" precision="FP32">
					<dim>-1</dim>
					<dim>1</dim>
					<dim>-1</dim>
					<dim>-1</dim>
				</port>
			</input>
			<output>
				<port id="2" precision="FP32" names="146,attn_weights.3">
					<dim>-1</dim>
					<dim>12</dim>
					<dim>-1</dim>
					<dim>-1</dim>
				</port>
			</output>
		</layer>
		<layer id="144" name="__module.text_model.encoder.layers.0.self_attn/prim::ListConstruct/Concat_5" type="Concat" version="opset1">
			<data axis="0" />
			<input>
				<port id="0" precision="I64">
					<dim>1</dim>
				</port>
				<port id="1" precision="I64">
					<dim>1</dim>
				</port>
				<port id="2" precision="I64">
					<dim>1</dim>
				</port>
			</input>
			<output>
				<port id="3" precision="I64" names="149">
					<dim>3</dim>
				</port>
			</output>
		</layer>
		<layer id="145" name="__module.text_model.encoder.layers.0.self_attn/aten::view/Reshape_5" type="Reshape" version="opset1">
			<data special_zero="false" />
			<input>
				<port id="0" precision="FP32">
					<dim>-1</dim>
					<dim>12</dim>
					<dim>-1</dim>
					<dim>-1</dim>
				</port>
				<port id="1" precision="I64">
					<dim>3</dim>
				</port>
			</input>
			<output>
				<port id="2" precision="FP32" names="150,input.1">
					<dim>-1</dim>
					<dim>-1</dim>
					<dim>-1</dim>
				</port>
			</output>
		</layer>
		<layer id="146" name="__module.text_model.encoder.layers.0.self_attn/aten::softmax/Softmax" type="SoftMax" version="opset8">
			<data axis="-1" />
			<input>
				<port id="0" precision="FP32">
					<dim>-1</dim>
					<dim>-1</dim>
					<dim>-1</dim>
				</port>
			</input>
			<output>
				<port id="1" precision="FP32" names="151,input.3">
					<dim>-1</dim>
					<dim>-1</dim>
					<dim>-1</dim>
				</port>
			</output>
		</layer>
		<layer id="147" name="self.text_model.encoder.layers.0.self_attn.v_proj.weight_compressed" type="Const" version="opset1">
			<data element_type="u8" shape="768, 768" offset="39344057" size="589824" />
			<output>
				<port id="0" precision="U8">
					<dim>768</dim>
					<dim>768</dim>
				</port>
			</output>
		</layer>
		<layer id="148" name="Convert_764726" type="Convert" version="opset1">
			<data destination_type="f16" />
			<input>
				<port id="0" precision="U8">
					<dim>768</dim>
					<dim>768</dim>
				</port>
			</input>
			<output>
				<port id="1" precision="FP16">
					<dim>768</dim>
					<dim>768</dim>
				</port>
			</output>
		</layer>
		<layer id="149" name="self.text_model.encoder.layers.0.self_attn.v_proj.weight_compressed/zero_point" type="Const" version="opset1">
			<data element_type="u8" shape="768, 1" offset="39933881" size="768" />
			<output>
				<port id="0" precision="U8">
					<dim>768</dim>
					<dim>1</dim>
				</port>
			</output>
		</layer>
		<layer id="150" name="Convert_764729" type="Convert" version="opset1">
			<data destination_type="f16" />
			<input>
				<port id="0" precision="U8">
					<dim>768</dim>
					<dim>1</dim>
				</port>
			</input>
			<output>
				<port id="1" precision="FP16">
					<dim>768</dim>
					<dim>1</dim>
				</port>
			</output>
		</layer>
		<layer id="151" name="self.text_model.encoder.layers.0.self_attn.v_proj.weight_compressed/zero_point/subtract" type="Subtract" version="opset1">
			<data auto_broadcast="numpy" />
			<input>
				<port id="0" precision="FP16">
					<dim>768</dim>
					<dim>768</dim>
				</port>
				<port id="1" precision="FP16">
					<dim>768</dim>
					<dim>1</dim>
				</port>
			</input>
			<output>
				<port id="2" precision="FP16">
					<dim>768</dim>
					<dim>768</dim>
				</port>
			</output>
		</layer>
		<layer id="152" name="self.text_model.encoder.layers.0.self_attn.v_proj.weight_compressed/scale" type="Const" version="opset1">
			<data element_type="f16" shape="768, 1" offset="39934649" size="1536" />
			<output>
				<port id="0" precision="FP16">
					<dim>768</dim>
					<dim>1</dim>
				</port>
			</output>
		</layer>
		<layer id="153" name="self.text_model.encoder.layers.0.self_attn.v_proj.weight_compressed/fq_weights_1" type="Multiply" version="opset1">
			<data auto_broadcast="numpy" />
			<input>
				<port id="0" precision="FP16">
					<dim>768</dim>
					<dim>768</dim>
				</port>
				<port id="1" precision="FP16">
					<dim>768</dim>
					<dim>1</dim>
				</port>
			</input>
			<output>
				<port id="2" precision="FP16">
					<dim>768</dim>
					<dim>768</dim>
				</port>
			</output>
		</layer>
		<layer id="154" name="self.text_model.encoder.layers.0.self_attn.v_proj.weight" type="Convert" version="opset1">
			<data destination_type="f32" />
			<rt_info>
				<attribute name="decompression" version="0" />
			</rt_info>
			<input>
				<port id="0" precision="FP16">
					<dim>768</dim>
					<dim>768</dim>
				</port>
			</input>
			<output>
				<port id="1" precision="FP32">
					<dim>768</dim>
					<dim>768</dim>
				</port>
			</output>
		</layer>
		<layer id="155" name="__module.text_model.encoder.layers.0.self_attn.v_proj/aten::linear/MatMul" type="MatMul" version="opset1">
			<data transpose_a="false" transpose_b="true" />
			<input>
				<port id="0" precision="FP32">
					<dim>-1</dim>
					<dim>-1</dim>
					<dim>768</dim>
				</port>
				<port id="1" precision="FP32">
					<dim>768</dim>
					<dim>768</dim>
				</port>
			</input>
			<output>
				<port id="2" precision="FP32">
					<dim>-1</dim>
					<dim>-1</dim>
					<dim>768</dim>
				</port>
			</output>
		</layer>
		<layer id="156" name="Constant_57373_compressed" type="Const" version="opset1">
			<data element_type="f16" shape="1, 1, 768" offset="39936185" size="1536" />
			<output>
				<port id="0" precision="FP16">
					<dim>1</dim>
					<dim>1</dim>
					<dim>768</dim>
				</port>
			</output>
		</layer>
		<layer id="157" name="Constant_57373" type="Convert" version="opset1">
			<data destination_type="f32" />
			<rt_info>
				<attribute name="decompression" version="0" />
			</rt_info>
			<input>
				<port id="0" precision="FP16">
					<dim>1</dim>
					<dim>1</dim>
					<dim>768</dim>
				</port>
			</input>
			<output>
				<port id="1" precision="FP32">
					<dim>1</dim>
					<dim>1</dim>
					<dim>768</dim>
				</port>
			</output>
		</layer>
		<layer id="158" name="__module.text_model.encoder.layers.0.self_attn.v_proj/aten::linear/Add" type="Add" version="opset1">
			<data auto_broadcast="numpy" />
			<input>
				<port id="0" precision="FP32">
					<dim>-1</dim>
					<dim>-1</dim>
					<dim>768</dim>
				</port>
				<port id="1" precision="FP32">
					<dim>1</dim>
					<dim>1</dim>
					<dim>768</dim>
				</port>
			</input>
			<output>
				<port id="2" precision="FP32" names="122,tensor.3">
					<dim>-1</dim>
					<dim>-1</dim>
					<dim>768</dim>
				</port>
			</output>
		</layer>
		<layer id="159" name="__module.text_model.encoder.layers.0.self_attn/aten::view/Reshape_6" type="Reshape" version="opset1">
			<data special_zero="false" />
			<input>
				<port id="0" precision="FP32">
					<dim>-1</dim>
					<dim>-1</dim>
					<dim>768</dim>
				</port>
				<port id="1" precision="I64">
					<dim>4</dim>
				</port>
			</input>
			<output>
				<port id="2" precision="FP32" names="124">
					<dim>-1</dim>
					<dim>-1</dim>
					<dim>12</dim>
					<dim>64</dim>
				</port>
			</output>
		</layer>
		<layer id="160" name="__module.text_model.encoder.layers.0.self_attn/aten::transpose/ScatterElementsUpdate_3" type="Const" version="opset1">
			<data element_type="i32" shape="4" offset="38750367" size="16" />
			<output>
				<port id="0" precision="I32">
					<dim>4</dim>
				</port>
			</output>
		</layer>
		<layer id="161" name="__module.text_model.encoder.layers.0.self_attn/aten::transpose/Transpose_3" type="Transpose" version="opset1">
			<input>
				<port id="0" precision="FP32">
					<dim>-1</dim>
					<dim>-1</dim>
					<dim>12</dim>
					<dim>64</dim>
				</port>
				<port id="1" precision="I32">
					<dim>4</dim>
				</port>
			</input>
			<output>
				<port id="2" precision="FP32" names="125">
					<dim>-1</dim>
					<dim>12</dim>
					<dim>-1</dim>
					<dim>64</dim>
				</port>
			</output>
		</layer>
		<layer id="162" name="__module.text_model.encoder.layers.0.self_attn/aten::view/Reshape_7" type="Reshape" version="opset1">
			<data special_zero="false" />
			<input>
				<port id="0" precision="FP32">
					<dim>-1</dim>
					<dim>12</dim>
					<dim>-1</dim>
					<dim>64</dim>
				</port>
				<port id="1" precision="I64">
					<dim>3</dim>
				</port>
			</input>
			<output>
				<port id="2" precision="FP32" names="140">
					<dim>-1</dim>
					<dim>-1</dim>
					<dim>64</dim>
				</port>
			</output>
		</layer>
		<layer id="163" name="__module.text_model.encoder.layers.0.self_attn/aten::bmm/MatMul_1" type="MatMul" version="opset1">
			<data transpose_a="false" transpose_b="false" />
			<input>
				<port id="0" precision="FP32">
					<dim>-1</dim>
					<dim>-1</dim>
					<dim>-1</dim>
				</port>
				<port id="1" precision="FP32">
					<dim>-1</dim>
					<dim>-1</dim>
					<dim>64</dim>
				</port>
			</input>
			<output>
				<port id="2" precision="FP32" names="153,attn_output.1">
					<dim>-1</dim>
					<dim>-1</dim>
					<dim>64</dim>
				</port>
			</output>
		</layer>
		<layer id="164" name="__module.text_model.encoder.layers.0.self_attn/prim::ListConstruct/Concat_8" type="Concat" version="opset1">
			<data axis="0" />
			<input>
				<port id="0" precision="I64">
					<dim>1</dim>
				</port>
				<port id="1" precision="I64">
					<dim>1</dim>
				</port>
				<port id="2" precision="I64">
					<dim>1</dim>
				</port>
				<port id="3" precision="I64">
					<dim>1</dim>
				</port>
			</input>
			<output>
				<port id="4" precision="I64" names="154">
					<dim>4</dim>
				</port>
			</output>
		</layer>
		<layer id="165" name="__module.text_model.encoder.layers.0.self_attn/aten::view/Reshape_8" type="Reshape" version="opset1">
			<data special_zero="false" />
			<input>
				<port id="0" precision="FP32">
					<dim>-1</dim>
					<dim>-1</dim>
					<dim>64</dim>
				</port>
				<port id="1" precision="I64">
					<dim>4</dim>
				</port>
			</input>
			<output>
				<port id="2" precision="FP32" names="155,attn_output.3">
					<dim>-1</dim>
					<dim>12</dim>
					<dim>-1</dim>
					<dim>64</dim>
				</port>
			</output>
		</layer>
		<layer id="166" name="__module.text_model.encoder.layers.0.self_attn/aten::transpose/ScatterElementsUpdate_4" type="Const" version="opset1">
			<data element_type="i32" shape="4" offset="38750367" size="16" />
			<output>
				<port id="0" precision="I32">
					<dim>4</dim>
				</port>
			</output>
		</layer>
		<layer id="167" name="__module.text_model.encoder.layers.0.self_attn/aten::transpose/Transpose_4" type="Transpose" version="opset1">
			<input>
				<port id="0" precision="FP32">
					<dim>-1</dim>
					<dim>12</dim>
					<dim>-1</dim>
					<dim>64</dim>
				</port>
				<port id="1" precision="I32">
					<dim>4</dim>
				</port>
			</input>
			<output>
				<port id="2" precision="FP32" names="156,attn_output.5">
					<dim>-1</dim>
					<dim>-1</dim>
					<dim>12</dim>
					<dim>64</dim>
				</port>
			</output>
		</layer>
		<layer id="168" name="Constant_52698" type="Const" version="opset1">
			<data element_type="i64" shape="2" offset="39937721" size="16" />
			<rt_info>
				<attribute name="precise" version="0" />
			</rt_info>
			<output>
				<port id="0" precision="I64">
					<dim>2</dim>
				</port>
			</output>
		</layer>
		<layer id="169" name="Constant_52699" type="Const" version="opset1">
			<data element_type="i64" shape="" offset="38750343" size="8" />
			<rt_info>
				<attribute name="precise" version="0" />
			</rt_info>
			<output>
				<port id="0" precision="I64" />
			</output>
		</layer>
		<layer id="170" name="Gather_52700" type="Gather" version="opset8">
			<data batch_dims="0" />
			<input>
				<port id="0" precision="I64">
					<dim>3</dim>
				</port>
				<port id="1" precision="I64">
					<dim>2</dim>
				</port>
				<port id="2" precision="I64" />
			</input>
			<output>
				<port id="3" precision="I64">
					<dim>2</dim>
				</port>
			</output>
		</layer>
		<layer id="171" name="__module.text_model.encoder.layers.0.self_attn/prim::ListConstruct/Concat_9" type="Concat" version="opset1">
			<data axis="0" />
			<input>
				<port id="0" precision="I64">
					<dim>1</dim>
				</port>
				<port id="1" precision="I64">
					<dim>2</dim>
				</port>
			</input>
			<output>
				<port id="2" precision="I64" names="157">
					<dim>3</dim>
				</port>
			</output>
		</layer>
		<layer id="172" name="__module.text_model.encoder.layers.0.self_attn/aten::reshape/Reshape" type="Reshape" version="opset1">
			<data special_zero="false" />
			<input>
				<port id="0" precision="FP32">
					<dim>-1</dim>
					<dim>-1</dim>
					<dim>12</dim>
					<dim>64</dim>
				</port>
				<port id="1" precision="I64">
					<dim>3</dim>
				</port>
			</input>
			<output>
				<port id="2" precision="FP32" names="158">
					<dim>-1</dim>
					<dim>-1</dim>
					<dim>768</dim>
				</port>
			</output>
		</layer>
		<layer id="173" name="self.text_model.encoder.layers.0.self_attn.out_proj.weight_compressed" type="Const" version="opset1">
			<data element_type="u8" shape="768, 768" offset="39937737" size="589824" />
			<output>
				<port id="0" precision="U8">
					<dim>768</dim>
					<dim>768</dim>
				</port>
			</output>
		</layer>
		<layer id="174" name="Convert_764756" type="Convert" version="opset1">
			<data destination_type="f16" />
			<input>
				<port id="0" precision="U8">
					<dim>768</dim>
					<dim>768</dim>
				</port>
			</input>
			<output>
				<port id="1" precision="FP16">
					<dim>768</dim>
					<dim>768</dim>
				</port>
			</output>
		</layer>
		<layer id="175" name="self.text_model.encoder.layers.0.self_attn.out_proj.weight_compressed/zero_point" type="Const" version="opset1">
			<data element_type="u8" shape="768, 1" offset="40527561" size="768" />
			<output>
				<port id="0" precision="U8">
					<dim>768</dim>
					<dim>1</dim>
				</port>
			</output>
		</layer>
		<layer id="176" name="Convert_764759" type="Convert" version="opset1">
			<data destination_type="f16" />
			<input>
				<port id="0" precision="U8">
					<dim>768</dim>
					<dim>1</dim>
				</port>
			</input>
			<output>
				<port id="1" precision="FP16">
					<dim>768</dim>
					<dim>1</dim>
				</port>
			</output>
		</layer>
		<layer id="177" name="self.text_model.encoder.layers.0.self_attn.out_proj.weight_compressed/zero_point/subtract" type="Subtract" version="opset1">
			<data auto_broadcast="numpy" />
			<input>
				<port id="0" precision="FP16">
					<dim>768</dim>
					<dim>768</dim>
				</port>
				<port id="1" precision="FP16">
					<dim>768</dim>
					<dim>1</dim>
				</port>
			</input>
			<output>
				<port id="2" precision="FP16">
					<dim>768</dim>
					<dim>768</dim>
				</port>
			</output>
		</layer>
		<layer id="178" name="self.text_model.encoder.layers.0.self_attn.out_proj.weight_compressed/scale" type="Const" version="opset1">
			<data element_type="f16" shape="768, 1" offset="40528329" size="1536" />
			<output>
				<port id="0" precision="FP16">
					<dim>768</dim>
					<dim>1</dim>
				</port>
			</output>
		</layer>
		<layer id="179" name="self.text_model.encoder.layers.0.self_attn.out_proj.weight_compressed/fq_weights_1" type="Multiply" version="opset1">
			<data auto_broadcast="numpy" />
			<input>
				<port id="0" precision="FP16">
					<dim>768</dim>
					<dim>768</dim>
				</port>
				<port id="1" precision="FP16">
					<dim>768</dim>
					<dim>1</dim>
				</port>
			</input>
			<output>
				<port id="2" precision="FP16">
					<dim>768</dim>
					<dim>768</dim>
				</port>
			</output>
		</layer>
		<layer id="180" name="self.text_model.encoder.layers.0.self_attn.out_proj.weight" type="Convert" version="opset1">
			<data destination_type="f32" />
			<rt_info>
				<attribute name="decompression" version="0" />
			</rt_info>
			<input>
				<port id="0" precision="FP16">
					<dim>768</dim>
					<dim>768</dim>
				</port>
			</input>
			<output>
				<port id="1" precision="FP32">
					<dim>768</dim>
					<dim>768</dim>
				</port>
			</output>
		</layer>
		<layer id="181" name="__module.text_model.encoder.layers.0.self_attn.out_proj/aten::linear/MatMul" type="MatMul" version="opset1">
			<data transpose_a="false" transpose_b="true" />
			<input>
				<port id="0" precision="FP32">
					<dim>-1</dim>
					<dim>-1</dim>
					<dim>768</dim>
				</port>
				<port id="1" precision="FP32">
					<dim>768</dim>
					<dim>768</dim>
				</port>
			</input>
			<output>
				<port id="2" precision="FP32">
					<dim>-1</dim>
					<dim>-1</dim>
					<dim>768</dim>
				</port>
			</output>
		</layer>
		<layer id="182" name="Constant_57374_compressed" type="Const" version="opset1">
			<data element_type="f16" shape="1, 1, 768" offset="40529865" size="1536" />
			<output>
				<port id="0" precision="FP16">
					<dim>1</dim>
					<dim>1</dim>
					<dim>768</dim>
				</port>
			</output>
		</layer>
		<layer id="183" name="Constant_57374" type="Convert" version="opset1">
			<data destination_type="f32" />
			<rt_info>
				<attribute name="decompression" version="0" />
			</rt_info>
			<input>
				<port id="0" precision="FP16">
					<dim>1</dim>
					<dim>1</dim>
					<dim>768</dim>
				</port>
			</input>
			<output>
				<port id="1" precision="FP32">
					<dim>1</dim>
					<dim>1</dim>
					<dim>768</dim>
				</port>
			</output>
		</layer>
		<layer id="184" name="__module.text_model.encoder.layers.0.self_attn.out_proj/aten::linear/Add" type="Add" version="opset1">
			<data auto_broadcast="numpy" />
			<input>
				<port id="0" precision="FP32">
					<dim>-1</dim>
					<dim>-1</dim>
					<dim>768</dim>
				</port>
				<port id="1" precision="FP32">
					<dim>1</dim>
					<dim>1</dim>
					<dim>768</dim>
				</port>
			</input>
			<output>
				<port id="2" precision="FP32" names="161,hidden_states.3">
					<dim>-1</dim>
					<dim>-1</dim>
					<dim>768</dim>
				</port>
			</output>
		</layer>
		<layer id="185" name="__module.text_model.encoder.layers.0/aten::add/Add" type="Add" version="opset1">
			<data auto_broadcast="numpy" />
			<input>
				<port id="0" precision="FP32">
					<dim>-1</dim>
					<dim>-1</dim>
					<dim>768</dim>
				</port>
				<port id="1" precision="FP32">
					<dim>-1</dim>
					<dim>-1</dim>
					<dim>768</dim>
				</port>
			</input>
			<output>
				<port id="2" precision="FP32" names="162,residual.3">
					<dim>-1</dim>
					<dim>-1</dim>
					<dim>768</dim>
				</port>
			</output>
		</layer>
		<layer id="186" name="__module.text_model.encoder.layers.0.layer_norm2/aten::layer_norm/Constant" type="Const" version="opset1">
			<data element_type="i32" shape="1" offset="38153603" size="4" />
			<output>
				<port id="0" precision="I32">
					<dim>1</dim>
				</port>
			</output>
		</layer>
		<layer id="187" name="__module.text_model.encoder.layers.0.layer_norm2/aten::layer_norm/MVN" type="MVN" version="opset6">
			<data eps="9.9999997473787516e-06" normalize_variance="true" eps_mode="INSIDE_SQRT" />
			<input>
				<port id="0" precision="FP32">
					<dim>-1</dim>
					<dim>-1</dim>
					<dim>768</dim>
				</port>
				<port id="1" precision="I32">
					<dim>1</dim>
				</port>
			</input>
			<output>
				<port id="2" precision="FP32">
					<dim>-1</dim>
					<dim>-1</dim>
					<dim>768</dim>
				</port>
			</output>
		</layer>
		<layer id="188" name="Constant_57375_compressed" type="Const" version="opset1">
			<data element_type="f16" shape="1, 1, 768" offset="40531401" size="1536" />
			<output>
				<port id="0" precision="FP16">
					<dim>1</dim>
					<dim>1</dim>
					<dim>768</dim>
				</port>
			</output>
		</layer>
		<layer id="189" name="Constant_57375" type="Convert" version="opset1">
			<data destination_type="f32" />
			<rt_info>
				<attribute name="decompression" version="0" />
			</rt_info>
			<input>
				<port id="0" precision="FP16">
					<dim>1</dim>
					<dim>1</dim>
					<dim>768</dim>
				</port>
			</input>
			<output>
				<port id="1" precision="FP32">
					<dim>1</dim>
					<dim>1</dim>
					<dim>768</dim>
				</port>
			</output>
		</layer>
		<layer id="190" name="__module.text_model.encoder.layers.0.layer_norm2/aten::layer_norm/Multiply" type="Multiply" version="opset1">
			<data auto_broadcast="numpy" />
			<input>
				<port id="0" precision="FP32">
					<dim>-1</dim>
					<dim>-1</dim>
					<dim>768</dim>
				</port>
				<port id="1" precision="FP32">
					<dim>1</dim>
					<dim>1</dim>
					<dim>768</dim>
				</port>
			</input>
			<output>
				<port id="2" precision="FP32">
					<dim>-1</dim>
					<dim>-1</dim>
					<dim>768</dim>
				</port>
			</output>
		</layer>
		<layer id="191" name="Constant_57376_compressed" type="Const" version="opset1">
			<data element_type="f16" shape="1, 1, 768" offset="40532937" size="1536" />
			<output>
				<port id="0" precision="FP16">
					<dim>1</dim>
					<dim>1</dim>
					<dim>768</dim>
				</port>
			</output>
		</layer>
		<layer id="192" name="Constant_57376" type="Convert" version="opset1">
			<data destination_type="f32" />
			<rt_info>
				<attribute name="decompression" version="0" />
			</rt_info>
			<input>
				<port id="0" precision="FP16">
					<dim>1</dim>
					<dim>1</dim>
					<dim>768</dim>
				</port>
			</input>
			<output>
				<port id="1" precision="FP32">
					<dim>1</dim>
					<dim>1</dim>
					<dim>768</dim>
				</port>
			</output>
		</layer>
		<layer id="193" name="__module.text_model.encoder.layers.0.layer_norm2/aten::layer_norm/Add" type="Add" version="opset1">
			<data auto_broadcast="numpy" />
			<input>
				<port id="0" precision="FP32">
					<dim>-1</dim>
					<dim>-1</dim>
					<dim>768</dim>
				</port>
				<port id="1" precision="FP32">
					<dim>1</dim>
					<dim>1</dim>
					<dim>768</dim>
				</port>
			</input>
			<output>
				<port id="2" precision="FP32" names="166">
					<dim>-1</dim>
					<dim>-1</dim>
					<dim>768</dim>
				</port>
			</output>
		</layer>
		<layer id="194" name="self.text_model.encoder.layers.0.mlp.fc1.weight_compressed" type="Const" version="opset1">
			<data element_type="u8" shape="3072, 768" offset="40534473" size="2359296" />
			<output>
				<port id="0" precision="U8">
					<dim>3072</dim>
					<dim>768</dim>
				</port>
			</output>
		</layer>
		<layer id="195" name="Convert_764766" type="Convert" version="opset1">
			<data destination_type="f16" />
			<input>
				<port id="0" precision="U8">
					<dim>3072</dim>
					<dim>768</dim>
				</port>
			</input>
			<output>
				<port id="1" precision="FP16">
					<dim>3072</dim>
					<dim>768</dim>
				</port>
			</output>
		</layer>
		<layer id="196" name="self.text_model.encoder.layers.0.mlp.fc1.weight_compressed/zero_point" type="Const" version="opset1">
			<data element_type="u8" shape="3072, 1" offset="42893769" size="3072" />
			<output>
				<port id="0" precision="U8">
					<dim>3072</dim>
					<dim>1</dim>
				</port>
			</output>
		</layer>
		<layer id="197" name="Convert_764769" type="Convert" version="opset1">
			<data destination_type="f16" />
			<input>
				<port id="0" precision="U8">
					<dim>3072</dim>
					<dim>1</dim>
				</port>
			</input>
			<output>
				<port id="1" precision="FP16">
					<dim>3072</dim>
					<dim>1</dim>
				</port>
			</output>
		</layer>
		<layer id="198" name="self.text_model.encoder.layers.0.mlp.fc1.weight_compressed/zero_point/subtract" type="Subtract" version="opset1">
			<data auto_broadcast="numpy" />
			<input>
				<port id="0" precision="FP16">
					<dim>3072</dim>
					<dim>768</dim>
				</port>
				<port id="1" precision="FP16">
					<dim>3072</dim>
					<dim>1</dim>
				</port>
			</input>
			<output>
				<port id="2" precision="FP16">
					<dim>3072</dim>
					<dim>768</dim>
				</port>
			</output>
		</layer>
		<layer id="199" name="self.text_model.encoder.layers.0.mlp.fc1.weight_compressed/scale" type="Const" version="opset1">
			<data element_type="f16" shape="3072, 1" offset="42896841" size="6144" />
			<output>
				<port id="0" precision="FP16">
					<dim>3072</dim>
					<dim>1</dim>
				</port>
			</output>
		</layer>
		<layer id="200" name="self.text_model.encoder.layers.0.mlp.fc1.weight_compressed/fq_weights_1" type="Multiply" version="opset1">
			<data auto_broadcast="numpy" />
			<input>
				<port id="0" precision="FP16">
					<dim>3072</dim>
					<dim>768</dim>
				</port>
				<port id="1" precision="FP16">
					<dim>3072</dim>
					<dim>1</dim>
				</port>
			</input>
			<output>
				<port id="2" precision="FP16">
					<dim>3072</dim>
					<dim>768</dim>
				</port>
			</output>
		</layer>
		<layer id="201" name="self.text_model.encoder.layers.0.mlp.fc1.weight" type="Convert" version="opset1">
			<data destination_type="f32" />
			<rt_info>
				<attribute name="decompression" version="0" />
			</rt_info>
			<input>
				<port id="0" precision="FP16">
					<dim>3072</dim>
					<dim>768</dim>
				</port>
			</input>
			<output>
				<port id="1" precision="FP32">
					<dim>3072</dim>
					<dim>768</dim>
				</port>
			</output>
		</layer>
		<layer id="202" name="__module.text_model.encoder.layers.0.mlp.fc1/aten::linear/MatMul" type="MatMul" version="opset1">
			<data transpose_a="false" transpose_b="true" />
			<input>
				<port id="0" precision="FP32">
					<dim>-1</dim>
					<dim>-1</dim>
					<dim>768</dim>
				</port>
				<port id="1" precision="FP32">
					<dim>3072</dim>
					<dim>768</dim>
				</port>
			</input>
			<output>
				<port id="2" precision="FP32">
					<dim>-1</dim>
					<dim>-1</dim>
					<dim>3072</dim>
				</port>
			</output>
		</layer>
		<layer id="203" name="Constant_57377_compressed" type="Const" version="opset1">
			<data element_type="f16" shape="1, 1, 3072" offset="42902985" size="6144" />
			<output>
				<port id="0" precision="FP16">
					<dim>1</dim>
					<dim>1</dim>
					<dim>3072</dim>
				</port>
			</output>
		</layer>
		<layer id="204" name="Constant_57377" type="Convert" version="opset1">
			<data destination_type="f32" />
			<rt_info>
				<attribute name="decompression" version="0" />
			</rt_info>
			<input>
				<port id="0" precision="FP16">
					<dim>1</dim>
					<dim>1</dim>
					<dim>3072</dim>
				</port>
			</input>
			<output>
				<port id="1" precision="FP32">
					<dim>1</dim>
					<dim>1</dim>
					<dim>3072</dim>
				</port>
			</output>
		</layer>
		<layer id="205" name="__module.text_model.encoder.layers.0.mlp.fc1/aten::linear/Add" type="Add" version="opset1">
			<data auto_broadcast="numpy" />
			<input>
				<port id="0" precision="FP32">
					<dim>-1</dim>
					<dim>-1</dim>
					<dim>3072</dim>
				</port>
				<port id="1" precision="FP32">
					<dim>1</dim>
					<dim>1</dim>
					<dim>3072</dim>
				</port>
			</input>
			<output>
				<port id="2" precision="FP32" names="171,input.5">
					<dim>-1</dim>
					<dim>-1</dim>
					<dim>3072</dim>
				</port>
			</output>
		</layer>
		<layer id="206" name="Constant_56599_compressed" type="Const" version="opset1">
			<data element_type="f16" shape="" offset="42909129" size="2" />
			<output>
				<port id="0" precision="FP16" />
			</output>
		</layer>
		<layer id="207" name="Constant_56599" type="Convert" version="opset1">
			<data destination_type="f32" />
			<rt_info>
				<attribute name="decompression" version="0" />
			</rt_info>
			<input>
				<port id="0" precision="FP16" />
			</input>
			<output>
				<port id="1" precision="FP32" />
			</output>
		</layer>
		<layer id="208" name="__module.text_model.encoder.layers.0.mlp.activation_fn/aten::mul/Multiply_1" type="Swish" version="opset4">
			<input>
				<port id="0" precision="FP32">
					<dim>-1</dim>
					<dim>-1</dim>
					<dim>3072</dim>
				</port>
				<port id="1" precision="FP32" />
			</input>
			<output>
				<port id="2" precision="FP32" names="174">
					<dim>-1</dim>
					<dim>-1</dim>
					<dim>3072</dim>
				</port>
			</output>
		</layer>
		<layer id="209" name="self.text_model.encoder.layers.0.mlp.fc2.weight_compressed" type="Const" version="opset1">
			<data element_type="u8" shape="768, 3072" offset="42909131" size="2359296" />
			<output>
				<port id="0" precision="U8">
					<dim>768</dim>
					<dim>3072</dim>
				</port>
			</output>
		</layer>
		<layer id="210" name="Convert_764776" type="Convert" version="opset1">
			<data destination_type="f16" />
			<input>
				<port id="0" precision="U8">
					<dim>768</dim>
					<dim>3072</dim>
				</port>
			</input>
			<output>
				<port id="1" precision="FP16">
					<dim>768</dim>
					<dim>3072</dim>
				</port>
			</output>
		</layer>
		<layer id="211" name="self.text_model.encoder.layers.0.mlp.fc2.weight_compressed/zero_point" type="Const" version="opset1">
			<data element_type="u8" shape="768, 1" offset="45268427" size="768" />
			<output>
				<port id="0" precision="U8">
					<dim>768</dim>
					<dim>1</dim>
				</port>
			</output>
		</layer>
		<layer id="212" name="Convert_764779" type="Convert" version="opset1">
			<data destination_type="f16" />
			<input>
				<port id="0" precision="U8">
					<dim>768</dim>
					<dim>1</dim>
				</port>
			</input>
			<output>
				<port id="1" precision="FP16">
					<dim>768</dim>
					<dim>1</dim>
				</port>
			</output>
		</layer>
		<layer id="213" name="self.text_model.encoder.layers.0.mlp.fc2.weight_compressed/zero_point/subtract" type="Subtract" version="opset1">
			<data auto_broadcast="numpy" />
			<input>
				<port id="0" precision="FP16">
					<dim>768</dim>
					<dim>3072</dim>
				</port>
				<port id="1" precision="FP16">
					<dim>768</dim>
					<dim>1</dim>
				</port>
			</input>
			<output>
				<port id="2" precision="FP16">
					<dim>768</dim>
					<dim>3072</dim>
				</port>
			</output>
		</layer>
		<layer id="214" name="self.text_model.encoder.layers.0.mlp.fc2.weight_compressed/scale" type="Const" version="opset1">
			<data element_type="f16" shape="768, 1" offset="45269195" size="1536" />
			<output>
				<port id="0" precision="FP16">
					<dim>768</dim>
					<dim>1</dim>
				</port>
			</output>
		</layer>
		<layer id="215" name="self.text_model.encoder.layers.0.mlp.fc2.weight_compressed/fq_weights_1" type="Multiply" version="opset1">
			<data auto_broadcast="numpy" />
			<input>
				<port id="0" precision="FP16">
					<dim>768</dim>
					<dim>3072</dim>
				</port>
				<port id="1" precision="FP16">
					<dim>768</dim>
					<dim>1</dim>
				</port>
			</input>
			<output>
				<port id="2" precision="FP16">
					<dim>768</dim>
					<dim>3072</dim>
				</port>
			</output>
		</layer>
		<layer id="216" name="self.text_model.encoder.layers.0.mlp.fc2.weight" type="Convert" version="opset1">
			<data destination_type="f32" />
			<rt_info>
				<attribute name="decompression" version="0" />
			</rt_info>
			<input>
				<port id="0" precision="FP16">
					<dim>768</dim>
					<dim>3072</dim>
				</port>
			</input>
			<output>
				<port id="1" precision="FP32">
					<dim>768</dim>
					<dim>3072</dim>
				</port>
			</output>
		</layer>
		<layer id="217" name="__module.text_model.encoder.layers.0.mlp.fc2/aten::linear/MatMul" type="MatMul" version="opset1">
			<data transpose_a="false" transpose_b="true" />
			<input>
				<port id="0" precision="FP32">
					<dim>-1</dim>
					<dim>-1</dim>
					<dim>3072</dim>
				</port>
				<port id="1" precision="FP32">
					<dim>768</dim>
					<dim>3072</dim>
				</port>
			</input>
			<output>
				<port id="2" precision="FP32">
					<dim>-1</dim>
					<dim>-1</dim>
					<dim>768</dim>
				</port>
			</output>
		</layer>
		<layer id="218" name="Constant_57378_compressed" type="Const" version="opset1">
			<data element_type="f16" shape="1, 1, 768" offset="45270731" size="1536" />
			<output>
				<port id="0" precision="FP16">
					<dim>1</dim>
					<dim>1</dim>
					<dim>768</dim>
				</port>
			</output>
		</layer>
		<layer id="219" name="Constant_57378" type="Convert" version="opset1">
			<data destination_type="f32" />
			<rt_info>
				<attribute name="decompression" version="0" />
			</rt_info>
			<input>
				<port id="0" precision="FP16">
					<dim>1</dim>
					<dim>1</dim>
					<dim>768</dim>
				</port>
			</input>
			<output>
				<port id="1" precision="FP32">
					<dim>1</dim>
					<dim>1</dim>
					<dim>768</dim>
				</port>
			</output>
		</layer>
		<layer id="220" name="__module.text_model.encoder.layers.0.mlp.fc2/aten::linear/Add" type="Add" version="opset1">
			<data auto_broadcast="numpy" />
			<input>
				<port id="0" precision="FP32">
					<dim>-1</dim>
					<dim>-1</dim>
					<dim>768</dim>
				</port>
				<port id="1" precision="FP32">
					<dim>1</dim>
					<dim>1</dim>
					<dim>768</dim>
				</port>
			</input>
			<output>
				<port id="2" precision="FP32" names="177,hidden_states.5">
					<dim>-1</dim>
					<dim>-1</dim>
					<dim>768</dim>
				</port>
			</output>
		</layer>
		<layer id="221" name="__module.text_model.encoder.layers.0/aten::add/Add_1" type="Add" version="opset1">
			<data auto_broadcast="numpy" />
			<input>
				<port id="0" precision="FP32">
					<dim>-1</dim>
					<dim>-1</dim>
					<dim>768</dim>
				</port>
				<port id="1" precision="FP32">
					<dim>-1</dim>
					<dim>-1</dim>
					<dim>768</dim>
				</port>
			</input>
			<output>
				<port id="2" precision="FP32" names="178,residual.5">
					<dim>-1</dim>
					<dim>-1</dim>
					<dim>768</dim>
				</port>
			</output>
		</layer>
		<layer id="222" name="__module.text_model.encoder.layers.1.layer_norm1/aten::layer_norm/Constant" type="Const" version="opset1">
			<data element_type="i32" shape="1" offset="38153603" size="4" />
			<output>
				<port id="0" precision="I32">
					<dim>1</dim>
				</port>
			</output>
		</layer>
		<layer id="223" name="__module.text_model.encoder.layers.1.layer_norm1/aten::layer_norm/MVN" type="MVN" version="opset6">
			<data eps="9.9999997473787516e-06" normalize_variance="true" eps_mode="INSIDE_SQRT" />
			<input>
				<port id="0" precision="FP32">
					<dim>-1</dim>
					<dim>-1</dim>
					<dim>768</dim>
				</port>
				<port id="1" precision="I32">
					<dim>1</dim>
				</port>
			</input>
			<output>
				<port id="2" precision="FP32">
					<dim>-1</dim>
					<dim>-1</dim>
					<dim>768</dim>
				</port>
			</output>
		</layer>
		<layer id="224" name="Constant_57379_compressed" type="Const" version="opset1">
			<data element_type="f16" shape="1, 1, 768" offset="45272267" size="1536" />
			<output>
				<port id="0" precision="FP16">
					<dim>1</dim>
					<dim>1</dim>
					<dim>768</dim>
				</port>
			</output>
		</layer>
		<layer id="225" name="Constant_57379" type="Convert" version="opset1">
			<data destination_type="f32" />
			<rt_info>
				<attribute name="decompression" version="0" />
			</rt_info>
			<input>
				<port id="0" precision="FP16">
					<dim>1</dim>
					<dim>1</dim>
					<dim>768</dim>
				</port>
			</input>
			<output>
				<port id="1" precision="FP32">
					<dim>1</dim>
					<dim>1</dim>
					<dim>768</dim>
				</port>
			</output>
		</layer>
		<layer id="226" name="__module.text_model.encoder.layers.1.layer_norm1/aten::layer_norm/Multiply" type="Multiply" version="opset1">
			<data auto_broadcast="numpy" />
			<input>
				<port id="0" precision="FP32">
					<dim>-1</dim>
					<dim>-1</dim>
					<dim>768</dim>
				</port>
				<port id="1" precision="FP32">
					<dim>1</dim>
					<dim>1</dim>
					<dim>768</dim>
				</port>
			</input>
			<output>
				<port id="2" precision="FP32">
					<dim>-1</dim>
					<dim>-1</dim>
					<dim>768</dim>
				</port>
			</output>
		</layer>
		<layer id="227" name="Constant_57380_compressed" type="Const" version="opset1">
			<data element_type="f16" shape="1, 1, 768" offset="45273803" size="1536" />
			<output>
				<port id="0" precision="FP16">
					<dim>1</dim>
					<dim>1</dim>
					<dim>768</dim>
				</port>
			</output>
		</layer>
		<layer id="228" name="Constant_57380" type="Convert" version="opset1">
			<data destination_type="f32" />
			<rt_info>
				<attribute name="decompression" version="0" />
			</rt_info>
			<input>
				<port id="0" precision="FP16">
					<dim>1</dim>
					<dim>1</dim>
					<dim>768</dim>
				</port>
			</input>
			<output>
				<port id="1" precision="FP32">
					<dim>1</dim>
					<dim>1</dim>
					<dim>768</dim>
				</port>
			</output>
		</layer>
		<layer id="229" name="__module.text_model.encoder.layers.1.layer_norm1/aten::layer_norm/Add" type="Add" version="opset1">
			<data auto_broadcast="numpy" />
			<input>
				<port id="0" precision="FP32">
					<dim>-1</dim>
					<dim>-1</dim>
					<dim>768</dim>
				</port>
				<port id="1" precision="FP32">
					<dim>1</dim>
					<dim>1</dim>
					<dim>768</dim>
				</port>
			</input>
			<output>
				<port id="2" precision="FP32" names="186,hidden_states.7">
					<dim>-1</dim>
					<dim>-1</dim>
					<dim>768</dim>
				</port>
			</output>
		</layer>
		<layer id="230" name="Constant_57039_compressed" type="Const" version="opset1">
			<data element_type="u8" shape="768, 768" offset="45275339" size="589824" />
			<output>
				<port id="0" precision="U8">
					<dim>768</dim>
					<dim>768</dim>
				</port>
			</output>
		</layer>
		<layer id="231" name="Convert_764806" type="Convert" version="opset1">
			<data destination_type="f16" />
			<input>
				<port id="0" precision="U8">
					<dim>768</dim>
					<dim>768</dim>
				</port>
			</input>
			<output>
				<port id="1" precision="FP16">
					<dim>768</dim>
					<dim>768</dim>
				</port>
			</output>
		</layer>
		<layer id="232" name="Constant_57039_compressed/zero_point" type="Const" version="opset1">
			<data element_type="u8" shape="768, 1" offset="45865163" size="768" />
			<output>
				<port id="0" precision="U8">
					<dim>768</dim>
					<dim>1</dim>
				</port>
			</output>
		</layer>
		<layer id="233" name="Convert_764809" type="Convert" version="opset1">
			<data destination_type="f16" />
			<input>
				<port id="0" precision="U8">
					<dim>768</dim>
					<dim>1</dim>
				</port>
			</input>
			<output>
				<port id="1" precision="FP16">
					<dim>768</dim>
					<dim>1</dim>
				</port>
			</output>
		</layer>
		<layer id="234" name="Constant_57039_compressed/zero_point/subtract" type="Subtract" version="opset1">
			<data auto_broadcast="numpy" />
			<input>
				<port id="0" precision="FP16">
					<dim>768</dim>
					<dim>768</dim>
				</port>
				<port id="1" precision="FP16">
					<dim>768</dim>
					<dim>1</dim>
				</port>
			</input>
			<output>
				<port id="2" precision="FP16">
					<dim>768</dim>
					<dim>768</dim>
				</port>
			</output>
		</layer>
		<layer id="235" name="Constant_57039_compressed/scale" type="Const" version="opset1">
			<data element_type="f16" shape="768, 1" offset="45865931" size="1536" />
			<output>
				<port id="0" precision="FP16">
					<dim>768</dim>
					<dim>1</dim>
				</port>
			</output>
		</layer>
		<layer id="236" name="Constant_57039_compressed/fq_weights_1" type="Multiply" version="opset1">
			<data auto_broadcast="numpy" />
			<input>
				<port id="0" precision="FP16">
					<dim>768</dim>
					<dim>768</dim>
				</port>
				<port id="1" precision="FP16">
					<dim>768</dim>
					<dim>1</dim>
				</port>
			</input>
			<output>
				<port id="2" precision="FP16">
					<dim>768</dim>
					<dim>768</dim>
				</port>
			</output>
		</layer>
		<layer id="237" name="Constant_57039" type="Convert" version="opset1">
			<data destination_type="f32" />
			<rt_info>
				<attribute name="decompression" version="0" />
			</rt_info>
			<input>
				<port id="0" precision="FP16">
					<dim>768</dim>
					<dim>768</dim>
				</port>
			</input>
			<output>
				<port id="1" precision="FP32">
					<dim>768</dim>
					<dim>768</dim>
				</port>
			</output>
		</layer>
		<layer id="238" name="Multiply_56991" type="MatMul" version="opset1">
			<data transpose_a="false" transpose_b="true" />
			<input>
				<port id="0" precision="FP32">
					<dim>-1</dim>
					<dim>-1</dim>
					<dim>768</dim>
				</port>
				<port id="1" precision="FP32">
					<dim>768</dim>
					<dim>768</dim>
				</port>
			</input>
			<output>
				<port id="2" precision="FP32">
					<dim>-1</dim>
					<dim>-1</dim>
					<dim>768</dim>
				</port>
			</output>
		</layer>
		<layer id="239" name="Constant_57381_compressed" type="Const" version="opset1">
			<data element_type="f16" shape="1, 1, 768" offset="45867467" size="1536" />
			<output>
				<port id="0" precision="FP16">
					<dim>1</dim>
					<dim>1</dim>
					<dim>768</dim>
				</port>
			</output>
		</layer>
		<layer id="240" name="Constant_57381" type="Convert" version="opset1">
			<data destination_type="f32" />
			<rt_info>
				<attribute name="decompression" version="0" />
			</rt_info>
			<input>
				<port id="0" precision="FP16">
					<dim>1</dim>
					<dim>1</dim>
					<dim>768</dim>
				</port>
			</input>
			<output>
				<port id="1" precision="FP32">
					<dim>1</dim>
					<dim>1</dim>
					<dim>768</dim>
				</port>
			</output>
		</layer>
		<layer id="241" name="__module.text_model.encoder.layers.1.self_attn/aten::mul/Multiply" type="Add" version="opset1">
			<data auto_broadcast="numpy" />
			<input>
				<port id="0" precision="FP32">
					<dim>-1</dim>
					<dim>-1</dim>
					<dim>768</dim>
				</port>
				<port id="1" precision="FP32">
					<dim>1</dim>
					<dim>1</dim>
					<dim>768</dim>
				</port>
			</input>
			<output>
				<port id="2" precision="FP32" names="198,tensor.11">
					<dim>-1</dim>
					<dim>-1</dim>
					<dim>768</dim>
				</port>
			</output>
		</layer>
		<layer id="242" name="__module.text_model.encoder.layers.1.self_attn/aten::size/ShapeOf" type="ShapeOf" version="opset3">
			<data output_type="i64" />
			<input>
				<port id="0" precision="FP32">
					<dim>-1</dim>
					<dim>-1</dim>
					<dim>768</dim>
				</port>
			</input>
			<output>
				<port id="1" precision="I64">
					<dim>3</dim>
				</port>
			</output>
		</layer>
		<layer id="243" name="__module.text_model.encoder.layers.1.self_attn/aten::size/Constant" type="Const" version="opset1">
			<data element_type="i32" shape="" offset="38093584" size="4" />
			<rt_info>
				<attribute name="precise" version="0" />
			</rt_info>
			<output>
				<port id="0" precision="I32" />
			</output>
		</layer>
		<layer id="244" name="__module.text_model.encoder.layers.1.self_attn/aten::size/Gather" type="Gather" version="opset8">
			<data batch_dims="0" />
			<input>
				<port id="0" precision="I64">
					<dim>3</dim>
				</port>
				<port id="1" precision="I64" />
				<port id="2" precision="I32" />
			</input>
			<output>
				<port id="3" precision="I64" names="191" />
			</output>
		</layer>
		<layer id="245" name="Constant_35354" type="Const" version="opset1">
			<data element_type="i64" shape="1" offset="38093568" size="8" />
			<rt_info>
				<attribute name="precise" version="0" />
			</rt_info>
			<output>
				<port id="0" precision="I64">
					<dim>1</dim>
				</port>
			</output>
		</layer>
		<layer id="246" name="__module.text_model.encoder.layers.1.self_attn/prim::ListConstruct/Reshape" type="Reshape" version="opset1">
			<data special_zero="false" />
			<input>
				<port id="0" precision="I64" />
				<port id="1" precision="I64">
					<dim>1</dim>
				</port>
			</input>
			<output>
				<port id="2" precision="I64">
					<dim>1</dim>
				</port>
			</output>
		</layer>
		<layer id="247" name="Constant_52600" type="Const" version="opset1">
			<data element_type="i64" shape="1" offset="38093576" size="8" />
			<rt_info>
				<attribute name="precise" version="0" />
			</rt_info>
			<output>
				<port id="0" precision="I64">
					<dim>1</dim>
				</port>
			</output>
		</layer>
		<layer id="248" name="__module.text_model.encoder.layers.1.self_attn/aten::size/Constant_1" type="Const" version="opset1">
			<data element_type="i32" shape="" offset="38093584" size="4" />
			<rt_info>
				<attribute name="precise" version="0" />
			</rt_info>
			<output>
				<port id="0" precision="I32" />
			</output>
		</layer>
		<layer id="249" name="__module.text_model.encoder.layers.1.self_attn/aten::size/Gather_1" type="Gather" version="opset8">
			<data batch_dims="0" />
			<input>
				<port id="0" precision="I64">
					<dim>3</dim>
				</port>
				<port id="1" precision="I64">
					<dim>1</dim>
				</port>
				<port id="2" precision="I32" />
			</input>
			<output>
				<port id="3" precision="I64" names="193">
					<dim>1</dim>
				</port>
			</output>
		</layer>
		<layer id="250" name="__module.text_model.encoder.layers.1.self_attn/prim::ListConstruct/Concat" type="Concat" version="opset1">
			<data axis="0" />
			<input>
				<port id="0" precision="I64">
					<dim>1</dim>
				</port>
				<port id="1" precision="I64">
					<dim>1</dim>
				</port>
				<port id="2" precision="I64">
					<dim>1</dim>
				</port>
				<port id="3" precision="I64">
					<dim>1</dim>
				</port>
			</input>
			<output>
				<port id="4" precision="I64" names="217">
					<dim>4</dim>
				</port>
			</output>
		</layer>
		<layer id="251" name="__module.text_model.encoder.layers.1.self_attn/aten::view/Reshape" type="Reshape" version="opset1">
			<data special_zero="false" />
			<input>
				<port id="0" precision="FP32">
					<dim>-1</dim>
					<dim>-1</dim>
					<dim>768</dim>
				</port>
				<port id="1" precision="I64">
					<dim>4</dim>
				</port>
			</input>
			<output>
				<port id="2" precision="FP32" names="218">
					<dim>-1</dim>
					<dim>-1</dim>
					<dim>12</dim>
					<dim>64</dim>
				</port>
			</output>
		</layer>
		<layer id="252" name="__module.text_model.encoder.layers.1.self_attn/aten::transpose/ScatterElementsUpdate" type="Const" version="opset1">
			<data element_type="i32" shape="4" offset="38750367" size="16" />
			<output>
				<port id="0" precision="I32">
					<dim>4</dim>
				</port>
			</output>
		</layer>
		<layer id="253" name="__module.text_model.encoder.layers.1.self_attn/aten::transpose/Transpose" type="Transpose" version="opset1">
			<input>
				<port id="0" precision="FP32">
					<dim>-1</dim>
					<dim>-1</dim>
					<dim>12</dim>
					<dim>64</dim>
				</port>
				<port id="1" precision="I32">
					<dim>4</dim>
				</port>
			</input>
			<output>
				<port id="2" precision="FP32" names="219">
					<dim>-1</dim>
					<dim>12</dim>
					<dim>-1</dim>
					<dim>64</dim>
				</port>
			</output>
		</layer>
		<layer id="254" name="__module.text_model.encoder.layers.1.self_attn/aten::mul/Multiply_1" type="Multiply" version="opset1">
			<data auto_broadcast="numpy" />
			<input>
				<port id="0" precision="I64" />
				<port id="1" precision="I64" />
			</input>
			<output>
				<port id="2" precision="I64" names="213,214,215,216,233,234" />
			</output>
		</layer>
		<layer id="255" name="Constant_35356" type="Const" version="opset1">
			<data element_type="i64" shape="1" offset="38093568" size="8" />
			<rt_info>
				<attribute name="precise" version="0" />
			</rt_info>
			<output>
				<port id="0" precision="I64">
					<dim>1</dim>
				</port>
			</output>
		</layer>
		<layer id="256" name="__module.text_model.encoder.layers.1.self_attn/prim::ListConstruct/Reshape_3" type="Reshape" version="opset1">
			<data special_zero="false" />
			<input>
				<port id="0" precision="I64" />
				<port id="1" precision="I64">
					<dim>1</dim>
				</port>
			</input>
			<output>
				<port id="2" precision="I64">
					<dim>1</dim>
				</port>
			</output>
		</layer>
		<layer id="257" name="__module.text_model.encoder.layers.1.self_attn/prim::ListConstruct/Concat_1" type="Concat" version="opset1">
			<data axis="0" />
			<input>
				<port id="0" precision="I64">
					<dim>1</dim>
				</port>
				<port id="1" precision="I64">
					<dim>1</dim>
				</port>
				<port id="2" precision="I64">
					<dim>1</dim>
				</port>
			</input>
			<output>
				<port id="3" precision="I64" names="221,223,225">
					<dim>3</dim>
				</port>
			</output>
		</layer>
		<layer id="258" name="__module.text_model.encoder.layers.1.self_attn/aten::view/Reshape_1" type="Reshape" version="opset1">
			<data special_zero="false" />
			<input>
				<port id="0" precision="FP32">
					<dim>-1</dim>
					<dim>12</dim>
					<dim>-1</dim>
					<dim>64</dim>
				</port>
				<port id="1" precision="I64">
					<dim>3</dim>
				</port>
			</input>
			<output>
				<port id="2" precision="FP32" names="222">
					<dim>-1</dim>
					<dim>-1</dim>
					<dim>64</dim>
				</port>
			</output>
		</layer>
		<layer id="259" name="self.text_model.encoder.layers.1.self_attn.k_proj.weight_compressed" type="Const" version="opset1">
			<data element_type="u8" shape="768, 768" offset="45869003" size="589824" />
			<output>
				<port id="0" precision="U8">
					<dim>768</dim>
					<dim>768</dim>
				</port>
			</output>
		</layer>
		<layer id="260" name="Convert_764796" type="Convert" version="opset1">
			<data destination_type="f16" />
			<input>
				<port id="0" precision="U8">
					<dim>768</dim>
					<dim>768</dim>
				</port>
			</input>
			<output>
				<port id="1" precision="FP16">
					<dim>768</dim>
					<dim>768</dim>
				</port>
			</output>
		</layer>
		<layer id="261" name="self.text_model.encoder.layers.1.self_attn.k_proj.weight_compressed/zero_point" type="Const" version="opset1">
			<data element_type="u8" shape="768, 1" offset="46458827" size="768" />
			<output>
				<port id="0" precision="U8">
					<dim>768</dim>
					<dim>1</dim>
				</port>
			</output>
		</layer>
		<layer id="262" name="Convert_764799" type="Convert" version="opset1">
			<data destination_type="f16" />
			<input>
				<port id="0" precision="U8">
					<dim>768</dim>
					<dim>1</dim>
				</port>
			</input>
			<output>
				<port id="1" precision="FP16">
					<dim>768</dim>
					<dim>1</dim>
				</port>
			</output>
		</layer>
		<layer id="263" name="self.text_model.encoder.layers.1.self_attn.k_proj.weight_compressed/zero_point/subtract" type="Subtract" version="opset1">
			<data auto_broadcast="numpy" />
			<input>
				<port id="0" precision="FP16">
					<dim>768</dim>
					<dim>768</dim>
				</port>
				<port id="1" precision="FP16">
					<dim>768</dim>
					<dim>1</dim>
				</port>
			</input>
			<output>
				<port id="2" precision="FP16">
					<dim>768</dim>
					<dim>768</dim>
				</port>
			</output>
		</layer>
		<layer id="264" name="self.text_model.encoder.layers.1.self_attn.k_proj.weight_compressed/scale" type="Const" version="opset1">
			<data element_type="f16" shape="768, 1" offset="46459595" size="1536" />
			<output>
				<port id="0" precision="FP16">
					<dim>768</dim>
					<dim>1</dim>
				</port>
			</output>
		</layer>
		<layer id="265" name="self.text_model.encoder.layers.1.self_attn.k_proj.weight_compressed/fq_weights_1" type="Multiply" version="opset1">
			<data auto_broadcast="numpy" />
			<input>
				<port id="0" precision="FP16">
					<dim>768</dim>
					<dim>768</dim>
				</port>
				<port id="1" precision="FP16">
					<dim>768</dim>
					<dim>1</dim>
				</port>
			</input>
			<output>
				<port id="2" precision="FP16">
					<dim>768</dim>
					<dim>768</dim>
				</port>
			</output>
		</layer>
		<layer id="266" name="self.text_model.encoder.layers.1.self_attn.k_proj.weight" type="Convert" version="opset1">
			<data destination_type="f32" />
			<rt_info>
				<attribute name="decompression" version="0" />
			</rt_info>
			<input>
				<port id="0" precision="FP16">
					<dim>768</dim>
					<dim>768</dim>
				</port>
			</input>
			<output>
				<port id="1" precision="FP32">
					<dim>768</dim>
					<dim>768</dim>
				</port>
			</output>
		</layer>
		<layer id="267" name="__module.text_model.encoder.layers.1.self_attn.k_proj/aten::linear/MatMul" type="MatMul" version="opset1">
			<data transpose_a="false" transpose_b="true" />
			<input>
				<port id="0" precision="FP32">
					<dim>-1</dim>
					<dim>-1</dim>
					<dim>768</dim>
				</port>
				<port id="1" precision="FP32">
					<dim>768</dim>
					<dim>768</dim>
				</port>
			</input>
			<output>
				<port id="2" precision="FP32">
					<dim>-1</dim>
					<dim>-1</dim>
					<dim>768</dim>
				</port>
			</output>
		</layer>
		<layer id="268" name="Constant_57382_compressed" type="Const" version="opset1">
			<data element_type="f16" shape="1, 1, 768" offset="46461131" size="1536" />
			<output>
				<port id="0" precision="FP16">
					<dim>1</dim>
					<dim>1</dim>
					<dim>768</dim>
				</port>
			</output>
		</layer>
		<layer id="269" name="Constant_57382" type="Convert" version="opset1">
			<data destination_type="f32" />
			<rt_info>
				<attribute name="decompression" version="0" />
			</rt_info>
			<input>
				<port id="0" precision="FP16">
					<dim>1</dim>
					<dim>1</dim>
					<dim>768</dim>
				</port>
			</input>
			<output>
				<port id="1" precision="FP32">
					<dim>1</dim>
					<dim>1</dim>
					<dim>768</dim>
				</port>
			</output>
		</layer>
		<layer id="270" name="__module.text_model.encoder.layers.1.self_attn.k_proj/aten::linear/Add" type="Add" version="opset1">
			<data auto_broadcast="numpy" />
			<input>
				<port id="0" precision="FP32">
					<dim>-1</dim>
					<dim>-1</dim>
					<dim>768</dim>
				</port>
				<port id="1" precision="FP32">
					<dim>1</dim>
					<dim>1</dim>
					<dim>768</dim>
				</port>
			</input>
			<output>
				<port id="2" precision="FP32" names="201,tensor.7">
					<dim>-1</dim>
					<dim>-1</dim>
					<dim>768</dim>
				</port>
			</output>
		</layer>
		<layer id="271" name="__module.text_model.encoder.layers.1.self_attn/prim::ListConstruct/Concat_2" type="Concat" version="opset1">
			<data axis="0" />
			<input>
				<port id="0" precision="I64">
					<dim>1</dim>
				</port>
				<port id="1" precision="I64">
					<dim>1</dim>
				</port>
				<port id="2" precision="I64">
					<dim>1</dim>
				</port>
				<port id="3" precision="I64">
					<dim>1</dim>
				</port>
			</input>
			<output>
				<port id="4" precision="I64" names="202,209">
					<dim>4</dim>
				</port>
			</output>
		</layer>
		<layer id="272" name="__module.text_model.encoder.layers.1.self_attn/aten::view/Reshape_2" type="Reshape" version="opset1">
			<data special_zero="false" />
			<input>
				<port id="0" precision="FP32">
					<dim>-1</dim>
					<dim>-1</dim>
					<dim>768</dim>
				</port>
				<port id="1" precision="I64">
					<dim>4</dim>
				</port>
			</input>
			<output>
				<port id="2" precision="FP32" names="203">
					<dim>-1</dim>
					<dim>-1</dim>
					<dim>12</dim>
					<dim>64</dim>
				</port>
			</output>
		</layer>
		<layer id="273" name="__module.text_model.encoder.layers.1.self_attn/aten::transpose/ScatterElementsUpdate_1" type="Const" version="opset1">
			<data element_type="i32" shape="4" offset="38750367" size="16" />
			<output>
				<port id="0" precision="I32">
					<dim>4</dim>
				</port>
			</output>
		</layer>
		<layer id="274" name="__module.text_model.encoder.layers.1.self_attn/aten::transpose/Transpose_1" type="Transpose" version="opset1">
			<input>
				<port id="0" precision="FP32">
					<dim>-1</dim>
					<dim>-1</dim>
					<dim>12</dim>
					<dim>64</dim>
				</port>
				<port id="1" precision="I32">
					<dim>4</dim>
				</port>
			</input>
			<output>
				<port id="2" precision="FP32" names="204">
					<dim>-1</dim>
					<dim>12</dim>
					<dim>-1</dim>
					<dim>64</dim>
				</port>
			</output>
		</layer>
		<layer id="275" name="__module.text_model.encoder.layers.1.self_attn/aten::view/Reshape_3" type="Reshape" version="opset1">
			<data special_zero="false" />
			<input>
				<port id="0" precision="FP32">
					<dim>-1</dim>
					<dim>12</dim>
					<dim>-1</dim>
					<dim>64</dim>
				</port>
				<port id="1" precision="I64">
					<dim>3</dim>
				</port>
			</input>
			<output>
				<port id="2" precision="FP32" names="224,key_states.7">
					<dim>-1</dim>
					<dim>-1</dim>
					<dim>64</dim>
				</port>
			</output>
		</layer>
		<layer id="276" name="__module.text_model.encoder.layers.1.self_attn/aten::bmm/MatMul" type="MatMul" version="opset1">
			<data transpose_a="false" transpose_b="true" />
			<input>
				<port id="0" precision="FP32">
					<dim>-1</dim>
					<dim>-1</dim>
					<dim>64</dim>
				</port>
				<port id="1" precision="FP32">
					<dim>-1</dim>
					<dim>-1</dim>
					<dim>64</dim>
				</port>
			</input>
			<output>
				<port id="2" precision="FP32" names="229,attn_weights.5">
					<dim>-1</dim>
					<dim>-1</dim>
					<dim>-1</dim>
				</port>
			</output>
		</layer>
		<layer id="277" name="__module.text_model.encoder.layers.1.self_attn/aten::size/ShapeOf_2" type="ShapeOf" version="opset3">
			<data output_type="i64" />
			<input>
				<port id="0" precision="FP32">
					<dim>-1</dim>
					<dim>-1</dim>
					<dim>64</dim>
				</port>
			</input>
			<output>
				<port id="1" precision="I64">
					<dim>3</dim>
				</port>
			</output>
		</layer>
		<layer id="278" name="Constant_52603" type="Const" version="opset1">
			<data element_type="i64" shape="1" offset="38093576" size="8" />
			<rt_info>
				<attribute name="precise" version="0" />
			</rt_info>
			<output>
				<port id="0" precision="I64">
					<dim>1</dim>
				</port>
			</output>
		</layer>
		<layer id="279" name="__module.text_model.encoder.layers.1.self_attn/aten::size/Constant_2" type="Const" version="opset1">
			<data element_type="i32" shape="" offset="38093584" size="4" />
			<rt_info>
				<attribute name="precise" version="0" />
			</rt_info>
			<output>
				<port id="0" precision="I32" />
			</output>
		</layer>
		<layer id="280" name="__module.text_model.encoder.layers.1.self_attn/aten::size/Gather_2" type="Gather" version="opset8">
			<data batch_dims="0" />
			<input>
				<port id="0" precision="I64">
					<dim>3</dim>
				</port>
				<port id="1" precision="I64">
					<dim>1</dim>
				</port>
				<port id="2" precision="I32" />
			</input>
			<output>
				<port id="3" precision="I64" names="227">
					<dim>1</dim>
				</port>
			</output>
		</layer>
		<layer id="281" name="__module.text_model.encoder.layers.1.self_attn/prim::ListConstruct/Concat_4" type="Concat" version="opset1">
			<data axis="0" />
			<input>
				<port id="0" precision="I64">
					<dim>1</dim>
				</port>
				<port id="1" precision="I64">
					<dim>1</dim>
				</port>
				<port id="2" precision="I64">
					<dim>1</dim>
				</port>
				<port id="3" precision="I64">
					<dim>1</dim>
				</port>
			</input>
			<output>
				<port id="4" precision="I64" names="230">
					<dim>4</dim>
				</port>
			</output>
		</layer>
		<layer id="282" name="__module.text_model.encoder.layers.1.self_attn/aten::view/Reshape_4" type="Reshape" version="opset1">
			<data special_zero="false" />
			<input>
				<port id="0" precision="FP32">
					<dim>-1</dim>
					<dim>-1</dim>
					<dim>-1</dim>
				</port>
				<port id="1" precision="I64">
					<dim>4</dim>
				</port>
			</input>
			<output>
				<port id="2" precision="FP32" names="231">
					<dim>-1</dim>
					<dim>12</dim>
					<dim>-1</dim>
					<dim>-1</dim>
				</port>
			</output>
		</layer>
		<layer id="283" name="__module.text_model.encoder.layers.1.self_attn/aten::add/Add" type="Add" version="opset1">
			<data auto_broadcast="numpy" />
			<input>
				<port id="0" precision="FP32">
					<dim>-1</dim>
					<dim>12</dim>
					<dim>-1</dim>
					<dim>-1</dim>
				</port>
				<port id="1" precision="FP32">
					<dim>-1</dim>
					<dim>1</dim>
					<dim>-1</dim>
					<dim>-1</dim>
				</port>
			</input>
			<output>
				<port id="2" precision="FP32" names="232,attn_weights.7">
					<dim>-1</dim>
					<dim>12</dim>
					<dim>-1</dim>
					<dim>-1</dim>
				</port>
			</output>
		</layer>
		<layer id="284" name="__module.text_model.encoder.layers.1.self_attn/prim::ListConstruct/Concat_5" type="Concat" version="opset1">
			<data axis="0" />
			<input>
				<port id="0" precision="I64">
					<dim>1</dim>
				</port>
				<port id="1" precision="I64">
					<dim>1</dim>
				</port>
				<port id="2" precision="I64">
					<dim>1</dim>
				</port>
			</input>
			<output>
				<port id="3" precision="I64" names="235">
					<dim>3</dim>
				</port>
			</output>
		</layer>
		<layer id="285" name="__module.text_model.encoder.layers.1.self_attn/aten::view/Reshape_5" type="Reshape" version="opset1">
			<data special_zero="false" />
			<input>
				<port id="0" precision="FP32">
					<dim>-1</dim>
					<dim>12</dim>
					<dim>-1</dim>
					<dim>-1</dim>
				</port>
				<port id="1" precision="I64">
					<dim>3</dim>
				</port>
			</input>
			<output>
				<port id="2" precision="FP32" names="236,input.7">
					<dim>-1</dim>
					<dim>-1</dim>
					<dim>-1</dim>
				</port>
			</output>
		</layer>
		<layer id="286" name="__module.text_model.encoder.layers.1.self_attn/aten::softmax/Softmax" type="SoftMax" version="opset8">
			<data axis="-1" />
			<input>
				<port id="0" precision="FP32">
					<dim>-1</dim>
					<dim>-1</dim>
					<dim>-1</dim>
				</port>
			</input>
			<output>
				<port id="1" precision="FP32" names="237,input.9">
					<dim>-1</dim>
					<dim>-1</dim>
					<dim>-1</dim>
				</port>
			</output>
		</layer>
		<layer id="287" name="self.text_model.encoder.layers.1.self_attn.v_proj.weight_compressed" type="Const" version="opset1">
			<data element_type="u8" shape="768, 768" offset="46462667" size="589824" />
			<output>
				<port id="0" precision="U8">
					<dim>768</dim>
					<dim>768</dim>
				</port>
			</output>
		</layer>
		<layer id="288" name="Convert_764786" type="Convert" version="opset1">
			<data destination_type="f16" />
			<input>
				<port id="0" precision="U8">
					<dim>768</dim>
					<dim>768</dim>
				</port>
			</input>
			<output>
				<port id="1" precision="FP16">
					<dim>768</dim>
					<dim>768</dim>
				</port>
			</output>
		</layer>
		<layer id="289" name="self.text_model.encoder.layers.1.self_attn.v_proj.weight_compressed/zero_point" type="Const" version="opset1">
			<data element_type="u8" shape="768, 1" offset="47052491" size="768" />
			<output>
				<port id="0" precision="U8">
					<dim>768</dim>
					<dim>1</dim>
				</port>
			</output>
		</layer>
		<layer id="290" name="Convert_764789" type="Convert" version="opset1">
			<data destination_type="f16" />
			<input>
				<port id="0" precision="U8">
					<dim>768</dim>
					<dim>1</dim>
				</port>
			</input>
			<output>
				<port id="1" precision="FP16">
					<dim>768</dim>
					<dim>1</dim>
				</port>
			</output>
		</layer>
		<layer id="291" name="self.text_model.encoder.layers.1.self_attn.v_proj.weight_compressed/zero_point/subtract" type="Subtract" version="opset1">
			<data auto_broadcast="numpy" />
			<input>
				<port id="0" precision="FP16">
					<dim>768</dim>
					<dim>768</dim>
				</port>
				<port id="1" precision="FP16">
					<dim>768</dim>
					<dim>1</dim>
				</port>
			</input>
			<output>
				<port id="2" precision="FP16">
					<dim>768</dim>
					<dim>768</dim>
				</port>
			</output>
		</layer>
		<layer id="292" name="self.text_model.encoder.layers.1.self_attn.v_proj.weight_compressed/scale" type="Const" version="opset1">
			<data element_type="f16" shape="768, 1" offset="47053259" size="1536" />
			<output>
				<port id="0" precision="FP16">
					<dim>768</dim>
					<dim>1</dim>
				</port>
			</output>
		</layer>
		<layer id="293" name="self.text_model.encoder.layers.1.self_attn.v_proj.weight_compressed/fq_weights_1" type="Multiply" version="opset1">
			<data auto_broadcast="numpy" />
			<input>
				<port id="0" precision="FP16">
					<dim>768</dim>
					<dim>768</dim>
				</port>
				<port id="1" precision="FP16">
					<dim>768</dim>
					<dim>1</dim>
				</port>
			</input>
			<output>
				<port id="2" precision="FP16">
					<dim>768</dim>
					<dim>768</dim>
				</port>
			</output>
		</layer>
		<layer id="294" name="self.text_model.encoder.layers.1.self_attn.v_proj.weight" type="Convert" version="opset1">
			<data destination_type="f32" />
			<rt_info>
				<attribute name="decompression" version="0" />
			</rt_info>
			<input>
				<port id="0" precision="FP16">
					<dim>768</dim>
					<dim>768</dim>
				</port>
			</input>
			<output>
				<port id="1" precision="FP32">
					<dim>768</dim>
					<dim>768</dim>
				</port>
			</output>
		</layer>
		<layer id="295" name="__module.text_model.encoder.layers.1.self_attn.v_proj/aten::linear/MatMul" type="MatMul" version="opset1">
			<data transpose_a="false" transpose_b="true" />
			<input>
				<port id="0" precision="FP32">
					<dim>-1</dim>
					<dim>-1</dim>
					<dim>768</dim>
				</port>
				<port id="1" precision="FP32">
					<dim>768</dim>
					<dim>768</dim>
				</port>
			</input>
			<output>
				<port id="2" precision="FP32">
					<dim>-1</dim>
					<dim>-1</dim>
					<dim>768</dim>
				</port>
			</output>
		</layer>
		<layer id="296" name="Constant_57383_compressed" type="Const" version="opset1">
			<data element_type="f16" shape="1, 1, 768" offset="47054795" size="1536" />
			<output>
				<port id="0" precision="FP16">
					<dim>1</dim>
					<dim>1</dim>
					<dim>768</dim>
				</port>
			</output>
		</layer>
		<layer id="297" name="Constant_57383" type="Convert" version="opset1">
			<data destination_type="f32" />
			<rt_info>
				<attribute name="decompression" version="0" />
			</rt_info>
			<input>
				<port id="0" precision="FP16">
					<dim>1</dim>
					<dim>1</dim>
					<dim>768</dim>
				</port>
			</input>
			<output>
				<port id="1" precision="FP32">
					<dim>1</dim>
					<dim>1</dim>
					<dim>768</dim>
				</port>
			</output>
		</layer>
		<layer id="298" name="__module.text_model.encoder.layers.1.self_attn.v_proj/aten::linear/Add" type="Add" version="opset1">
			<data auto_broadcast="numpy" />
			<input>
				<port id="0" precision="FP32">
					<dim>-1</dim>
					<dim>-1</dim>
					<dim>768</dim>
				</port>
				<port id="1" precision="FP32">
					<dim>1</dim>
					<dim>1</dim>
					<dim>768</dim>
				</port>
			</input>
			<output>
				<port id="2" precision="FP32" names="208,tensor.9">
					<dim>-1</dim>
					<dim>-1</dim>
					<dim>768</dim>
				</port>
			</output>
		</layer>
		<layer id="299" name="__module.text_model.encoder.layers.1.self_attn/aten::view/Reshape_6" type="Reshape" version="opset1">
			<data special_zero="false" />
			<input>
				<port id="0" precision="FP32">
					<dim>-1</dim>
					<dim>-1</dim>
					<dim>768</dim>
				</port>
				<port id="1" precision="I64">
					<dim>4</dim>
				</port>
			</input>
			<output>
				<port id="2" precision="FP32" names="210">
					<dim>-1</dim>
					<dim>-1</dim>
					<dim>12</dim>
					<dim>64</dim>
				</port>
			</output>
		</layer>
		<layer id="300" name="__module.text_model.encoder.layers.1.self_attn/aten::transpose/ScatterElementsUpdate_3" type="Const" version="opset1">
			<data element_type="i32" shape="4" offset="38750367" size="16" />
			<output>
				<port id="0" precision="I32">
					<dim>4</dim>
				</port>
			</output>
		</layer>
		<layer id="301" name="__module.text_model.encoder.layers.1.self_attn/aten::transpose/Transpose_3" type="Transpose" version="opset1">
			<input>
				<port id="0" precision="FP32">
					<dim>-1</dim>
					<dim>-1</dim>
					<dim>12</dim>
					<dim>64</dim>
				</port>
				<port id="1" precision="I32">
					<dim>4</dim>
				</port>
			</input>
			<output>
				<port id="2" precision="FP32" names="211">
					<dim>-1</dim>
					<dim>12</dim>
					<dim>-1</dim>
					<dim>64</dim>
				</port>
			</output>
		</layer>
		<layer id="302" name="__module.text_model.encoder.layers.1.self_attn/aten::view/Reshape_7" type="Reshape" version="opset1">
			<data special_zero="false" />
			<input>
				<port id="0" precision="FP32">
					<dim>-1</dim>
					<dim>12</dim>
					<dim>-1</dim>
					<dim>64</dim>
				</port>
				<port id="1" precision="I64">
					<dim>3</dim>
				</port>
			</input>
			<output>
				<port id="2" precision="FP32" names="226">
					<dim>-1</dim>
					<dim>-1</dim>
					<dim>64</dim>
				</port>
			</output>
		</layer>
		<layer id="303" name="__module.text_model.encoder.layers.1.self_attn/aten::bmm/MatMul_1" type="MatMul" version="opset1">
			<data transpose_a="false" transpose_b="false" />
			<input>
				<port id="0" precision="FP32">
					<dim>-1</dim>
					<dim>-1</dim>
					<dim>-1</dim>
				</port>
				<port id="1" precision="FP32">
					<dim>-1</dim>
					<dim>-1</dim>
					<dim>64</dim>
				</port>
			</input>
			<output>
				<port id="2" precision="FP32" names="239,attn_output.7">
					<dim>-1</dim>
					<dim>-1</dim>
					<dim>64</dim>
				</port>
			</output>
		</layer>
		<layer id="304" name="__module.text_model.encoder.layers.1.self_attn/prim::ListConstruct/Concat_8" type="Concat" version="opset1">
			<data axis="0" />
			<input>
				<port id="0" precision="I64">
					<dim>1</dim>
				</port>
				<port id="1" precision="I64">
					<dim>1</dim>
				</port>
				<port id="2" precision="I64">
					<dim>1</dim>
				</port>
				<port id="3" precision="I64">
					<dim>1</dim>
				</port>
			</input>
			<output>
				<port id="4" precision="I64" names="240">
					<dim>4</dim>
				</port>
			</output>
		</layer>
		<layer id="305" name="__module.text_model.encoder.layers.1.self_attn/aten::view/Reshape_8" type="Reshape" version="opset1">
			<data special_zero="false" />
			<input>
				<port id="0" precision="FP32">
					<dim>-1</dim>
					<dim>-1</dim>
					<dim>64</dim>
				</port>
				<port id="1" precision="I64">
					<dim>4</dim>
				</port>
			</input>
			<output>
				<port id="2" precision="FP32" names="241,attn_output.9">
					<dim>-1</dim>
					<dim>12</dim>
					<dim>-1</dim>
					<dim>64</dim>
				</port>
			</output>
		</layer>
		<layer id="306" name="__module.text_model.encoder.layers.1.self_attn/aten::transpose/ScatterElementsUpdate_4" type="Const" version="opset1">
			<data element_type="i32" shape="4" offset="38750367" size="16" />
			<output>
				<port id="0" precision="I32">
					<dim>4</dim>
				</port>
			</output>
		</layer>
		<layer id="307" name="__module.text_model.encoder.layers.1.self_attn/aten::transpose/Transpose_4" type="Transpose" version="opset1">
			<input>
				<port id="0" precision="FP32">
					<dim>-1</dim>
					<dim>12</dim>
					<dim>-1</dim>
					<dim>64</dim>
				</port>
				<port id="1" precision="I32">
					<dim>4</dim>
				</port>
			</input>
			<output>
				<port id="2" precision="FP32" names="242,attn_output.11">
					<dim>-1</dim>
					<dim>-1</dim>
					<dim>12</dim>
					<dim>64</dim>
				</port>
			</output>
		</layer>
		<layer id="308" name="Constant_52703" type="Const" version="opset1">
			<data element_type="i64" shape="2" offset="39937721" size="16" />
			<rt_info>
				<attribute name="precise" version="0" />
			</rt_info>
			<output>
				<port id="0" precision="I64">
					<dim>2</dim>
				</port>
			</output>
		</layer>
		<layer id="309" name="Constant_52704" type="Const" version="opset1">
			<data element_type="i64" shape="" offset="38750343" size="8" />
			<rt_info>
				<attribute name="precise" version="0" />
			</rt_info>
			<output>
				<port id="0" precision="I64" />
			</output>
		</layer>
		<layer id="310" name="Gather_52705" type="Gather" version="opset8">
			<data batch_dims="0" />
			<input>
				<port id="0" precision="I64">
					<dim>3</dim>
				</port>
				<port id="1" precision="I64">
					<dim>2</dim>
				</port>
				<port id="2" precision="I64" />
			</input>
			<output>
				<port id="3" precision="I64">
					<dim>2</dim>
				</port>
			</output>
		</layer>
		<layer id="311" name="__module.text_model.encoder.layers.1.self_attn/prim::ListConstruct/Concat_9" type="Concat" version="opset1">
			<data axis="0" />
			<input>
				<port id="0" precision="I64">
					<dim>1</dim>
				</port>
				<port id="1" precision="I64">
					<dim>2</dim>
				</port>
			</input>
			<output>
				<port id="2" precision="I64" names="243">
					<dim>3</dim>
				</port>
			</output>
		</layer>
		<layer id="312" name="__module.text_model.encoder.layers.1.self_attn/aten::reshape/Reshape" type="Reshape" version="opset1">
			<data special_zero="false" />
			<input>
				<port id="0" precision="FP32">
					<dim>-1</dim>
					<dim>-1</dim>
					<dim>12</dim>
					<dim>64</dim>
				</port>
				<port id="1" precision="I64">
					<dim>3</dim>
				</port>
			</input>
			<output>
				<port id="2" precision="FP32" names="244">
					<dim>-1</dim>
					<dim>-1</dim>
					<dim>768</dim>
				</port>
			</output>
		</layer>
		<layer id="313" name="self.text_model.encoder.layers.1.self_attn.out_proj.weight_compressed" type="Const" version="opset1">
			<data element_type="u8" shape="768, 768" offset="47056331" size="589824" />
			<output>
				<port id="0" precision="U8">
					<dim>768</dim>
					<dim>768</dim>
				</port>
			</output>
		</layer>
		<layer id="314" name="Convert_764816" type="Convert" version="opset1">
			<data destination_type="f16" />
			<input>
				<port id="0" precision="U8">
					<dim>768</dim>
					<dim>768</dim>
				</port>
			</input>
			<output>
				<port id="1" precision="FP16">
					<dim>768</dim>
					<dim>768</dim>
				</port>
			</output>
		</layer>
		<layer id="315" name="self.text_model.encoder.layers.1.self_attn.out_proj.weight_compressed/zero_point" type="Const" version="opset1">
			<data element_type="u8" shape="768, 1" offset="47646155" size="768" />
			<output>
				<port id="0" precision="U8">
					<dim>768</dim>
					<dim>1</dim>
				</port>
			</output>
		</layer>
		<layer id="316" name="Convert_764819" type="Convert" version="opset1">
			<data destination_type="f16" />
			<input>
				<port id="0" precision="U8">
					<dim>768</dim>
					<dim>1</dim>
				</port>
			</input>
			<output>
				<port id="1" precision="FP16">
					<dim>768</dim>
					<dim>1</dim>
				</port>
			</output>
		</layer>
		<layer id="317" name="self.text_model.encoder.layers.1.self_attn.out_proj.weight_compressed/zero_point/subtract" type="Subtract" version="opset1">
			<data auto_broadcast="numpy" />
			<input>
				<port id="0" precision="FP16">
					<dim>768</dim>
					<dim>768</dim>
				</port>
				<port id="1" precision="FP16">
					<dim>768</dim>
					<dim>1</dim>
				</port>
			</input>
			<output>
				<port id="2" precision="FP16">
					<dim>768</dim>
					<dim>768</dim>
				</port>
			</output>
		</layer>
		<layer id="318" name="self.text_model.encoder.layers.1.self_attn.out_proj.weight_compressed/scale" type="Const" version="opset1">
			<data element_type="f16" shape="768, 1" offset="47646923" size="1536" />
			<output>
				<port id="0" precision="FP16">
					<dim>768</dim>
					<dim>1</dim>
				</port>
			</output>
		</layer>
		<layer id="319" name="self.text_model.encoder.layers.1.self_attn.out_proj.weight_compressed/fq_weights_1" type="Multiply" version="opset1">
			<data auto_broadcast="numpy" />
			<input>
				<port id="0" precision="FP16">
					<dim>768</dim>
					<dim>768</dim>
				</port>
				<port id="1" precision="FP16">
					<dim>768</dim>
					<dim>1</dim>
				</port>
			</input>
			<output>
				<port id="2" precision="FP16">
					<dim>768</dim>
					<dim>768</dim>
				</port>
			</output>
		</layer>
		<layer id="320" name="self.text_model.encoder.layers.1.self_attn.out_proj.weight" type="Convert" version="opset1">
			<data destination_type="f32" />
			<rt_info>
				<attribute name="decompression" version="0" />
			</rt_info>
			<input>
				<port id="0" precision="FP16">
					<dim>768</dim>
					<dim>768</dim>
				</port>
			</input>
			<output>
				<port id="1" precision="FP32">
					<dim>768</dim>
					<dim>768</dim>
				</port>
			</output>
		</layer>
		<layer id="321" name="__module.text_model.encoder.layers.1.self_attn.out_proj/aten::linear/MatMul" type="MatMul" version="opset1">
			<data transpose_a="false" transpose_b="true" />
			<input>
				<port id="0" precision="FP32">
					<dim>-1</dim>
					<dim>-1</dim>
					<dim>768</dim>
				</port>
				<port id="1" precision="FP32">
					<dim>768</dim>
					<dim>768</dim>
				</port>
			</input>
			<output>
				<port id="2" precision="FP32">
					<dim>-1</dim>
					<dim>-1</dim>
					<dim>768</dim>
				</port>
			</output>
		</layer>
		<layer id="322" name="Constant_57384_compressed" type="Const" version="opset1">
			<data element_type="f16" shape="1, 1, 768" offset="47648459" size="1536" />
			<output>
				<port id="0" precision="FP16">
					<dim>1</dim>
					<dim>1</dim>
					<dim>768</dim>
				</port>
			</output>
		</layer>
		<layer id="323" name="Constant_57384" type="Convert" version="opset1">
			<data destination_type="f32" />
			<rt_info>
				<attribute name="decompression" version="0" />
			</rt_info>
			<input>
				<port id="0" precision="FP16">
					<dim>1</dim>
					<dim>1</dim>
					<dim>768</dim>
				</port>
			</input>
			<output>
				<port id="1" precision="FP32">
					<dim>1</dim>
					<dim>1</dim>
					<dim>768</dim>
				</port>
			</output>
		</layer>
		<layer id="324" name="__module.text_model.encoder.layers.1.self_attn.out_proj/aten::linear/Add" type="Add" version="opset1">
			<data auto_broadcast="numpy" />
			<input>
				<port id="0" precision="FP32">
					<dim>-1</dim>
					<dim>-1</dim>
					<dim>768</dim>
				</port>
				<port id="1" precision="FP32">
					<dim>1</dim>
					<dim>1</dim>
					<dim>768</dim>
				</port>
			</input>
			<output>
				<port id="2" precision="FP32" names="247,hidden_states.9">
					<dim>-1</dim>
					<dim>-1</dim>
					<dim>768</dim>
				</port>
			</output>
		</layer>
		<layer id="325" name="__module.text_model.encoder.layers.1/aten::add/Add" type="Add" version="opset1">
			<data auto_broadcast="numpy" />
			<input>
				<port id="0" precision="FP32">
					<dim>-1</dim>
					<dim>-1</dim>
					<dim>768</dim>
				</port>
				<port id="1" precision="FP32">
					<dim>-1</dim>
					<dim>-1</dim>
					<dim>768</dim>
				</port>
			</input>
			<output>
				<port id="2" precision="FP32" names="248,residual.7">
					<dim>-1</dim>
					<dim>-1</dim>
					<dim>768</dim>
				</port>
			</output>
		</layer>
		<layer id="326" name="__module.text_model.encoder.layers.1.layer_norm2/aten::layer_norm/Constant" type="Const" version="opset1">
			<data element_type="i32" shape="1" offset="38153603" size="4" />
			<output>
				<port id="0" precision="I32">
					<dim>1</dim>
				</port>
			</output>
		</layer>
		<layer id="327" name="__module.text_model.encoder.layers.1.layer_norm2/aten::layer_norm/MVN" type="MVN" version="opset6">
			<data eps="9.9999997473787516e-06" normalize_variance="true" eps_mode="INSIDE_SQRT" />
			<input>
				<port id="0" precision="FP32">
					<dim>-1</dim>
					<dim>-1</dim>
					<dim>768</dim>
				</port>
				<port id="1" precision="I32">
					<dim>1</dim>
				</port>
			</input>
			<output>
				<port id="2" precision="FP32">
					<dim>-1</dim>
					<dim>-1</dim>
					<dim>768</dim>
				</port>
			</output>
		</layer>
		<layer id="328" name="Constant_57385_compressed" type="Const" version="opset1">
			<data element_type="f16" shape="1, 1, 768" offset="47649995" size="1536" />
			<output>
				<port id="0" precision="FP16">
					<dim>1</dim>
					<dim>1</dim>
					<dim>768</dim>
				</port>
			</output>
		</layer>
		<layer id="329" name="Constant_57385" type="Convert" version="opset1">
			<data destination_type="f32" />
			<rt_info>
				<attribute name="decompression" version="0" />
			</rt_info>
			<input>
				<port id="0" precision="FP16">
					<dim>1</dim>
					<dim>1</dim>
					<dim>768</dim>
				</port>
			</input>
			<output>
				<port id="1" precision="FP32">
					<dim>1</dim>
					<dim>1</dim>
					<dim>768</dim>
				</port>
			</output>
		</layer>
		<layer id="330" name="__module.text_model.encoder.layers.1.layer_norm2/aten::layer_norm/Multiply" type="Multiply" version="opset1">
			<data auto_broadcast="numpy" />
			<input>
				<port id="0" precision="FP32">
					<dim>-1</dim>
					<dim>-1</dim>
					<dim>768</dim>
				</port>
				<port id="1" precision="FP32">
					<dim>1</dim>
					<dim>1</dim>
					<dim>768</dim>
				</port>
			</input>
			<output>
				<port id="2" precision="FP32">
					<dim>-1</dim>
					<dim>-1</dim>
					<dim>768</dim>
				</port>
			</output>
		</layer>
		<layer id="331" name="Constant_57386_compressed" type="Const" version="opset1">
			<data element_type="f16" shape="1, 1, 768" offset="47651531" size="1536" />
			<output>
				<port id="0" precision="FP16">
					<dim>1</dim>
					<dim>1</dim>
					<dim>768</dim>
				</port>
			</output>
		</layer>
		<layer id="332" name="Constant_57386" type="Convert" version="opset1">
			<data destination_type="f32" />
			<rt_info>
				<attribute name="decompression" version="0" />
			</rt_info>
			<input>
				<port id="0" precision="FP16">
					<dim>1</dim>
					<dim>1</dim>
					<dim>768</dim>
				</port>
			</input>
			<output>
				<port id="1" precision="FP32">
					<dim>1</dim>
					<dim>1</dim>
					<dim>768</dim>
				</port>
			</output>
		</layer>
		<layer id="333" name="__module.text_model.encoder.layers.1.layer_norm2/aten::layer_norm/Add" type="Add" version="opset1">
			<data auto_broadcast="numpy" />
			<input>
				<port id="0" precision="FP32">
					<dim>-1</dim>
					<dim>-1</dim>
					<dim>768</dim>
				</port>
				<port id="1" precision="FP32">
					<dim>1</dim>
					<dim>1</dim>
					<dim>768</dim>
				</port>
			</input>
			<output>
				<port id="2" precision="FP32" names="252">
					<dim>-1</dim>
					<dim>-1</dim>
					<dim>768</dim>
				</port>
			</output>
		</layer>
		<layer id="334" name="self.text_model.encoder.layers.1.mlp.fc1.weight_compressed" type="Const" version="opset1">
			<data element_type="u8" shape="3072, 768" offset="47653067" size="2359296" />
			<output>
				<port id="0" precision="U8">
					<dim>3072</dim>
					<dim>768</dim>
				</port>
			</output>
		</layer>
		<layer id="335" name="Convert_764826" type="Convert" version="opset1">
			<data destination_type="f16" />
			<input>
				<port id="0" precision="U8">
					<dim>3072</dim>
					<dim>768</dim>
				</port>
			</input>
			<output>
				<port id="1" precision="FP16">
					<dim>3072</dim>
					<dim>768</dim>
				</port>
			</output>
		</layer>
		<layer id="336" name="self.text_model.encoder.layers.1.mlp.fc1.weight_compressed/zero_point" type="Const" version="opset1">
			<data element_type="u8" shape="3072, 1" offset="50012363" size="3072" />
			<output>
				<port id="0" precision="U8">
					<dim>3072</dim>
					<dim>1</dim>
				</port>
			</output>
		</layer>
		<layer id="337" name="Convert_764829" type="Convert" version="opset1">
			<data destination_type="f16" />
			<input>
				<port id="0" precision="U8">
					<dim>3072</dim>
					<dim>1</dim>
				</port>
			</input>
			<output>
				<port id="1" precision="FP16">
					<dim>3072</dim>
					<dim>1</dim>
				</port>
			</output>
		</layer>
		<layer id="338" name="self.text_model.encoder.layers.1.mlp.fc1.weight_compressed/zero_point/subtract" type="Subtract" version="opset1">
			<data auto_broadcast="numpy" />
			<input>
				<port id="0" precision="FP16">
					<dim>3072</dim>
					<dim>768</dim>
				</port>
				<port id="1" precision="FP16">
					<dim>3072</dim>
					<dim>1</dim>
				</port>
			</input>
			<output>
				<port id="2" precision="FP16">
					<dim>3072</dim>
					<dim>768</dim>
				</port>
			</output>
		</layer>
		<layer id="339" name="self.text_model.encoder.layers.1.mlp.fc1.weight_compressed/scale" type="Const" version="opset1">
			<data element_type="f16" shape="3072, 1" offset="50015435" size="6144" />
			<output>
				<port id="0" precision="FP16">
					<dim>3072</dim>
					<dim>1</dim>
				</port>
			</output>
		</layer>
		<layer id="340" name="self.text_model.encoder.layers.1.mlp.fc1.weight_compressed/fq_weights_1" type="Multiply" version="opset1">
			<data auto_broadcast="numpy" />
			<input>
				<port id="0" precision="FP16">
					<dim>3072</dim>
					<dim>768</dim>
				</port>
				<port id="1" precision="FP16">
					<dim>3072</dim>
					<dim>1</dim>
				</port>
			</input>
			<output>
				<port id="2" precision="FP16">
					<dim>3072</dim>
					<dim>768</dim>
				</port>
			</output>
		</layer>
		<layer id="341" name="self.text_model.encoder.layers.1.mlp.fc1.weight" type="Convert" version="opset1">
			<data destination_type="f32" />
			<rt_info>
				<attribute name="decompression" version="0" />
			</rt_info>
			<input>
				<port id="0" precision="FP16">
					<dim>3072</dim>
					<dim>768</dim>
				</port>
			</input>
			<output>
				<port id="1" precision="FP32">
					<dim>3072</dim>
					<dim>768</dim>
				</port>
			</output>
		</layer>
		<layer id="342" name="__module.text_model.encoder.layers.1.mlp.fc1/aten::linear/MatMul" type="MatMul" version="opset1">
			<data transpose_a="false" transpose_b="true" />
			<input>
				<port id="0" precision="FP32">
					<dim>-1</dim>
					<dim>-1</dim>
					<dim>768</dim>
				</port>
				<port id="1" precision="FP32">
					<dim>3072</dim>
					<dim>768</dim>
				</port>
			</input>
			<output>
				<port id="2" precision="FP32">
					<dim>-1</dim>
					<dim>-1</dim>
					<dim>3072</dim>
				</port>
			</output>
		</layer>
		<layer id="343" name="Constant_57387_compressed" type="Const" version="opset1">
			<data element_type="f16" shape="1, 1, 3072" offset="50021579" size="6144" />
			<output>
				<port id="0" precision="FP16">
					<dim>1</dim>
					<dim>1</dim>
					<dim>3072</dim>
				</port>
			</output>
		</layer>
		<layer id="344" name="Constant_57387" type="Convert" version="opset1">
			<data destination_type="f32" />
			<rt_info>
				<attribute name="decompression" version="0" />
			</rt_info>
			<input>
				<port id="0" precision="FP16">
					<dim>1</dim>
					<dim>1</dim>
					<dim>3072</dim>
				</port>
			</input>
			<output>
				<port id="1" precision="FP32">
					<dim>1</dim>
					<dim>1</dim>
					<dim>3072</dim>
				</port>
			</output>
		</layer>
		<layer id="345" name="__module.text_model.encoder.layers.1.mlp.fc1/aten::linear/Add" type="Add" version="opset1">
			<data auto_broadcast="numpy" />
			<input>
				<port id="0" precision="FP32">
					<dim>-1</dim>
					<dim>-1</dim>
					<dim>3072</dim>
				</port>
				<port id="1" precision="FP32">
					<dim>1</dim>
					<dim>1</dim>
					<dim>3072</dim>
				</port>
			</input>
			<output>
				<port id="2" precision="FP32" names="257,input.11">
					<dim>-1</dim>
					<dim>-1</dim>
					<dim>3072</dim>
				</port>
			</output>
		</layer>
		<layer id="346" name="Constant_56633_compressed" type="Const" version="opset1">
			<data element_type="f16" shape="" offset="42909129" size="2" />
			<output>
				<port id="0" precision="FP16" />
			</output>
		</layer>
		<layer id="347" name="Constant_56633" type="Convert" version="opset1">
			<data destination_type="f32" />
			<rt_info>
				<attribute name="decompression" version="0" />
			</rt_info>
			<input>
				<port id="0" precision="FP16" />
			</input>
			<output>
				<port id="1" precision="FP32" />
			</output>
		</layer>
		<layer id="348" name="__module.text_model.encoder.layers.1.mlp.activation_fn/aten::mul/Multiply_1" type="Swish" version="opset4">
			<input>
				<port id="0" precision="FP32">
					<dim>-1</dim>
					<dim>-1</dim>
					<dim>3072</dim>
				</port>
				<port id="1" precision="FP32" />
			</input>
			<output>
				<port id="2" precision="FP32" names="260">
					<dim>-1</dim>
					<dim>-1</dim>
					<dim>3072</dim>
				</port>
			</output>
		</layer>
		<layer id="349" name="self.text_model.encoder.layers.1.mlp.fc2.weight_compressed" type="Const" version="opset1">
			<data element_type="u8" shape="768, 3072" offset="50027723" size="2359296" />
			<output>
				<port id="0" precision="U8">
					<dim>768</dim>
					<dim>3072</dim>
				</port>
			</output>
		</layer>
		<layer id="350" name="Convert_764836" type="Convert" version="opset1">
			<data destination_type="f16" />
			<input>
				<port id="0" precision="U8">
					<dim>768</dim>
					<dim>3072</dim>
				</port>
			</input>
			<output>
				<port id="1" precision="FP16">
					<dim>768</dim>
					<dim>3072</dim>
				</port>
			</output>
		</layer>
		<layer id="351" name="self.text_model.encoder.layers.1.mlp.fc2.weight_compressed/zero_point" type="Const" version="opset1">
			<data element_type="u8" shape="768, 1" offset="52387019" size="768" />
			<output>
				<port id="0" precision="U8">
					<dim>768</dim>
					<dim>1</dim>
				</port>
			</output>
		</layer>
		<layer id="352" name="Convert_764839" type="Convert" version="opset1">
			<data destination_type="f16" />
			<input>
				<port id="0" precision="U8">
					<dim>768</dim>
					<dim>1</dim>
				</port>
			</input>
			<output>
				<port id="1" precision="FP16">
					<dim>768</dim>
					<dim>1</dim>
				</port>
			</output>
		</layer>
		<layer id="353" name="self.text_model.encoder.layers.1.mlp.fc2.weight_compressed/zero_point/subtract" type="Subtract" version="opset1">
			<data auto_broadcast="numpy" />
			<input>
				<port id="0" precision="FP16">
					<dim>768</dim>
					<dim>3072</dim>
				</port>
				<port id="1" precision="FP16">
					<dim>768</dim>
					<dim>1</dim>
				</port>
			</input>
			<output>
				<port id="2" precision="FP16">
					<dim>768</dim>
					<dim>3072</dim>
				</port>
			</output>
		</layer>
		<layer id="354" name="self.text_model.encoder.layers.1.mlp.fc2.weight_compressed/scale" type="Const" version="opset1">
			<data element_type="f16" shape="768, 1" offset="52387787" size="1536" />
			<output>
				<port id="0" precision="FP16">
					<dim>768</dim>
					<dim>1</dim>
				</port>
			</output>
		</layer>
…
		<edge from-layer="1210" from-port="0" to-layer="1211" to-port="0" />
		<edge from-layer="1211" from-port="1" to-layer="1214" to-port="0" />
		<edge from-layer="1212" from-port="0" to-layer="1213" to-port="0" />
		<edge from-layer="1213" from-port="1" to-layer="1214" to-port="1" />
		<edge from-layer="1214" from-port="2" to-layer="1216" to-port="0" />
		<edge from-layer="1215" from-port="0" to-layer="1216" to-port="1" />
		<edge from-layer="1216" from-port="2" to-layer="1217" to-port="0" />
		<edge from-layer="1217" from-port="1" to-layer="1218" to-port="1" />
		<edge from-layer="1218" from-port="2" to-layer="1221" to-port="0" />
		<edge from-layer="1219" from-port="0" to-layer="1220" to-port="0" />
		<edge from-layer="1220" from-port="1" to-layer="1221" to-port="1" />
		<edge from-layer="1221" from-port="2" to-layer="1231" to-port="0" />
		<edge from-layer="1222" from-port="1" to-layer="1229" to-port="0" />
		<edge from-layer="1222" from-port="1" to-layer="1290" to-port="0" />
		<edge from-layer="1222" from-port="1" to-layer="1224" to-port="0" />
		<edge from-layer="1223" from-port="0" to-layer="1224" to-port="2" />
		<edge from-layer="1224" from-port="3" to-layer="1234" to-port="0" />
		<edge from-layer="1224" from-port="3" to-layer="1226" to-port="0" />
		<edge from-layer="1225" from-port="0" to-layer="1226" to-port="1" />
		<edge from-layer="1226" from-port="2" to-layer="1291" to-port="0" />
		<edge from-layer="1226" from-port="2" to-layer="1251" to-port="0" />
		<edge from-layer="1226" from-port="2" to-layer="1261" to-port="0" />
		<edge from-layer="1226" from-port="2" to-layer="1284" to-port="0" />
		<edge from-layer="1226" from-port="2" to-layer="1230" to-port="0" />
		<edge from-layer="1227" from-port="0" to-layer="1229" to-port="1" />
		<edge from-layer="1228" from-port="0" to-layer="1229" to-port="2" />
		<edge from-layer="1229" from-port="3" to-layer="1261" to-port="2" />
		<edge from-layer="1229" from-port="3" to-layer="1284" to-port="2" />
		<edge from-layer="1229" from-port="3" to-layer="1264" to-port="1" />
		<edge from-layer="1229" from-port="3" to-layer="1230" to-port="1" />
		<edge from-layer="1230" from-port="4" to-layer="1231" to-port="1" />
		<edge from-layer="1231" from-port="2" to-layer="1233" to-port="0" />
		<edge from-layer="1232" from-port="0" to-layer="1233" to-port="1" />
		<edge from-layer="1233" from-port="2" to-layer="1238" to-port="0" />
		<edge from-layer="1234" from-port="2" to-layer="1236" to-port="0" />
		<edge from-layer="1235" from-port="0" to-layer="1236" to-port="1" />
		<edge from-layer="1236" from-port="2" to-layer="1264" to-port="0" />
		<edge from-layer="1236" from-port="2" to-layer="1237" to-port="0" />
		<edge from-layer="1237" from-port="3" to-layer="1282" to-port="1" />
		<edge from-layer="1237" from-port="3" to-layer="1255" to-port="1" />
		<edge from-layer="1237" from-port="3" to-layer="1238" to-port="1" />
		<edge from-layer="1238" from-port="2" to-layer="1256" to-port="0" />
		<edge from-layer="1239" from-port="0" to-layer="1240" to-port="0" />
		<edge from-layer="1240" from-port="1" to-layer="1243" to-port="0" />
		<edge from-layer="1241" from-port="0" to-layer="1242" to-port="0" />
		<edge from-layer="1242" from-port="1" to-layer="1243" to-port="1" />
		<edge from-layer="1243" from-port="2" to-layer="1245" to-port="0" />
		<edge from-layer="1244" from-port="0" to-layer="1245" to-port="1" />
		<edge from-layer="1245" from-port="2" to-layer="1246" to-port="0" />
		<edge from-layer="1246" from-port="1" to-layer="1247" to-port="1" />
		<edge from-layer="1247" from-port="2" to-layer="1250" to-port="0" />
		<edge from-layer="1248" from-port="0" to-layer="1249" to-port="0" />
		<edge from-layer="1249" from-port="1" to-layer="1250" to-port="1" />
		<edge from-layer="1250" from-port="2" to-layer="1252" to-port="0" />
		<edge from-layer="1251" from-port="4" to-layer="1279" to-port="1" />
		<edge from-layer="1251" from-port="4" to-layer="1252" to-port="1" />
		<edge from-layer="1252" from-port="2" to-layer="1254" to-port="0" />
		<edge from-layer="1253" from-port="0" to-layer="1254" to-port="1" />
		<edge from-layer="1254" from-port="2" to-layer="1255" to-port="0" />
		<edge from-layer="1255" from-port="2" to-layer="1257" to-port="0" />
		<edge from-layer="1255" from-port="2" to-layer="1256" to-port="1" />
		<edge from-layer="1256" from-port="2" to-layer="1262" to-port="0" />
		<edge from-layer="1257" from-port="1" to-layer="1260" to-port="0" />
		<edge from-layer="1258" from-port="0" to-layer="1260" to-port="1" />
		<edge from-layer="1259" from-port="0" to-layer="1260" to-port="2" />
		<edge from-layer="1260" from-port="3" to-layer="1261" to-port="3" />
		<edge from-layer="1260" from-port="3" to-layer="1264" to-port="2" />
		<edge from-layer="1261" from-port="4" to-layer="1262" to-port="1" />
		<edge from-layer="1262" from-port="2" to-layer="1263" to-port="0" />
		<edge from-layer="1263" from-port="2" to-layer="1265" to-port="0" />
		<edge from-layer="1264" from-port="3" to-layer="1265" to-port="1" />
		<edge from-layer="1265" from-port="2" to-layer="1266" to-port="0" />
		<edge from-layer="1266" from-port="1" to-layer="1283" to-port="0" />
		<edge from-layer="1267" from-port="0" to-layer="1268" to-port="0" />
		<edge from-layer="1268" from-port="1" to-layer="1271" to-port="0" />
		<edge from-layer="1269" from-port="0" to-layer="1270" to-port="0" />
		<edge from-layer="1270" from-port="1" to-layer="1271" to-port="1" />
		<edge from-layer="1271" from-port="2" to-layer="1273" to-port="0" />
		<edge from-layer="1272" from-port="0" to-layer="1273" to-port="1" />
		<edge from-layer="1273" from-port="2" to-layer="1274" to-port="0" />
		<edge from-layer="1274" from-port="1" to-layer="1275" to-port="1" />
		<edge from-layer="1275" from-port="2" to-layer="1278" to-port="0" />
		<edge from-layer="1276" from-port="0" to-layer="1277" to-port="0" />
		<edge from-layer="1277" from-port="1" to-layer="1278" to-port="1" />
		<edge from-layer="1278" from-port="2" to-layer="1279" to-port="0" />
		<edge from-layer="1279" from-port="2" to-layer="1281" to-port="0" />
		<edge from-layer="1280" from-port="0" to-layer="1281" to-port="1" />
		<edge from-layer="1281" from-port="2" to-layer="1282" to-port="0" />
		<edge from-layer="1282" from-port="2" to-layer="1283" to-port="1" />
		<edge from-layer="1283" from-port="2" to-layer="1285" to-port="0" />
		<edge from-layer="1284" from-port="4" to-layer="1285" to-port="1" />
		<edge from-layer="1285" from-port="2" to-layer="1287" to-port="0" />
		<edge from-layer="1286" from-port="0" to-layer="1287" to-port="1" />
		<edge from-layer="1287" from-port="2" to-layer="1292" to-port="0" />
		<edge from-layer="1288" from-port="0" to-layer="1290" to-port="1" />
		<edge from-layer="1289" from-port="0" to-layer="1290" to-port="2" />
		<edge from-layer="1290" from-port="3" to-layer="1291" to-port="1" />
		<edge from-layer="1291" from-port="2" to-layer="1292" to-port="1" />
		<edge from-layer="1292" from-port="2" to-layer="1301" to-port="0" />
		<edge from-layer="1293" from-port="0" to-layer="1294" to-port="0" />
		<edge from-layer="1294" from-port="1" to-layer="1297" to-port="0" />
		<edge from-layer="1295" from-port="0" to-layer="1296" to-port="0" />
		<edge from-layer="1296" from-port="1" to-layer="1297" to-port="1" />
		<edge from-layer="1297" from-port="2" to-layer="1299" to-port="0" />
		<edge from-layer="1298" from-port="0" to-layer="1299" to-port="1" />
		<edge from-layer="1299" from-port="2" to-layer="1300" to-port="0" />
		<edge from-layer="1300" from-port="1" to-layer="1301" to-port="1" />
		<edge from-layer="1301" from-port="2" to-layer="1304" to-port="0" />
		<edge from-layer="1302" from-port="0" to-layer="1303" to-port="0" />
		<edge from-layer="1303" from-port="1" to-layer="1304" to-port="1" />
		<edge from-layer="1304" from-port="2" to-layer="1305" to-port="1" />
		<edge from-layer="1305" from-port="2" to-layer="1341" to-port="0" />
		<edge from-layer="1305" from-port="2" to-layer="1307" to-port="0" />
		<edge from-layer="1306" from-port="0" to-layer="1307" to-port="1" />
		<edge from-layer="1307" from-port="2" to-layer="1310" to-port="0" />
		<edge from-layer="1308" from-port="0" to-layer="1309" to-port="0" />
		<edge from-layer="1309" from-port="1" to-layer="1310" to-port="1" />
		<edge from-layer="1310" from-port="2" to-layer="1313" to-port="0" />
		<edge from-layer="1311" from-port="0" to-layer="1312" to-port="0" />
		<edge from-layer="1312" from-port="1" to-layer="1313" to-port="1" />
		<edge from-layer="1313" from-port="2" to-layer="1322" to-port="0" />
		<edge from-layer="1314" from-port="0" to-layer="1315" to-port="0" />
		<edge from-layer="1315" from-port="1" to-layer="1318" to-port="0" />
		<edge from-layer="1316" from-port="0" to-layer="1317" to-port="0" />
		<edge from-layer="1317" from-port="1" to-layer="1318" to-port="1" />
		<edge from-layer="1318" from-port="2" to-layer="1320" to-port="0" />
		<edge from-layer="1319" from-port="0" to-layer="1320" to-port="1" />
		<edge from-layer="1320" from-port="2" to-layer="1321" to-port="0" />
		<edge from-layer="1321" from-port="1" to-layer="1322" to-port="1" />
		<edge from-layer="1322" from-port="2" to-layer="1325" to-port="0" />
		<edge from-layer="1323" from-port="0" to-layer="1324" to-port="0" />
		<edge from-layer="1324" from-port="1" to-layer="1325" to-port="1" />
		<edge from-layer="1325" from-port="2" to-layer="1328" to-port="0" />
		<edge from-layer="1326" from-port="0" to-layer="1327" to-port="0" />
		<edge from-layer="1327" from-port="1" to-layer="1328" to-port="1" />
		<edge from-layer="1328" from-port="2" to-layer="1337" to-port="0" />
		<edge from-layer="1329" from-port="0" to-layer="1330" to-port="0" />
		<edge from-layer="1330" from-port="1" to-layer="1333" to-port="0" />
		<edge from-layer="1331" from-port="0" to-layer="1332" to-port="0" />
		<edge from-layer="1332" from-port="1" to-layer="1333" to-port="1" />
		<edge from-layer="1333" from-port="2" to-layer="1335" to-port="0" />
		<edge from-layer="1334" from-port="0" to-layer="1335" to-port="1" />
		<edge from-layer="1335" from-port="2" to-layer="1336" to-port="0" />
		<edge from-layer="1336" from-port="1" to-layer="1337" to-port="1" />
		<edge from-layer="1337" from-port="2" to-layer="1340" to-port="0" />
		<edge from-layer="1338" from-port="0" to-layer="1339" to-port="0" />
		<edge from-layer="1339" from-port="1" to-layer="1340" to-port="1" />
		<edge from-layer="1340" from-port="2" to-layer="1341" to-port="1" />
		<edge from-layer="1341" from-port="2" to-layer="1343" to-port="0" />
		<edge from-layer="1341" from-port="2" to-layer="1445" to-port="0" />
		<edge from-layer="1342" from-port="0" to-layer="1343" to-port="1" />
		<edge from-layer="1343" from-port="2" to-layer="1346" to-port="0" />
		<edge from-layer="1344" from-port="0" to-layer="1345" to-port="0" />
		<edge from-layer="1345" from-port="1" to-layer="1346" to-port="1" />
		<edge from-layer="1346" from-port="2" to-layer="1349" to-port="0" />
		<edge from-layer="1347" from-port="0" to-layer="1348" to-port="0" />
		<edge from-layer="1348" from-port="1" to-layer="1349" to-port="1" />
		<edge from-layer="1349" from-port="2" to-layer="1415" to-port="0" />
		<edge from-layer="1349" from-port="2" to-layer="1362" to-port="0" />
		<edge from-layer="1349" from-port="2" to-layer="1358" to-port="0" />
		<edge from-layer="1349" from-port="2" to-layer="1387" to-port="0" />
		<edge from-layer="1350" from-port="0" to-layer="1351" to-port="0" />
		<edge from-layer="1351" from-port="1" to-layer="1354" to-port="0" />
		<edge from-layer="1352" from-port="0" to-layer="1353" to-port="0" />
		<edge from-layer="1353" from-port="1" to-layer="1354" to-port="1" />
		<edge from-layer="1354" from-port="2" to-layer="1356" to-port="0" />
		<edge from-layer="1355" from-port="0" to-layer="1356" to-port="1" />
		<edge from-layer="1356" from-port="2" to-layer="1357" to-port="0" />
		<edge from-layer="1357" from-port="1" to-layer="1358" to-port="1" />
		<edge from-layer="1358" from-port="2" to-layer="1361" to-port="0" />
		<edge from-layer="1359" from-port="0" to-layer="1360" to-port="0" />
		<edge from-layer="1360" from-port="1" to-layer="1361" to-port="1" />
		<edge from-layer="1361" from-port="2" to-layer="1371" to-port="0" />
		<edge from-layer="1362" from-port="1" to-layer="1430" to-port="0" />
		<edge from-layer="1362" from-port="1" to-layer="1369" to-port="0" />
		<edge from-layer="1362" from-port="1" to-layer="1364" to-port="0" />
		<edge from-layer="1363" from-port="0" to-layer="1364" to-port="2" />
		<edge from-layer="1364" from-port="3" to-layer="1366" to-port="0" />
		<edge from-layer="1364" from-port="3" to-layer="1374" to-port="0" />
		<edge from-layer="1365" from-port="0" to-layer="1366" to-port="1" />
		<edge from-layer="1366" from-port="2" to-layer="1424" to-port="0" />
		<edge from-layer="1366" from-port="2" to-layer="1391" to-port="0" />
		<edge from-layer="1366" from-port="2" to-layer="1401" to-port="0" />
		<edge from-layer="1366" from-port="2" to-layer="1431" to-port="0" />
		<edge from-layer="1366" from-port="2" to-layer="1370" to-port="0" />
		<edge from-layer="1367" from-port="0" to-layer="1369" to-port="1" />
		<edge from-layer="1368" from-port="0" to-layer="1369" to-port="2" />
		<edge from-layer="1369" from-port="3" to-layer="1424" to-port="2" />
		<edge from-layer="1369" from-port="3" to-layer="1404" to-port="1" />
		<edge from-layer="1369" from-port="3" to-layer="1370" to-port="1" />
		<edge from-layer="1369" from-port="3" to-layer="1401" to-port="2" />
		<edge from-layer="1370" from-port="4" to-layer="1371" to-port="1" />
		<edge from-layer="1371" from-port="2" to-layer="1373" to-port="0" />
		<edge from-layer="1372" from-port="0" to-layer="1373" to-port="1" />
		<edge from-layer="1373" from-port="2" to-layer="1378" to-port="0" />
		<edge from-layer="1374" from-port="2" to-layer="1376" to-port="0" />
		<edge from-layer="1375" from-port="0" to-layer="1376" to-port="1" />
		<edge from-layer="1376" from-port="2" to-layer="1377" to-port="0" />
		<edge from-layer="1376" from-port="2" to-layer="1404" to-port="0" />
		<edge from-layer="1377" from-port="3" to-layer="1378" to-port="1" />
		<edge from-layer="1377" from-port="3" to-layer="1422" to-port="1" />
		<edge from-layer="1377" from-port="3" to-layer="1395" to-port="1" />
		<edge from-layer="1378" from-port="2" to-layer="1396" to-port="0" />
		<edge from-layer="1379" from-port="0" to-layer="1380" to-port="0" />
		<edge from-layer="1380" from-port="1" to-layer="1383" to-port="0" />
		<edge from-layer="1381" from-port="0" to-layer="1382" to-port="0" />
		<edge from-layer="1382" from-port="1" to-layer="1383" to-port="1" />
		<edge from-layer="1383" from-port="2" to-layer="1385" to-port="0" />
		<edge from-layer="1384" from-port="0" to-layer="1385" to-port="1" />
		<edge from-layer="1385" from-port="2" to-layer="1386" to-port="0" />
		<edge from-layer="1386" from-port="1" to-layer="1387" to-port="1" />
		<edge from-layer="1387" from-port="2" to-layer="1390" to-port="0" />
		<edge from-layer="1388" from-port="0" to-layer="1389" to-port="0" />
		<edge from-layer="1389" from-port="1" to-layer="1390" to-port="1" />
		<edge from-layer="1390" from-port="2" to-layer="1392" to-port="0" />
		<edge from-layer="1391" from-port="4" to-layer="1419" to-port="1" />
		<edge from-layer="1391" from-port="4" to-layer="1392" to-port="1" />
		<edge from-layer="1392" from-port="2" to-layer="1394" to-port="0" />
		<edge from-layer="1393" from-port="0" to-layer="1394" to-port="1" />
		<edge from-layer="1394" from-port="2" to-layer="1395" to-port="0" />
		<edge from-layer="1395" from-port="2" to-layer="1397" to-port="0" />
		<edge from-layer="1395" from-port="2" to-layer="1396" to-port="1" />
		<edge from-layer="1396" from-port="2" to-layer="1402" to-port="0" />
		<edge from-layer="1397" from-port="1" to-layer="1400" to-port="0" />
		<edge from-layer="1398" from-port="0" to-layer="1400" to-port="1" />
		<edge from-layer="1399" from-port="0" to-layer="1400" to-port="2" />
		<edge from-layer="1400" from-port="3" to-layer="1401" to-port="3" />
		<edge from-layer="1400" from-port="3" to-layer="1404" to-port="2" />
		<edge from-layer="1401" from-port="4" to-layer="1402" to-port="1" />
		<edge from-layer="1402" from-port="2" to-layer="1403" to-port="0" />
		<edge from-layer="1403" from-port="2" to-layer="1405" to-port="0" />
		<edge from-layer="1404" from-port="3" to-layer="1405" to-port="1" />
		<edge from-layer="1405" from-port="2" to-layer="1406" to-port="0" />
		<edge from-layer="1406" from-port="1" to-layer="1423" to-port="0" />
		<edge from-layer="1407" from-port="0" to-layer="1408" to-port="0" />
		<edge from-layer="1408" from-port="1" to-layer="1411" to-port="0" />
		<edge from-layer="1409" from-port="0" to-layer="1410" to-port="0" />
		<edge from-layer="1410" from-port="1" to-layer="1411" to-port="1" />
		<edge from-layer="1411" from-port="2" to-layer="1413" to-port="0" />
		<edge from-layer="1412" from-port="0" to-layer="1413" to-port="1" />
		<edge from-layer="1413" from-port="2" to-layer="1414" to-port="0" />
		<edge from-layer="1414" from-port="1" to-layer="1415" to-port="1" />
		<edge from-layer="1415" from-port="2" to-layer="1418" to-port="0" />
		<edge from-layer="1416" from-port="0" to-layer="1417" to-port="0" />
		<edge from-layer="1417" from-port="1" to-layer="1418" to-port="1" />
		<edge from-layer="1418" from-port="2" to-layer="1419" to-port="0" />
		<edge from-layer="1419" from-port="2" to-layer="1421" to-port="0" />
		<edge from-layer="1420" from-port="0" to-layer="1421" to-port="1" />
		<edge from-layer="1421" from-port="2" to-layer="1422" to-port="0" />
		<edge from-layer="1422" from-port="2" to-layer="1423" to-port="1" />
		<edge from-layer="1423" from-port="2" to-layer="1425" to-port="0" />
		<edge from-layer="1424" from-port="4" to-layer="1425" to-port="1" />
		<edge from-layer="1425" from-port="2" to-layer="1427" to-port="0" />
		<edge from-layer="1426" from-port="0" to-layer="1427" to-port="1" />
		<edge from-layer="1427" from-port="2" to-layer="1432" to-port="0" />
		<edge from-layer="1428" from-port="0" to-layer="1430" to-port="1" />
		<edge from-layer="1429" from-port="0" to-layer="1430" to-port="2" />
		<edge from-layer="1430" from-port="3" to-layer="1431" to-port="1" />
		<edge from-layer="1431" from-port="2" to-layer="1432" to-port="1" />
		<edge from-layer="1432" from-port="2" to-layer="1441" to-port="0" />
		<edge from-layer="1433" from-port="0" to-layer="1434" to-port="0" />
		<edge from-layer="1434" from-port="1" to-layer="1437" to-port="0" />
		<edge from-layer="1435" from-port="0" to-layer="1436" to-port="0" />
		<edge from-layer="1436" from-port="1" to-layer="1437" to-port="1" />
		<edge from-layer="1437" from-port="2" to-layer="1439" to-port="0" />
		<edge from-layer="1438" from-port="0" to-layer="1439" to-port="1" />
		<edge from-layer="1439" from-port="2" to-layer="1440" to-port="0" />
		<edge from-layer="1440" from-port="1" to-layer="1441" to-port="1" />
		<edge from-layer="1441" from-port="2" to-layer="1444" to-port="0" />
		<edge from-layer="1442" from-port="0" to-layer="1443" to-port="0" />
		<edge from-layer="1443" from-port="1" to-layer="1444" to-port="1" />
		<edge from-layer="1444" from-port="2" to-layer="1445" to-port="1" />
		<edge from-layer="1445" from-port="2" to-layer="1447" to-port="0" />
		<edge from-layer="1445" from-port="2" to-layer="1481" to-port="0" />
		<edge from-layer="1446" from-port="0" to-layer="1447" to-port="1" />
		<edge from-layer="1447" from-port="2" to-layer="1450" to-port="0" />
		<edge from-layer="1448" from-port="0" to-layer="1449" to-port="0" />
		<edge from-layer="1449" from-port="1" to-layer="1450" to-port="1" />
		<edge from-layer="1450" from-port="2" to-layer="1453" to-port="0" />
		<edge from-layer="1451" from-port="0" to-layer="1452" to-port="0" />
		<edge from-layer="1452" from-port="1" to-layer="1453" to-port="1" />
		<edge from-layer="1453" from-port="2" to-layer="1462" to-port="0" />
		<edge from-layer="1454" from-port="0" to-layer="1455" to-port="0" />
		<edge from-layer="1455" from-port="1" to-layer="1458" to-port="0" />
		<edge from-layer="1456" from-port="0" to-layer="1457" to-port="0" />
		<edge from-layer="1457" from-port="1" to-layer="1458" to-port="1" />
		<edge from-layer="1458" from-port="2" to-layer="1460" to-port="0" />
		<edge from-layer="1459" from-port="0" to-layer="1460" to-port="1" />
		<edge from-layer="1460" from-port="2" to-layer="1461" to-port="0" />
		<edge from-layer="1461" from-port="1" to-layer="1462" to-port="1" />
		<edge from-layer="1462" from-port="2" to-layer="1465" to-port="0" />
		<edge from-layer="1463" from-port="0" to-layer="1464" to-port="0" />
		<edge from-layer="1464" from-port="1" to-layer="1465" to-port="1" />
		<edge from-layer="1465" from-port="2" to-layer="1468" to-port="0" />
		<edge from-layer="1466" from-port="0" to-layer="1467" to-port="0" />
		<edge from-layer="1467" from-port="1" to-layer="1468" to-port="1" />
		<edge from-layer="1468" from-port="2" to-layer="1477" to-port="0" />
		<edge from-layer="1469" from-port="0" to-layer="1470" to-port="0" />
		<edge from-layer="1470" from-port="1" to-layer="1473" to-port="0" />
		<edge from-layer="1471" from-port="0" to-layer="1472" to-port="0" />
		<edge from-layer="1472" from-port="1" to-layer="1473" to-port="1" />
		<edge from-layer="1473" from-port="2" to-layer="1475" to-port="0" />
		<edge from-layer="1474" from-port="0" to-layer="1475" to-port="1" />
		<edge from-layer="1475" from-port="2" to-layer="1476" to-port="0" />
		<edge from-layer="1476" from-port="1" to-layer="1477" to-port="1" />
		<edge from-layer="1477" from-port="2" to-layer="1480" to-port="0" />
		<edge from-layer="1478" from-port="0" to-layer="1479" to-port="0" />
		<edge from-layer="1479" from-port="1" to-layer="1480" to-port="1" />
		<edge from-layer="1480" from-port="2" to-layer="1481" to-port="1" />
		<edge from-layer="1481" from-port="2" to-layer="1483" to-port="0" />
		<edge from-layer="1481" from-port="2" to-layer="1585" to-port="0" />
		<edge from-layer="1482" from-port="0" to-layer="1483" to-port="1" />
		<edge from-layer="1483" from-port="2" to-layer="1486" to-port="0" />
		<edge from-layer="1484" from-port="0" to-layer="1485" to-port="0" />
		<edge from-layer="1485" from-port="1" to-layer="1486" to-port="1" />
		<edge from-layer="1486" from-port="2" to-layer="1489" to-port="0" />
		<edge from-layer="1487" from-port="0" to-layer="1488" to-port="0" />
		<edge from-layer="1488" from-port="1" to-layer="1489" to-port="1" />
		<edge from-layer="1489" from-port="2" to-layer="1498" to-port="0" />
		<edge from-layer="1489" from-port="2" to-layer="1502" to-port="0" />
		<edge from-layer="1489" from-port="2" to-layer="1555" to-port="0" />
		<edge from-layer="1489" from-port="2" to-layer="1527" to-port="0" />
		<edge from-layer="1490" from-port="0" to-layer="1491" to-port="0" />
		<edge from-layer="1491" from-port="1" to-layer="1494" to-port="0" />
		<edge from-layer="1492" from-port="0" to-layer="1493" to-port="0" />
		<edge from-layer="1493" from-port="1" to-layer="1494" to-port="1" />
		<edge from-layer="1494" from-port="2" to-layer="1496" to-port="0" />
		<edge from-layer="1495" from-port="0" to-layer="1496" to-port="1" />
		<edge from-layer="1496" from-port="2" to-layer="1497" to-port="0" />
		<edge from-layer="1497" from-port="1" to-layer="1498" to-port="1" />
		<edge from-layer="1498" from-port="2" to-layer="1501" to-port="0" />
		<edge from-layer="1499" from-port="0" to-layer="1500" to-port="0" />
		<edge from-layer="1500" from-port="1" to-layer="1501" to-port="1" />
		<edge from-layer="1501" from-port="2" to-layer="1511" to-port="0" />
		<edge from-layer="1502" from-port="1" to-layer="1570" to-port="0" />
		<edge from-layer="1502" from-port="1" to-layer="1504" to-port="0" />
		<edge from-layer="1502" from-port="1" to-layer="1509" to-port="0" />
		<edge from-layer="1503" from-port="0" to-layer="1504" to-port="2" />
		<edge from-layer="1504" from-port="3" to-layer="1506" to-port="0" />
		<edge from-layer="1504" from-port="3" to-layer="1514" to-port="0" />
		<edge from-layer="1505" from-port="0" to-layer="1506" to-port="1" />
		<edge from-layer="1506" from-port="2" to-layer="1571" to-port="0" />
		<edge from-layer="1506" from-port="2" to-layer="1531" to-port="0" />
		<edge from-layer="1506" from-port="2" to-layer="1510" to-port="0" />
		<edge from-layer="1506" from-port="2" to-layer="1541" to-port="0" />
		<edge from-layer="1506" from-port="2" to-layer="1564" to-port="0" />
		<edge from-layer="1507" from-port="0" to-layer="1509" to-port="1" />
		<edge from-layer="1508" from-port="0" to-layer="1509" to-port="2" />
		<edge from-layer="1509" from-port="3" to-layer="1510" to-port="1" />
		<edge from-layer="1509" from-port="3" to-layer="1564" to-port="2" />
		<edge from-layer="1509" from-port="3" to-layer="1541" to-port="2" />
		<edge from-layer="1509" from-port="3" to-layer="1544" to-port="1" />
		<edge from-layer="1510" from-port="4" to-layer="1511" to-port="1" />
		<edge from-layer="1511" from-port="2" to-layer="1513" to-port="0" />
		<edge from-layer="1512" from-port="0" to-layer="1513" to-port="1" />
		<edge from-layer="1513" from-port="2" to-layer="1518" to-port="0" />
		<edge from-layer="1514" from-port="2" to-layer="1516" to-port="0" />
		<edge from-layer="1515" from-port="0" to-layer="1516" to-port="1" />
		<edge from-layer="1516" from-port="2" to-layer="1544" to-port="0" />
		<edge from-layer="1516" from-port="2" to-layer="1517" to-port="0" />
		<edge from-layer="1517" from-port="3" to-layer="1535" to-port="1" />
		<edge from-layer="1517" from-port="3" to-layer="1562" to-port="1" />
		<edge from-layer="1517" from-port="3" to-layer="1518" to-port="1" />
		<edge from-layer="1518" from-port="2" to-layer="1536" to-port="0" />
		<edge from-layer="1519" from-port="0" to-layer="1520" to-port="0" />
		<edge from-layer="1520" from-port="1" to-layer="1523" to-port="0" />
		<edge from-layer="1521" from-port="0" to-layer="1522" to-port="0" />
		<edge from-layer="1522" from-port="1" to-layer="1523" to-port="1" />
		<edge from-layer="1523" from-port="2" to-layer="1525" to-port="0" />
		<edge from-layer="1524" from-port="0" to-layer="1525" to-port="1" />
		<edge from-layer="1525" from-port="2" to-layer="1526" to-port="0" />
		<edge from-layer="1526" from-port="1" to-layer="1527" to-port="1" />
		<edge from-layer="1527" from-port="2" to-layer="1530" to-port="0" />
		<edge from-layer="1528" from-port="0" to-layer="1529" to-port="0" />
		<edge from-layer="1529" from-port="1" to-layer="1530" to-port="1" />
		<edge from-layer="1530" from-port="2" to-layer="1532" to-port="0" />
		<edge from-layer="1531" from-port="4" to-layer="1532" to-port="1" />
		<edge from-layer="1531" from-port="4" to-layer="1559" to-port="1" />
		<edge from-layer="1532" from-port="2" to-layer="1534" to-port="0" />
		<edge from-layer="1533" from-port="0" to-layer="1534" to-port="1" />
		<edge from-layer="1534" from-port="2" to-layer="1535" to-port="0" />
		<edge from-layer="1535" from-port="2" to-layer="1536" to-port="1" />
		<edge from-layer="1535" from-port="2" to-layer="1537" to-port="0" />
		<edge from-layer="1536" from-port="2" to-layer="1542" to-port="0" />
		<edge from-layer="1537" from-port="1" to-layer="1540" to-port="0" />
		<edge from-layer="1538" from-port="0" to-layer="1540" to-port="1" />
		<edge from-layer="1539" from-port="0" to-layer="1540" to-port="2" />
		<edge from-layer="1540" from-port="3" to-layer="1544" to-port="2" />
		<edge from-layer="1540" from-port="3" to-layer="1541" to-port="3" />
		<edge from-layer="1541" from-port="4" to-layer="1542" to-port="1" />
		<edge from-layer="1542" from-port="2" to-layer="1543" to-port="0" />
		<edge from-layer="1543" from-port="2" to-layer="1545" to-port="0" />
		<edge from-layer="1544" from-port="3" to-layer="1545" to-port="1" />
		<edge from-layer="1545" from-port="2" to-layer="1546" to-port="0" />
		<edge from-layer="1546" from-port="1" to-layer="1563" to-port="0" />
		<edge from-layer="1547" from-port="0" to-layer="1548" to-port="0" />
		<edge from-layer="1548" from-port="1" to-layer="1551" to-port="0" />
		<edge from-layer="1549" from-port="0" to-layer="1550" to-port="0" />
		<edge from-layer="1550" from-port="1" to-layer="1551" to-port="1" />
		<edge from-layer="1551" from-port="2" to-layer="1553" to-port="0" />
		<edge from-layer="1552" from-port="0" to-layer="1553" to-port="1" />
		<edge from-layer="1553" from-port="2" to-layer="1554" to-port="0" />
		<edge from-layer="1554" from-port="1" to-layer="1555" to-port="1" />
		<edge from-layer="1555" from-port="2" to-layer="1558" to-port="0" />
		<edge from-layer="1556" from-port="0" to-layer="1557" to-port="0" />
		<edge from-layer="1557" from-port="1" to-layer="1558" to-port="1" />
		<edge from-layer="1558" from-port="2" to-layer="1559" to-port="0" />
		<edge from-layer="1559" from-port="2" to-layer="1561" to-port="0" />
		<edge from-layer="1560" from-port="0" to-layer="1561" to-port="1" />
		<edge from-layer="1561" from-port="2" to-layer="1562" to-port="0" />
		<edge from-layer="1562" from-port="2" to-layer="1563" to-port="1" />
		<edge from-layer="1563" from-port="2" to-layer="1565" to-port="0" />
		<edge from-layer="1564" from-port="4" to-layer="1565" to-port="1" />
		<edge from-layer="1565" from-port="2" to-layer="1567" to-port="0" />
		<edge from-layer="1566" from-port="0" to-layer="1567" to-port="1" />
		<edge from-layer="1567" from-port="2" to-layer="1572" to-port="0" />
		<edge from-layer="1568" from-port="0" to-layer="1570" to-port="1" />
		<edge from-layer="1569" from-port="0" to-layer="1570" to-port="2" />
		<edge from-layer="1570" from-port="3" to-layer="1571" to-port="1" />
		<edge from-layer="1571" from-port="2" to-layer="1572" to-port="1" />
		<edge from-layer="1572" from-port="2" to-layer="1581" to-port="0" />
		<edge from-layer="1573" from-port="0" to-layer="1574" to-port="0" />
		<edge from-layer="1574" from-port="1" to-layer="1577" to-port="0" />
		<edge from-layer="1575" from-port="0" to-layer="1576" to-port="0" />
		<edge from-layer="1576" from-port="1" to-layer="1577" to-port="1" />
		<edge from-layer="1577" from-port="2" to-layer="1579" to-port="0" />
		<edge from-layer="1578" from-port="0" to-layer="1579" to-port="1" />
		<edge from-layer="1579" from-port="2" to-layer="1580" to-port="0" />
		<edge from-layer="1580" from-port="1" to-layer="1581" to-port="1" />
		<edge from-layer="1581" from-port="2" to-layer="1584" to-port="0" />
		<edge from-layer="1582" from-port="0" to-layer="1583" to-port="0" />
		<edge from-layer="1583" from-port="1" to-layer="1584" to-port="1" />
		<edge from-layer="1584" from-port="2" to-layer="1585" to-port="1" />
		<edge from-layer="1585" from-port="2" to-layer="1587" to-port="0" />
		<edge from-layer="1585" from-port="2" to-layer="1621" to-port="0" />
		<edge from-layer="1586" from-port="0" to-layer="1587" to-port="1" />
		<edge from-layer="1587" from-port="2" to-layer="1590" to-port="0" />
		<edge from-layer="1588" from-port="0" to-layer="1589" to-port="0" />
		<edge from-layer="1589" from-port="1" to-layer="1590" to-port="1" />
		<edge from-layer="1590" from-port="2" to-layer="1593" to-port="0" />
		<edge from-layer="1591" from-port="0" to-layer="1592" to-port="0" />
		<edge from-layer="1592" from-port="1" to-layer="1593" to-port="1" />
		<edge from-layer="1593" from-port="2" to-layer="1602" to-port="0" />
		<edge from-layer="1594" from-port="0" to-layer="1595" to-port="0" />
		<edge from-layer="1595" from-port="1" to-layer="1598" to-port="0" />
		<edge from-layer="1596" from-port="0" to-layer="1597" to-port="0" />
		<edge from-layer="1597" from-port="1" to-layer="1598" to-port="1" />
		<edge from-layer="1598" from-port="2" to-layer="1600" to-port="0" />
		<edge from-layer="1599" from-port="0" to-layer="1600" to-port="1" />
		<edge from-layer="1600" from-port="2" to-layer="1601" to-port="0" />
		<edge from-layer="1601" from-port="1" to-layer="1602" to-port="1" />
		<edge from-layer="1602" from-port="2" to-layer="1605" to-port="0" />
		<edge from-layer="1603" from-port="0" to-layer="1604" to-port="0" />
		<edge from-layer="1604" from-port="1" to-layer="1605" to-port="1" />
		<edge from-layer="1605" from-port="2" to-layer="1608" to-port="0" />
		<edge from-layer="1606" from-port="0" to-layer="1607" to-port="0" />
		<edge from-layer="1607" from-port="1" to-layer="1608" to-port="1" />
		<edge from-layer="1608" from-port="2" to-layer="1617" to-port="0" />
		<edge from-layer="1609" from-port="0" to-layer="1610" to-port="0" />
		<edge from-layer="1610" from-port="1" to-layer="1613" to-port="0" />
		<edge from-layer="1611" from-port="0" to-layer="1612" to-port="0" />
		<edge from-layer="1612" from-port="1" to-layer="1613" to-port="1" />
		<edge from-layer="1613" from-port="2" to-layer="1615" to-port="0" />
		<edge from-layer="1614" from-port="0" to-layer="1615" to-port="1" />
		<edge from-layer="1615" from-port="2" to-layer="1616" to-port="0" />
		<edge from-layer="1616" from-port="1" to-layer="1617" to-port="1" />
		<edge from-layer="1617" from-port="2" to-layer="1620" to-port="0" />
		<edge from-layer="1618" from-port="0" to-layer="1619" to-port="0" />
		<edge from-layer="1619" from-port="1" to-layer="1620" to-port="1" />
		<edge from-layer="1620" from-port="2" to-layer="1621" to-port="1" />
		<edge from-layer="1621" from-port="2" to-layer="1725" to-port="0" />
		<edge from-layer="1621" from-port="2" to-layer="1623" to-port="0" />
		<edge from-layer="1622" from-port="0" to-layer="1623" to-port="1" />
		<edge from-layer="1623" from-port="2" to-layer="1626" to-port="0" />
		<edge from-layer="1624" from-port="0" to-layer="1625" to-port="0" />
		<edge from-layer="1625" from-port="1" to-layer="1626" to-port="1" />
		<edge from-layer="1626" from-port="2" to-layer="1629" to-port="0" />
		<edge from-layer="1627" from-port="0" to-layer="1628" to-port="0" />
		<edge from-layer="1628" from-port="1" to-layer="1629" to-port="1" />
		<edge from-layer="1629" from-port="2" to-layer="1642" to-port="0" />
		<edge from-layer="1629" from-port="2" to-layer="1695" to-port="0" />
		<edge from-layer="1629" from-port="2" to-layer="1667" to-port="0" />
		<edge from-layer="1629" from-port="2" to-layer="1638" to-port="0" />
		<edge from-layer="1630" from-port="0" to-layer="1631" to-port="0" />
		<edge from-layer="1631" from-port="1" to-layer="1634" to-port="0" />
		<edge from-layer="1632" from-port="0" to-layer="1633" to-port="0" />
		<edge from-layer="1633" from-port="1" to-layer="1634" to-port="1" />
		<edge from-layer="1634" from-port="2" to-layer="1636" to-port="0" />
		<edge from-layer="1635" from-port="0" to-layer="1636" to-port="1" />
		<edge from-layer="1636" from-port="2" to-layer="1637" to-port="0" />
		<edge from-layer="1637" from-port="1" to-layer="1638" to-port="1" />
		<edge from-layer="1638" from-port="2" to-layer="1641" to-port="0" />
		<edge from-layer="1639" from-port="0" to-layer="1640" to-port="0" />
		<edge from-layer="1640" from-port="1" to-layer="1641" to-port="1" />
		<edge from-layer="1641" from-port="2" to-layer="1651" to-port="0" />
		<edge from-layer="1642" from-port="1" to-layer="1649" to-port="0" />
		<edge from-layer="1642" from-port="1" to-layer="1710" to-port="0" />
		<edge from-layer="1642" from-port="1" to-layer="1644" to-port="0" />
		<edge from-layer="1643" from-port="0" to-layer="1644" to-port="2" />
		<edge from-layer="1644" from-port="3" to-layer="1646" to-port="0" />
		<edge from-layer="1644" from-port="3" to-layer="1654" to-port="0" />
		<edge from-layer="1645" from-port="0" to-layer="1646" to-port="1" />
		<edge from-layer="1646" from-port="2" to-layer="1704" to-port="0" />
		<edge from-layer="1646" from-port="2" to-layer="1650" to-port="0" />
		<edge from-layer="1646" from-port="2" to-layer="1671" to-port="0" />
		<edge from-layer="1646" from-port="2" to-layer="1711" to-port="0" />
		<edge from-layer="1646" from-port="2" to-layer="1681" to-port="0" />
		<edge from-layer="1647" from-port="0" to-layer="1649" to-port="1" />
		<edge from-layer="1648" from-port="0" to-layer="1649" to-port="2" />
		<edge from-layer="1649" from-port="3" to-layer="1684" to-port="1" />
		<edge from-layer="1649" from-port="3" to-layer="1650" to-port="1" />
		<edge from-layer="1649" from-port="3" to-layer="1681" to-port="2" />
		<edge from-layer="1649" from-port="3" to-layer="1704" to-port="2" />
		<edge from-layer="1650" from-port="4" to-layer="1651" to-port="1" />
		<edge from-layer="1651" from-port="2" to-layer="1653" to-port="0" />
		<edge from-layer="1652" from-port="0" to-layer="1653" to-port="1" />
		<edge from-layer="1653" from-port="2" to-layer="1658" to-port="0" />
		<edge from-layer="1654" from-port="2" to-layer="1656" to-port="0" />
		<edge from-layer="1655" from-port="0" to-layer="1656" to-port="1" />
		<edge from-layer="1656" from-port="2" to-layer="1657" to-port="0" />
		<edge from-layer="1656" from-port="2" to-layer="1684" to-port="0" />
		<edge from-layer="1657" from-port="3" to-layer="1675" to-port="1" />
		<edge from-layer="1657" from-port="3" to-layer="1702" to-port="1" />
		<edge from-layer="1657" from-port="3" to-layer="1658" to-port="1" />
		<edge from-layer="1658" from-port="2" to-layer="1676" to-port="0" />
		<edge from-layer="1659" from-port="0" to-layer="1660" to-port="0" />
		<edge from-layer="1660" from-port="1" to-layer="1663" to-port="0" />
		<edge from-layer="1661" from-port="0" to-layer="1662" to-port="0" />
		<edge from-layer="1662" from-port="1" to-layer="1663" to-port="1" />
		<edge from-layer="1663" from-port="2" to-layer="1665" to-port="0" />
		<edge from-layer="1664" from-port="0" to-layer="1665" to-port="1" />
		<edge from-layer="1665" from-port="2" to-layer="1666" to-port="0" />
		<edge from-layer="1666" from-port="1" to-layer="1667" to-port="1" />
		<edge from-layer="1667" from-port="2" to-layer="1670" to-port="0" />
		<edge from-layer="1668" from-port="0" to-layer="1669" to-port="0" />
		<edge from-layer="1669" from-port="1" to-layer="1670" to-port="1" />
		<edge from-layer="1670" from-port="2" to-layer="1672" to-port="0" />
		<edge from-layer="1671" from-port="4" to-layer="1672" to-port="1" />
		<edge from-layer="1671" from-port="4" to-layer="1699" to-port="1" />
		<edge from-layer="1672" from-port="2" to-layer="1674" to-port="0" />
		<edge from-layer="1673" from-port="0" to-layer="1674" to-port="1" />
		<edge from-layer="1674" from-port="2" to-layer="1675" to-port="0" />
		<edge from-layer="1675" from-port="2" to-layer="1676" to-port="1" />
		<edge from-layer="1675" from-port="2" to-layer="1677" to-port="0" />
		<edge from-layer="1676" from-port="2" to-layer="1682" to-port="0" />
		<edge from-layer="1677" from-port="1" to-layer="1680" to-port="0" />
		<edge from-layer="1678" from-port="0" to-layer="1680" to-port="1" />
		<edge from-layer="1679" from-port="0" to-layer="1680" to-port="2" />
		<edge from-layer="1680" from-port="3" to-layer="1681" to-port="3" />
		<edge from-layer="1680" from-port="3" to-layer="1684" to-port="2" />
		<edge from-layer="1681" from-port="4" to-layer="1682" to-port="1" />
		<edge from-layer="1682" from-port="2" to-layer="1683" to-port="0" />
		<edge from-layer="1683" from-port="2" to-layer="1685" to-port="0" />
		<edge from-layer="1684" from-port="3" to-layer="1685" to-port="1" />
		<edge from-layer="1685" from-port="2" to-layer="1686" to-port="0" />
		<edge from-layer="1686" from-port="1" to-layer="1703" to-port="0" />
		<edge from-layer="1687" from-port="0" to-layer="1688" to-port="0" />
		<edge from-layer="1688" from-port="1" to-layer="1691" to-port="0" />
		<edge from-layer="1689" from-port="0" to-layer="1690" to-port="0" />
		<edge from-layer="1690" from-port="1" to-layer="1691" to-port="1" />
		<edge from-layer="1691" from-port="2" to-layer="1693" to-port="0" />
		<edge from-layer="1692" from-port="0" to-layer="1693" to-port="1" />
		<edge from-layer="1693" from-port="2" to-layer="1694" to-port="0" />
		<edge from-layer="1694" from-port="1" to-layer="1695" to-port="1" />
		<edge from-layer="1695" from-port="2" to-layer="1698" to-port="0" />
		<edge from-layer="1696" from-port="0" to-layer="1697" to-port="0" />
		<edge from-layer="1697" from-port="1" to-layer="1698" to-port="1" />
		<edge from-layer="1698" from-port="2" to-layer="1699" to-port="0" />
		<edge from-layer="1699" from-port="2" to-layer="1701" to-port="0" />
		<edge from-layer="1700" from-port="0" to-layer="1701" to-port="1" />
		<edge from-layer="1701" from-port="2" to-layer="1702" to-port="0" />
		<edge from-layer="1702" from-port="2" to-layer="1703" to-port="1" />
		<edge from-layer="1703" from-port="2" to-layer="1705" to-port="0" />
		<edge from-layer="1704" from-port="4" to-layer="1705" to-port="1" />
		<edge from-layer="1705" from-port="2" to-layer="1707" to-port="0" />
		<edge from-layer="1706" from-port="0" to-layer="1707" to-port="1" />
		<edge from-layer="1707" from-port="2" to-layer="1712" to-port="0" />
		<edge from-layer="1708" from-port="0" to-layer="1710" to-port="1" />
		<edge from-layer="1709" from-port="0" to-layer="1710" to-port="2" />
		<edge from-layer="1710" from-port="3" to-layer="1711" to-port="1" />
		<edge from-layer="1711" from-port="2" to-layer="1712" to-port="1" />
		<edge from-layer="1712" from-port="2" to-layer="1721" to-port="0" />
		<edge from-layer="1713" from-port="0" to-layer="1714" to-port="0" />
		<edge from-layer="1714" from-port="1" to-layer="1717" to-port="0" />
		<edge from-layer="1715" from-port="0" to-layer="1716" to-port="0" />
		<edge from-layer="1716" from-port="1" to-layer="1717" to-port="1" />
		<edge from-layer="1717" from-port="2" to-layer="1719" to-port="0" />
		<edge from-layer="1718" from-port="0" to-layer="1719" to-port="1" />
		<edge from-layer="1719" from-port="2" to-layer="1720" to-port="0" />
		<edge from-layer="1720" from-port="1" to-layer="1721" to-port="1" />
		<edge from-layer="1721" from-port="2" to-layer="1724" to-port="0" />
		<edge from-layer="1722" from-port="0" to-layer="1723" to-port="0" />
		<edge from-layer="1723" from-port="1" to-layer="1724" to-port="1" />
		<edge from-layer="1724" from-port="2" to-layer="1725" to-port="1" />
		<edge from-layer="1725" from-port="2" to-layer="1727" to-port="0" />
		<edge from-layer="1725" from-port="2" to-layer="1761" to-port="0" />
		<edge from-layer="1726" from-port="0" to-layer="1727" to-port="1" />
		<edge from-layer="1727" from-port="2" to-layer="1730" to-port="0" />
		<edge from-layer="1728" from-port="0" to-layer="1729" to-port="0" />
		<edge from-layer="1729" from-port="1" to-layer="1730" to-port="1" />
		<edge from-layer="1730" from-port="2" to-layer="1733" to-port="0" />
		<edge from-layer="1731" from-port="0" to-layer="1732" to-port="0" />
		<edge from-layer="1732" from-port="1" to-layer="1733" to-port="1" />
		<edge from-layer="1733" from-port="2" to-layer="1742" to-port="0" />
		<edge from-layer="1734" from-port="0" to-layer="1735" to-port="0" />
		<edge from-layer="1735" from-port="1" to-layer="1738" to-port="0" />
		<edge from-layer="1736" from-port="0" to-layer="1737" to-port="0" />
		<edge from-layer="1737" from-port="1" to-layer="1738" to-port="1" />
		<edge from-layer="1738" from-port="2" to-layer="1740" to-port="0" />
		<edge from-layer="1739" from-port="0" to-layer="1740" to-port="1" />
		<edge from-layer="1740" from-port="2" to-layer="1741" to-port="0" />
		<edge from-layer="1741" from-port="1" to-layer="1742" to-port="1" />
		<edge from-layer="1742" from-port="2" to-layer="1745" to-port="0" />
		<edge from-layer="1743" from-port="0" to-layer="1744" to-port="0" />
		<edge from-layer="1744" from-port="1" to-layer="1745" to-port="1" />
		<edge from-layer="1745" from-port="2" to-layer="1748" to-port="0" />
		<edge from-layer="1746" from-port="0" to-layer="1747" to-port="0" />
		<edge from-layer="1747" from-port="1" to-layer="1748" to-port="1" />
		<edge from-layer="1748" from-port="2" to-layer="1757" to-port="0" />
		<edge from-layer="1749" from-port="0" to-layer="1750" to-port="0" />
		<edge from-layer="1750" from-port="1" to-layer="1753" to-port="0" />
		<edge from-layer="1751" from-port="0" to-layer="1752" to-port="0" />
		<edge from-layer="1752" from-port="1" to-layer="1753" to-port="1" />
		<edge from-layer="1753" from-port="2" to-layer="1755" to-port="0" />
		<edge from-layer="1754" from-port="0" to-layer="1755" to-port="1" />
		<edge from-layer="1755" from-port="2" to-layer="1756" to-port="0" />
		<edge from-layer="1756" from-port="1" to-layer="1757" to-port="1" />
		<edge from-layer="1757" from-port="2" to-layer="1760" to-port="0" />
		<edge from-layer="1758" from-port="0" to-layer="1759" to-port="0" />
		<edge from-layer="1759" from-port="1" to-layer="1760" to-port="1" />
		<edge from-layer="1760" from-port="2" to-layer="1761" to-port="1" />
		<edge from-layer="1761" from-port="2" to-layer="1763" to-port="0" />
		<edge from-layer="1762" from-port="0" to-layer="1763" to-port="1" />
		<edge from-layer="1763" from-port="2" to-layer="1766" to-port="0" />
		<edge from-layer="1764" from-port="0" to-layer="1765" to-port="0" />
		<edge from-layer="1765" from-port="1" to-layer="1766" to-port="1" />
		<edge from-layer="1766" from-port="2" to-layer="1769" to-port="0" />
		<edge from-layer="1767" from-port="0" to-layer="1768" to-port="0" />
		<edge from-layer="1768" from-port="1" to-layer="1769" to-port="1" />
		<edge from-layer="1769" from-port="2" to-layer="1770" to-port="0" />
		<edge from-layer="1769" from-port="2" to-layer="1779" to-port="0" />
		<edge from-layer="1769" from-port="2" to-layer="1786" to-port="0" />
		<edge from-layer="1769" from-port="2" to-layer="1805" to-port="0" />
		<edge from-layer="1770" from-port="1" to-layer="1774" to-port="0" />
		<edge from-layer="1770" from-port="1" to-layer="1794" to-port="0" />
		<edge from-layer="1771" from-port="0" to-layer="1774" to-port="1" />
		<edge from-layer="1772" from-port="0" to-layer="1774" to-port="2" />
		<edge from-layer="1773" from-port="0" to-layer="1774" to-port="3" />
		<edge from-layer="1774" from-port="4" to-layer="1776" to-port="0" />
		<edge from-layer="1775" from-port="0" to-layer="1776" to-port="1" />
		<edge from-layer="1776" from-port="2" to-layer="1778" to-port="0" />
		<edge from-layer="1777" from-port="0" to-layer="1778" to-port="1" />
		<edge from-layer="1778" from-port="2" to-layer="1779" to-port="1" />
		<edge from-layer="1779" from-port="2" to-layer="1797" to-port="0" />
		<edge from-layer="1780" from-port="0" to-layer="1781" to-port="1" />
		<edge from-layer="1781" from-port="3" to-layer="1783" to-port="0" />
		<edge from-layer="1782" from-port="0" to-layer="1783" to-port="1" />
		<edge from-layer="1783" from-port="2" to-layer="1784" to-port="0" />
		<edge from-layer="1784" from-port="1" to-layer="1796" to-port="0" />
		<edge from-layer="1785" from-port="0" to-layer="1790" to-port="0" />
		<edge from-layer="1786" from-port="1" to-layer="1788" to-port="0" />
		<edge from-layer="1787" from-port="0" to-layer="1788" to-port="2" />
		<edge from-layer="1788" from-port="3" to-layer="1790" to-port="1" />
		<edge from-layer="1789" from-port="0" to-layer="1790" to-port="2" />
		<edge from-layer="1790" from-port="3" to-layer="1791" to-port="0" />
		<edge from-layer="1791" from-port="1" to-layer="1792" to-port="0" />
		<edge from-layer="1792" from-port="1" to-layer="1795" to-port="0" />
		<edge from-layer="1793" from-port="0" to-layer="1794" to-port="1" />
		<edge from-layer="1793" from-port="0" to-layer="1797" to-port="2" />
		<edge from-layer="1794" from-port="3" to-layer="1795" to-port="1" />
		<edge from-layer="1794" from-port="4" to-layer="1799" to-port="1" />
		<edge from-layer="1794" from-port="4" to-layer="1802" to-port="1" />
		<edge from-layer="1795" from-port="2" to-layer="1796" to-port="1" />
		<edge from-layer="1796" from-port="2" to-layer="1797" to-port="1" />
		<edge from-layer="1796" from-port="2" to-layer="1801" to-port="0" />
		<edge from-layer="1797" from-port="3" to-layer="1800" to-port="0" />
		<edge from-layer="1798" from-port="0" to-layer="1799" to-port="0" />
		<edge from-layer="1799" from-port="2" to-layer="1800" to-port="1" />
		<edge from-layer="1800" from-port="2" to-layer="1803" to-port="0" />
		<edge from-layer="1801" from-port="1" to-layer="1802" to-port="0" />
		<edge from-layer="1802" from-port="2" to-layer="1803" to-port="1" />
		<edge from-layer="1803" from-port="2" to-layer="1804" to-port="0" />
	</edges>
	<rt_info>
		<Runtime_version value="2024.2.0-15229-1b5a6c49e9b" />
		<conversion_parameters>
			<framework value="pytorch" />
			<is_python_object value="True" />
		</conversion_parameters>
		<nncf>
			<friendly_names_were_updated value="True" />
			<weight_compression>
				<all_layers value="False" />
				<awq value="False" />
				<group_size value="-1" />
				<ignored_scope>
					<names value="[]" />
					<patterns value="[]" />
					<subgraphs value="[]" />
					<types value="[]" />
					<validate value="True" />
				</ignored_scope>
				<mode value="int8_asym" />
				<ratio value="1" />
				<sensitivity_metric value="weight_quantization_error" />
			</weight_compression>
		</nncf>
		<optimum>
			<optimum_intel_version value="1.17.0.dev0+e1b6a59" />
			<optimum_version value="1.19.1" />
			<pytorch_version value="2.3.0+cpu" />
			<transformers_version value="4.40.1" />
		</optimum>
	</rt_info>
</net>
