<?xml version="1.0"?>
<net name="Model9" version="11">
	<layers>
		<layer id="3" name="attention_mask" type="Parameter" version="opset1">
			<data shape="?,?" element_type="i64" />
			<output>
				<port id="0" precision="I64" names="attention_mask">
					<dim>-1</dim>
					<dim>-1</dim>
				</port>
			</output>
		</layer>
		<layer id="2" name="position_ids" type="Parameter" version="opset1">
			<data shape="?,?" element_type="i64" />
			<output>
				<port id="0" precision="I64" names="position_ids">
					<dim>-1</dim>
					<dim>-1</dim>
				</port>
			</output>
		</layer>
		<layer id="1" name="inputs_embeds" type="Parameter" version="opset1">
			<data shape="?,?,?" element_type="f32" />
			<output>
				<port id="0" precision="FP32" names="inputs_embeds">
					<dim>-1</dim>
					<dim>-1</dim>
					<dim>-1</dim>
				</port>
			</output>
		</layer>
		<layer id="0" name="beam_idx" type="Parameter" version="opset1">
			<data shape="?" element_type="i32" />
			<output>
				<port id="0" precision="I32" names="beam_idx">
					<dim>-1</dim>
				</port>
			</output>
		</layer>
		<layer id="4" name="Constant_234578" type="Const" version="opset1">
			<data element_type="f32" shape="" offset="0" size="4" />
			<output>
				<port id="0" precision="FP32" />
			</output>
		</layer>
		<layer id="5" name="ShapeOf_234564" type="ShapeOf" version="opset3">
			<data output_type="i64" />
			<input>
				<port id="0" precision="FP32">
					<dim>-1</dim>
					<dim>-1</dim>
					<dim>-1</dim>
				</port>
			</input>
			<output>
				<port id="1" precision="I64">
					<dim>3</dim>
				</port>
			</output>
		</layer>
		<layer id="6" name="Constant_234566" type="Const" version="opset1">
			<data element_type="i64" shape="1" offset="4" size="8" />
			<output>
				<port id="0" precision="I64">
					<dim>1</dim>
				</port>
			</output>
		</layer>
		<layer id="7" name="Constant_234568" type="Const" version="opset1">
			<data element_type="i64" shape="" offset="4" size="8" />
			<output>
				<port id="0" precision="I64" />
			</output>
		</layer>
		<layer id="8" name="Gather_234569" type="Gather" version="opset8">
			<data batch_dims="0" />
			<input>
				<port id="0" precision="I64">
					<dim>3</dim>
				</port>
				<port id="1" precision="I64">
					<dim>1</dim>
				</port>
				<port id="2" precision="I64" />
			</input>
			<output>
				<port id="3" precision="I64">
					<dim>1</dim>
				</port>
			</output>
		</layer>
		<layer id="9" name="Constant_234571" type="Const" version="opset1">
			<data element_type="i64" shape="1" offset="12" size="8" />
			<output>
				<port id="0" precision="I64">
					<dim>1</dim>
				</port>
			</output>
		</layer>
		<layer id="10" name="Constant_234573" type="Const" version="opset1">
			<data element_type="i64" shape="1" offset="4" size="8" />
			<output>
				<port id="0" precision="I64">
					<dim>1</dim>
				</port>
			</output>
		</layer>
		<layer id="11" name="Constant_234575" type="Const" version="opset1">
			<data element_type="i64" shape="1" offset="20" size="8" />
			<output>
				<port id="0" precision="I64">
					<dim>1</dim>
				</port>
			</output>
		</layer>
		<layer id="12" name="Concat_234576" type="Concat" version="opset1">
			<data axis="0" />
			<input>
				<port id="0" precision="I64">
					<dim>1</dim>
				</port>
				<port id="1" precision="I64">
					<dim>1</dim>
				</port>
				<port id="2" precision="I64">
					<dim>1</dim>
				</port>
				<port id="3" precision="I64">
					<dim>1</dim>
				</port>
			</input>
			<output>
				<port id="4" precision="I64">
					<dim>4</dim>
				</port>
			</output>
		</layer>
		<layer id="13" name="Broadcast_234579" type="Broadcast" version="opset3">
			<data mode="numpy" />
			<input>
				<port id="0" precision="FP32" />
				<port id="1" precision="I64">
					<dim>4</dim>
				</port>
			</input>
			<output>
				<port id="2" precision="FP32">
					<dim>-1</dim>
					<dim>32</dim>
					<dim>0</dim>
					<dim>128</dim>
				</port>
			</output>
		</layer>
		<layer id="14" name="ReadValue_229777" type="ReadValue" version="opset6">
			<data variable_id="past_key_values.9.valuepresent.9.value" variable_type="f32" variable_shape="?,32,?,128" />
			<input>
				<port id="0" precision="FP32">
					<dim>-1</dim>
					<dim>32</dim>
					<dim>0</dim>
					<dim>128</dim>
				</port>
			</input>
			<output>
				<port id="1" precision="FP32" names="past_key_values.9.value">
					<dim>-1</dim>
					<dim>32</dim>
					<dim>-1</dim>
					<dim>128</dim>
				</port>
			</output>
		</layer>
		<layer id="15" name="Constant_224732" type="Const" version="opset1">
			<data element_type="i64" shape="" offset="4" size="8" />
			<output>
				<port id="0" precision="I64" />
			</output>
		</layer>
		<layer id="16" name="Gather_224733" type="Gather" version="opset8">
			<data batch_dims="0" />
			<input>
				<port id="0" precision="FP32">
					<dim>-1</dim>
					<dim>32</dim>
					<dim>-1</dim>
					<dim>128</dim>
				</port>
				<port id="1" precision="I32">
					<dim>-1</dim>
				</port>
				<port id="2" precision="I64" />
			</input>
			<output>
				<port id="3" precision="FP32">
					<dim>-1</dim>
					<dim>32</dim>
					<dim>-1</dim>
					<dim>128</dim>
				</port>
			</output>
		</layer>
		<layer id="17" name="Constant_208680" type="Const" version="opset1">
			<data element_type="f32" shape="1, 1, 4096" offset="28" size="16384" />
			<output>
				<port id="0" precision="FP32">
					<dim>1</dim>
					<dim>1</dim>
					<dim>4096</dim>
				</port>
			</output>
		</layer>
		<layer id="18" name="Constant_208562" type="Const" version="opset1">
			<data element_type="f32" shape="1, 1, 4096" offset="16412" size="16384" />
			<output>
				<port id="0" precision="FP32">
					<dim>1</dim>
					<dim>1</dim>
					<dim>4096</dim>
				</port>
			</output>
		</layer>
		<layer id="19" name="Constant_208561" type="Const" version="opset1">
			<data element_type="f32" shape="1, 1, 1" offset="32796" size="4" />
			<output>
				<port id="0" precision="FP32">
					<dim>1</dim>
					<dim>1</dim>
					<dim>1</dim>
				</port>
			</output>
		</layer>
		<layer id="20" name="Constant_208559" type="Const" version="opset1">
			<data element_type="f32" shape="1, 1, 1" offset="32800" size="4" />
			<output>
				<port id="0" precision="FP32">
					<dim>1</dim>
					<dim>1</dim>
					<dim>1</dim>
				</port>
			</output>
		</layer>
		<layer id="21" name="__module.model.layers.0.input_layernorm/aten::pow/Power" type="Power" version="opset1">
			<data auto_broadcast="numpy" />
			<input>
				<port id="0" precision="FP32">
					<dim>-1</dim>
					<dim>-1</dim>
					<dim>-1</dim>
				</port>
				<port id="1" precision="FP32">
					<dim>1</dim>
					<dim>1</dim>
					<dim>1</dim>
				</port>
			</input>
			<output>
				<port id="2" precision="FP32" names="393">
					<dim>-1</dim>
					<dim>-1</dim>
					<dim>-1</dim>
				</port>
			</output>
		</layer>
		<layer id="22" name="Constant_60518" type="Const" version="opset1">
			<data element_type="i64" shape="1" offset="32804" size="8" />
			<output>
				<port id="0" precision="I64" names="394">
					<dim>1</dim>
				</port>
			</output>
		</layer>
		<layer id="23" name="__module.model.layers.0.input_layernorm/aten::mean/ReduceMean" type="ReduceMean" version="opset1">
			<data keep_dims="true" />
			<input>
				<port id="0" precision="FP32">
					<dim>-1</dim>
					<dim>-1</dim>
					<dim>-1</dim>
				</port>
				<port id="1" precision="I64">
					<dim>1</dim>
				</port>
			</input>
			<output>
				<port id="2" precision="FP32" names="395,variance.1">
					<dim>-1</dim>
					<dim>-1</dim>
					<dim>1</dim>
				</port>
			</output>
		</layer>
		<layer id="24" name="Constant_208560" type="Const" version="opset1">
			<data element_type="f32" shape="1, 1, 1" offset="32812" size="4" />
			<output>
				<port id="0" precision="FP32">
					<dim>1</dim>
					<dim>1</dim>
					<dim>1</dim>
				</port>
			</output>
		</layer>
		<layer id="25" name="__module.model.layers.0.input_layernorm/aten::add/Add" type="Add" version="opset1">
			<data auto_broadcast="numpy" />
			<input>
				<port id="0" precision="FP32">
					<dim>-1</dim>
					<dim>-1</dim>
					<dim>1</dim>
				</port>
				<port id="1" precision="FP32">
					<dim>1</dim>
					<dim>1</dim>
					<dim>1</dim>
				</port>
			</input>
			<output>
				<port id="2" precision="FP32" names="396">
					<dim>-1</dim>
					<dim>-1</dim>
					<dim>1</dim>
				</port>
			</output>
		</layer>
		<layer id="26" name="__module.model.layers.0.input_layernorm/aten::rsqrt/Sqrt" type="Sqrt" version="opset1">
			<input>
				<port id="0" precision="FP32">
					<dim>-1</dim>
					<dim>-1</dim>
					<dim>1</dim>
				</port>
			</input>
			<output>
				<port id="1" precision="FP32">
					<dim>-1</dim>
					<dim>-1</dim>
					<dim>1</dim>
				</port>
			</output>
		</layer>
		<layer id="27" name="__module.model.layers.0.input_layernorm/aten::rsqrt/Divide" type="Divide" version="opset1">
			<data auto_broadcast="numpy" m_pythondiv="true" />
			<input>
				<port id="0" precision="FP32">
					<dim>1</dim>
					<dim>1</dim>
					<dim>1</dim>
				</port>
				<port id="1" precision="FP32">
					<dim>-1</dim>
					<dim>-1</dim>
					<dim>1</dim>
				</port>
			</input>
			<output>
				<port id="2" precision="FP32" names="397">
					<dim>-1</dim>
					<dim>-1</dim>
					<dim>1</dim>
				</port>
			</output>
		</layer>
		<layer id="28" name="__module.model.layers.0.input_layernorm/aten::mul/Multiply" type="Multiply" version="opset1">
			<data auto_broadcast="numpy" />
			<input>
				<port id="0" precision="FP32">
					<dim>-1</dim>
					<dim>-1</dim>
					<dim>-1</dim>
				</port>
				<port id="1" precision="FP32">
					<dim>-1</dim>
					<dim>-1</dim>
					<dim>1</dim>
				</port>
			</input>
			<output>
				<port id="2" precision="FP32" names="398,399,hidden_states.3,hidden_states.5">
					<dim>-1</dim>
					<dim>-1</dim>
					<dim>-1</dim>
				</port>
			</output>
		</layer>
		<layer id="29" name="__module.model.layers.0.input_layernorm/aten::mul/Multiply_1" type="Multiply" version="opset1">
			<data auto_broadcast="numpy" />
			<input>
				<port id="0" precision="FP32">
					<dim>1</dim>
					<dim>1</dim>
					<dim>4096</dim>
				</port>
				<port id="1" precision="FP32">
					<dim>-1</dim>
					<dim>-1</dim>
					<dim>-1</dim>
				</port>
			</input>
			<output>
				<port id="2" precision="FP32" names="400,402,hidden_states.7">
					<dim>-1</dim>
					<dim>-1</dim>
					<dim>4096</dim>
				</port>
			</output>
		</layer>
		<layer id="30" name="self.model.layers.0.self_attn.q_proj.weight" type="Const" version="opset1">
			<data element_type="u4" shape="4096, 32, 128" offset="32816" size="8388608" />
			<output>
				<port id="0" precision="U4">
					<dim>4096</dim>
					<dim>32</dim>
					<dim>128</dim>
				</port>
			</output>
		</layer>
		<layer id="31" name="Convert_241469" type="Convert" version="opset1">
			<data destination_type="f16" />
			<input>
				<port id="0" precision="U4">
					<dim>4096</dim>
					<dim>32</dim>
					<dim>128</dim>
				</port>
			</input>
			<output>
				<port id="1" precision="FP16">
					<dim>4096</dim>
					<dim>32</dim>
					<dim>128</dim>
				</port>
			</output>
		</layer>
		<layer id="32" name="self.model.layers.0.self_attn.q_proj.weight/zero_point" type="Const" version="opset1">
			<data element_type="u4" shape="4096, 32, 1" offset="8421424" size="65536" />
			<output>
				<port id="0" precision="U4">
					<dim>4096</dim>
					<dim>32</dim>
					<dim>1</dim>
				</port>
			</output>
		</layer>
		<layer id="33" name="Convert_241471" type="Convert" version="opset1">
			<data destination_type="f16" />
			<input>
				<port id="0" precision="U4">
					<dim>4096</dim>
					<dim>32</dim>
					<dim>1</dim>
				</port>
			</input>
			<output>
				<port id="1" precision="FP16">
					<dim>4096</dim>
					<dim>32</dim>
					<dim>1</dim>
				</port>
			</output>
		</layer>
		<layer id="34" name="self.model.layers.0.self_attn.q_proj.weight/zero_point/subtract" type="Subtract" version="opset1">
			<data auto_broadcast="numpy" />
			<input>
				<port id="0" precision="FP16">
					<dim>4096</dim>
					<dim>32</dim>
					<dim>128</dim>
				</port>
				<port id="1" precision="FP16">
					<dim>4096</dim>
					<dim>32</dim>
					<dim>1</dim>
				</port>
			</input>
			<output>
				<port id="2" precision="FP16">
					<dim>4096</dim>
					<dim>32</dim>
					<dim>128</dim>
				</port>
			</output>
		</layer>
		<layer id="35" name="self.model.layers.0.self_attn.q_proj.weight/scale" type="Const" version="opset1">
			<data element_type="f16" shape="4096, 32, 1" offset="8486960" size="262144" />
			<output>
				<port id="0" precision="FP16">
					<dim>4096</dim>
					<dim>32</dim>
					<dim>1</dim>
				</port>
			</output>
		</layer>
		<layer id="36" name="self.model.layers.0.self_attn.q_proj.weight/fq_weights_1" type="Multiply" version="opset1">
			<data auto_broadcast="numpy" />
			<input>
				<port id="0" precision="FP16">
					<dim>4096</dim>
					<dim>32</dim>
					<dim>128</dim>
				</port>
				<port id="1" precision="FP16">
					<dim>4096</dim>
					<dim>32</dim>
					<dim>1</dim>
				</port>
			</input>
			<output>
				<port id="2" precision="FP16">
					<dim>4096</dim>
					<dim>32</dim>
					<dim>128</dim>
				</port>
			</output>
		</layer>
		<layer id="37" name="Constant_241476" type="Const" version="opset1">
			<data element_type="i64" shape="2" offset="8749104" size="16" />
			<output>
				<port id="0" precision="I64">
					<dim>2</dim>
				</port>
			</output>
		</layer>
		<layer id="38" name="Reshape_241477" type="Reshape" version="opset1">
			<data special_zero="false" />
			<input>
				<port id="0" precision="FP16">
					<dim>4096</dim>
					<dim>32</dim>
					<dim>128</dim>
				</port>
				<port id="1" precision="I64">
					<dim>2</dim>
				</port>
			</input>
			<output>
				<port id="2" precision="FP16">
					<dim>4096</dim>
					<dim>4096</dim>
				</port>
			</output>
		</layer>
		<layer id="39" name="self.model.layers.0.self_attn.q_proj.weight/fq_weights_1/convert" type="Convert" version="opset1">
			<data destination_type="f32" />
			<input>
				<port id="0" precision="FP16">
					<dim>4096</dim>
					<dim>4096</dim>
				</port>
			</input>
			<output>
				<port id="1" precision="FP32">
					<dim>4096</dim>
					<dim>4096</dim>
				</port>
			</output>
		</layer>
		<layer id="40" name="__module.model.layers.0.self_attn.q_proj/aten::linear/MatMul" type="MatMul" version="opset1">
			<data transpose_a="false" transpose_b="true" />
			<input>
				<port id="0" precision="FP32">
					<dim>-1</dim>
					<dim>-1</dim>
					<dim>4096</dim>
				</port>
				<port id="1" precision="FP32">
					<dim>4096</dim>
					<dim>4096</dim>
				</port>
			</input>
			<output>
				<port id="2" precision="FP32">
					<dim>-1</dim>
					<dim>-1</dim>
					<dim>4096</dim>
				</port>
			</output>
		</layer>
		<layer id="41" name="Constant_208563" type="Const" version="opset1">
			<data element_type="f32" shape="1, 1, 4096" offset="8749120" size="16384" />
			<output>
				<port id="0" precision="FP32">
					<dim>1</dim>
					<dim>1</dim>
					<dim>4096</dim>
				</port>
			</output>
		</layer>
		<layer id="42" name="__module.model.layers.0.self_attn.q_proj/aten::linear/Add" type="Add" version="opset1">
			<data auto_broadcast="numpy" />
			<input>
				<port id="0" precision="FP32">
					<dim>-1</dim>
					<dim>-1</dim>
					<dim>4096</dim>
				</port>
				<port id="1" precision="FP32">
					<dim>1</dim>
					<dim>1</dim>
					<dim>4096</dim>
				</port>
			</input>
			<output>
				<port id="2" precision="FP32" names="412,query_states.1">
					<dim>-1</dim>
					<dim>-1</dim>
					<dim>4096</dim>
				</port>
			</output>
		</layer>
		<layer id="43" name="Constant_214863" type="Const" version="opset1">
			<data element_type="i64" shape="4" offset="8765504" size="32" />
			<output>
				<port id="0" precision="I64">
					<dim>4</dim>
				</port>
			</output>
		</layer>
		<layer id="44" name="__module.model.layers.0.self_attn/aten::view/Reshape" type="Reshape" version="opset1">
			<data special_zero="true" />
			<input>
				<port id="0" precision="FP32">
					<dim>-1</dim>
					<dim>-1</dim>
					<dim>4096</dim>
				</port>
				<port id="1" precision="I64">
					<dim>4</dim>
				</port>
			</input>
			<output>
				<port id="2" precision="FP32" names="420">
					<dim>-1</dim>
					<dim>-1</dim>
					<dim>32</dim>
					<dim>128</dim>
				</port>
			</output>
		</layer>
		<layer id="45" name="__module.model.layers.0.self_attn/aten::transpose/ScatterElementsUpdate" type="Const" version="opset1">
			<data element_type="i32" shape="4" offset="8765536" size="16" />
			<output>
				<port id="0" precision="I32">
					<dim>4</dim>
				</port>
			</output>
		</layer>
		<layer id="46" name="__module.model.layers.0.self_attn/aten::transpose/Transpose" type="Transpose" version="opset1">
			<input>
				<port id="0" precision="FP32">
					<dim>-1</dim>
					<dim>-1</dim>
					<dim>32</dim>
					<dim>128</dim>
				</port>
				<port id="1" precision="I32">
					<dim>4</dim>
				</port>
			</input>
			<output>
				<port id="2" precision="FP32" names="421,q.1">
					<dim>-1</dim>
					<dim>32</dim>
					<dim>-1</dim>
					<dim>128</dim>
				</port>
			</output>
		</layer>
		<layer id="47" name="__module.model.rotary_emb/aten::to/Convert" type="Const" version="opset1">
			<data element_type="f32" shape="1, 64, 1" offset="8765552" size="256" />
			<output>
				<port id="0" precision="FP32" names="364">
					<dim>1</dim>
					<dim>64</dim>
					<dim>1</dim>
				</port>
			</output>
		</layer>
		<layer id="48" name="ShapeOf_212422" type="ShapeOf" version="opset3">
			<data output_type="i64" />
			<input>
				<port id="0" precision="I64">
					<dim>-1</dim>
					<dim>-1</dim>
				</port>
			</input>
			<output>
				<port id="1" precision="I64">
					<dim>2</dim>
				</port>
			</output>
		</layer>
		<layer id="49" name="Constant_212423" type="Const" version="opset1">
			<data element_type="i64" shape="1" offset="4" size="8" />
			<output>
				<port id="0" precision="I64">
					<dim>1</dim>
				</port>
			</output>
		</layer>
		<layer id="50" name="Constant_212424" type="Const" version="opset1">
			<data element_type="i64" shape="" offset="4" size="8" />
			<output>
				<port id="0" precision="I64" />
			</output>
		</layer>
		<layer id="51" name="Gather_212425" type="Gather" version="opset8">
			<data batch_dims="0" />
			<input>
				<port id="0" precision="I64">
					<dim>2</dim>
				</port>
				<port id="1" precision="I64">
					<dim>1</dim>
				</port>
				<port id="2" precision="I64" />
			</input>
			<output>
				<port id="3" precision="I64" names="365">
					<dim>1</dim>
				</port>
			</output>
		</layer>
		<layer id="52" name="Constant_199151" type="Const" version="opset1">
			<data element_type="i64" shape="1" offset="8765808" size="8" />
			<output>
				<port id="0" precision="I64">
					<dim>1</dim>
				</port>
			</output>
		</layer>
		<layer id="53" name="Constant_199153" type="Const" version="opset1">
			<data element_type="i64" shape="1" offset="8765808" size="8" />
			<output>
				<port id="0" precision="I64">
					<dim>1</dim>
				</port>
			</output>
		</layer>
		<layer id="54" name="__module.model.rotary_emb/prim::ListConstruct/Concat" type="Concat" version="opset1">
			<data axis="0" />
			<input>
				<port id="0" precision="I64">
					<dim>1</dim>
				</port>
				<port id="1" precision="I64">
					<dim>1</dim>
				</port>
				<port id="2" precision="I64">
					<dim>1</dim>
				</port>
			</input>
			<output>
				<port id="3" precision="I64" names="366">
					<dim>3</dim>
				</port>
			</output>
		</layer>
		<layer id="55" name="__module.model.rotary_emb/aten::expand/Broadcast" type="Broadcast" version="opset3">
			<data mode="bidirectional" />
			<input>
				<port id="0" precision="FP32">
					<dim>1</dim>
					<dim>64</dim>
					<dim>1</dim>
				</port>
				<port id="1" precision="I64">
					<dim>3</dim>
				</port>
			</input>
			<output>
				<port id="2" precision="FP32" names="367,372,inv_freq_expanded,inv_freq_expanded.1">
					<dim>-1</dim>
					<dim>64</dim>
					<dim>1</dim>
				</port>
			</output>
		</layer>
		<layer id="56" name="242" type="Const" version="opset1">
			<data element_type="i64" shape="" offset="8765808" size="8" />
			<output>
				<port id="0" precision="I64" names="242" />
			</output>
		</layer>
		<layer id="57" name="__module.model.rotary_emb/aten::unsqueeze/Unsqueeze" type="Unsqueeze" version="opset1">
			<input>
				<port id="0" precision="I64">
					<dim>-1</dim>
					<dim>-1</dim>
				</port>
				<port id="1" precision="I64" />
			</input>
			<output>
				<port id="2" precision="I64" names="369,370">
					<dim>-1</dim>
					<dim>1</dim>
					<dim>-1</dim>
				</port>
			</output>
		</layer>
		<layer id="58" name="__module.model.rotary_emb/aten::to/Convert_2" type="Convert" version="opset1">
			<data destination_type="f32" />
			<input>
				<port id="0" precision="I64">
					<dim>-1</dim>
					<dim>1</dim>
					<dim>-1</dim>
				</port>
			</input>
			<output>
				<port id="1" precision="FP32" names="371,373,position_ids_expanded,position_ids_expanded.1">
					<dim>-1</dim>
					<dim>1</dim>
					<dim>-1</dim>
				</port>
			</output>
		</layer>
		<layer id="59" name="__module.model.rotary_emb/aten::matmul/MatMul" type="MatMul" version="opset1">
			<data transpose_a="false" transpose_b="false" />
			<input>
				<port id="0" precision="FP32">
					<dim>-1</dim>
					<dim>64</dim>
					<dim>1</dim>
				</port>
				<port id="1" precision="FP32">
					<dim>-1</dim>
					<dim>1</dim>
					<dim>-1</dim>
				</port>
			</input>
			<output>
				<port id="2" precision="FP32" names="374">
					<dim>-1</dim>
					<dim>64</dim>
					<dim>-1</dim>
				</port>
			</output>
		</layer>
		<layer id="60" name="__module.model.rotary_emb/aten::transpose/ScatterElementsUpdate" type="Const" version="opset1">
			<data element_type="i32" shape="3" offset="8765816" size="12" />
			<output>
				<port id="0" precision="I32">
					<dim>3</dim>
				</port>
			</output>
		</layer>
		<layer id="61" name="__module.model.rotary_emb/aten::transpose/Transpose" type="Transpose" version="opset1">
			<input>
				<port id="0" precision="FP32">
					<dim>-1</dim>
					<dim>64</dim>
					<dim>-1</dim>
				</port>
				<port id="1" precision="I32">
					<dim>3</dim>
				</port>
			</input>
			<output>
				<port id="2" precision="FP32" names="375">
					<dim>-1</dim>
					<dim>-1</dim>
					<dim>64</dim>
				</port>
			</output>
		</layer>
		<layer id="62" name="__module.model.rotary_emb/aten::cat/Concat" type="Concat" version="opset1">
			<data axis="-1" />
			<input>
				<port id="0" precision="FP32">
					<dim>-1</dim>
					<dim>-1</dim>
					<dim>64</dim>
				</port>
				<port id="1" precision="FP32">
					<dim>-1</dim>
					<dim>-1</dim>
					<dim>64</dim>
				</port>
			</input>
			<output>
				<port id="2" precision="FP32" names="377,emb">
					<dim>-1</dim>
					<dim>-1</dim>
					<dim>128</dim>
				</port>
			</output>
		</layer>
		<layer id="63" name="__module.model.rotary_emb/aten::cos/Cos" type="Cos" version="opset1">
			<input>
				<port id="0" precision="FP32">
					<dim>-1</dim>
					<dim>-1</dim>
					<dim>128</dim>
				</port>
			</input>
			<output>
				<port id="1" precision="FP32" names="378,380,382,385,cos.1,cos.3,cos.5">
					<dim>-1</dim>
					<dim>-1</dim>
					<dim>128</dim>
				</port>
			</output>
		</layer>
		<layer id="64" name="__module.model.layers.0.self_attn/aten::unsqueeze/Unsqueeze" type="Unsqueeze" version="opset1">
			<input>
				<port id="0" precision="FP32">
					<dim>-1</dim>
					<dim>-1</dim>
					<dim>128</dim>
				</port>
				<port id="1" precision="I64" />
			</input>
			<output>
				<port id="2" precision="FP32" names="1056,1181,1306,1431,1556,1681,1806,1931,2056,2181,2306,2431,2556,2681,2806,2931,3056,3181,3306,3431,3556,3681,3806,3931,4056,4181,428,4306,556,681,806,931,cos,cos.11,cos.13,cos.15,cos.17,cos.19,cos.21,cos.23,cos.25,cos.27,cos.29,cos.31,cos.33,cos.35,cos.37,cos.39,cos.41,cos.43,cos.45,cos.47,cos.49,cos.51,cos.53,cos.55,cos.57,cos.59,cos.61,cos.63,cos.65,cos.67,cos.7,cos.9">
					<dim>-1</dim>
					<dim>1</dim>
					<dim>-1</dim>
					<dim>128</dim>
				</port>
			</output>
		</layer>
		<layer id="65" name="__module.model.layers.0.self_attn/aten::mul/Multiply" type="Multiply" version="opset1">
			<data auto_broadcast="numpy" />
			<input>
				<port id="0" precision="FP32">
					<dim>-1</dim>
					<dim>32</dim>
					<dim>-1</dim>
					<dim>128</dim>
				</port>
				<port id="1" precision="FP32">
					<dim>-1</dim>
					<dim>1</dim>
					<dim>-1</dim>
					<dim>128</dim>
				</port>
			</input>
			<output>
				<port id="2" precision="FP32" names="430">
					<dim>-1</dim>
					<dim>32</dim>
					<dim>-1</dim>
					<dim>128</dim>
				</port>
			</output>
		</layer>
		<layer id="66" name="__module.model.layers.0.self_attn/aten::size/ShapeOf_3" type="ShapeOf" version="opset3">
			<data output_type="i64" />
			<input>
				<port id="0" precision="FP32">
					<dim>-1</dim>
					<dim>32</dim>
					<dim>-1</dim>
					<dim>128</dim>
				</port>
			</input>
			<output>
				<port id="1" precision="I64">
					<dim>4</dim>
				</port>
			</output>
		</layer>
		<layer id="67" name="233" type="Const" version="opset1">
			<data element_type="i64" shape="" offset="8765828" size="8" />
			<output>
				<port id="0" precision="I64" names="233" />
			</output>
		</layer>
		<layer id="68" name="__module.model.layers.0.self_attn/aten::size/Constant_3" type="Const" version="opset1">
			<data element_type="i32" shape="" offset="0" size="4" />
			<output>
				<port id="0" precision="I32" />
			</output>
		</layer>
		<layer id="69" name="__module.model.layers.0.self_attn/aten::size/Gather_3" type="Gather" version="opset8">
			<data batch_dims="0" />
			<input>
				<port id="0" precision="I64">
					<dim>4</dim>
				</port>
				<port id="1" precision="I64" />
				<port id="2" precision="I32" />
			</input>
			<output>
				<port id="3" precision="I64" names="431,436" />
			</output>
		</layer>
		<layer id="70" name="Constant_60108" type="Const" version="opset1">
			<data element_type="i64" shape="" offset="8765836" size="8" />
			<output>
				<port id="0" precision="I64" names="229" />
			</output>
		</layer>
		<layer id="71" name="__module.model.layers.0.self_attn/aten::floor_divide/Divide_1" type="Divide" version="opset1">
			<data auto_broadcast="numpy" m_pythondiv="true" />
			<input>
				<port id="0" precision="I64" />
				<port id="1" precision="I64" />
			</input>
			<output>
				<port id="2" precision="I64" />
			</output>
		</layer>
		<layer id="72" name="__module.model.layers.0.self_attn/aten::floor_divide/Floor_1" type="Floor" version="opset1">
			<input>
				<port id="0" precision="I64" />
			</input>
			<output>
				<port id="1" precision="I64" names="433,434,438,439" />
			</output>
		</layer>
		<layer id="73" name="Constant_171893" type="Const" version="opset1">
			<data element_type="i64" shape="1" offset="32804" size="8" />
			<output>
				<port id="0" precision="I64">
					<dim>1</dim>
				</port>
			</output>
		</layer>
		<layer id="74" name="__module.model.layers.0.self_attn/aten::slice/Reshape_5" type="Reshape" version="opset1">
			<data special_zero="false" />
			<input>
				<port id="0" precision="I64" />
				<port id="1" precision="I64">
					<dim>1</dim>
				</port>
			</input>
			<output>
				<port id="2" precision="I64">
					<dim>1</dim>
				</port>
			</output>
		</layer>
		<layer id="75" name="__module.model.layers.0.self_attn/aten::slice/Reshape_1" type="Const" version="opset1">
			<data element_type="i64" shape="1" offset="8765844" size="8" />
			<output>
				<port id="0" precision="I64">
					<dim>1</dim>
				</port>
			</output>
		</layer>
		<layer id="76" name="__module.model.layers.0.self_attn/aten::slice/Reshape_2" type="Const" version="opset1">
			<data element_type="i64" shape="1" offset="8765808" size="8" />
			<output>
				<port id="0" precision="I64">
					<dim>1</dim>
				</port>
			</output>
		</layer>
		<layer id="77" name="__module.model.layers.0.self_attn/aten::slice/Reshape_3" type="Const" version="opset1">
			<data element_type="i64" shape="1" offset="8765828" size="8" />
			<output>
				<port id="0" precision="I64">
					<dim>1</dim>
				</port>
			</output>
		</layer>
		<layer id="78" name="__module.model.layers.0.self_attn/aten::slice/Slice" type="Slice" version="opset8">
			<input>
				<port id="0" precision="FP32">
					<dim>-1</dim>
					<dim>32</dim>
					<dim>-1</dim>
					<dim>128</dim>
				</port>
				<port id="1" precision="I64">
					<dim>1</dim>
				</port>
				<port id="2" precision="I64">
					<dim>1</dim>
				</port>
				<port id="3" precision="I64">
					<dim>1</dim>
				</port>
				<port id="4" precision="I64">
					<dim>1</dim>
				</port>
			</input>
			<output>
				<port id="5" precision="FP32" names="440,x2.1">
					<dim>-1</dim>
					<dim>32</dim>
					<dim>-1</dim>
					<dim>64</dim>
				</port>
			</output>
		</layer>
		<layer id="79" name="Constant_208564" type="Const" version="opset1">
			<data element_type="f32" shape="1, 1, 1, 1" offset="8765852" size="4" />
			<output>
				<port id="0" precision="FP32">
					<dim>1</dim>
					<dim>1</dim>
					<dim>1</dim>
					<dim>1</dim>
				</port>
			</output>
		</layer>
		<layer id="80" name="__module.model.layers.0.self_attn/aten::neg/Multiply" type="Multiply" version="opset1">
			<data auto_broadcast="numpy" />
			<input>
				<port id="0" precision="FP32">
					<dim>-1</dim>
					<dim>32</dim>
					<dim>-1</dim>
					<dim>64</dim>
				</port>
				<port id="1" precision="FP32">
					<dim>1</dim>
					<dim>1</dim>
					<dim>1</dim>
					<dim>1</dim>
				</port>
			</input>
			<output>
				<port id="2" precision="FP32" names="441">
					<dim>-1</dim>
					<dim>32</dim>
					<dim>-1</dim>
					<dim>64</dim>
				</port>
			</output>
		</layer>
		<layer id="81" name="__module.model.layers.0.self_attn/aten::slice/Reshape_4" type="Const" version="opset1">
			<data element_type="i64" shape="1" offset="4" size="8" />
			<output>
				<port id="0" precision="I64">
					<dim>1</dim>
				</port>
			</output>
		</layer>
		<layer id="82" name="__module.model.layers.0.self_attn/aten::slice/Reshape_6" type="Const" version="opset1">
			<data element_type="i64" shape="1" offset="8765808" size="8" />
			<output>
				<port id="0" precision="I64">
					<dim>1</dim>
				</port>
			</output>
		</layer>
		<layer id="83" name="__module.model.layers.0.self_attn/aten::slice/Reshape_7" type="Const" version="opset1">
			<data element_type="i64" shape="1" offset="8765828" size="8" />
			<output>
				<port id="0" precision="I64">
					<dim>1</dim>
				</port>
			</output>
		</layer>
		<layer id="84" name="__module.model.layers.0.self_attn/aten::slice/Slice_1" type="Slice" version="opset8">
			<input>
				<port id="0" precision="FP32">
					<dim>-1</dim>
					<dim>32</dim>
					<dim>-1</dim>
					<dim>128</dim>
				</port>
				<port id="1" precision="I64">
					<dim>1</dim>
				</port>
				<port id="2" precision="I64">
					<dim>1</dim>
				</port>
				<port id="3" precision="I64">
					<dim>1</dim>
				</port>
				<port id="4" precision="I64">
					<dim>1</dim>
				</port>
			</input>
			<output>
				<port id="5" precision="FP32" names="435">
					<dim>-1</dim>
					<dim>32</dim>
					<dim>-1</dim>
					<dim>64</dim>
				</port>
			</output>
		</layer>
		<layer id="85" name="__module.model.layers.0.self_attn/aten::cat/Concat" type="Concat" version="opset1">
			<data axis="-1" />
			<input>
				<port id="0" precision="FP32">
					<dim>-1</dim>
					<dim>32</dim>
					<dim>-1</dim>
					<dim>64</dim>
				</port>
				<port id="1" precision="FP32">
					<dim>-1</dim>
					<dim>32</dim>
					<dim>-1</dim>
					<dim>64</dim>
				</port>
			</input>
			<output>
				<port id="2" precision="FP32" names="443">
					<dim>-1</dim>
					<dim>32</dim>
					<dim>-1</dim>
					<dim>128</dim>
				</port>
			</output>
		</layer>
		<layer id="86" name="__module.model.rotary_emb/aten::sin/Sin" type="Sin" version="opset1">
			<input>
				<port id="0" precision="FP32">
					<dim>-1</dim>
					<dim>-1</dim>
					<dim>128</dim>
				</port>
			</input>
			<output>
				<port id="1" precision="FP32" names="379,381,383,386,sin.1,sin.3,sin.5">
					<dim>-1</dim>
					<dim>-1</dim>
					<dim>128</dim>
				</port>
			</output>
		</layer>
		<layer id="87" name="__module.model.layers.0.self_attn/aten::unsqueeze/Unsqueeze_1" type="Unsqueeze" version="opset1">
			<input>
				<port id="0" precision="FP32">
					<dim>-1</dim>
					<dim>-1</dim>
					<dim>128</dim>
				</port>
				<port id="1" precision="I64" />
			</input>
			<output>
				<port id="2" precision="FP32" names="1057,1182,1307,1432,1557,1682,1807,1932,2057,2182,2307,2432,2557,2682,2807,2932,3057,3182,3307,3432,3557,3682,3807,3932,4057,4182,429,4307,557,682,807,932,sin,sin.11,sin.13,sin.15,sin.17,sin.19,sin.21,sin.23,sin.25,sin.27,sin.29,sin.31,sin.33,sin.35,sin.37,sin.39,sin.41,sin.43,sin.45,sin.47,sin.49,sin.51,sin.53,sin.55,sin.57,sin.59,sin.61,sin.63,sin.65,sin.67,sin.7,sin.9">
					<dim>-1</dim>
					<dim>1</dim>
					<dim>-1</dim>
					<dim>128</dim>
				</port>
			</output>
		</layer>
		<layer id="88" name="__module.model.layers.0.self_attn/aten::mul/Multiply_1" type="Multiply" version="opset1">
			<data auto_broadcast="numpy" />
			<input>
				<port id="0" precision="FP32">
					<dim>-1</dim>
					<dim>32</dim>
					<dim>-1</dim>
					<dim>128</dim>
				</port>
				<port id="1" precision="FP32">
					<dim>-1</dim>
					<dim>1</dim>
					<dim>-1</dim>
					<dim>128</dim>
				</port>
			</input>
			<output>
				<port id="2" precision="FP32" names="444">
					<dim>-1</dim>
					<dim>32</dim>
					<dim>-1</dim>
					<dim>128</dim>
				</port>
			</output>
		</layer>
		<layer id="89" name="__module.model.layers.0.self_attn/aten::add/Add" type="Add" version="opset1">
			<data auto_broadcast="numpy" />
			<input>
				<port id="0" precision="FP32">
					<dim>-1</dim>
					<dim>32</dim>
					<dim>-1</dim>
					<dim>128</dim>
				</port>
				<port id="1" precision="FP32">
					<dim>-1</dim>
					<dim>32</dim>
					<dim>-1</dim>
					<dim>128</dim>
				</port>
			</input>
			<output>
				<port id="2" precision="FP32" names="445">
					<dim>-1</dim>
					<dim>32</dim>
					<dim>-1</dim>
					<dim>128</dim>
				</port>
			</output>
		</layer>
		<layer id="90" name="Constant_234591" type="Const" version="opset1">
			<data element_type="f32" shape="" offset="0" size="4" />
			<output>
				<port id="0" precision="FP32" />
			</output>
		</layer>
		<layer id="91" name="Constant_234584" type="Const" version="opset1">
			<data element_type="i64" shape="1" offset="12" size="8" />
			<output>
				<port id="0" precision="I64">
					<dim>1</dim>
				</port>
			</output>
		</layer>
		<layer id="92" name="Constant_234586" type="Const" version="opset1">
			<data element_type="i64" shape="1" offset="4" size="8" />
			<output>
				<port id="0" precision="I64">
					<dim>1</dim>
				</port>
			</output>
		</layer>
		<layer id="93" name="Constant_234588" type="Const" version="opset1">
			<data element_type="i64" shape="1" offset="20" size="8" />
			<output>
				<port id="0" precision="I64">
					<dim>1</dim>
				</port>
			</output>
		</layer>
		<layer id="94" name="Concat_234589" type="Concat" version="opset1">
			<data axis="0" />
			<input>
				<port id="0" precision="I64">
					<dim>1</dim>
				</port>
				<port id="1" precision="I64">
					<dim>1</dim>
				</port>
				<port id="2" precision="I64">
					<dim>1</dim>
				</port>
				<port id="3" precision="I64">
					<dim>1</dim>
				</port>
			</input>
			<output>
				<port id="4" precision="I64">
					<dim>4</dim>
				</port>
			</output>
		</layer>
		<layer id="95" name="Broadcast_234592" type="Broadcast" version="opset3">
			<data mode="numpy" />
			<input>
				<port id="0" precision="FP32" />
				<port id="1" precision="I64">
					<dim>4</dim>
				</port>
			</input>
			<output>
				<port id="2" precision="FP32">
					<dim>-1</dim>
					<dim>32</dim>
					<dim>0</dim>
					<dim>128</dim>
				</port>
			</output>
		</layer>
		<layer id="96" name="ReadValue_229651" type="ReadValue" version="opset6">
			<data variable_id="past_key_values.0.keypresent.0.key" variable_type="f32" variable_shape="?,32,?,128" />
			<input>
				<port id="0" precision="FP32">
					<dim>-1</dim>
					<dim>32</dim>
					<dim>0</dim>
					<dim>128</dim>
				</port>
			</input>
			<output>
				<port id="1" precision="FP32" names="past_key_values.0.key">
					<dim>-1</dim>
					<dim>32</dim>
					<dim>-1</dim>
					<dim>128</dim>
				</port>
			</output>
		</layer>
		<layer id="97" name="Constant_224675" type="Const" version="opset1">
			<data element_type="i64" shape="" offset="4" size="8" />
			<output>
				<port id="0" precision="I64" />
			</output>
		</layer>
		<layer id="98" name="Gather_224676" type="Gather" version="opset8">
			<data batch_dims="0" />
			<input>
				<port id="0" precision="FP32">
					<dim>-1</dim>
					<dim>32</dim>
					<dim>-1</dim>
					<dim>128</dim>
				</port>
				<port id="1" precision="I32">
					<dim>-1</dim>
				</port>
				<port id="2" precision="I64" />
			</input>
			<output>
				<port id="3" precision="FP32">
					<dim>-1</dim>
					<dim>32</dim>
					<dim>-1</dim>
					<dim>128</dim>
				</port>
			</output>
		</layer>
		<layer id="99" name="self.model.layers.0.self_attn.k_proj.weight" type="Const" version="opset1">
			<data element_type="u4" shape="4096, 32, 128" offset="8765856" size="8388608" />
			<output>
				<port id="0" precision="U4">
					<dim>4096</dim>
					<dim>32</dim>
					<dim>128</dim>
				</port>
			</output>
		</layer>
		<layer id="100" name="Convert_241447" type="Convert" version="opset1">
			<data destination_type="f16" />
			<input>
				<port id="0" precision="U4">
					<dim>4096</dim>
					<dim>32</dim>
					<dim>128</dim>
				</port>
			</input>
			<output>
				<port id="1" precision="FP16">
					<dim>4096</dim>
					<dim>32</dim>
					<dim>128</dim>
				</port>
			</output>
		</layer>
		<layer id="101" name="self.model.layers.0.self_attn.k_proj.weight/zero_point" type="Const" version="opset1">
			<data element_type="u4" shape="4096, 32, 1" offset="17154464" size="65536" />
			<output>
				<port id="0" precision="U4">
					<dim>4096</dim>
					<dim>32</dim>
					<dim>1</dim>
				</port>
			</output>
		</layer>
		<layer id="102" name="Convert_241449" type="Convert" version="opset1">
			<data destination_type="f16" />
			<input>
				<port id="0" precision="U4">
					<dim>4096</dim>
					<dim>32</dim>
					<dim>1</dim>
				</port>
			</input>
			<output>
				<port id="1" precision="FP16">
					<dim>4096</dim>
					<dim>32</dim>
					<dim>1</dim>
				</port>
			</output>
		</layer>
		<layer id="103" name="self.model.layers.0.self_attn.k_proj.weight/zero_point/subtract" type="Subtract" version="opset1">
			<data auto_broadcast="numpy" />
			<input>
				<port id="0" precision="FP16">
					<dim>4096</dim>
					<dim>32</dim>
					<dim>128</dim>
				</port>
				<port id="1" precision="FP16">
					<dim>4096</dim>
					<dim>32</dim>
					<dim>1</dim>
				</port>
			</input>
			<output>
				<port id="2" precision="FP16">
					<dim>4096</dim>
					<dim>32</dim>
					<dim>128</dim>
				</port>
			</output>
		</layer>
		<layer id="104" name="self.model.layers.0.self_attn.k_proj.weight/scale" type="Const" version="opset1">
			<data element_type="f16" shape="4096, 32, 1" offset="17220000" size="262144" />
			<output>
				<port id="0" precision="FP16">
					<dim>4096</dim>
					<dim>32</dim>
					<dim>1</dim>
				</port>
			</output>
		</layer>
		<layer id="105" name="self.model.layers.0.self_attn.k_proj.weight/fq_weights_1" type="Multiply" version="opset1">
			<data auto_broadcast="numpy" />
			<input>
				<port id="0" precision="FP16">
					<dim>4096</dim>
					<dim>32</dim>
					<dim>128</dim>
				</port>
				<port id="1" precision="FP16">
					<dim>4096</dim>
					<dim>32</dim>
					<dim>1</dim>
				</port>
			</input>
			<output>
				<port id="2" precision="FP16">
					<dim>4096</dim>
					<dim>32</dim>
					<dim>128</dim>
				</port>
			</output>
		</layer>
		<layer id="106" name="Constant_241454" type="Const" version="opset1">
			<data element_type="i64" shape="2" offset="8749104" size="16" />
			<output>
				<port id="0" precision="I64">
					<dim>2</dim>
				</port>
			</output>
		</layer>
		<layer id="107" name="Reshape_241455" type="Reshape" version="opset1">
			<data special_zero="false" />
			<input>
				<port id="0" precision="FP16">
					<dim>4096</dim>
					<dim>32</dim>
					<dim>128</dim>
				</port>
				<port id="1" precision="I64">
					<dim>2</dim>
				</port>
			</input>
			<output>
				<port id="2" precision="FP16">
					<dim>4096</dim>
					<dim>4096</dim>
				</port>
			</output>
		</layer>
		<layer id="108" name="self.model.layers.0.self_attn.k_proj.weight/fq_weights_1/convert" type="Convert" version="opset1">
			<data destination_type="f32" />
			<input>
				<port id="0" precision="FP16">
					<dim>4096</dim>
					<dim>4096</dim>
				</port>
			</input>
			<output>
				<port id="1" precision="FP32">
					<dim>4096</dim>
					<dim>4096</dim>
				</port>
			</output>
		</layer>
		<layer id="109" name="__module.model.layers.0.self_attn.k_proj/aten::linear/MatMul" type="MatMul" version="opset1">
			<data transpose_a="false" transpose_b="true" />
			<input>
				<port id="0" precision="FP32">
					<dim>-1</dim>
					<dim>-1</dim>
					<dim>4096</dim>
				</port>
				<port id="1" precision="FP32">
					<dim>4096</dim>
					<dim>4096</dim>
				</port>
			</input>
			<output>
				<port id="2" precision="FP32">
					<dim>-1</dim>
					<dim>-1</dim>
					<dim>4096</dim>
				</port>
			</output>
		</layer>
		<layer id="110" name="Constant_208565" type="Const" version="opset1">
			<data element_type="f32" shape="1, 1, 4096" offset="17482144" size="16384" />
			<output>
				<port id="0" precision="FP32">
					<dim>1</dim>
					<dim>1</dim>
					<dim>4096</dim>
				</port>
			</output>
		</layer>
		<layer id="111" name="__module.model.layers.0.self_attn.k_proj/aten::linear/Add" type="Add" version="opset1">
			<data auto_broadcast="numpy" />
			<input>
				<port id="0" precision="FP32">
					<dim>-1</dim>
					<dim>-1</dim>
					<dim>4096</dim>
				</port>
				<port id="1" precision="FP32">
					<dim>1</dim>
					<dim>1</dim>
					<dim>4096</dim>
				</port>
			</input>
			<output>
				<port id="2" precision="FP32" names="415,key_states.3">
					<dim>-1</dim>
					<dim>-1</dim>
					<dim>4096</dim>
				</port>
			</output>
		</layer>
		<layer id="112" name="Constant_214864" type="Const" version="opset1">
			<data element_type="i64" shape="4" offset="8765504" size="32" />
			<output>
				<port id="0" precision="I64">
					<dim>4</dim>
				</port>
			</output>
		</layer>
		<layer id="113" name="__module.model.layers.0.self_attn/aten::view/Reshape_1" type="Reshape" version="opset1">
			<data special_zero="true" />
			<input>
				<port id="0" precision="FP32">
					<dim>-1</dim>
					<dim>-1</dim>
					<dim>4096</dim>
				</port>
				<port id="1" precision="I64">
					<dim>4</dim>
				</port>
			</input>
			<output>
				<port id="2" precision="FP32" names="423">
					<dim>-1</dim>
					<dim>-1</dim>
					<dim>32</dim>
					<dim>128</dim>
				</port>
			</output>
		</layer>
		<layer id="114" name="__module.model.layers.0.self_attn/aten::transpose/ScatterElementsUpdate_1" type="Const" version="opset1">
			<data element_type="i32" shape="4" offset="8765536" size="16" />
			<output>
				<port id="0" precision="I32">
					<dim>4</dim>
				</port>
			</output>
		</layer>
		<layer id="115" name="__module.model.layers.0.self_attn/aten::transpose/Transpose_1" type="Transpose" version="opset1">
			<input>
				<port id="0" precision="FP32">
					<dim>-1</dim>
					<dim>-1</dim>
					<dim>32</dim>
					<dim>128</dim>
				</port>
				<port id="1" precision="I32">
					<dim>4</dim>
				</port>
			</input>
			<output>
				<port id="2" precision="FP32" names="424,k.1">
					<dim>-1</dim>
					<dim>32</dim>
					<dim>-1</dim>
					<dim>128</dim>
				</port>
			</output>
		</layer>
		<layer id="116" name="__module.model.layers.0.self_attn/aten::mul/Multiply_2" type="Multiply" version="opset1">
			<data auto_broadcast="numpy" />
			<input>
				<port id="0" precision="FP32">
					<dim>-1</dim>
					<dim>32</dim>
					<dim>-1</dim>
					<dim>128</dim>
				</port>
				<port id="1" precision="FP32">
					<dim>-1</dim>
					<dim>1</dim>
					<dim>-1</dim>
					<dim>128</dim>
				</port>
			</input>
			<output>
				<port id="2" precision="FP32" names="446">
					<dim>-1</dim>
					<dim>32</dim>
					<dim>-1</dim>
					<dim>128</dim>
				</port>
			</output>
		</layer>
		<layer id="117" name="__module.model.layers.0.self_attn/aten::size/ShapeOf_5" type="ShapeOf" version="opset3">
			<data output_type="i64" />
			<input>
				<port id="0" precision="FP32">
					<dim>-1</dim>
					<dim>32</dim>
					<dim>-1</dim>
					<dim>128</dim>
				</port>
			</input>
			<output>
				<port id="1" precision="I64">
					<dim>4</dim>
				</port>
			</output>
		</layer>
		<layer id="118" name="__module.model.layers.0.self_attn/aten::size/Constant_5" type="Const" version="opset1">
			<data element_type="i32" shape="" offset="0" size="4" />
			<output>
				<port id="0" precision="I32" />
			</output>
		</layer>
		<layer id="119" name="__module.model.layers.0.self_attn/aten::size/Gather_5" type="Gather" version="opset8">
			<data batch_dims="0" />
			<input>
				<port id="0" precision="I64">
					<dim>4</dim>
				</port>
				<port id="1" precision="I64" />
				<port id="2" precision="I32" />
			</input>
			<output>
				<port id="3" precision="I64" names="447,452" />
			</output>
		</layer>
		<layer id="120" name="__module.model.layers.0.self_attn/aten::floor_divide/Divide_3" type="Divide" version="opset1">
			<data auto_broadcast="numpy" m_pythondiv="true" />
			<input>
				<port id="0" precision="I64" />
				<port id="1" precision="I64" />
			</input>
			<output>
				<port id="2" precision="I64" />
			</output>
		</layer>
		<layer id="121" name="__module.model.layers.0.self_attn/aten::floor_divide/Floor_3" type="Floor" version="opset1">
			<input>
				<port id="0" precision="I64" />
			</input>
			<output>
				<port id="1" precision="I64" names="449,450,454,455" />
			</output>
		</layer>
		<layer id="122" name="Constant_171894" type="Const" version="opset1">
			<data element_type="i64" shape="1" offset="32804" size="8" />
			<output>
				<port id="0" precision="I64">
					<dim>1</dim>
				</port>
			</output>
		</layer>
		<layer id="123" name="__module.model.layers.0.self_attn/aten::slice/Reshape_13" type="Reshape" version="opset1">
			<data special_zero="false" />
			<input>
				<port id="0" precision="I64" />
				<port id="1" precision="I64">
					<dim>1</dim>
				</port>
			</input>
			<output>
				<port id="2" precision="I64">
					<dim>1</dim>
				</port>
			</output>
		</layer>
		<layer id="124" name="__module.model.layers.0.self_attn/aten::slice/Reshape_9" type="Const" version="opset1">
			<data element_type="i64" shape="1" offset="8765844" size="8" />
			<output>
				<port id="0" precision="I64">
					<dim>1</dim>
				</port>
			</output>
		</layer>
		<layer id="125" name="__module.model.layers.0.self_attn/aten::slice/Reshape_10" type="Const" version="opset1">
			<data element_type="i64" shape="1" offset="8765808" size="8" />
			<output>
				<port id="0" precision="I64">
					<dim>1</dim>
				</port>
			</output>
		</layer>
		<layer id="126" name="__module.model.layers.0.self_attn/aten::slice/Reshape_11" type="Const" version="opset1">
			<data element_type="i64" shape="1" offset="8765828" size="8" />
			<output>
				<port id="0" precision="I64">
					<dim>1</dim>
				</port>
			</output>
		</layer>
		<layer id="127" name="__module.model.layers.0.self_attn/aten::slice/Slice_2" type="Slice" version="opset8">
			<input>
				<port id="0" precision="FP32">
					<dim>-1</dim>
					<dim>32</dim>
					<dim>-1</dim>
					<dim>128</dim>
				</port>
				<port id="1" precision="I64">
					<dim>1</dim>
				</port>
				<port id="2" precision="I64">
					<dim>1</dim>
				</port>
				<port id="3" precision="I64">
					<dim>1</dim>
				</port>
				<port id="4" precision="I64">
					<dim>1</dim>
				</port>
			</input>
			<output>
				<port id="5" precision="FP32" names="456,x2.3">
					<dim>-1</dim>
					<dim>32</dim>
					<dim>-1</dim>
					<dim>64</dim>
				</port>
			</output>
		</layer>
		<layer id="128" name="Constant_208566" type="Const" version="opset1">
			<data element_type="f32" shape="1, 1, 1, 1" offset="8765852" size="4" />
			<output>
				<port id="0" precision="FP32">
					<dim>1</dim>
					<dim>1</dim>
					<dim>1</dim>
					<dim>1</dim>
				</port>
			</output>
		</layer>
		<layer id="129" name="__module.model.layers.0.self_attn/aten::neg/Multiply_1" type="Multiply" version="opset1">
			<data auto_broadcast="numpy" />
			<input>
				<port id="0" precision="FP32">
					<dim>-1</dim>
					<dim>32</dim>
					<dim>-1</dim>
					<dim>64</dim>
				</port>
				<port id="1" precision="FP32">
					<dim>1</dim>
					<dim>1</dim>
					<dim>1</dim>
					<dim>1</dim>
				</port>
			</input>
			<output>
				<port id="2" precision="FP32" names="457">
					<dim>-1</dim>
					<dim>32</dim>
					<dim>-1</dim>
					<dim>64</dim>
				</port>
			</output>
		</layer>
		<layer id="130" name="__module.model.layers.0.self_attn/aten::slice/Reshape_12" type="Const" version="opset1">
			<data element_type="i64" shape="1" offset="4" size="8" />
			<output>
				<port id="0" precision="I64">
					<dim>1</dim>
				</port>
			</output>
		</layer>
		<layer id="131" name="__module.model.layers.0.self_attn/aten::slice/Reshape_14" type="Const" version="opset1">
			<data element_type="i64" shape="1" offset="8765808" size="8" />
			<output>
				<port id="0" precision="I64">
					<dim>1</dim>
				</port>
			</output>
		</layer>
		<layer id="132" name="__module.model.layers.0.self_attn/aten::slice/Reshape_15" type="Const" version="opset1">
			<data element_type="i64" shape="1" offset="8765828" size="8" />
			<output>
				<port id="0" precision="I64">
					<dim>1</dim>
				</port>
			</output>
		</layer>
		<layer id="133" name="__module.model.layers.0.self_attn/aten::slice/Slice_3" type="Slice" version="opset8">
			<input>
				<port id="0" precision="FP32">
					<dim>-1</dim>
					<dim>32</dim>
					<dim>-1</dim>
					<dim>128</dim>
				</port>
				<port id="1" precision="I64">
					<dim>1</dim>
				</port>
				<port id="2" precision="I64">
					<dim>1</dim>
				</port>
				<port id="3" precision="I64">
					<dim>1</dim>
				</port>
				<port id="4" precision="I64">
					<dim>1</dim>
				</port>
			</input>
			<output>
				<port id="5" precision="FP32" names="451">
					<dim>-1</dim>
					<dim>32</dim>
					<dim>-1</dim>
					<dim>64</dim>
				</port>
			</output>
		</layer>
		<layer id="134" name="__module.model.layers.0.self_attn/aten::cat/Concat_1" type="Concat" version="opset1">
			<data axis="-1" />
			<input>
				<port id="0" precision="FP32">
					<dim>-1</dim>
					<dim>32</dim>
					<dim>-1</dim>
					<dim>64</dim>
				</port>
				<port id="1" precision="FP32">
					<dim>-1</dim>
					<dim>32</dim>
					<dim>-1</dim>
					<dim>64</dim>
				</port>
			</input>
			<output>
				<port id="2" precision="FP32" names="459">
					<dim>-1</dim>
					<dim>32</dim>
					<dim>-1</dim>
					<dim>128</dim>
				</port>
			</output>
		</layer>
		<layer id="135" name="__module.model.layers.0.self_attn/aten::mul/Multiply_3" type="Multiply" version="opset1">
			<data auto_broadcast="numpy" />
			<input>
				<port id="0" precision="FP32">
					<dim>-1</dim>
					<dim>32</dim>
					<dim>-1</dim>
					<dim>128</dim>
				</port>
				<port id="1" precision="FP32">
					<dim>-1</dim>
					<dim>1</dim>
					<dim>-1</dim>
					<dim>128</dim>
				</port>
			</input>
			<output>
				<port id="2" precision="FP32" names="460">
					<dim>-1</dim>
					<dim>32</dim>
					<dim>-1</dim>
					<dim>128</dim>
				</port>
			</output>
		</layer>
		<layer id="136" name="__module.model.layers.0.self_attn/aten::add/Add_1" type="Add" version="opset1">
			<data auto_broadcast="numpy" />
			<input>
				<port id="0" precision="FP32">
					<dim>-1</dim>
					<dim>32</dim>
					<dim>-1</dim>
					<dim>128</dim>
				</port>
				<port id="1" precision="FP32">
					<dim>-1</dim>
					<dim>32</dim>
					<dim>-1</dim>
					<dim>128</dim>
				</port>
			</input>
			<output>
				<port id="2" precision="FP32" names="461,key_states.5">
					<dim>-1</dim>
					<dim>32</dim>
					<dim>-1</dim>
					<dim>128</dim>
				</port>
			</output>
		</layer>
		<layer id="137" name="__module.model.layers.0.self_attn/aten::cat/Concat_2" type="Concat" version="opset1">
			<data axis="-2" />
			<input>
				<port id="0" precision="FP32">
					<dim>-1</dim>
					<dim>32</dim>
					<dim>-1</dim>
					<dim>128</dim>
				</port>
				<port id="1" precision="FP32">
					<dim>-1</dim>
					<dim>32</dim>
					<dim>-1</dim>
					<dim>128</dim>
				</port>
			</input>
			<output>
				<port id="2" precision="FP32" names="present.0.key">
					<dim>-1</dim>
					<dim>32</dim>
					<dim>-1</dim>
					<dim>128</dim>
				</port>
			</output>
		</layer>
		<layer id="138" name="Constant_234604" type="Const" version="opset1">
			<data element_type="f32" shape="" offset="0" size="4" />
			<output>
				<port id="0" precision="FP32" />
			</output>
		</layer>
		<layer id="139" name="Constant_234597" type="Const" version="opset1">
			<data element_type="i64" shape="1" offset="12" size="8" />
			<output>
				<port id="0" precision="I64">
					<dim>1</dim>
				</port>
			</output>
		</layer>
		<layer id="140" name="Constant_234599" type="Const" version="opset1">
			<data element_type="i64" shape="1" offset="4" size="8" />
			<output>
				<port id="0" precision="I64">
					<dim>1</dim>
				</port>
			</output>
		</layer>
		<layer id="141" name="Constant_234601" type="Const" version="opset1">
			<data element_type="i64" shape="1" offset="20" size="8" />
			<output>
				<port id="0" precision="I64">
					<dim>1</dim>
				</port>
			</output>
		</layer>
		<layer id="142" name="Concat_234602" type="Concat" version="opset1">
			<data axis="0" />
			<input>
				<port id="0" precision="I64">
					<dim>1</dim>
				</port>
				<port id="1" precision="I64">
					<dim>1</dim>
				</port>
				<port id="2" precision="I64">
					<dim>1</dim>
				</port>
				<port id="3" precision="I64">
					<dim>1</dim>
				</port>
			</input>
			<output>
				<port id="4" precision="I64">
					<dim>4</dim>
				</port>
			</output>
		</layer>
		<layer id="143" name="Broadcast_234605" type="Broadcast" version="opset3">
			<data mode="numpy" />
			<input>
				<port id="0" precision="FP32" />
				<port id="1" precision="I64">
					<dim>4</dim>
				</port>
			</input>
			<output>
				<port id="2" precision="FP32">
					<dim>-1</dim>
					<dim>32</dim>
					<dim>0</dim>
					<dim>128</dim>
				</port>
			</output>
		</layer>
		<layer id="144" name="ReadValue_229653" type="ReadValue" version="opset6">
			<data variable_id="past_key_values.0.valuepresent.0.value" variable_type="f32" variable_shape="?,32,?,128" />
			<input>
				<port id="0" precision="FP32">
					<dim>-1</dim>
					<dim>32</dim>
					<dim>0</dim>
					<dim>128</dim>
				</port>
			</input>
			<output>
				<port id="1" precision="FP32" names="past_key_values.0.value">
					<dim>-1</dim>
					<dim>32</dim>
					<dim>-1</dim>
					<dim>128</dim>
				</port>
			</output>
		</layer>
		<layer id="145" name="Constant_224678" type="Const" version="opset1">
			<data element_type="i64" shape="" offset="4" size="8" />
			<output>
				<port id="0" precision="I64" />
			</output>
		</layer>
		<layer id="146" name="Gather_224679" type="Gather" version="opset8">
			<data batch_dims="0" />
			<input>
				<port id="0" precision="FP32">
					<dim>-1</dim>
					<dim>32</dim>
					<dim>-1</dim>
					<dim>128</dim>
				</port>
				<port id="1" precision="I32">
					<dim>-1</dim>
				</port>
				<port id="2" precision="I64" />
			</input>
			<output>
				<port id="3" precision="FP32">
					<dim>-1</dim>
					<dim>32</dim>
					<dim>-1</dim>
					<dim>128</dim>
				</port>
			</output>
		</layer>
		<layer id="147" name="self.model.layers.0.self_attn.v_proj.weight" type="Const" version="opset1">
			<data element_type="u4" shape="4096, 32, 128" offset="17498528" size="8388608" />
			<output>
				<port id="0" precision="U4">
					<dim>4096</dim>
					<dim>32</dim>
					<dim>128</dim>
				</port>
			</output>
		</layer>
		<layer id="148" name="Convert_241458" type="Convert" version="opset1">
			<data destination_type="f16" />
			<input>
				<port id="0" precision="U4">
					<dim>4096</dim>
					<dim>32</dim>
					<dim>128</dim>
				</port>
			</input>
			<output>
				<port id="1" precision="FP16">
					<dim>4096</dim>
					<dim>32</dim>
					<dim>128</dim>
				</port>
			</output>
		</layer>
		<layer id="149" name="self.model.layers.0.self_attn.v_proj.weight/zero_point" type="Const" version="opset1">
			<data element_type="u4" shape="4096, 32, 1" offset="25887136" size="65536" />
			<output>
				<port id="0" precision="U4">
					<dim>4096</dim>
					<dim>32</dim>
					<dim>1</dim>
				</port>
			</output>
		</layer>
		<layer id="150" name="Convert_241460" type="Convert" version="opset1">
			<data destination_type="f16" />
			<input>
				<port id="0" precision="U4">
					<dim>4096</dim>
					<dim>32</dim>
					<dim>1</dim>
				</port>
			</input>
			<output>
				<port id="1" precision="FP16">
					<dim>4096</dim>
					<dim>32</dim>
					<dim>1</dim>
				</port>
			</output>
		</layer>
		<layer id="151" name="self.model.layers.0.self_attn.v_proj.weight/zero_point/subtract" type="Subtract" version="opset1">
			<data auto_broadcast="numpy" />
			<input>
				<port id="0" precision="FP16">
					<dim>4096</dim>
					<dim>32</dim>
					<dim>128</dim>
				</port>
				<port id="1" precision="FP16">
					<dim>4096</dim>
					<dim>32</dim>
					<dim>1</dim>
				</port>
			</input>
			<output>
				<port id="2" precision="FP16">
					<dim>4096</dim>
					<dim>32</dim>
					<dim>128</dim>
				</port>
			</output>
		</layer>
		<layer id="152" name="self.model.layers.0.self_attn.v_proj.weight/scale" type="Const" version="opset1">
			<data element_type="f16" shape="4096, 32, 1" offset="25952672" size="262144" />
			<output>
				<port id="0" precision="FP16">
					<dim>4096</dim>
					<dim>32</dim>
					<dim>1</dim>
				</port>
			</output>
		</layer>
		<layer id="153" name="self.model.layers.0.self_attn.v_proj.weight/fq_weights_1" type="Multiply" version="opset1">
			<data auto_broadcast="numpy" />
			<input>
				<port id="0" precision="FP16">
					<dim>4096</dim>
					<dim>32</dim>
					<dim>128</dim>
				</port>
				<port id="1" precision="FP16">
					<dim>4096</dim>
					<dim>32</dim>
					<dim>1</dim>
				</port>
			</input>
			<output>
				<port id="2" precision="FP16">
					<dim>4096</dim>
					<dim>32</dim>
					<dim>128</dim>
				</port>
			</output>
		</layer>
		<layer id="154" name="Constant_241465" type="Const" version="opset1">
			<data element_type="i64" shape="2" offset="8749104" size="16" />
			<output>
				<port id="0" precision="I64">
					<dim>2</dim>
				</port>
			</output>
		</layer>
		<layer id="155" name="Reshape_241466" type="Reshape" version="opset1">
			<data special_zero="false" />
			<input>
				<port id="0" precision="FP16">
					<dim>4096</dim>
					<dim>32</dim>
					<dim>128</dim>
				</port>
				<port id="1" precision="I64">
					<dim>2</dim>
				</port>
			</input>
			<output>
				<port id="2" precision="FP16">
					<dim>4096</dim>
					<dim>4096</dim>
				</port>
			</output>
		</layer>
		<layer id="156" name="self.model.layers.0.self_attn.v_proj.weight/fq_weights_1/convert" type="Convert" version="opset1">
			<data destination_type="f32" />
			<input>
				<port id="0" precision="FP16">
					<dim>4096</dim>
					<dim>4096</dim>
				</port>
			</input>
			<output>
				<port id="1" precision="FP32">
					<dim>4096</dim>
					<dim>4096</dim>
				</port>
			</output>
		</layer>
		<layer id="157" name="__module.model.layers.0.self_attn.v_proj/aten::linear/MatMul" type="MatMul" version="opset1">
			<data transpose_a="false" transpose_b="true" />
			<input>
				<port id="0" precision="FP32">
					<dim>-1</dim>
					<dim>-1</dim>
					<dim>4096</dim>
				</port>
				<port id="1" precision="FP32">
					<dim>4096</dim>
					<dim>4096</dim>
				</port>
			</input>
			<output>
				<port id="2" precision="FP32">
					<dim>-1</dim>
					<dim>-1</dim>
					<dim>4096</dim>
				</port>
			</output>
		</layer>
		<layer id="158" name="Constant_208567" type="Const" version="opset1">
			<data element_type="f32" shape="1, 1, 4096" offset="26214816" size="16384" />
			<output>
				<port id="0" precision="FP32">
					<dim>1</dim>
					<dim>1</dim>
					<dim>4096</dim>
				</port>
			</output>
		</layer>
		<layer id="159" name="__module.model.layers.0.self_attn.v_proj/aten::linear/Add" type="Add" version="opset1">
			<data auto_broadcast="numpy" />
			<input>
				<port id="0" precision="FP32">
					<dim>-1</dim>
					<dim>-1</dim>
					<dim>4096</dim>
				</port>
				<port id="1" precision="FP32">
					<dim>1</dim>
					<dim>1</dim>
					<dim>4096</dim>
				</port>
			</input>
			<output>
				<port id="2" precision="FP32" names="418,value_states.1">
					<dim>-1</dim>
					<dim>-1</dim>
					<dim>4096</dim>
				</port>
			</output>
		</layer>
		<layer id="160" name="Constant_214865" type="Const" version="opset1">
			<data element_type="i64" shape="4" offset="8765504" size="32" />
			<output>
				<port id="0" precision="I64">
					<dim>4</dim>
				</port>
			</output>
		</layer>
		<layer id="161" name="__module.model.layers.0.self_attn/aten::view/Reshape_2" type="Reshape" version="opset1">
			<data special_zero="true" />
			<input>
				<port id="0" precision="FP32">
					<dim>-1</dim>
					<dim>-1</dim>
					<dim>4096</dim>
				</port>
				<port id="1" precision="I64">
					<dim>4</dim>
				</port>
			</input>
			<output>
				<port id="2" precision="FP32" names="426">
					<dim>-1</dim>
					<dim>-1</dim>
					<dim>32</dim>
					<dim>128</dim>
				</port>
			</output>
		</layer>
		<layer id="162" name="__module.model.layers.0.self_attn/aten::transpose/ScatterElementsUpdate_2" type="Const" version="opset1">
			<data element_type="i32" shape="4" offset="8765536" size="16" />
			<output>
				<port id="0" precision="I32">
					<dim>4</dim>
				</port>
			</output>
		</layer>
		<layer id="163" name="__module.model.layers.0.self_attn/aten::transpose/Transpose_2" type="Transpose" version="opset1">
			<input>
				<port id="0" precision="FP32">
					<dim>-1</dim>
					<dim>-1</dim>
					<dim>32</dim>
					<dim>128</dim>
				</port>
				<port id="1" precision="I32">
					<dim>4</dim>
				</port>
			</input>
			<output>
				<port id="2" precision="FP32" names="427">
					<dim>-1</dim>
					<dim>32</dim>
					<dim>-1</dim>
					<dim>128</dim>
				</port>
			</output>
		</layer>
		<layer id="164" name="__module.model.layers.0.self_attn/aten::cat/Concat_3" type="Concat" version="opset1">
			<data axis="-2" />
			<input>
				<port id="0" precision="FP32">
					<dim>-1</dim>
					<dim>32</dim>
					<dim>-1</dim>
					<dim>128</dim>
				</port>
				<port id="1" precision="FP32">
					<dim>-1</dim>
					<dim>32</dim>
					<dim>-1</dim>
					<dim>128</dim>
				</port>
			</input>
			<output>
				<port id="2" precision="FP32" names="present.0.value">
					<dim>-1</dim>
					<dim>32</dim>
					<dim>-1</dim>
					<dim>128</dim>
				</port>
			</output>
		</layer>
		<layer id="165" name="__module.model/aten::triu/Constant" type="Const" version="opset1">
			<data element_type="i32" shape="" offset="0" size="4" />
			<output>
				<port id="0" precision="I32" />
			</output>
		</layer>
		<layer id="166" name="ShapeOf_212435" type="ShapeOf" version="opset3">
			<data output_type="i64" />
			<input>
				<port id="0" precision="I64">
					<dim>-1</dim>
					<dim>-1</dim>
				</port>
			</input>
			<output>
				<port id="1" precision="I64">
					<dim>2</dim>
				</port>
			</output>
		</layer>
		<layer id="167" name="Constant_212436" type="Const" version="opset1">
			<data element_type="i64" shape="" offset="8765808" size="8" />
			<output>
				<port id="0" precision="I64" />
			</output>
		</layer>
		<layer id="168" name="Constant_212437" type="Const" version="opset1">
			<data element_type="i64" shape="" offset="4" size="8" />
			<output>
				<port id="0" precision="I64" />
			</output>
		</layer>
		<layer id="169" name="Gather_212438" type="Gather" version="opset8">
			<data batch_dims="0" />
			<input>
				<port id="0" precision="I64">
					<dim>2</dim>
				</port>
				<port id="1" precision="I64" />
				<port id="2" precision="I64" />
			</input>
			<output>
				<port id="3" precision="I64" names="322,339" />
			</output>
		</layer>
		<layer id="170" name="Convert_212443" type="Convert" version="opset1">
			<data destination_type="i32" />
			<input>
				<port id="0" precision="I64" />
			</input>
			<output>
				<port id="1" precision="I32" />
			</output>
		</layer>
		<layer id="171" name="__module.model/aten::triu/Constant_2" type="Const" version="opset1">
			<data element_type="i32" shape="" offset="26231200" size="4" />
			<output>
				<port id="0" precision="I32" />
			</output>
		</layer>
		<layer id="172" name="__module.model/aten::triu/Range" type="Range" version="opset4">
			<data output_type="i32" />
			<input>
				<port id="0" precision="I32" />
				<port id="1" precision="I32" />
				<port id="2" precision="I32" />
			</input>
			<output>
				<port id="3" precision="I32">
					<dim>-1</dim>
				</port>
			</output>
		</layer>
		<layer id="173" name="__module.model/aten::triu/Unsqueeze" type="Unsqueeze" version="opset1">
			<input>
				<port id="0" precision="I32">
					<dim>-1</dim>
				</port>
				<port id="1" precision="I32" />
			</input>
			<output>
				<port id="2" precision="I32">
					<dim>1</dim>
					<dim>-1</dim>
				</port>
			</output>
		</layer>
		<layer id="174" name="__module.model/aten::triu/Convert" type="Const" version="opset1">
			<data element_type="i32" shape="" offset="26231200" size="4" />
			<output>
				<port id="0" precision="I32" />
			</output>
		</layer>
		<layer id="175" name="ShapeOf_212427" type="ShapeOf" version="opset3">
			<data output_type="i64" />
			<input>
				<port id="0" precision="FP32">
					<dim>-1</dim>
					<dim>-1</dim>
					<dim>4096</dim>
				</port>
			</input>
			<output>
				<port id="1" precision="I64">
					<dim>3</dim>
				</port>
			</output>
		</layer>
		<layer id="176" name="Constant_212428" type="Const" version="opset1">
			<data element_type="i64" shape="" offset="8765808" size="8" />
			<output>
				<port id="0" precision="I64" />
			</output>
		</layer>
		<layer id="177" name="Constant_212429" type="Const" version="opset1">
			<data element_type="i64" shape="" offset="4" size="8" />
			<output>
				<port id="0" precision="I64" />
			</output>
		</layer>
		<layer id="178" name="Gather_212430" type="Gather" version="opset8">
			<data batch_dims="0" />
			<input>
				<port id="0" precision="I64">
					<dim>3</dim>
				</port>
				<port id="1" precision="I64" />
				<port id="2" precision="I64" />
			</input>
			<output>
				<port id="3" precision="I64" names="316,321" />
			</output>
		</layer>
		<layer id="179" name="Convert_212449" type="Convert" version="opset1">
			<data destination_type="i32" />
			<input>
				<port id="0" precision="I64" />
			</input>
			<output>
				<port id="1" precision="I32" />
			</output>
		</layer>
		<layer id="180" name="__module.model/aten::triu/Add" type="Add" version="opset1">
			<data auto_broadcast="numpy" />
			<input>
				<port id="0" precision="I32" />
				<port id="1" precision="I32" />
			</input>
			<output>
				<port id="2" precision="I32" />
			</output>
		</layer>
		<layer id="181" name="__module.model/aten::triu/Range_1" type="Range" version="opset4">
			<data output_type="i32" />
			<input>
				<port id="0" precision="I32" />
				<port id="1" precision="I32" />
				<port id="2" precision="I32" />
			</input>
			<output>
				<port id="3" precision="I32">
					<dim>-1</dim>
				</port>
			</output>
		</layer>
		<layer id="182" name="__module.model/aten::triu/Unsqueeze_1" type="Unsqueeze" version="opset1">
			<input>
				<port id="0" precision="I32">
					<dim>-1</dim>
				</port>
				<port id="1" precision="I32" />
			</input>
			<output>
				<port id="2" precision="I32">
					<dim>-1</dim>
					<dim>1</dim>
				</port>
			</output>
		</layer>
		<layer id="183" name="__module.model/aten::triu/GreaterEqual" type="GreaterEqual" version="opset1">
			<data auto_broadcast="numpy" />
			<input>
				<port id="0" precision="I32">
					<dim>1</dim>
					<dim>-1</dim>
				</port>
				<port id="1" precision="I32">
					<dim>-1</dim>
					<dim>1</dim>
				</port>
			</input>
			<output>
				<port id="2" precision="BOOL">
					<dim>-1</dim>
					<dim>-1</dim>
				</port>
			</output>
		</layer>
		<layer id="184" name="__module.model/aten::full/Convert" type="Const" version="opset1">
			<data element_type="f32" shape="" offset="26231204" size="4" />
			<output>
				<port id="0" precision="FP32" />
			</output>
		</layer>
		<layer id="185" name="Constant_212432" type="Const" version="opset1">
			<data element_type="i64" shape="1" offset="8765808" size="8" />
			<output>
				<port id="0" precision="I64">
					<dim>1</dim>
				</port>
			</output>
		</layer>
		<layer id="186" name="Reshape_212433" type="Reshape" version="opset1">
			<data special_zero="false" />
			<input>
				<port id="0" precision="I64" />
				<port id="1" precision="I64">
					<dim>1</dim>
				</port>
			</input>
			<output>
				<port id="2" precision="I64">
					<dim>1</dim>
				</port>
			</output>
		</layer>
		<layer id="187" name="Constant_212440" type="Const" version="opset1">
			<data element_type="i64" shape="1" offset="8765808" size="8" />
			<output>
				<port id="0" precision="I64">
					<dim>1</dim>
				</port>
			</output>
		</layer>
		<layer id="188" name="Reshape_212441" type="Reshape" version="opset1">
			<data special_zero="false" />
			<input>
				<port id="0" precision="I64" />
				<port id="1" precision="I64">
					<dim>1</dim>
				</port>
			</input>
			<output>
				<port id="2" precision="I64">
					<dim>1</dim>
				</port>
			</output>
		</layer>
		<layer id="189" name="__module.model/prim::ListConstruct/Concat" type="Concat" version="opset1">
			<data axis="0" />
			<input>
				<port id="0" precision="I64">
					<dim>1</dim>
				</port>
				<port id="1" precision="I64">
					<dim>1</dim>
				</port>
			</input>
			<output>
				<port id="2" precision="I64" names="324">
					<dim>2</dim>
				</port>
			</output>
		</layer>
		<layer id="190" name="__module.model/aten::full/Broadcast" type="Broadcast" version="opset3">
			<data mode="numpy" />
			<input>
				<port id="0" precision="FP32" />
				<port id="1" precision="I64">
					<dim>2</dim>
				</port>
			</input>
			<output>
				<port id="2" precision="FP32" names="325">
					<dim>-1</dim>
					<dim>-1</dim>
				</port>
			</output>
		</layer>
		<layer id="191" name="__module.model/aten::triu/ConvertLike" type="Const" version="opset1">
			<data element_type="f32" shape="" offset="0" size="4" />
			<output>
				<port id="0" precision="FP32" />
			</output>
		</layer>
		<layer id="192" name="__module.model/aten::triu/Select" type="Select" version="opset1">
			<data auto_broadcast="numpy" />
			<input>
				<port id="0" precision="BOOL">
					<dim>-1</dim>
					<dim>-1</dim>
				</port>
				<port id="1" precision="FP32">
					<dim>-1</dim>
					<dim>-1</dim>
				</port>
				<port id="2" precision="FP32" />
			</input>
			<output>
				<port id="3" precision="FP32" names="326_1">
					<dim>-1</dim>
					<dim>-1</dim>
				</port>
			</output>
		</layer>
		<layer id="193" name="__module.model/aten::arange/Constant" type="Const" version="opset1">
			<data element_type="i32" shape="" offset="0" size="4" />
			<output>
				<port id="0" precision="I32" />
			</output>
		</layer>
		<layer id="194" name="__module.model/aten::arange/Constant_1" type="Const" version="opset1">
			<data element_type="i32" shape="" offset="26231200" size="4" />
			<output>
				<port id="0" precision="I32" />
			</output>
		</layer>
		<layer id="195" name="__module.model/aten::arange/Range" type="Range" version="opset4">
			<data output_type="f32" />
			<input>
				<port id="0" precision="I32" />
				<port id="1" precision="I64" />
				<port id="2" precision="I32" />
			</input>
			<output>
				<port id="3" precision="FP32">
					<dim>-1</dim>
				</port>
			</output>
		</layer>
		<layer id="196" name="__module.model/aten::arange/ConvertLike" type="Convert" version="opset1">
			<data destination_type="i64" />
			<input>
				<port id="0" precision="FP32">
					<dim>-1</dim>
				</port>
			</input>
			<output>
				<port id="1" precision="I64" names="327">
					<dim>-1</dim>
				</port>
			</output>
		</layer>
		<layer id="197" name="__module.model/aten::gt/Convert" type="Convert" version="opset1">
			<data destination_type="f32" />
			<input>
				<port id="0" precision="I64">
					<dim>-1</dim>
				</port>
			</input>
			<output>
				<port id="1" precision="FP32">
					<dim>-1</dim>
				</port>
			</output>
		</layer>
		<layer id="198" name="ShapeOf_212455" type="ShapeOf" version="opset3">
			<data output_type="i64" />
			<input>
				<port id="0" precision="FP32">
					<dim>-1</dim>
					<dim>32</dim>
					<dim>-1</dim>
					<dim>128</dim>
				</port>
			</input>
			<output>
				<port id="1" precision="I64">
					<dim>4</dim>
				</port>
			</output>
		</layer>
		<layer id="199" name="Constant_212456" type="Const" version="opset1">
			<data element_type="i64" shape="" offset="8765836" size="8" />
			<output>
				<port id="0" precision="I64" />
			</output>
		</layer>
		<layer id="200" name="Constant_212457" type="Const" version="opset1">
			<data element_type="i64" shape="" offset="4" size="8" />
			<output>
				<port id="0" precision="I64" />
			</output>
		</layer>
		<layer id="201" name="Gather_212458" type="Gather" version="opset8">
			<data batch_dims="0" />
			<input>
				<port id="0" precision="I64">
					<dim>4</dim>
				</port>
				<port id="1" precision="I64" />
				<port id="2" precision="I64" />
			</input>
			<output>
				<port id="3" precision="I64" names="314" />
			</output>
		</layer>
		<layer id="202" name="__module.model/aten::add/Add" type="Add" version="opset1">
			<data auto_broadcast="numpy" />
			<input>
				<port id="0" precision="I64" />
				<port id="1" precision="I64" />
			</input>
			<output>
				<port id="2" precision="I64" names="318" />
			</output>
		</layer>
		<layer id="203" name="__module.model/aten::arange/Constant_2" type="Const" version="opset1">
			<data element_type="i32" shape="" offset="26231200" size="4" />
			<output>
				<port id="0" precision="I32" />
			</output>
		</layer>
		<layer id="204" name="__module.model/aten::arange/Range_1" type="Range" version="opset4">
			<data output_type="f32" />
			<input>
				<port id="0" precision="I64" />
				<port id="1" precision="I64" />
				<port id="2" precision="I32" />
			</input>
			<output>
				<port id="3" precision="FP32" names="320,cache_position">
					<dim>-1</dim>
				</port>
			</output>
		</layer>
		<layer id="205" name="Constant_60261" type="Const" version="opset1">
			<data element_type="i64" shape="2" offset="26231208" size="16" />
			<output>
				<port id="0" precision="I64" names="328">
					<dim>2</dim>
				</port>
			</output>
		</layer>
		<layer id="206" name="__module.model/aten::reshape/Reshape" type="Reshape" version="opset1">
			<data special_zero="false" />
			<input>
				<port id="0" precision="FP32">
					<dim>-1</dim>
				</port>
				<port id="1" precision="I64">
					<dim>2</dim>
				</port>
			</input>
			<output>
				<port id="2" precision="FP32" names="329">
					<dim>-1</dim>
					<dim>1</dim>
				</port>
			</output>
		</layer>
		<layer id="207" name="__module.model/aten::gt/Greater" type="Greater" version="opset1">
			<data auto_broadcast="numpy" />
			<input>
				<port id="0" precision="FP32">
					<dim>-1</dim>
				</port>
				<port id="1" precision="FP32">
					<dim>-1</dim>
					<dim>1</dim>
				</port>
			</input>
			<output>
				<port id="2" precision="BOOL" names="330">
					<dim>-1</dim>
					<dim>-1</dim>
				</port>
			</output>
		</layer>
		<layer id="208" name="__module.model/aten::mul_/ConvertLike" type="Convert" version="opset1">
			<data destination_type="f32" />
			<input>
				<port id="0" precision="BOOL">
					<dim>-1</dim>
					<dim>-1</dim>
				</port>
			</input>
			<output>
				<port id="1" precision="FP32">
					<dim>-1</dim>
					<dim>-1</dim>
				</port>
			</output>
		</layer>
		<layer id="209" name="__module.model/aten::mul_/Multiply" type="Multiply" version="opset1">
			<data auto_broadcast="numpy" />
			<input>
				<port id="0" precision="FP32">
					<dim>-1</dim>
					<dim>-1</dim>
				</port>
				<port id="1" precision="FP32">
					<dim>-1</dim>
					<dim>-1</dim>
				</port>
			</input>
			<output>
				<port id="2" precision="FP32" names="326,causal_mask.1">
					<dim>-1</dim>
					<dim>-1</dim>
				</port>
			</output>
		</layer>
		<layer id="210" name="238" type="Const" version="opset1">
			<data element_type="i64" shape="" offset="4" size="8" />
			<output>
				<port id="0" precision="I64" names="238" />
			</output>
		</layer>
		<layer id="211" name="__module.model/aten::unsqueeze/Unsqueeze" type="Unsqueeze" version="opset1">
			<input>
				<port id="0" precision="FP32">
					<dim>-1</dim>
					<dim>-1</dim>
				</port>
				<port id="1" precision="I64" />
			</input>
			<output>
				<port id="2" precision="FP32" names="332">
					<dim>1</dim>
					<dim>-1</dim>
					<dim>-1</dim>
				</port>
			</output>
		</layer>
		<layer id="212" name="__module.model/aten::unsqueeze/Unsqueeze_1" type="Unsqueeze" version="opset1">
			<input>
				<port id="0" precision="FP32">
					<dim>1</dim>
					<dim>-1</dim>
					<dim>-1</dim>
				</port>
				<port id="1" precision="I64" />
			</input>
			<output>
				<port id="2" precision="FP32" names="333,334,335">
					<dim>1</dim>
					<dim>1</dim>
					<dim>-1</dim>
					<dim>-1</dim>
				</port>
			</output>
		</layer>
		<layer id="213" name="Constant_212461" type="Const" version="opset1">
			<data element_type="i64" shape="1" offset="4" size="8" />
			<output>
				<port id="0" precision="I64">
					<dim>1</dim>
				</port>
			</output>
		</layer>
		<layer id="214" name="Constant_212462" type="Const" version="opset1">
			<data element_type="i64" shape="" offset="4" size="8" />
			<output>
				<port id="0" precision="I64" />
			</output>
		</layer>
		<layer id="215" name="Gather_212463" type="Gather" version="opset8">
			<data batch_dims="0" />
			<input>
				<port id="0" precision="I64">
					<dim>3</dim>
				</port>
				<port id="1" precision="I64">
					<dim>1</dim>
				</port>
				<port id="2" precision="I64" />
			</input>
			<output>
				<port id="3" precision="I64" names="323">
					<dim>1</dim>
				</port>
			</output>
		</layer>
		<layer id="216" name="Constant_199159" type="Const" version="opset1">
			<data element_type="i64" shape="1" offset="8765808" size="8" />
			<output>
				<port id="0" precision="I64">
					<dim>1</dim>
				</port>
			</output>
		</layer>
		<layer id="217" name="Constant_199161" type="Const" version="opset1">
			<data element_type="i64" shape="1" offset="8765808" size="8" />
			<output>
				<port id="0" precision="I64">
					<dim>1</dim>
				</port>
			</output>
		</layer>
		<layer id="218" name="Constant_199163" type="Const" version="opset1">
			<data element_type="i64" shape="1" offset="8765808" size="8" />
			<output>
				<port id="0" precision="I64">
					<dim>1</dim>
				</port>
			</output>
		</layer>
		<layer id="219" name="__module.model/prim::ListConstruct/Concat_1" type="Concat" version="opset1">
			<data axis="0" />
			<input>
				<port id="0" precision="I64">
					<dim>1</dim>
				</port>
				<port id="1" precision="I64">
					<dim>1</dim>
				</port>
				<port id="2" precision="I64">
					<dim>1</dim>
				</port>
				<port id="3" precision="I64">
					<dim>1</dim>
				</port>
			</input>
			<output>
				<port id="4" precision="I64" names="336">
					<dim>4</dim>
				</port>
			</output>
		</layer>
		<layer id="220" name="__module.model/aten::expand/Broadcast" type="Broadcast" version="opset3">
			<data mode="bidirectional" />
			<input>
				<port id="0" precision="FP32">
					<dim>1</dim>
					<dim>1</dim>
					<dim>-1</dim>
					<dim>-1</dim>
				</port>
				<port id="1" precision="I64">
					<dim>4</dim>
				</port>
			</input>
			<output>
				<port id="2" precision="FP32" names="337,340,341,342,350,351,352,355_1,356_1,357_1,causal_mask.5">
					<dim>-1</dim>
					<dim>1</dim>
					<dim>-1</dim>
					<dim>-1</dim>
				</port>
			</output>
		</layer>
		<layer id="221" name="Constant_171898" type="Const" version="opset1">
			<data element_type="i64" shape="1" offset="32804" size="8" />
			<output>
				<port id="0" precision="I64">
					<dim>1</dim>
				</port>
			</output>
		</layer>
		<layer id="222" name="SliceAssign_60402/Reshape_3" type="Reshape" version="opset1">
			<data special_zero="false" />
			<input>
				<port id="0" precision="FP32">
					<dim>-1</dim>
					<dim>1</dim>
					<dim>-1</dim>
					<dim>-1</dim>
				</port>
				<port id="1" precision="I64">
					<dim>1</dim>
				</port>
			</input>
			<output>
				<port id="2" precision="FP32">
					<dim>-1</dim>
				</port>
			</output>
		</layer>
		<layer id="223" name="Constant_123070" type="Const" version="opset1">
			<data element_type="i64" shape="" offset="4" size="8" />
			<output>
				<port id="0" precision="I64" />
			</output>
		</layer>
		<layer id="224" name="SliceAssign_60402/ShapeOf" type="ShapeOf" version="opset3">
			<data output_type="i64" />
			<input>
				<port id="0" precision="FP32">
					<dim>-1</dim>
					<dim>1</dim>
					<dim>-1</dim>
					<dim>-1</dim>
				</port>
			</input>
			<output>
				<port id="1" precision="I64">
					<dim>4</dim>
				</port>
			</output>
		</layer>
		<layer id="225" name="SliceAssign_60402/ReduceProd" type="ReduceProd" version="opset1">
			<data keep_dims="false" />
			<input>
				<port id="0" precision="I64">
					<dim>4</dim>
				</port>
				<port id="1" precision="I64" />
			</input>
			<output>
				<port id="2" precision="I64" />
			</output>
		</layer>
		<layer id="226" name="Constant_123071" type="Const" version="opset1">
			<data element_type="i64" shape="" offset="8765808" size="8" />
			<output>
				<port id="0" precision="I64" />
			</output>
		</layer>
		<layer id="227" name="SliceAssign_60402/Range" type="Range" version="opset4">
			<data output_type="i64" />
			<input>
				<port id="0" precision="I64" />
				<port id="1" precision="I64" />
				<port id="2" precision="I64" />
			</input>
			<output>
				<port id="3" precision="I64">
					<dim>-1</dim>
				</port>
			</output>
		</layer>
		<layer id="228" name="SliceAssign_60402/Reshape" type="Reshape" version="opset1">
			<data special_zero="false" />
			<input>
				<port id="0" precision="I64">
					<dim>-1</dim>
				</port>
				<port id="1" precision="I64">
					<dim>4</dim>
				</port>
			</input>
			<output>
				<port id="2" precision="I64">
					<dim>-1</dim>
					<dim>1</dim>
					<dim>-1</dim>
					<dim>-1</dim>
				</port>
			</output>
		</layer>
		<layer id="229" name="__module.model/aten::slice/Reshape_20" type="Const" version="opset1">
			<data element_type="i64" shape="1" offset="4" size="8" />
			<output>
				<port id="0" precision="I64">
					<dim>1</dim>
				</port>
			</output>
		</layer>
		<layer id="230" name="__module.model/aten::slice/Reshape_22" type="Const" version="opset1">
			<data element_type="i64" shape="1" offset="8765808" size="8" />
			<output>
				<port id="0" precision="I64">
					<dim>1</dim>
				</port>
			</output>
		</layer>
		<layer id="231" name="__module.model/aten::slice/Reshape_23" type="Const" version="opset1">
			<data element_type="i64" shape="1" offset="8765828" size="8" />
			<output>
				<port id="0" precision="I64">
					<dim>1</dim>
				</port>
			</output>
		</layer>
		<layer id="232" name="SliceAssign_60402/Slice_2" type="Slice" version="opset8">
			<input>
				<port id="0" precision="I64">
					<dim>-1</dim>
					<dim>1</dim>
					<dim>-1</dim>
					<dim>-1</dim>
				</port>
				<port id="1" precision="I64">
					<dim>1</dim>
				</port>
				<port id="2" precision="I64">
					<dim>1</dim>
				</port>
				<port id="3" precision="I64">
					<dim>1</dim>
				</port>
				<port id="4" precision="I64">
					<dim>1</dim>
				</port>
			</input>
			<output>
				<port id="5" precision="I64">
					<dim>-1</dim>
					<dim>1</dim>
					<dim>-1</dim>
					<dim>-1</dim>
				</port>
			</output>
		</layer>
		<layer id="233" name="Constant_123073" type="Const" version="opset1">
			<data element_type="i64" shape="2" offset="26231208" size="16" />
			<output>
				<port id="0" precision="I64">
					<dim>2</dim>
				</port>
			</output>
		</layer>
		<layer id="234" name="SliceAssign_60402/Reshape_4" type="Reshape" version="opset1">
			<data special_zero="false" />
			<input>
				<port id="0" precision="I64">
					<dim>-1</dim>
					<dim>1</dim>
					<dim>-1</dim>
					<dim>-1</dim>
				</port>
				<port id="1" precision="I64">
					<dim>2</dim>
				</port>
			</input>
			<output>
				<port id="2" precision="I64">
					<dim>-1</dim>
					<dim>1</dim>
				</port>
			</output>
		</layer>
		<layer id="235" name="__module.model/aten::slice/Reshape_36" type="Const" version="opset1">
			<data element_type="i64" shape="1" offset="4" size="8" />
			<output>
				<port id="0" precision="I64">
					<dim>1</dim>
				</port>
			</output>
		</layer>
		<layer id="236" name="__module.model/aten::slice/Reshape_38" type="Const" version="opset1">
			<data element_type="i64" shape="1" offset="8765808" size="8" />
			<output>
				<port id="0" precision="I64">
					<dim>1</dim>
				</port>
			</output>
		</layer>
		<layer id="237" name="__module.model/aten::slice/Reshape_39" type="Const" version="opset1">
			<data element_type="i64" shape="1" offset="8765828" size="8" />
			<output>
				<port id="0" precision="I64">
					<dim>1</dim>
				</port>
			</output>
		</layer>
		<layer id="238" name="__module.model/aten::slice/Slice_5" type="Slice" version="opset8">
			<input>
				<port id="0" precision="FP32">
					<dim>-1</dim>
					<dim>1</dim>
					<dim>-1</dim>
					<dim>-1</dim>
				</port>
				<port id="1" precision="I64">
					<dim>1</dim>
				</port>
				<port id="2" precision="I64">
					<dim>1</dim>
				</port>
				<port id="3" precision="I64">
					<dim>1</dim>
				</port>
				<port id="4" precision="I64">
					<dim>1</dim>
				</port>
			</input>
			<output>
				<port id="5" precision="FP32" names="343,353,358_1">
					<dim>-1</dim>
					<dim>1</dim>
					<dim>-1</dim>
					<dim>-1</dim>
				</port>
			</output>
		</layer>
		<layer id="239" name="__module.model/aten::unsqueeze/Unsqueeze_2" type="Unsqueeze" version="opset1">
			<input>
				<port id="0" precision="I64">
					<dim>-1</dim>
					<dim>-1</dim>
				</port>
				<port id="1" precision="I64" />
			</input>
			<output>
				<port id="2" precision="I64" names="345">
					<dim>-1</dim>
					<dim>1</dim>
					<dim>-1</dim>
				</port>
			</output>
		</layer>
		<layer id="240" name="244" type="Const" version="opset1">
			<data element_type="i64" shape="" offset="8765836" size="8" />
			<output>
				<port id="0" precision="I64" names="244" />
			</output>
		</layer>
		<layer id="241" name="__module.model/aten::unsqueeze/Unsqueeze_3" type="Unsqueeze" version="opset1">
			<input>
				<port id="0" precision="I64">
					<dim>-1</dim>
					<dim>1</dim>
					<dim>-1</dim>
				</port>
				<port id="1" precision="I64" />
			</input>
			<output>
				<port id="2" precision="I64" names="346,347">
					<dim>-1</dim>
					<dim>1</dim>
					<dim>1</dim>
					<dim>-1</dim>
				</port>
			</output>
		</layer>
		<layer id="242" name="__module.model/aten::add/Convert" type="Convert" version="opset1">
			<data destination_type="f32" />
			<input>
				<port id="0" precision="I64">
					<dim>-1</dim>
					<dim>1</dim>
					<dim>1</dim>
					<dim>-1</dim>
				</port>
			</input>
			<output>
				<port id="1" precision="FP32">
					<dim>-1</dim>
					<dim>1</dim>
					<dim>1</dim>
					<dim>-1</dim>
				</port>
			</output>
		</layer>
		<layer id="243" name="__module.model/aten::add/Add_1" type="Add" version="opset1">
			<data auto_broadcast="numpy" />
			<input>
				<port id="0" precision="FP32">
					<dim>-1</dim>
					<dim>1</dim>
					<dim>-1</dim>
					<dim>-1</dim>
				</port>
				<port id="1" precision="FP32">
					<dim>-1</dim>
					<dim>1</dim>
					<dim>1</dim>
					<dim>-1</dim>
				</port>
			</input>
			<output>
				<port id="2" precision="FP32" names="348,padding_mask.1">
					<dim>-1</dim>
					<dim>1</dim>
					<dim>-1</dim>
					<dim>-1</dim>
				</port>
			</output>
		</layer>
		<layer id="244" name="Constant_208568" type="Const" version="opset1">
			<data element_type="f32" shape="1, 1, 1, 1" offset="0" size="4" />
			<output>
				<port id="0" precision="FP32">
					<dim>1</dim>
					<dim>1</dim>
					<dim>1</dim>
					<dim>1</dim>
				</port>
			</output>
		</layer>
		<layer id="245" name="__module.model/aten::eq/Equal" type="Equal" version="opset1">
			<data auto_broadcast="numpy" />
			<input>
				<port id="0" precision="FP32">
					<dim>-1</dim>
					<dim>1</dim>
					<dim>-1</dim>
					<dim>-1</dim>
				</port>
				<port id="1" precision="FP32">
					<dim>1</dim>
					<dim>1</dim>
					<dim>1</dim>
					<dim>1</dim>
				</port>
			</input>
			<output>
				<port id="2" precision="BOOL" names="349,padding_mask">
					<dim>-1</dim>
					<dim>1</dim>
					<dim>-1</dim>
					<dim>-1</dim>
				</port>
			</output>
		</layer>
		<layer id="246" name="__module.model/aten::masked_fill/ConvertLike" type="Const" version="opset1">
			<data element_type="f32" shape="" offset="26231204" size="4" />
			<output>
				<port id="0" precision="FP32" />
			</output>
		</layer>
		<layer id="247" name="__module.model/aten::masked_fill/Select" type="Select" version="opset1">
			<data auto_broadcast="numpy" />
			<input>
				<port id="0" precision="BOOL">
					<dim>-1</dim>
					<dim>1</dim>
					<dim>-1</dim>
					<dim>-1</dim>
				</port>
				<port id="1" precision="FP32" />
				<port id="2" precision="FP32">
					<dim>-1</dim>
					<dim>1</dim>
					<dim>-1</dim>
					<dim>-1</dim>
				</port>
			</input>
			<output>
				<port id="3" precision="FP32" names="354">
					<dim>-1</dim>
					<dim>1</dim>
					<dim>-1</dim>
					<dim>-1</dim>
				</port>
			</output>
		</layer>
		<layer id="248" name="__module.model/aten::copy_/ShapeOf" type="ShapeOf" version="opset3">
			<data output_type="i64" />
			<input>
				<port id="0" precision="FP32">
					<dim>-1</dim>
					<dim>1</dim>
					<dim>-1</dim>
					<dim>-1</dim>
				</port>
			</input>
			<output>
				<port id="1" precision="I64">
					<dim>4</dim>
				</port>
			</output>
		</layer>
		<layer id="249" name="__module.model/aten::copy_/Broadcast" type="Broadcast" version="opset3">
			<data mode="numpy" />
			<input>
				<port id="0" precision="FP32">
					<dim>-1</dim>
					<dim>1</dim>
					<dim>-1</dim>
					<dim>-1</dim>
				</port>
				<port id="1" precision="I64">
					<dim>4</dim>
				</port>
			</input>
			<output>
				<port id="2" precision="FP32" names="358">
					<dim>-1</dim>
					<dim>1</dim>
					<dim>-1</dim>
					<dim>-1</dim>
				</port>
			</output>
		</layer>
		<layer id="250" name="Constant_171899" type="Const" version="opset1">
			<data element_type="i64" shape="1" offset="32804" size="8" />
			<output>
				<port id="0" precision="I64">
					<dim>1</dim>
				</port>
			</output>
		</layer>
		<layer id="251" name="SliceAssign_60402/Reshape_5" type="Reshape" version="opset1">
			<data special_zero="false" />
			<input>
				<port id="0" precision="FP32">
					<dim>-1</dim>
					<dim>1</dim>
					<dim>-1</dim>
					<dim>-1</dim>
				</port>
				<port id="1" precision="I64">
					<dim>1</dim>
				</port>
			</input>
			<output>
				<port id="2" precision="FP32">
					<dim>-1</dim>
				</port>
			</output>
		</layer>
		<layer id="252" name="SliceAssign_60402/ScatterNDUpdate" type="ScatterNDUpdate" version="opset4">
			<input>
				<port id="0" precision="FP32">
					<dim>-1</dim>
				</port>
				<port id="1" precision="I64">
					<dim>-1</dim>
					<dim>1</dim>
				</port>
				<port id="2" precision="FP32">
					<dim>-1</dim>
				</port>
			</input>
			<output>
				<port id="3" precision="FP32">
					<dim>-1</dim>
				</port>
			</output>
		</layer>
		<layer id="253" name="SliceAssign_60402/Reshape_6" type="Reshape" version="opset1">
			<data special_zero="false" />
			<input>
				<port id="0" precision="FP32">
					<dim>-1</dim>
				</port>
				<port id="1" precision="I64">
					<dim>4</dim>
				</port>
			</input>
			<output>
				<port id="2" precision="FP32" names="1095,1096,1097,1220,1221,1222,1345,1346,1347,1470,1471,1472,1595,1596,1597,1720,1721,1722,1845,1846,1847,1970,1971,1972,2095,2096,2097,2220,2221,2222,2345,2346,2347,2470,2471,2472,2595,2596,2597,2720,2721,2722,2845,2846,2847,2970,2971,2972,3095,3096,3097,3220,3221,3222,3345,3346,3347,338,3470,3471,3472,3595,3596,3597,3720,3721,3722,3845,3846,3847,3970,3971,3972,4095,4096,4097,4220,4221,4222,4345,4346,4347,470,471,472,595,596,597,720,721,722,845,846,847,970,971,972">
					<dim>-1</dim>
					<dim>1</dim>
					<dim>-1</dim>
					<dim>-1</dim>
				</port>
			</output>
		</layer>
		<layer id="254" name="__module.model.layers.0.self_attn/aten::slice/Reshape_28" type="Const" version="opset1">
			<data element_type="i64" shape="1" offset="4" size="8" />
			<output>
				<port id="0" precision="I64">
					<dim>1</dim>
				</port>
			</output>
		</layer>
		<layer id="255" name="Constant_212465" type="Const" version="opset1">
			<data element_type="i64" shape="1" offset="8765808" size="8" />
			<output>
				<port id="0" precision="I64">
					<dim>1</dim>
				</port>
			</output>
		</layer>
		<layer id="256" name="Reshape_212466" type="Reshape" version="opset1">
			<data special_zero="false" />
			<input>
				<port id="0" precision="I64" />
				<port id="1" precision="I64">
					<dim>1</dim>
				</port>
			</input>
			<output>
				<port id="2" precision="I64">
					<dim>1</dim>
				</port>
			</output>
		</layer>
		<layer id="257" name="ShapeOf_212467" type="ShapeOf" version="opset3">
			<data output_type="i64" />
			<input>
				<port id="0" precision="FP32">
					<dim>-1</dim>
					<dim>32</dim>
					<dim>-1</dim>
					<dim>128</dim>
				</port>
			</input>
			<output>
				<port id="1" precision="I64">
					<dim>4</dim>
				</port>
			</output>
		</layer>
		<layer id="258" name="Constant_212468" type="Const" version="opset1">
			<data element_type="i64" shape="1" offset="8765836" size="8" />
			<output>
				<port id="0" precision="I64">
					<dim>1</dim>
				</port>
			</output>
		</layer>
		<layer id="259" name="Constant_212469" type="Const" version="opset1">
			<data element_type="i64" shape="" offset="4" size="8" />
			<output>
				<port id="0" precision="I64" />
			</output>
		</layer>
		<layer id="260" name="Gather_212470" type="Gather" version="opset8">
			<data batch_dims="0" />
			<input>
				<port id="0" precision="I64">
					<dim>4</dim>
				</port>
				<port id="1" precision="I64">
					<dim>1</dim>
				</port>
				<port id="2" precision="I64" />
			</input>
			<output>
				<port id="3" precision="I64">
					<dim>1</dim>
				</port>
			</output>
		</layer>
		<layer id="261" name="Add_212471" type="Add" version="opset1">
			<data auto_broadcast="numpy" />
			<input>
				<port id="0" precision="I64">
					<dim>1</dim>
				</port>
				<port id="1" precision="I64">
					<dim>1</dim>
				</port>
			</input>
			<output>
				<port id="2" precision="I64" names="469">
					<dim>1</dim>
				</port>
			</output>
		</layer>
		<layer id="262" name="__module.model.layers.0.self_attn/aten::slice/Reshape_30" type="Const" version="opset1">
			<data element_type="i64" shape="1" offset="8765808" size="8" />
			<output>
				<port id="0" precision="I64">
					<dim>1</dim>
				</port>
			</output>
		</layer>
		<layer id="263" name="__module.model.layers.0.self_attn/aten::slice/Reshape_31" type="Const" version="opset1">
			<data element_type="i64" shape="1" offset="8765828" size="8" />
			<output>
				<port id="0" precision="I64">
					<dim>1</dim>
				</port>
			</output>
		</layer>
		<layer id="264" name="__module.model.layers.0.self_attn/aten::slice/Slice_7" type="Slice" version="opset8">
			<input>
				<port id="0" precision="FP32">
					<dim>-1</dim>
					<dim>1</dim>
					<dim>-1</dim>
					<dim>-1</dim>
				</port>
				<port id="1" precision="I64">
					<dim>1</dim>
				</port>
				<port id="2" precision="I64">
					<dim>1</dim>
				</port>
				<port id="3" precision="I64">
					<dim>1</dim>
				</port>
				<port id="4" precision="I64">
					<dim>1</dim>
				</port>
			</input>
			<output>
				<port id="5" precision="FP32" names="473">
					<dim>-1</dim>
					<dim>1</dim>
					<dim>-1</dim>
					<dim>-1</dim>
				</port>
			</output>
		</layer>
		<layer id="265" name="__module.model.layers.0.self_attn/aten::scaled_dot_product_attention/ScaledDotProductAttention" type="ScaledDotProductAttention" version="opset13">
			<data causal="false" />
			<input>
				<port id="0" precision="FP32">
					<dim>-1</dim>
					<dim>32</dim>
					<dim>-1</dim>
					<dim>128</dim>
				</port>
				<port id="1" precision="FP32">
					<dim>-1</dim>
					<dim>32</dim>
					<dim>-1</dim>
					<dim>128</dim>
				</port>
				<port id="2" precision="FP32">
					<dim>-1</dim>
					<dim>32</dim>
					<dim>-1</dim>
					<dim>128</dim>
				</port>
				<port id="3" precision="FP32">
					<dim>-1</dim>
					<dim>1</dim>
					<dim>-1</dim>
					<dim>-1</dim>
				</port>
			</input>
			<output>
				<port id="4" precision="FP32" names="474,attn_output.1">
					<dim>-1</dim>
					<dim>32</dim>
					<dim>-1</dim>
					<dim>128</dim>
				</port>
			</output>
		</layer>
		<layer id="266" name="__module.model.layers.0.self_attn/aten::transpose/ScatterElementsUpdate_3" type="Const" version="opset1">
			<data element_type="i32" shape="4" offset="8765536" size="16" />
			<output>
				<port id="0" precision="I32">
					<dim>4</dim>
				</port>
			</output>
		</layer>
		<layer id="267" name="__module.model.layers.0.self_attn/aten::transpose/Transpose_3" type="Transpose" version="opset1">
			<input>
				<port id="0" precision="FP32">
					<dim>-1</dim>
					<dim>32</dim>
					<dim>-1</dim>
					<dim>128</dim>
				</port>
				<port id="1" precision="I32">
					<dim>4</dim>
				</port>
			</input>
			<output>
				<port id="2" precision="FP32" names="475">
					<dim>-1</dim>
					<dim>-1</dim>
					<dim>32</dim>
					<dim>128</dim>
				</port>
			</output>
		</layer>
		<layer id="268" name="Constant_214866" type="Const" version="opset1">
			<data element_type="i64" shape="3" offset="26231224" size="24" />
			<output>
				<port id="0" precision="I64">
					<dim>3</dim>
				</port>
			</output>
		</layer>
		<layer id="269" name="__module.model.layers.0.self_attn/aten::view/Reshape_3" type="Reshape" version="opset1">
			<data special_zero="true" />
			<input>
				<port id="0" precision="FP32">
					<dim>-1</dim>
					<dim>-1</dim>
					<dim>32</dim>
					<dim>128</dim>
				</port>
				<port id="1" precision="I64">
					<dim>3</dim>
				</port>
			</input>
			<output>
				<port id="2" precision="FP32" names="478">
					<dim>-1</dim>
					<dim>-1</dim>
					<dim>4096</dim>
				</port>
			</output>
		</layer>
		<layer id="270" name="self.model.layers.0.self_attn.o_proj.weight" type="Const" version="opset1">
			<data element_type="u4" shape="4096, 32, 128" offset="26231248" size="8388608" />
			<output>
				<port id="0" precision="U4">
					<dim>4096</dim>
					<dim>32</dim>
					<dim>128</dim>
				</port>
			</output>
		</layer>
		<layer id="271" name="Convert_241480" type="Convert" version="opset1">
			<data destination_type="f16" />
			<input>
				<port id="0" precision="U4">
					<dim>4096</dim>
					<dim>32</dim>
					<dim>128</dim>
				</port>
			</input>
			<output>
				<port id="1" precision="FP16">
					<dim>4096</dim>
					<dim>32</dim>
					<dim>128</dim>
				</port>
			</output>
		</layer>
		<layer id="272" name="self.model.layers.0.self_attn.o_proj.weight/zero_point" type="Const" version="opset1">
			<data element_type="u4" shape="4096, 32, 1" offset="34619856" size="65536" />
			<output>
				<port id="0" precision="U4">
					<dim>4096</dim>
					<dim>32</dim>
					<dim>1</dim>
				</port>
			</output>
		</layer>
		<layer id="273" name="Convert_241482" type="Convert" version="opset1">
			<data destination_type="f16" />
			<input>
				<port id="0" precision="U4">
					<dim>4096</dim>
					<dim>32</dim>
					<dim>1</dim>
				</port>
			</input>
			<output>
				<port id="1" precision="FP16">
					<dim>4096</dim>
					<dim>32</dim>
					<dim>1</dim>
				</port>
			</output>
		</layer>
		<layer id="274" name="self.model.layers.0.self_attn.o_proj.weight/zero_point/subtract" type="Subtract" version="opset1">
			<data auto_broadcast="numpy" />
			<input>
				<port id="0" precision="FP16">
					<dim>4096</dim>
					<dim>32</dim>
					<dim>128</dim>
				</port>
				<port id="1" precision="FP16">
					<dim>4096</dim>
					<dim>32</dim>
					<dim>1</dim>
				</port>
			</input>
			<output>
				<port id="2" precision="FP16">
					<dim>4096</dim>
					<dim>32</dim>
					<dim>128</dim>
				</port>
			</output>
		</layer>
		<layer id="275" name="self.model.layers.0.self_attn.o_proj.weight/scale" type="Const" version="opset1">
			<data element_type="f16" shape="4096, 32, 1" offset="34685392" size="262144" />
			<output>
				<port id="0" precision="FP16">
					<dim>4096</dim>
					<dim>32</dim>
					<dim>1</dim>
				</port>
			</output>
		</layer>
		<layer id="276" name="self.model.layers.0.self_attn.o_proj.weight/fq_weights_1" type="Multiply" version="opset1">
			<data auto_broadcast="numpy" />
			<input>
				<port id="0" precision="FP16">
					<dim>4096</dim>
					<dim>32</dim>
					<dim>128</dim>
				</port>
				<port id="1" precision="FP16">
					<dim>4096</dim>
					<dim>32</dim>
					<dim>1</dim>
				</port>
			</input>
			<output>
				<port id="2" precision="FP16">
					<dim>4096</dim>
					<dim>32</dim>
					<dim>128</dim>
				</port>
			</output>
		</layer>
		<layer id="277" name="Constant_241487" type="Const" version="opset1">
			<data element_type="i64" shape="2" offset="8749104" size="16" />
			<output>
				<port id="0" precision="I64">
					<dim>2</dim>
				</port>
			</output>
		</layer>
		<layer id="278" name="Reshape_241488" type="Reshape" version="opset1">
			<data special_zero="false" />
			<input>
				<port id="0" precision="FP16">
					<dim>4096</dim>
					<dim>32</dim>
					<dim>128</dim>
				</port>
				<port id="1" precision="I64">
					<dim>2</dim>
				</port>
			</input>
			<output>
				<port id="2" precision="FP16">
					<dim>4096</dim>
					<dim>4096</dim>
				</port>
			</output>
		</layer>
		<layer id="279" name="self.model.layers.0.self_attn.o_proj.weight/fq_weights_1/convert" type="Convert" version="opset1">
			<data destination_type="f32" />
			<input>
				<port id="0" precision="FP16">
					<dim>4096</dim>
					<dim>4096</dim>
				</port>
			</input>
			<output>
				<port id="1" precision="FP32">
					<dim>4096</dim>
					<dim>4096</dim>
				</port>
			</output>
		</layer>
		<layer id="280" name="__module.model.layers.0.self_attn.o_proj/aten::linear/MatMul" type="MatMul" version="opset1">
			<data transpose_a="false" transpose_b="true" />
			<input>
				<port id="0" precision="FP32">
					<dim>-1</dim>
					<dim>-1</dim>
					<dim>4096</dim>
				</port>
				<port id="1" precision="FP32">
					<dim>4096</dim>
					<dim>4096</dim>
				</port>
			</input>
			<output>
				<port id="2" precision="FP32" names="480,482,hidden_states.13">
					<dim>-1</dim>
					<dim>-1</dim>
					<dim>4096</dim>
				</port>
			</output>
		</layer>
		<layer id="281" name="__module.model.layers.0/aten::add/Add" type="Add" version="opset1">
			<data auto_broadcast="numpy" />
			<input>
				<port id="0" precision="FP32">
					<dim>-1</dim>
					<dim>-1</dim>
					<dim>-1</dim>
				</port>
				<port id="1" precision="FP32">
					<dim>-1</dim>
					<dim>-1</dim>
					<dim>4096</dim>
				</port>
			</input>
			<output>
				<port id="2" precision="FP32" names="485,487,498,hidden_states.15,hidden_states.17">
					<dim>-1</dim>
					<dim>-1</dim>
					<dim>4096</dim>
				</port>
			</output>
		</layer>
		<layer id="282" name="Constant_208572" type="Const" version="opset1">
			<data element_type="f32" shape="1, 1, 4096" offset="34947536" size="16384" />
			<output>
				<port id="0" precision="FP32">
					<dim>1</dim>
					<dim>1</dim>
					<dim>4096</dim>
				</port>
			</output>
		</layer>
		<layer id="283" name="Constant_208571" type="Const" version="opset1">
			<data element_type="f32" shape="1, 1, 1" offset="32796" size="4" />
			<output>
				<port id="0" precision="FP32">
					<dim>1</dim>
					<dim>1</dim>
					<dim>1</dim>
				</port>
			</output>
		</layer>
		<layer id="284" name="Constant_208569" type="Const" version="opset1">
			<data element_type="f32" shape="1, 1, 1" offset="32800" size="4" />
			<output>
				<port id="0" precision="FP32">
					<dim>1</dim>
					<dim>1</dim>
					<dim>1</dim>
				</port>
			</output>
		</layer>
		<layer id="285" name="__module.model.layers.0.post_attention_layernorm/aten::pow/Power" type="Power" version="opset1">
			<data auto_broadcast="numpy" />
			<input>
				<port id="0" precision="FP32">
					<dim>-1</dim>
					<dim>-1</dim>
					<dim>4096</dim>
				</port>
				<port id="1" precision="FP32">
					<dim>1</dim>
					<dim>1</dim>
					<dim>1</dim>
				</port>
			</input>
			<output>
				<port id="2" precision="FP32" names="488">
					<dim>-1</dim>
					<dim>-1</dim>
					<dim>4096</dim>
				</port>
			</output>
		</layer>
		<layer id="286" name="Constant_60857" type="Const" version="opset1">
			<data element_type="i64" shape="1" offset="32804" size="8" />
			<output>
				<port id="0" precision="I64" names="489">
					<dim>1</dim>
				</port>
			</output>
		</layer>
		<layer id="287" name="__module.model.layers.0.post_attention_layernorm/aten::mean/ReduceMean" type="ReduceMean" version="opset1">
			<data keep_dims="true" />
			<input>
				<port id="0" precision="FP32">
					<dim>-1</dim>
					<dim>-1</dim>
					<dim>4096</dim>
				</port>
				<port id="1" precision="I64">
					<dim>1</dim>
				</port>
			</input>
			<output>
				<port id="2" precision="FP32" names="490,variance.3">
					<dim>-1</dim>
					<dim>-1</dim>
					<dim>1</dim>
				</port>
			</output>
		</layer>
		<layer id="288" name="Constant_208570" type="Const" version="opset1">
			<data element_type="f32" shape="1, 1, 1" offset="32812" size="4" />
			<output>
				<port id="0" precision="FP32">
					<dim>1</dim>
					<dim>1</dim>
					<dim>1</dim>
				</port>
			</output>
		</layer>
		<layer id="289" name="__module.model.layers.0.post_attention_layernorm/aten::add/Add" type="Add" version="opset1">
			<data auto_broadcast="numpy" />
			<input>
				<port id="0" precision="FP32">
					<dim>-1</dim>
					<dim>-1</dim>
					<dim>1</dim>
				</port>
				<port id="1" precision="FP32">
					<dim>1</dim>
					<dim>1</dim>
					<dim>1</dim>
				</port>
			</input>
			<output>
				<port id="2" precision="FP32" names="491">
					<dim>-1</dim>
					<dim>-1</dim>
					<dim>1</dim>
				</port>
			</output>
		</layer>
		<layer id="290" name="__module.model.layers.0.post_attention_layernorm/aten::rsqrt/Sqrt" type="Sqrt" version="opset1">
			<input>
				<port id="0" precision="FP32">
					<dim>-1</dim>
					<dim>-1</dim>
					<dim>1</dim>
				</port>
			</input>
			<output>
				<port id="1" precision="FP32">
					<dim>-1</dim>
					<dim>-1</dim>
					<dim>1</dim>
				</port>
			</output>
		</layer>
		<layer id="291" name="__module.model.layers.0.post_attention_layernorm/aten::rsqrt/Divide" type="Divide" version="opset1">
			<data auto_broadcast="numpy" m_pythondiv="true" />
			<input>
				<port id="0" precision="FP32">
					<dim>1</dim>
					<dim>1</dim>
					<dim>1</dim>
				</port>
				<port id="1" precision="FP32">
					<dim>-1</dim>
					<dim>-1</dim>
					<dim>1</dim>
				</port>
			</input>
			<output>
				<port id="2" precision="FP32" names="492">
					<dim>-1</dim>
					<dim>-1</dim>
					<dim>1</dim>
				</port>
			</output>
		</layer>
		<layer id="292" name="__module.model.layers.0.post_attention_layernorm/aten::mul/Multiply" type="Multiply" version="opset1">
			<data auto_broadcast="numpy" />
			<input>
				<port id="0" precision="FP32">
					<dim>-1</dim>
					<dim>-1</dim>
					<dim>4096</dim>
				</port>
				<port id="1" precision="FP32">
					<dim>-1</dim>
					<dim>-1</dim>
					<dim>1</dim>
				</port>
			</input>
			<output>
				<port id="2" precision="FP32" names="493,494,hidden_states.19,hidden_states.21">
					<dim>-1</dim>
					<dim>-1</dim>
					<dim>4096</dim>
				</port>
			</output>
		</layer>
		<layer id="293" name="__module.model.layers.0.post_attention_layernorm/aten::mul/Multiply_1" type="Multiply" version="opset1">
			<data auto_broadcast="numpy" />
			<input>
				<port id="0" precision="FP32">
					<dim>1</dim>
					<dim>1</dim>
					<dim>4096</dim>
				</port>
				<port id="1" precision="FP32">
					<dim>-1</dim>
					<dim>-1</dim>
					<dim>4096</dim>
				</port>
			</input>
			<output>
				<port id="2" precision="FP32" names="495,497">
					<dim>-1</dim>
					<dim>-1</dim>
					<dim>4096</dim>
				</port>
			</output>
		</layer>
		<layer id="294" name="self.model.layers.0.mlp.gate_proj.weight" type="Const" version="opset1">
			<data element_type="u4" shape="11008, 32, 128" offset="34963920" size="22544384" />
			<output>
				<port id="0" precision="U4">
					<dim>11008</dim>
					<dim>32</dim>
					<dim>128</dim>
				</port>
			</output>
		</layer>
		<layer id="295" name="Convert_240402" type="Convert" version="opset1">
			<data destination_type="f16" />
			<input>
				<port id="0" precision="U4">
					<dim>11008</dim>
					<dim>32</dim>
					<dim>128</dim>
				</port>
			</input>
			<output>
				<port id="1" precision="FP16">
					<dim>11008</dim>
					<dim>32</dim>
					<dim>128</dim>
				</port>
			</output>
		</layer>
		<layer id="296" name="self.model.layers.0.mlp.gate_proj.weight/zero_point" type="Const" version="opset1">
			<data element_type="u4" shape="11008, 32, 1" offset="57508304" size="176128" />
			<output>
				<port id="0" precision="U4">
					<dim>11008</dim>
					<dim>32</dim>
					<dim>1</dim>
				</port>
			</output>
		</layer>
		<layer id="297" name="Convert_240404" type="Convert" version="opset1">
			<data destination_type="f16" />
			<input>
				<port id="0" precision="U4">
					<dim>11008</dim>
					<dim>32</dim>
					<dim>1</dim>
				</port>
			</input>
			<output>
				<port id="1" precision="FP16">
					<dim>11008</dim>
					<dim>32</dim>
					<dim>1</dim>
				</port>
			</output>
		</layer>
		<layer id="298" name="self.model.layers.0.mlp.gate_proj.weight/zero_point/subtract" type="Subtract" version="opset1">
			<data auto_broadcast="numpy" />
			<input>
				<port id="0" precision="FP16">
					<dim>11008</dim>
					<dim>32</dim>
					<dim>128</dim>
				</port>
				<port id="1" precision="FP16">
					<dim>11008</dim>
					<dim>32</dim>
					<dim>1</dim>
				</port>
			</input>
			<output>
				<port id="2" precision="FP16">
					<dim>11008</dim>
					<dim>32</dim>
					<dim>128</dim>
				</port>
			</output>
		</layer>
		<layer id="299" name="self.model.layers.0.mlp.gate_proj.weight/scale" type="Const" version="opset1">
			<data element_type="f16" shape="11008, 32, 1" offset="57684432" size="704512" />
			<output>
				<port id="0" precision="FP16">
					<dim>11008</dim>
					<dim>32</dim>
					<dim>1</dim>
				</port>
			</output>
		</layer>
		<layer id="300" name="self.model.layers.0.mlp.gate_proj.weight/fq_weights_1" type="Multiply" version="opset1">
			<data auto_broadcast="numpy" />
			<input>
				<port id="0" precision="FP16">
					<dim>11008</dim>
					<dim>32</dim>
					<dim>128</dim>
				</port>
				<port id="1" precision="FP16">
					<dim>11008</dim>
					<dim>32</dim>
					<dim>1</dim>
				</port>
			</input>
			<output>
				<port id="2" precision="FP16">
					<dim>11008</dim>
					<dim>32</dim>
					<dim>128</dim>
				</port>
			</output>
		</layer>
		<layer id="301" name="Constant_240409" type="Const" version="opset1">
			<data element_type="i64" shape="2" offset="58388944" size="16" />
			<output>
				<port id="0" precision="I64">
					<dim>2</dim>
				</port>
			</output>
		</layer>
		<layer id="302" name="Reshape_240410" type="Reshape" version="opset1">
			<data special_zero="false" />
			<input>
				<port id="0" precision="FP16">
					<dim>11008</dim>
					<dim>32</dim>
					<dim>128</dim>
				</port>
				<port id="1" precision="I64">
					<dim>2</dim>
				</port>
			</input>
			<output>
				<port id="2" precision="FP16">
					<dim>11008</dim>
					<dim>4096</dim>
				</port>
			</output>
		</layer>
		<layer id="303" name="self.model.layers.0.mlp.gate_proj.weight/fq_weights_1/convert" type="Convert" version="opset1">
			<data destination_type="f32" />
			<input>
				<port id="0" precision="FP16">
					<dim>11008</dim>
					<dim>4096</dim>
				</port>
			</input>
			<output>
				<port id="1" precision="FP32">
					<dim>11008</dim>
					<dim>4096</dim>
				</port>
			</output>
		</layer>
		<layer id="304" name="__module.model.layers.0.mlp.gate_proj/aten::linear/MatMul" type="MatMul" version="opset1">
			<data transpose_a="false" transpose_b="true" />
			<input>
				<port id="0" precision="FP32">
					<dim>-1</dim>
					<dim>-1</dim>
					<dim>4096</dim>
				</port>
				<port id="1" precision="FP32">
					<dim>11008</dim>
					<dim>4096</dim>
				</port>
			</input>
			<output>
				<port id="2" precision="FP32" names="503,input.1">
					<dim>-1</dim>
					<dim>-1</dim>
					<dim>11008</dim>
				</port>
			</output>
		</layer>
		<layer id="305" name="__module.model.layers.0.mlp.act_fn/aten::silu/Swish" type="Swish" version="opset4">
			<input>
				<port id="0" precision="FP32">
					<dim>-1</dim>
					<dim>-1</dim>
					<dim>11008</dim>
				</port>
			</input>
			<output>
				<port id="1" precision="FP32" names="504">
					<dim>-1</dim>
					<dim>-1</dim>
					<dim>11008</dim>
				</port>
			</output>
		</layer>
		<layer id="306" name="self.model.layers.0.mlp.up_proj.weight" type="Const" version="opset1">
			<data element_type="u4" shape="11008, 32, 128" offset="58388960" size="22544384" />
			<output>
				<port id="0" precision="U4">
					<dim>11008</dim>
					<dim>32</dim>
					<dim>128</dim>
				</port>
			</output>
		</layer>
		<layer id="307" name="Convert_240391" type="Convert" version="opset1">
			<data destination_type="f16" />
			<input>
				<port id="0" precision="U4">
					<dim>11008</dim>
					<dim>32</dim>
					<dim>128</dim>
				</port>
			</input>
			<output>
				<port id="1" precision="FP16">
					<dim>11008</dim>
					<dim>32</dim>
					<dim>128</dim>
				</port>
			</output>
		</layer>
		<layer id="308" name="self.model.layers.0.mlp.up_proj.weight/zero_point" type="Const" version="opset1">
			<data element_type="u4" shape="11008, 32, 1" offset="80933344" size="176128" />
			<output>
				<port id="0" precision="U4">
					<dim>11008</dim>
					<dim>32</dim>
					<dim>1</dim>
				</port>
			</output>
		</layer>
		<layer id="309" name="Convert_240393" type="Convert" version="opset1">
			<data destination_type="f16" />
			<input>
				<port id="0" precision="U4">
					<dim>11008</dim>
					<dim>32</dim>
					<dim>1</dim>
				</port>
			</input>
			<output>
				<port id="1" precision="FP16">
					<dim>11008</dim>
					<dim>32</dim>
					<dim>1</dim>
				</port>
			</output>
		</layer>
		<layer id="310" name="self.model.layers.0.mlp.up_proj.weight/zero_point/subtract" type="Subtract" version="opset1">
			<data auto_broadcast="numpy" />
			<input>
				<port id="0" precision="FP16">
					<dim>11008</dim>
					<dim>32</dim>
					<dim>128</dim>
				</port>
				<port id="1" precision="FP16">
					<dim>11008</dim>
					<dim>32</dim>
					<dim>1</dim>
				</port>
			</input>
			<output>
				<port id="2" precision="FP16">
					<dim>11008</dim>
					<dim>32</dim>
					<dim>128</dim>
				</port>
			</output>
		</layer>
		<layer id="311" name="self.model.layers.0.mlp.up_proj.weight/scale" type="Const" version="opset1">
			<data element_type="f16" shape="11008, 32, 1" offset="81109472" size="704512" />
			<output>
				<port id="0" precision="FP16">
					<dim>11008</dim>
					<dim>32</dim>
					<dim>1</dim>
				</port>
			</output>
		</layer>
		<layer id="312" name="self.model.layers.0.mlp.up_proj.weight/fq_weights_1" type="Multiply" version="opset1">
			<data auto_broadcast="numpy" />
			<input>
				<port id="0" precision="FP16">
					<dim>11008</dim>
					<dim>32</dim>
					<dim>128</dim>
				</port>
				<port id="1" precision="FP16">
					<dim>11008</dim>
					<dim>32</dim>
					<dim>1</dim>
				</port>
			</input>
			<output>
				<port id="2" precision="FP16">
					<dim>11008</dim>
					<dim>32</dim>
					<dim>128</dim>
				</port>
			</output>
		</layer>
		<layer id="313" name="Constant_240398" type="Const" version="opset1">
			<data element_type="i64" shape="2" offset="58388944" size="16" />
			<output>
				<port id="0" precision="I64">
					<dim>2</dim>
				</port>
			</output>
		</layer>
		<layer id="314" name="Reshape_240399" type="Reshape" version="opset1">
			<data special_zero="false" />
			<input>
				<port id="0" precision="FP16">
					<dim>11008</dim>
					<dim>32</dim>
					<dim>128</dim>
				</port>
				<port id="1" precision="I64">
					<dim>2</dim>
				</port>
			</input>
			<output>
				<port id="2" precision="FP16">
					<dim>11008</dim>
					<dim>4096</dim>
				</port>
			</output>
		</layer>
		<layer id="315" name="self.model.layers.0.mlp.up_proj.weight/fq_weights_1/convert" type="Convert" version="opset1">
			<data destination_type="f32" />
			<input>
				<port id="0" precision="FP16">
					<dim>11008</dim>
					<dim>4096</dim>
				</port>
			</input>
			<output>
				<port id="1" precision="FP32">
					<dim>11008</dim>
					<dim>4096</dim>
				</port>
			</output>
		</layer>
		<layer id="316" name="__module.model.layers.0.mlp.up_proj/aten::linear/MatMul" type="MatMul" version="opset1">
			<data transpose_a="false" transpose_b="true" />
			<input>
				<port id="0" precision="FP32">
					<dim>-1</dim>
					<dim>-1</dim>
					<dim>4096</dim>
				</port>
				<port id="1" precision="FP32">
					<dim>11008</dim>
					<dim>4096</dim>
				</port>
			</input>
			<output>
				<port id="2" precision="FP32" names="506">
					<dim>-1</dim>
					<dim>-1</dim>
					<dim>11008</dim>
				</port>
			</output>
		</layer>
		<layer id="317" name="__module.model.layers.0.mlp/aten::mul/Multiply" type="Multiply" version="opset1">
			<data auto_broadcast="numpy" />
			<input>
				<port id="0" precision="FP32">
					<dim>-1</dim>
					<dim>-1</dim>
					<dim>11008</dim>
				</port>
				<port id="1" precision="FP32">
					<dim>-1</dim>
					<dim>-1</dim>
					<dim>11008</dim>
				</port>
			</input>
			<output>
				<port id="2" precision="FP32" names="507">
					<dim>-1</dim>
					<dim>-1</dim>
					<dim>11008</dim>
				</port>
			</output>
		</layer>
		<layer id="318" name="self.model.layers.0.mlp.down_proj.weight" type="Const" version="opset1">
			<data element_type="u4" shape="4096, 86, 128" offset="81813984" size="22544384" />
			<output>
				<port id="0" precision="U4">
					<dim>4096</dim>
					<dim>86</dim>
					<dim>128</dim>
				</port>
			</output>
		</layer>
		<layer id="319" name="Convert_240413" type="Convert" version="opset1">
			<data destination_type="f16" />
			<input>
				<port id="0" precision="U4">
					<dim>4096</dim>
					<dim>86</dim>
					<dim>128</dim>
				</port>
			</input>
			<output>
				<port id="1" precision="FP16">
					<dim>4096</dim>
					<dim>86</dim>
					<dim>128</dim>
				</port>
			</output>
		</layer>
		<layer id="320" name="self.model.layers.0.mlp.down_proj.weight/zero_point" type="Const" version="opset1">
			<data element_type="u4" shape="4096, 86, 1" offset="104358368" size="176128" />
			<output>
				<port id="0" precision="U4">
					<dim>4096</dim>
					<dim>86</dim>
					<dim>1</dim>
				</port>
			</output>
		</layer>
		<layer id="321" name="Convert_240415" type="Convert" version="opset1">
			<data destination_type="f16" />
			<input>
				<port id="0" precision="U4">
					<dim>4096</dim>
					<dim>86</dim>
					<dim>1</dim>
				</port>
			</input>
			<output>
				<port id="1" precision="FP16">
					<dim>4096</dim>
					<dim>86</dim>
					<dim>1</dim>
				</port>
			</output>
		</layer>
		<layer id="322" name="self.model.layers.0.mlp.down_proj.weight/zero_point/subtract" type="Subtract" version="opset1">
			<data auto_broadcast="numpy" />
			<input>
				<port id="0" precision="FP16">
					<dim>4096</dim>
					<dim>86</dim>
					<dim>128</dim>
				</port>
				<port id="1" precision="FP16">
					<dim>4096</dim>
					<dim>86</dim>
					<dim>1</dim>
				</port>
			</input>
			<output>
				<port id="2" precision="FP16">
					<dim>4096</dim>
					<dim>86</dim>
					<dim>128</dim>
				</port>
			</output>
		</layer>
		<layer id="323" name="self.model.layers.0.mlp.down_proj.weight/scale" type="Const" version="opset1">
			<data element_type="f16" shape="4096, 86, 1" offset="104534496" size="704512" />
			<output>
				<port id="0" precision="FP16">
					<dim>4096</dim>
					<dim>86</dim>
					<dim>1</dim>
				</port>
			</output>
		</layer>
		<layer id="324" name="self.model.layers.0.mlp.down_proj.weight/fq_weights_1" type="Multiply" version="opset1">
			<data auto_broadcast="numpy" />
			<input>
				<port id="0" precision="FP16">
					<dim>4096</dim>
					<dim>86</dim>
					<dim>128</dim>
				</port>
				<port id="1" precision="FP16">
					<dim>4096</dim>
					<dim>86</dim>
					<dim>1</dim>
				</port>
			</input>
			<output>
				<port id="2" precision="FP16">
					<dim>4096</dim>
					<dim>86</dim>
					<dim>128</dim>
				</port>
			</output>
		</layer>
		<layer id="325" name="Constant_240420" type="Const" version="opset1">
			<data element_type="i64" shape="2" offset="105239008" size="16" />
			<output>
				<port id="0" precision="I64">
					<dim>2</dim>
				</port>
			</output>
		</layer>
		<layer id="326" name="Reshape_240421" type="Reshape" version="opset1">
			<data special_zero="false" />
			<input>
				<port id="0" precision="FP16">
					<dim>4096</dim>
					<dim>86</dim>
					<dim>128</dim>
				</port>
				<port id="1" precision="I64">
					<dim>2</dim>
				</port>
			</input>
			<output>
				<port id="2" precision="FP16">
					<dim>4096</dim>
					<dim>11008</dim>
				</port>
			</output>
		</layer>
		<layer id="327" name="self.model.layers.0.mlp.down_proj.weight/fq_weights_1/convert" type="Convert" version="opset1">
			<data destination_type="f32" />
			<input>
				<port id="0" precision="FP16">
					<dim>4096</dim>
					<dim>11008</dim>
				</port>
			</input>
			<output>
				<port id="1" precision="FP32">
					<dim>4096</dim>
					<dim>11008</dim>
				</port>
			</output>
		</layer>
		<layer id="328" name="__module.model.layers.0.mlp.down_proj/aten::linear/MatMul" type="MatMul" version="opset1">
			<data transpose_a="false" transpose_b="true" />
			<input>
				<port id="0" precision="FP32">
					<dim>-1</dim>
					<dim>-1</dim>
					<dim>11008</dim>
				</port>
				<port id="1" precision="FP32">
					<dim>4096</dim>
					<dim>11008</dim>
				</port>
			</input>
			<output>
				<port id="2" precision="FP32" names="509,hidden_states.23">
					<dim>-1</dim>
					<dim>-1</dim>
					<dim>4096</dim>
				</port>
			</output>
		</layer>
		<layer id="329" name="__module.model.layers.0/aten::add/Add_1" type="Add" version="opset1">
			<data auto_broadcast="numpy" />
			<input>
				<port id="0" precision="FP32">
					<dim>-1</dim>
					<dim>-1</dim>
					<dim>4096</dim>
				</port>
				<port id="1" precision="FP32">
					<dim>-1</dim>
					<dim>-1</dim>
					<dim>4096</dim>
				</port>
			</input>
			<output>
				<port id="2" precision="FP32" names="510,512,520,531,hidden_states.25,hidden_states.27">
					<dim>-1</dim>
					<dim>-1</dim>
					<dim>4096</dim>
				</port>
			</output>
		</layer>
		<layer id="330" name="Constant_208576" type="Const" version="opset1">
			<data element_type="f32" shape="1, 1, 4096" offset="105239024" size="16384" />
			<output>
				<port id="0" precision="FP32">
					<dim>1</dim>
					<dim>1</dim>
					<dim>4096</dim>
				</port>
			</output>
		</layer>
		<layer id="331" name="Constant_208575" type="Const" version="opset1">
			<data element_type="f32" shape="1, 1, 1" offset="32796" size="4" />
			<output>
				<port id="0" precision="FP32">
					<dim>1</dim>
					<dim>1</dim>
					<dim>1</dim>
				</port>
			</output>
		</layer>
		<layer id="332" name="Constant_208573" type="Const" version="opset1">
			<data element_type="f32" shape="1, 1, 1" offset="32800" size="4" />
			<output>
				<port id="0" precision="FP32">
					<dim>1</dim>
					<dim>1</dim>
					<dim>1</dim>
				</port>
			</output>
		</layer>
		<layer id="333" name="__module.model.layers.1.input_layernorm/aten::pow/Power" type="Power" version="opset1">
			<data auto_broadcast="numpy" />
			<input>
				<port id="0" precision="FP32">
					<dim>-1</dim>
					<dim>-1</dim>
					<dim>4096</dim>
				</port>
				<port id="1" precision="FP32">
					<dim>1</dim>
					<dim>1</dim>
					<dim>1</dim>
				</port>
			</input>
			<output>
				<port id="2" precision="FP32" names="521">
					<dim>-1</dim>
					<dim>-1</dim>
					<dim>4096</dim>
				</port>
			</output>
		</layer>
		<layer id="334" name="Constant_60928" type="Const" version="opset1">
			<data element_type="i64" shape="1" offset="32804" size="8" />
			<output>
				<port id="0" precision="I64" names="522">
					<dim>1</dim>
				</port>
			</output>
		</layer>
		<layer id="335" name="__module.model.layers.1.input_layernorm/aten::mean/ReduceMean" type="ReduceMean" version="opset1">
			<data keep_dims="true" />
			<input>
				<port id="0" precision="FP32">
					<dim>-1</dim>
					<dim>-1</dim>
					<dim>4096</dim>
				</port>
				<port id="1" precision="I64">
					<dim>1</dim>
				</port>
			</input>
			<output>
				<port id="2" precision="FP32" names="523,variance.5">
					<dim>-1</dim>
					<dim>-1</dim>
					<dim>1</dim>
				</port>
			</output>
		</layer>
		<layer id="336" name="Constant_208574" type="Const" version="opset1">
			<data element_type="f32" shape="1, 1, 1" offset="32812" size="4" />
			<output>
				<port id="0" precision="FP32">
					<dim>1</dim>
					<dim>1</dim>
					<dim>1</dim>
				</port>
			</output>
		</layer>
		<layer id="337" name="__module.model.layers.1.input_layernorm/aten::add/Add" type="Add" version="opset1">
			<data auto_broadcast="numpy" />
			<input>
				<port id="0" precision="FP32">
					<dim>-1</dim>
					<dim>-1</dim>
					<dim>1</dim>
				</port>
				<port id="1" precision="FP32">
					<dim>1</dim>
					<dim>1</dim>
					<dim>1</dim>
				</port>
			</input>
			<output>
				<port id="2" precision="FP32" names="524">
					<dim>-1</dim>
					<dim>-1</dim>
					<dim>1</dim>
				</port>
			</output>
		</layer>
		<layer id="338" name="__module.model.layers.1.input_layernorm/aten::rsqrt/Sqrt" type="Sqrt" version="opset1">
			<input>
				<port id="0" precision="FP32">
					<dim>-1</dim>
					<dim>-1</dim>
					<dim>1</dim>
				</port>
			</input>
			<output>
				<port id="1" precision="FP32">
					<dim>-1</dim>
					<dim>-1</dim>
					<dim>1</dim>
				</port>
			</output>
		</layer>
		<layer id="339" name="__module.model.layers.1.input_layernorm/aten::rsqrt/Divide" type="Divide" version="opset1">
			<data auto_broadcast="numpy" m_pythondiv="true" />
			<input>
				<port id="0" precision="FP32">
					<dim>1</dim>
					<dim>1</dim>
					<dim>1</dim>
				</port>
				<port id="1" precision="FP32">
					<dim>-1</dim>
					<dim>-1</dim>
					<dim>1</dim>
				</port>
			</input>
			<output>
				<port id="2" precision="FP32" names="525">
					<dim>-1</dim>
					<dim>-1</dim>
					<dim>1</dim>
				</port>
			</output>
		</layer>
		<layer id="340" name="__module.model.layers.1.input_layernorm/aten::mul/Multiply" type="Multiply" version="opset1">
			<data auto_broadcast="numpy" />
			<input>
				<port id="0" precision="FP32">
					<dim>-1</dim>
					<dim>-1</dim>
					<dim>4096</dim>
				</port>
				<port id="1" precision="FP32">
					<dim>-1</dim>
					<dim>-1</dim>
					<dim>1</dim>
				</port>
			</input>
			<output>
				<port id="2" precision="FP32" names="526,527,hidden_states.29,hidden_states.31">
					<dim>-1</dim>
					<dim>-1</dim>
					<dim>4096</dim>
				</port>
			</output>
		</layer>
		<layer id="341" name="__module.model.layers.1.input_layernorm/aten::mul/Multiply_1" type="Multiply" version="opset1">
			<data auto_broadcast="numpy" />
			<input>
				<port id="0" precision="FP32">
					<dim>1</dim>
					<dim>1</dim>
					<dim>4096</dim>
				</port>
				<port id="1" precision="FP32">
					<dim>-1</dim>
					<dim>-1</dim>
					<dim>4096</dim>
				</port>
			</input>
			<output>
				<port id="2" precision="FP32" names="528,530,hidden_states.33">
					<dim>-1</dim>
					<dim>-1</dim>
					<dim>4096</dim>
				</port>
			</output>
		</layer>
		<layer id="342" name="self.model.layers.1.self_attn.q_proj.weight" type="Const" version="opset1">
			<data element_type="u4" shape="4096, 32, 128" offset="105255408" size="8388608" />
			<output>
				<port id="0" precision="U4">
					<dim>4096</dim>
					<dim>32</dim>
					<dim>128</dim>
				</port>
			</output>
		</layer>
		<layer id="343" name="Convert_241513" type="Convert" version="opset1">
			<data destination_type="f16" />
			<input>
				<port id="0" precision="U4">
					<dim>4096</dim>
					<dim>32</dim>
					<dim>128</dim>
				</port>
			</input>
			<output>
				<port id="1" precision="FP16">
					<dim>4096</dim>
					<dim>32</dim>
					<dim>128</dim>
				</port>
			</output>
		</layer>
		<layer id="344" name="self.model.layers.1.self_attn.q_proj.weight/zero_point" type="Const" version="opset1">
			<data element_type="u4" shape="4096, 32, 1" offset="113644016" size="65536" />
			<output>
				<port id="0" precision="U4">
					<dim>4096</dim>
					<dim>32</dim>
					<dim>1</dim>
				</port>
			</output>
		</layer>
		<layer id="345" name="Convert_241515" type="Convert" version="opset1">
			<data destination_type="f16" />
			<input>
				<port id="0" precision="U4">
					<dim>4096</dim>
					<dim>32</dim>
					<dim>1</dim>
				</port>
			</input>
			<output>
				<port id="1" precision="FP16">
					<dim>4096</dim>
					<dim>32</dim>
					<dim>1</dim>
				</port>
			</output>
		</layer>
		<layer id="346" name="self.model.layers.1.self_attn.q_proj.weight/zero_point/subtract" type="Subtract" version="opset1">
			<data auto_broadcast="numpy" />
			<input>
				<port id="0" precision="FP16">
					<dim>4096</dim>
					<dim>32</dim>
					<dim>128</dim>
				</port>
				<port id="1" precision="FP16">
					<dim>4096</dim>
					<dim>32</dim>
					<dim>1</dim>
				</port>
			</input>
			<output>
				<port id="2" precision="FP16">
					<dim>4096</dim>
					<dim>32</dim>
					<dim>128</dim>
				</port>
			</output>
		</layer>
		<layer id="347" name="self.model.layers.1.self_attn.q_proj.weight/scale" type="Const" version="opset1">
			<data element_type="f16" shape="4096, 32, 1" offset="113709552" size="262144" />
			<output>
				<port id="0" precision="FP16">
					<dim>4096</dim>
					<dim>32</dim>
					<dim>1</dim>
				</port>
			</output>
		</layer>
		<layer id="348" name="self.model.layers.1.self_attn.q_proj.weight/fq_weights_1" type="Multiply" version="opset1">
			<data auto_broadcast="numpy" />
			<input>
				<port id="0" precision="FP16">
					<dim>4096</dim>
					<dim>32</dim>
					<dim>128</dim>
				</port>
				<port id="1" precision="FP16">
					<dim>4096</dim>
					<dim>32</dim>
					<dim>1</dim>
				</port>
			</input>
			<output>
				<port id="2" precision="FP16">
					<dim>4096</dim>
					<dim>32</dim>
					<dim>128</dim>
				</port>
			</output>
		</layer>
		<layer id="349" name="Constant_241520" type="Const" version="opset1">
			<data element_type="i64" shape="2" offset="8749104" size="16" />
			<output>
				<port id="0" precision="I64">
					<dim>2</dim>
				</port>
			</output>
		</layer>
		<layer id="350" name="Reshape_241521" type="Reshape" version="opset1">
			<data special_zero="false" />
			<input>
				<port id="0" precision="FP16">
					<dim>4096</dim>
					<dim>32</dim>
					<dim>128</dim>
				</port>
				<port id="1" precision="I64">
					<dim>2</dim>
				</port>
			</input>
			<output>
				<port id="2" precision="FP16">
					<dim>4096</dim>
					<dim>4096</dim>
				</port>
			</output>
		</layer>
		<layer id="351" name="self.model.layers.1.self_attn.q_proj.weight/fq_weights_1/convert" type="Convert" version="opset1">
			<data destination_type="f32" />
			<input>
				<port id="0" precision="FP16">
					<dim>4096</dim>
					<dim>4096</dim>
				</port>
			</input>
			<output>
				<port id="1" precision="FP32">
					<dim>4096</dim>
					<dim>4096</dim>
				</port>
			</output>
		</layer>
		<layer id="352" name="__module.model.layers.1.self_attn.q_proj/aten::linear/MatMul" type="MatMul" version="opset1">
			<data transpose_a="false" transpose_b="true" />
			<input>
				<port id="0" precision="FP32">
					<dim>-1</dim>
					<dim>-1</dim>
					<dim>4096</dim>
				</port>
				<port id="1" precision="FP32">
					<dim>4096</dim>
					<dim>4096</dim>
				</port>
			</input>
			<output>
				<port id="2" precision="FP32">
					<dim>-1</dim>
					<dim>-1</dim>
					<dim>4096</dim>
				</port>
			</output>
		</layer>
		<layer id="353" name="Constant_208577" type="Const" version="opset1">
			<data element_type="f32" shape="1, 1, 4096" offset="113971696" size="16384" />
			<output>
				<port id="0" precision="FP32">
					<dim>1</dim>
					<dim>1</dim>
					<dim>4096</dim>
				</port>
			</output>
		</layer>
		<layer id="354" name="__module.model.layers.1.self_attn.q_proj/aten::linear/Add" type="Add" version="opset1">
			<data auto_broadcast="numpy" />
			<input>
				<port id="0" precision="FP32">
					<dim>-1</dim>
					<dim>-1</dim>
					<dim>4096</dim>
				</port>
				<port id="1" precision="FP32">
					<dim>1</dim>
					<dim>1</dim>
					<dim>4096</dim>
				</port>
			</input>
			<output>
				<port id="2" precision="FP32" names="540,query_states.3">
					<dim>-1</dim>
					<dim>-1</dim>
					<dim>4096</dim>
				</port>
			</output>
		</layer>
		<layer id="355" name="Constant_214867" type="Const" version="opset1">
			<data element_type="i64" shape="4" offset="8765504" size="32" />
			<output>
				<port id="0" precision="I64">
					<dim>4</dim>
				</port>
			</output>
		</layer>
		<layer id="356" name="__module.model.layers.1.self_attn/aten::view/Reshape" type="Reshape" version="opset1">
			<data special_zero="true" />
			<input>
				<port id="0" precision="FP32">
					<dim>-1</dim>
					<dim>-1</dim>
					<dim>4096</dim>
				</port>
				<port id="1" precision="I64">
					<dim>4</dim>
				</port>
			</input>
			<output>
				<port id="2" precision="FP32" names="548">
					<dim>-1</dim>
					<dim>-1</dim>
					<dim>32</dim>
					<dim>128</dim>
				</port>
			</output>
		</layer>
		<layer id="357" name="__module.model.layers.1.self_attn/aten::transpose/ScatterElementsUpdate" type="Const" version="opset1">
			<data element_type="i32" shape="4" offset="8765536" size="16" />
			<output>
				<port id="0" precision="I32">
					<dim>4</dim>
				</port>
			</output>
		</layer>
		<layer id="358" name="__module.model.layers.1.self_attn/aten::transpose/Transpose" type="Transpose" version="opset1">
			<input>
				<port id="0" precision="FP32">
					<dim>-1</dim>
					<dim>-1</dim>
					<dim>32</dim>
					<dim>128</dim>
				</port>
				<port id="1" precision="I32">
					<dim>4</dim>
				</port>
			</input>
			<output>
				<port id="2" precision="FP32" names="549,q.3">
					<dim>-1</dim>
					<dim>32</dim>
					<dim>-1</dim>
					<dim>128</dim>
				</port>
			</output>
		</layer>
		<layer id="359" name="__module.model.layers.1.self_attn/aten::mul/Multiply" type="Multiply" version="opset1">
			<data auto_broadcast="numpy" />
			<input>
				<port id="0" precision="FP32">
					<dim>-1</dim>
					<dim>32</dim>
					<dim>-1</dim>
					<dim>128</dim>
				</port>
				<port id="1" precision="FP32">
					<dim>-1</dim>
					<dim>1</dim>
					<dim>-1</dim>
					<dim>128</dim>
				</port>
			</input>
			<output>
				<port id="2" precision="FP32" names="558">
					<dim>-1</dim>
					<dim>32</dim>
					<dim>-1</dim>
					<dim>128</dim>
				</port>
			</output>
		</layer>
		<layer id="360" name="__module.model.layers.1.self_attn/aten::size/ShapeOf_3" type="ShapeOf" version="opset3">
			<data output_type="i64" />
			<input>
				<port id="0" precision="FP32">
					<dim>-1</dim>
					<dim>32</dim>
					<dim>-1</dim>
					<dim>128</dim>
				</port>
			</input>
			<output>
				<port id="1" precision="I64">
					<dim>4</dim>
				</port>
			</output>
		</layer>
		<layer id="361" name="__module.model.layers.1.self_attn/aten::size/Constant_3" type="Const" version="opset1">
			<data element_type="i32" shape="" offset="0" size="4" />
			<output>
				<port id="0" precision="I32" />
			</output>
		</layer>
		<layer id="362" name="__module.model.layers.1.self_attn/aten::size/Gather_3" type="Gather" version="opset8">
			<data batch_dims="0" />
			<input>
				<port id="0" precision="I64">
					<dim>4</dim>
				</port>
				<port id="1" precision="I64" />
				<port id="2" precision="I32" />
			</input>
			<output>
				<port id="3" precision="I64" names="559,564" />
			</output>
		</layer>
		<layer id="363" name="__module.model.layers.1.self_attn/aten::floor_divide/Divide_1" type="Divide" version="opset1">
			<data auto_broadcast="numpy" m_pythondiv="true" />
			<input>
				<port id="0" precision="I64" />
				<port id="1" precision="I64" />
			</input>
			<output>
				<port id="2" precision="I64" />
			</output>
		</layer>
		<layer id="364" name="__module.model.layers.1.self_attn/aten::floor_divide/Floor_1" type="Floor" version="opset1">
			<input>
				<port id="0" precision="I64" />
			</input>
			<output>
				<port id="1" precision="I64" names="561,562,566,567" />
			</output>
		</layer>
		<layer id="365" name="Constant_171904" type="Const" version="opset1">
			<data element_type="i64" shape="1" offset="32804" size="8" />
			<output>
				<port id="0" precision="I64">
					<dim>1</dim>
				</port>
			</output>
		</layer>
		<layer id="366" name="__module.model.layers.1.self_attn/aten::slice/Reshape_5" type="Reshape" version="opset1">
			<data special_zero="false" />
			<input>
				<port id="0" precision="I64" />
				<port id="1" precision="I64">
					<dim>1</dim>
				</port>
			</input>
			<output>
				<port id="2" precision="I64">
					<dim>1</dim>
				</port>
			</output>
		</layer>
		<layer id="367" name="__module.model.layers.1.self_attn/aten::slice/Reshape_1" type="Const" version="opset1">
			<data element_type="i64" shape="1" offset="8765844" size="8" />
			<output>
				<port id="0" precision="I64">
					<dim>1</dim>
				</port>
			</output>
		</layer>
		<layer id="368" name="__module.model.layers.1.self_attn/aten::slice/Reshape_2" type="Const" version="opset1">
			<data element_type="i64" shape="1" offset="8765808" size="8" />
			<output>
				<port id="0" precision="I64">
					<dim>1</dim>
				</port>
			</output>
		</layer>
		<layer id="369" name="__module.model.layers.1.self_attn/aten::slice/Reshape_3" type="Const" version="opset1">
			<data element_type="i64" shape="1" offset="8765828" size="8" />
			<output>
				<port id="0" precision="I64">
					<dim>1</dim>
				</port>
			</output>
		</layer>
		<layer id="370" name="__module.model.layers.1.self_attn/aten::slice/Slice" type="Slice" version="opset8">
			<input>
				<port id="0" precision="FP32">
					<dim>-1</dim>
					<dim>32</dim>
					<dim>-1</dim>
					<dim>128</dim>
				</port>
				<port id="1" precision="I64">
					<dim>1</dim>
				</port>
				<port id="2" precision="I64">
					<dim>1</dim>
				</port>
				<port id="3" precision="I64">
					<dim>1</dim>
				</port>
				<port id="4" precision="I64">
					<dim>1</dim>
				</port>
			</input>
			<output>
				<port id="5" precision="FP32" names="568,x2.5">
					<dim>-1</dim>
					<dim>32</dim>
					<dim>-1</dim>
					<dim>64</dim>
				</port>
			</output>
		</layer>
		<layer id="371" name="Constant_208578" type="Const" version="opset1">
			<data element_type="f32" shape="1, 1, 1, 1" offset="8765852" size="4" />
			<output>
				<port id="0" precision="FP32">
					<dim>1</dim>
					<dim>1</dim>
					<dim>1</dim>
					<dim>1</dim>
				</port>
			</output>
		</layer>
		<layer id="372" name="__module.model.layers.1.self_attn/aten::neg/Multiply" type="Multiply" version="opset1">
			<data auto_broadcast="numpy" />
			<input>
				<port id="0" precision="FP32">
					<dim>-1</dim>
					<dim>32</dim>
					<dim>-1</dim>
					<dim>64</dim>
				</port>
				<port id="1" precision="FP32">
					<dim>1</dim>
					<dim>1</dim>
					<dim>1</dim>
					<dim>1</dim>
				</port>
			</input>
			<output>
				<port id="2" precision="FP32" names="569">
					<dim>-1</dim>
					<dim>32</dim>
					<dim>-1</dim>
					<dim>64</dim>
				</port>
			</output>
		</layer>
		<layer id="373" name="__module.model.layers.1.self_attn/aten::slice/Reshape_4" type="Const" version="opset1">
			<data element_type="i64" shape="1" offset="4" size="8" />
			<output>
				<port id="0" precision="I64">
					<dim>1</dim>
				</port>
			</output>
		</layer>
		<layer id="374" name="__module.model.layers.1.self_attn/aten::slice/Reshape_6" type="Const" version="opset1">
			<data element_type="i64" shape="1" offset="8765808" size="8" />
			<output>
				<port id="0" precision="I64">
					<dim>1</dim>
				</port>
			</output>
		</layer>
		<layer id="375" name="__module.model.layers.1.self_attn/aten::slice/Reshape_7" type="Const" version="opset1">
			<data element_type="i64" shape="1" offset="8765828" size="8" />
			<output>
				<port id="0" precision="I64">
					<dim>1</dim>
				</port>
			</output>
		</layer>
		<layer id="376" name="__module.model.layers.1.self_attn/aten::slice/Slice_1" type="Slice" version="opset8">
			<input>
				<port id="0" precision="FP32">
					<dim>-1</dim>
					<dim>32</dim>
					<dim>-1</dim>
					<dim>128</dim>
				</port>
				<port id="1" precision="I64">
					<dim>1</dim>
				</port>
				<port id="2" precision="I64">
					<dim>1</dim>
				</port>
				<port id="3" precision="I64">
					<dim>1</dim>
				</port>
				<port id="4" precision="I64">
					<dim>1</dim>
				</port>
			</input>
			<output>
				<port id="5" precision="FP32" names="563">
					<dim>-1</dim>
					<dim>32</dim>
					<dim>-1</dim>
					<dim>64</dim>
				</port>
			</output>
		</layer>
		<layer id="377" name="__module.model.layers.1.self_attn/aten::cat/Concat" type="Concat" version="opset1">
			<data axis="-1" />
			<input>
				<port id="0" precision="FP32">
					<dim>-1</dim>
					<dim>32</dim>
					<dim>-1</dim>
					<dim>64</dim>
				</port>
				<port id="1" precision="FP32">
					<dim>-1</dim>
					<dim>32</dim>
					<dim>-1</dim>
					<dim>64</dim>
				</port>
			</input>
			<output>
				<port id="2" precision="FP32" names="571">
					<dim>-1</dim>
					<dim>32</dim>
					<dim>-1</dim>
					<dim>128</dim>
				</port>
			</output>
		</layer>
		<layer id="378" name="__module.model.layers.1.self_attn/aten::mul/Multiply_1" type="Multiply" version="opset1">
			<data auto_broadcast="numpy" />
			<input>
				<port id="0" precision="FP32">
					<dim>-1</dim>
					<dim>32</dim>
					<dim>-1</dim>
					<dim>128</dim>
				</port>
				<port id="1" precision="FP32">
					<dim>-1</dim>
					<dim>1</dim>
					<dim>-1</dim>
					<dim>128</dim>
				</port>
			</input>
			<output>
				<port id="2" precision="FP32" names="572">
					<dim>-1</dim>
					<dim>32</dim>
					<dim>-1</dim>
					<dim>128</dim>
				</port>
			</output>
		</layer>
		<layer id="379" name="__module.model.layers.1.self_attn/aten::add/Add" type="Add" version="opset1">
			<data auto_broadcast="numpy" />
			<input>
				<port id="0" precision="FP32">
					<dim>-1</dim>
					<dim>32</dim>
					<dim>-1</dim>
					<dim>128</dim>
				</port>
				<port id="1" precision="FP32">
					<dim>-1</dim>
					<dim>32</dim>
					<dim>-1</dim>
					<dim>128</dim>
				</port>
			</input>
			<output>
				<port id="2" precision="FP32" names="573">
					<dim>-1</dim>
					<dim>32</dim>
					<dim>-1</dim>
					<dim>128</dim>
				</port>
			</output>
		</layer>
		<layer id="380" name="Constant_234617" type="Const" version="opset1">
			<data element_type="f32" shape="" offset="0" size="4" />
			<output>
				<port id="0" precision="FP32" />
			</output>
		</layer>
		<layer id="381" name="Constant_234610" type="Const" version="opset1">
			<data element_type="i64" shape="1" offset="12" size="8" />
			<output>
				<port id="0" precision="I64">
					<dim>1</dim>
				</port>
			</output>
		</layer>
		<layer id="382" name="Constant_234612" type="Const" version="opset1">
			<data element_type="i64" shape="1" offset="4" size="8" />
			<output>
				<port id="0" precision="I64">
					<dim>1</dim>
				</port>
			</output>
		</layer>
		<layer id="383" name="Constant_234614" type="Const" version="opset1">
			<data element_type="i64" shape="1" offset="20" size="8" />
			<output>
				<port id="0" precision="I64">
					<dim>1</dim>
				</port>
			</output>
		</layer>
		<layer id="384" name="Concat_234615" type="Concat" version="opset1">
			<data axis="0" />
			<input>
				<port id="0" precision="I64">
					<dim>1</dim>
				</port>
				<port id="1" precision="I64">
					<dim>1</dim>
				</port>
				<port id="2" precision="I64">
					<dim>1</dim>
				</port>
				<port id="3" precision="I64">
					<dim>1</dim>
				</port>
			</input>
			<output>
				<port id="4" precision="I64">
					<dim>4</dim>
				</port>
			</output>
		</layer>
		<layer id="385" name="Broadcast_234618" type="Broadcast" version="opset3">
			<data mode="numpy" />
			<input>
				<port id="0" precision="FP32" />
				<port id="1" precision="I64">
					<dim>4</dim>
				</port>
			</input>
			<output>
				<port id="2" precision="FP32">
					<dim>-1</dim>
					<dim>32</dim>
					<dim>0</dim>
					<dim>128</dim>
				</port>
			</output>
		</layer>
		<layer id="386" name="ReadValue_229655" type="ReadValue" version="opset6">
			<data variable_id="past_key_values.1.keypresent.1.key" variable_type="f32" variable_shape="?,32,?,128" />
			<input>
				<port id="0" precision="FP32">
					<dim>-1</dim>
					<dim>32</dim>
					<dim>0</dim>
					<dim>128</dim>
				</port>
			</input>
			<output>
				<port id="1" precision="FP32" names="past_key_values.1.key">
					<dim>-1</dim>
					<dim>32</dim>
					<dim>-1</dim>
					<dim>128</dim>
				</port>
			</output>
		</layer>
		<layer id="387" name="Constant_224681" type="Const" version="opset1">
			<data element_type="i64" shape="" offset="4" size="8" />
			<output>
				<port id="0" precision="I64" />
			</output>
		</layer>
		<layer id="388" name="Gather_224682" type="Gather" version="opset8">
			<data batch_dims="0" />
			<input>
				<port id="0" precision="FP32">
					<dim>-1</dim>
					<dim>32</dim>
					<dim>-1</dim>
					<dim>128</dim>
				</port>
				<port id="1" precision="I32">
					<dim>-1</dim>
				</port>
				<port id="2" precision="I64" />
			</input>
			<output>
				<port id="3" precision="FP32">
					<dim>-1</dim>
					<dim>32</dim>
					<dim>-1</dim>
					<dim>128</dim>
				</port>
			</output>
		</layer>
		<layer id="389" name="self.model.layers.1.self_attn.k_proj.weight" type="Const" version="opset1">
			<data element_type="u4" shape="4096, 32, 128" offset="113988080" size="8388608" />
			<output>
				<port id="0" precision="U4">
					<dim>4096</dim>
					<dim>32</dim>
					<dim>128</dim>
				</port>
			</output>
		</layer>
		<layer id="390" name="Convert_241491" type="Convert" version="opset1">
			<data destination_type="f16" />
			<input>
				<port id="0" precision="U4">
					<dim>4096</dim>
					<dim>32</dim>
					<dim>128</dim>
				</port>
			</input>
			<output>
				<port id="1" precision="FP16">
					<dim>4096</dim>
					<dim>32</dim>
					<dim>128</dim>
				</port>
			</output>
		</layer>
		<layer id="391" name="self.model.layers.1.self_attn.k_proj.weight/zero_point" type="Const" version="opset1">
			<data element_type="u4" shape="4096, 32, 1" offset="122376688" size="65536" />
			<output>
				<port id="0" precision="U4">
					<dim>4096</dim>
					<dim>32</dim>
					<dim>1</dim>
				</port>
			</output>
		</layer>
		<layer id="392" name="Convert_241493" type="Convert" version="opset1">
			<data destination_type="f16" />
			<input>
				<port id="0" precision="U4">
					<dim>4096</dim>
					<dim>32</dim>
					<dim>1</dim>
				</port>
			</input>
			<output>
				<port id="1" precision="FP16">
					<dim>4096</dim>
					<dim>32</dim>
					<dim>1</dim>
				</port>
			</output>
		</layer>
		<layer id="393" name="self.model.layers.1.self_attn.k_proj.weight/zero_point/subtract" type="Subtract" version="opset1">
			<data auto_broadcast="numpy" />
			<input>
				<port id="0" precision="FP16">
					<dim>4096</dim>
					<dim>32</dim>
					<dim>128</dim>
				</port>
				<port id="1" precision="FP16">
					<dim>4096</dim>
					<dim>32</dim>
					<dim>1</dim>
				</port>
			</input>
			<output>
				<port id="2" precision="FP16">
					<dim>4096</dim>
					<dim>32</dim>
					<dim>128</dim>
				</port>
			</output>
		</layer>
		<layer id="394" name="self.model.layers.1.self_attn.k_proj.weight/scale" type="Const" version="opset1">
			<data element_type="f16" shape="4096, 32, 1" offset="122442224" size="262144" />
			<output>
…
		<edge from-layer="6016" from-port="0" to-layer="6017" to-port="0" />
		<edge from-layer="6017" from-port="1" to-layer="6018" to-port="1" />
		<edge from-layer="6018" from-port="2" to-layer="6020" to-port="0" />
		<edge from-layer="6019" from-port="0" to-layer="6020" to-port="1" />
		<edge from-layer="6020" from-port="2" to-layer="6022" to-port="0" />
		<edge from-layer="6021" from-port="0" to-layer="6022" to-port="1" />
		<edge from-layer="6022" from-port="2" to-layer="6023" to-port="0" />
		<edge from-layer="6023" from-port="1" to-layer="6024" to-port="1" />
		<edge from-layer="6024" from-port="2" to-layer="6025" to-port="1" />
		<edge from-layer="6025" from-port="2" to-layer="6029" to-port="0" />
		<edge from-layer="6025" from-port="2" to-layer="6036" to-port="0" />
		<edge from-layer="6025" from-port="2" to-layer="6180" to-port="0" />
		<edge from-layer="6026" from-port="0" to-layer="6037" to-port="0" />
		<edge from-layer="6027" from-port="0" to-layer="6035" to-port="0" />
		<edge from-layer="6028" from-port="0" to-layer="6029" to-port="1" />
		<edge from-layer="6029" from-port="2" to-layer="6031" to-port="0" />
		<edge from-layer="6030" from-port="0" to-layer="6031" to-port="1" />
		<edge from-layer="6031" from-port="2" to-layer="6033" to-port="0" />
		<edge from-layer="6032" from-port="0" to-layer="6033" to-port="1" />
		<edge from-layer="6033" from-port="2" to-layer="6034" to-port="0" />
		<edge from-layer="6034" from-port="1" to-layer="6035" to-port="1" />
		<edge from-layer="6035" from-port="2" to-layer="6036" to-port="1" />
		<edge from-layer="6036" from-port="2" to-layer="6037" to-port="1" />
		<edge from-layer="6037" from-port="2" to-layer="6048" to-port="0" />
		<edge from-layer="6037" from-port="2" to-layer="6143" to-port="0" />
		<edge from-layer="6037" from-port="2" to-layer="6095" to-port="0" />
		<edge from-layer="6038" from-port="0" to-layer="6039" to-port="0" />
		<edge from-layer="6039" from-port="1" to-layer="6042" to-port="0" />
		<edge from-layer="6040" from-port="0" to-layer="6041" to-port="0" />
		<edge from-layer="6041" from-port="1" to-layer="6042" to-port="1" />
		<edge from-layer="6042" from-port="2" to-layer="6044" to-port="0" />
		<edge from-layer="6043" from-port="0" to-layer="6044" to-port="1" />
		<edge from-layer="6044" from-port="2" to-layer="6046" to-port="0" />
		<edge from-layer="6045" from-port="0" to-layer="6046" to-port="1" />
		<edge from-layer="6046" from-port="2" to-layer="6047" to-port="0" />
		<edge from-layer="6047" from-port="1" to-layer="6048" to-port="1" />
		<edge from-layer="6048" from-port="2" to-layer="6050" to-port="0" />
		<edge from-layer="6049" from-port="0" to-layer="6050" to-port="1" />
		<edge from-layer="6050" from-port="2" to-layer="6052" to-port="0" />
		<edge from-layer="6051" from-port="0" to-layer="6052" to-port="1" />
		<edge from-layer="6052" from-port="2" to-layer="6054" to-port="0" />
		<edge from-layer="6053" from-port="0" to-layer="6054" to-port="1" />
		<edge from-layer="6054" from-port="2" to-layer="6056" to-port="0" />
		<edge from-layer="6054" from-port="2" to-layer="6066" to-port="0" />
		<edge from-layer="6054" from-port="2" to-layer="6072" to-port="0" />
		<edge from-layer="6054" from-port="2" to-layer="6055" to-port="0" />
		<edge from-layer="6055" from-port="2" to-layer="6075" to-port="0" />
		<edge from-layer="6056" from-port="1" to-layer="6058" to-port="0" />
		<edge from-layer="6057" from-port="0" to-layer="6058" to-port="2" />
		<edge from-layer="6058" from-port="3" to-layer="6059" to-port="0" />
		<edge from-layer="6059" from-port="2" to-layer="6060" to-port="0" />
		<edge from-layer="6060" from-port="1" to-layer="6062" to-port="0" />
		<edge from-layer="6061" from-port="0" to-layer="6062" to-port="1" />
		<edge from-layer="6062" from-port="2" to-layer="6072" to-port="2" />
		<edge from-layer="6062" from-port="2" to-layer="6066" to-port="1" />
		<edge from-layer="6063" from-port="0" to-layer="6066" to-port="2" />
		<edge from-layer="6064" from-port="0" to-layer="6066" to-port="3" />
		<edge from-layer="6065" from-port="0" to-layer="6066" to-port="4" />
		<edge from-layer="6066" from-port="5" to-layer="6068" to-port="0" />
		<edge from-layer="6067" from-port="0" to-layer="6068" to-port="1" />
		<edge from-layer="6068" from-port="2" to-layer="6073" to-port="0" />
		<edge from-layer="6069" from-port="0" to-layer="6072" to-port="1" />
		<edge from-layer="6070" from-port="0" to-layer="6072" to-port="3" />
		<edge from-layer="6071" from-port="0" to-layer="6072" to-port="4" />
		<edge from-layer="6072" from-port="5" to-layer="6073" to-port="1" />
		<edge from-layer="6073" from-port="2" to-layer="6074" to-port="0" />
		<edge from-layer="6074" from-port="2" to-layer="6075" to-port="1" />
		<edge from-layer="6075" from-port="2" to-layer="6164" to-port="0" />
		<edge from-layer="6076" from-port="0" to-layer="6081" to-port="0" />
		<edge from-layer="6077" from-port="0" to-layer="6080" to-port="1" />
		<edge from-layer="6078" from-port="0" to-layer="6080" to-port="2" />
		<edge from-layer="6079" from-port="0" to-layer="6080" to-port="3" />
		<edge from-layer="6080" from-port="4" to-layer="6081" to-port="1" />
		<edge from-layer="6081" from-port="2" to-layer="6082" to-port="0" />
		<edge from-layer="6082" from-port="1" to-layer="6084" to-port="0" />
		<edge from-layer="6083" from-port="0" to-layer="6084" to-port="2" />
		<edge from-layer="6084" from-port="3" to-layer="6152" to-port="0" />
		<edge from-layer="6084" from-port="3" to-layer="6123" to-port="0" />
		<edge from-layer="6085" from-port="0" to-layer="6086" to-port="0" />
		<edge from-layer="6086" from-port="1" to-layer="6089" to-port="0" />
		<edge from-layer="6087" from-port="0" to-layer="6088" to-port="0" />
		<edge from-layer="6088" from-port="1" to-layer="6089" to-port="1" />
		<edge from-layer="6089" from-port="2" to-layer="6091" to-port="0" />
		<edge from-layer="6090" from-port="0" to-layer="6091" to-port="1" />
		<edge from-layer="6091" from-port="2" to-layer="6093" to-port="0" />
		<edge from-layer="6092" from-port="0" to-layer="6093" to-port="1" />
		<edge from-layer="6093" from-port="2" to-layer="6094" to-port="0" />
		<edge from-layer="6094" from-port="1" to-layer="6095" to-port="1" />
		<edge from-layer="6095" from-port="2" to-layer="6097" to-port="0" />
		<edge from-layer="6096" from-port="0" to-layer="6097" to-port="1" />
		<edge from-layer="6097" from-port="2" to-layer="6099" to-port="0" />
		<edge from-layer="6098" from-port="0" to-layer="6099" to-port="1" />
		<edge from-layer="6099" from-port="2" to-layer="6101" to-port="0" />
		<edge from-layer="6100" from-port="0" to-layer="6101" to-port="1" />
		<edge from-layer="6101" from-port="2" to-layer="6119" to-port="0" />
		<edge from-layer="6101" from-port="2" to-layer="6103" to-port="0" />
		<edge from-layer="6101" from-port="2" to-layer="6102" to-port="0" />
		<edge from-layer="6101" from-port="2" to-layer="6113" to-port="0" />
		<edge from-layer="6102" from-port="2" to-layer="6122" to-port="0" />
		<edge from-layer="6103" from-port="1" to-layer="6105" to-port="0" />
		<edge from-layer="6104" from-port="0" to-layer="6105" to-port="2" />
		<edge from-layer="6105" from-port="3" to-layer="6106" to-port="0" />
		<edge from-layer="6106" from-port="2" to-layer="6107" to-port="0" />
		<edge from-layer="6107" from-port="1" to-layer="6109" to-port="0" />
		<edge from-layer="6108" from-port="0" to-layer="6109" to-port="1" />
		<edge from-layer="6109" from-port="2" to-layer="6113" to-port="1" />
		<edge from-layer="6109" from-port="2" to-layer="6119" to-port="2" />
		<edge from-layer="6110" from-port="0" to-layer="6113" to-port="2" />
		<edge from-layer="6111" from-port="0" to-layer="6113" to-port="3" />
		<edge from-layer="6112" from-port="0" to-layer="6113" to-port="4" />
		<edge from-layer="6113" from-port="5" to-layer="6115" to-port="0" />
		<edge from-layer="6114" from-port="0" to-layer="6115" to-port="1" />
		<edge from-layer="6115" from-port="2" to-layer="6120" to-port="0" />
		<edge from-layer="6116" from-port="0" to-layer="6119" to-port="1" />
		<edge from-layer="6117" from-port="0" to-layer="6119" to-port="3" />
		<edge from-layer="6118" from-port="0" to-layer="6119" to-port="4" />
		<edge from-layer="6119" from-port="5" to-layer="6120" to-port="1" />
		<edge from-layer="6120" from-port="2" to-layer="6121" to-port="0" />
		<edge from-layer="6121" from-port="2" to-layer="6122" to-port="1" />
		<edge from-layer="6122" from-port="2" to-layer="6123" to-port="1" />
		<edge from-layer="6122" from-port="2" to-layer="6156" to-port="0" />
		<edge from-layer="6123" from-port="2" to-layer="6516" to-port="0" />
		<edge from-layer="6123" from-port="2" to-layer="6164" to-port="1" />
		<edge from-layer="6124" from-port="0" to-layer="6129" to-port="0" />
		<edge from-layer="6125" from-port="0" to-layer="6128" to-port="1" />
		<edge from-layer="6126" from-port="0" to-layer="6128" to-port="2" />
		<edge from-layer="6127" from-port="0" to-layer="6128" to-port="3" />
		<edge from-layer="6128" from-port="4" to-layer="6129" to-port="1" />
		<edge from-layer="6129" from-port="2" to-layer="6130" to-port="0" />
		<edge from-layer="6130" from-port="1" to-layer="6132" to-port="0" />
		<edge from-layer="6131" from-port="0" to-layer="6132" to-port="2" />
		<edge from-layer="6132" from-port="3" to-layer="6150" to-port="0" />
		<edge from-layer="6133" from-port="0" to-layer="6134" to-port="0" />
		<edge from-layer="6134" from-port="1" to-layer="6137" to-port="0" />
		<edge from-layer="6135" from-port="0" to-layer="6136" to-port="0" />
		<edge from-layer="6136" from-port="1" to-layer="6137" to-port="1" />
		<edge from-layer="6137" from-port="2" to-layer="6139" to-port="0" />
		<edge from-layer="6138" from-port="0" to-layer="6139" to-port="1" />
		<edge from-layer="6139" from-port="2" to-layer="6141" to-port="0" />
		<edge from-layer="6140" from-port="0" to-layer="6141" to-port="1" />
		<edge from-layer="6141" from-port="2" to-layer="6142" to-port="0" />
		<edge from-layer="6142" from-port="1" to-layer="6143" to-port="1" />
		<edge from-layer="6143" from-port="2" to-layer="6145" to-port="0" />
		<edge from-layer="6144" from-port="0" to-layer="6145" to-port="1" />
		<edge from-layer="6145" from-port="2" to-layer="6147" to-port="0" />
		<edge from-layer="6146" from-port="0" to-layer="6147" to-port="1" />
		<edge from-layer="6147" from-port="2" to-layer="6149" to-port="0" />
		<edge from-layer="6148" from-port="0" to-layer="6149" to-port="1" />
		<edge from-layer="6149" from-port="2" to-layer="6150" to-port="1" />
		<edge from-layer="6150" from-port="2" to-layer="6515" to-port="0" />
		<edge from-layer="6150" from-port="2" to-layer="6164" to-port="2" />
		<edge from-layer="6151" from-port="0" to-layer="6163" to-port="1" />
		<edge from-layer="6152" from-port="1" to-layer="6155" to-port="0" />
		<edge from-layer="6153" from-port="0" to-layer="6155" to-port="1" />
		<edge from-layer="6154" from-port="0" to-layer="6155" to-port="2" />
		<edge from-layer="6155" from-port="3" to-layer="6160" to-port="0" />
		<edge from-layer="6156" from-port="1" to-layer="6159" to-port="0" />
		<edge from-layer="6157" from-port="0" to-layer="6159" to-port="1" />
		<edge from-layer="6158" from-port="0" to-layer="6159" to-port="2" />
		<edge from-layer="6159" from-port="3" to-layer="6160" to-port="1" />
		<edge from-layer="6160" from-port="2" to-layer="6163" to-port="2" />
		<edge from-layer="6161" from-port="0" to-layer="6163" to-port="3" />
		<edge from-layer="6162" from-port="0" to-layer="6163" to-port="4" />
		<edge from-layer="6163" from-port="5" to-layer="6164" to-port="3" />
		<edge from-layer="6164" from-port="4" to-layer="6166" to-port="0" />
		<edge from-layer="6165" from-port="0" to-layer="6166" to-port="1" />
		<edge from-layer="6166" from-port="2" to-layer="6168" to-port="0" />
		<edge from-layer="6167" from-port="0" to-layer="6168" to-port="1" />
		<edge from-layer="6168" from-port="2" to-layer="6179" to-port="0" />
		<edge from-layer="6169" from-port="0" to-layer="6170" to-port="0" />
		<edge from-layer="6170" from-port="1" to-layer="6173" to-port="0" />
		<edge from-layer="6171" from-port="0" to-layer="6172" to-port="0" />
		<edge from-layer="6172" from-port="1" to-layer="6173" to-port="1" />
		<edge from-layer="6173" from-port="2" to-layer="6175" to-port="0" />
		<edge from-layer="6174" from-port="0" to-layer="6175" to-port="1" />
		<edge from-layer="6175" from-port="2" to-layer="6177" to-port="0" />
		<edge from-layer="6176" from-port="0" to-layer="6177" to-port="1" />
		<edge from-layer="6177" from-port="2" to-layer="6178" to-port="0" />
		<edge from-layer="6178" from-port="1" to-layer="6179" to-port="1" />
		<edge from-layer="6179" from-port="2" to-layer="6180" to-port="1" />
		<edge from-layer="6180" from-port="2" to-layer="6184" to-port="0" />
		<edge from-layer="6180" from-port="2" to-layer="6191" to-port="0" />
		<edge from-layer="6180" from-port="2" to-layer="6228" to-port="0" />
		<edge from-layer="6181" from-port="0" to-layer="6192" to-port="0" />
		<edge from-layer="6182" from-port="0" to-layer="6190" to-port="0" />
		<edge from-layer="6183" from-port="0" to-layer="6184" to-port="1" />
		<edge from-layer="6184" from-port="2" to-layer="6186" to-port="0" />
		<edge from-layer="6185" from-port="0" to-layer="6186" to-port="1" />
		<edge from-layer="6186" from-port="2" to-layer="6188" to-port="0" />
		<edge from-layer="6187" from-port="0" to-layer="6188" to-port="1" />
		<edge from-layer="6188" from-port="2" to-layer="6189" to-port="0" />
		<edge from-layer="6189" from-port="1" to-layer="6190" to-port="1" />
		<edge from-layer="6190" from-port="2" to-layer="6191" to-port="1" />
		<edge from-layer="6191" from-port="2" to-layer="6192" to-port="1" />
		<edge from-layer="6192" from-port="2" to-layer="6215" to-port="0" />
		<edge from-layer="6192" from-port="2" to-layer="6203" to-port="0" />
		<edge from-layer="6193" from-port="0" to-layer="6194" to-port="0" />
		<edge from-layer="6194" from-port="1" to-layer="6197" to-port="0" />
		<edge from-layer="6195" from-port="0" to-layer="6196" to-port="0" />
		<edge from-layer="6196" from-port="1" to-layer="6197" to-port="1" />
		<edge from-layer="6197" from-port="2" to-layer="6199" to-port="0" />
		<edge from-layer="6198" from-port="0" to-layer="6199" to-port="1" />
		<edge from-layer="6199" from-port="2" to-layer="6201" to-port="0" />
		<edge from-layer="6200" from-port="0" to-layer="6201" to-port="1" />
		<edge from-layer="6201" from-port="2" to-layer="6202" to-port="0" />
		<edge from-layer="6202" from-port="1" to-layer="6203" to-port="1" />
		<edge from-layer="6203" from-port="2" to-layer="6204" to-port="0" />
		<edge from-layer="6204" from-port="1" to-layer="6216" to-port="0" />
		<edge from-layer="6205" from-port="0" to-layer="6206" to-port="0" />
		<edge from-layer="6206" from-port="1" to-layer="6209" to-port="0" />
		<edge from-layer="6207" from-port="0" to-layer="6208" to-port="0" />
		<edge from-layer="6208" from-port="1" to-layer="6209" to-port="1" />
		<edge from-layer="6209" from-port="2" to-layer="6211" to-port="0" />
		<edge from-layer="6210" from-port="0" to-layer="6211" to-port="1" />
		<edge from-layer="6211" from-port="2" to-layer="6213" to-port="0" />
		<edge from-layer="6212" from-port="0" to-layer="6213" to-port="1" />
		<edge from-layer="6213" from-port="2" to-layer="6214" to-port="0" />
		<edge from-layer="6214" from-port="1" to-layer="6215" to-port="1" />
		<edge from-layer="6215" from-port="2" to-layer="6216" to-port="1" />
		<edge from-layer="6216" from-port="2" to-layer="6227" to-port="0" />
		<edge from-layer="6217" from-port="0" to-layer="6218" to-port="0" />
		<edge from-layer="6218" from-port="1" to-layer="6221" to-port="0" />
		<edge from-layer="6219" from-port="0" to-layer="6220" to-port="0" />
		<edge from-layer="6220" from-port="1" to-layer="6221" to-port="1" />
		<edge from-layer="6221" from-port="2" to-layer="6223" to-port="0" />
		<edge from-layer="6222" from-port="0" to-layer="6223" to-port="1" />
		<edge from-layer="6223" from-port="2" to-layer="6225" to-port="0" />
		<edge from-layer="6224" from-port="0" to-layer="6225" to-port="1" />
		<edge from-layer="6225" from-port="2" to-layer="6226" to-port="0" />
		<edge from-layer="6226" from-port="1" to-layer="6227" to-port="1" />
		<edge from-layer="6227" from-port="2" to-layer="6228" to-port="1" />
		<edge from-layer="6228" from-port="2" to-layer="6383" to-port="0" />
		<edge from-layer="6228" from-port="2" to-layer="6232" to-port="0" />
		<edge from-layer="6228" from-port="2" to-layer="6239" to-port="0" />
		<edge from-layer="6229" from-port="0" to-layer="6240" to-port="0" />
		<edge from-layer="6230" from-port="0" to-layer="6238" to-port="0" />
		<edge from-layer="6231" from-port="0" to-layer="6232" to-port="1" />
		<edge from-layer="6232" from-port="2" to-layer="6234" to-port="0" />
		<edge from-layer="6233" from-port="0" to-layer="6234" to-port="1" />
		<edge from-layer="6234" from-port="2" to-layer="6236" to-port="0" />
		<edge from-layer="6235" from-port="0" to-layer="6236" to-port="1" />
		<edge from-layer="6236" from-port="2" to-layer="6237" to-port="0" />
		<edge from-layer="6237" from-port="1" to-layer="6238" to-port="1" />
		<edge from-layer="6238" from-port="2" to-layer="6239" to-port="1" />
		<edge from-layer="6239" from-port="2" to-layer="6240" to-port="1" />
		<edge from-layer="6240" from-port="2" to-layer="6251" to-port="0" />
		<edge from-layer="6240" from-port="2" to-layer="6346" to-port="0" />
		<edge from-layer="6240" from-port="2" to-layer="6298" to-port="0" />
		<edge from-layer="6241" from-port="0" to-layer="6242" to-port="0" />
		<edge from-layer="6242" from-port="1" to-layer="6245" to-port="0" />
		<edge from-layer="6243" from-port="0" to-layer="6244" to-port="0" />
		<edge from-layer="6244" from-port="1" to-layer="6245" to-port="1" />
		<edge from-layer="6245" from-port="2" to-layer="6247" to-port="0" />
		<edge from-layer="6246" from-port="0" to-layer="6247" to-port="1" />
		<edge from-layer="6247" from-port="2" to-layer="6249" to-port="0" />
		<edge from-layer="6248" from-port="0" to-layer="6249" to-port="1" />
		<edge from-layer="6249" from-port="2" to-layer="6250" to-port="0" />
		<edge from-layer="6250" from-port="1" to-layer="6251" to-port="1" />
		<edge from-layer="6251" from-port="2" to-layer="6253" to-port="0" />
		<edge from-layer="6252" from-port="0" to-layer="6253" to-port="1" />
		<edge from-layer="6253" from-port="2" to-layer="6255" to-port="0" />
		<edge from-layer="6254" from-port="0" to-layer="6255" to-port="1" />
		<edge from-layer="6255" from-port="2" to-layer="6257" to-port="0" />
		<edge from-layer="6256" from-port="0" to-layer="6257" to-port="1" />
		<edge from-layer="6257" from-port="2" to-layer="6269" to-port="0" />
		<edge from-layer="6257" from-port="2" to-layer="6275" to-port="0" />
		<edge from-layer="6257" from-port="2" to-layer="6259" to-port="0" />
		<edge from-layer="6257" from-port="2" to-layer="6258" to-port="0" />
		<edge from-layer="6258" from-port="2" to-layer="6278" to-port="0" />
		<edge from-layer="6259" from-port="1" to-layer="6261" to-port="0" />
		<edge from-layer="6260" from-port="0" to-layer="6261" to-port="2" />
		<edge from-layer="6261" from-port="3" to-layer="6262" to-port="0" />
		<edge from-layer="6262" from-port="2" to-layer="6263" to-port="0" />
		<edge from-layer="6263" from-port="1" to-layer="6265" to-port="0" />
		<edge from-layer="6264" from-port="0" to-layer="6265" to-port="1" />
		<edge from-layer="6265" from-port="2" to-layer="6275" to-port="2" />
		<edge from-layer="6265" from-port="2" to-layer="6269" to-port="1" />
		<edge from-layer="6266" from-port="0" to-layer="6269" to-port="2" />
		<edge from-layer="6267" from-port="0" to-layer="6269" to-port="3" />
		<edge from-layer="6268" from-port="0" to-layer="6269" to-port="4" />
		<edge from-layer="6269" from-port="5" to-layer="6271" to-port="0" />
		<edge from-layer="6270" from-port="0" to-layer="6271" to-port="1" />
		<edge from-layer="6271" from-port="2" to-layer="6276" to-port="0" />
		<edge from-layer="6272" from-port="0" to-layer="6275" to-port="1" />
		<edge from-layer="6273" from-port="0" to-layer="6275" to-port="3" />
		<edge from-layer="6274" from-port="0" to-layer="6275" to-port="4" />
		<edge from-layer="6275" from-port="5" to-layer="6276" to-port="1" />
		<edge from-layer="6276" from-port="2" to-layer="6277" to-port="0" />
		<edge from-layer="6277" from-port="2" to-layer="6278" to-port="1" />
		<edge from-layer="6278" from-port="2" to-layer="6367" to-port="0" />
		<edge from-layer="6279" from-port="0" to-layer="6284" to-port="0" />
		<edge from-layer="6280" from-port="0" to-layer="6283" to-port="1" />
		<edge from-layer="6281" from-port="0" to-layer="6283" to-port="2" />
		<edge from-layer="6282" from-port="0" to-layer="6283" to-port="3" />
		<edge from-layer="6283" from-port="4" to-layer="6284" to-port="1" />
		<edge from-layer="6284" from-port="2" to-layer="6285" to-port="0" />
		<edge from-layer="6285" from-port="1" to-layer="6287" to-port="0" />
		<edge from-layer="6286" from-port="0" to-layer="6287" to-port="2" />
		<edge from-layer="6287" from-port="3" to-layer="6326" to-port="0" />
		<edge from-layer="6287" from-port="3" to-layer="6355" to-port="0" />
		<edge from-layer="6288" from-port="0" to-layer="6289" to-port="0" />
		<edge from-layer="6289" from-port="1" to-layer="6292" to-port="0" />
		<edge from-layer="6290" from-port="0" to-layer="6291" to-port="0" />
		<edge from-layer="6291" from-port="1" to-layer="6292" to-port="1" />
		<edge from-layer="6292" from-port="2" to-layer="6294" to-port="0" />
		<edge from-layer="6293" from-port="0" to-layer="6294" to-port="1" />
		<edge from-layer="6294" from-port="2" to-layer="6296" to-port="0" />
		<edge from-layer="6295" from-port="0" to-layer="6296" to-port="1" />
		<edge from-layer="6296" from-port="2" to-layer="6297" to-port="0" />
		<edge from-layer="6297" from-port="1" to-layer="6298" to-port="1" />
		<edge from-layer="6298" from-port="2" to-layer="6300" to-port="0" />
		<edge from-layer="6299" from-port="0" to-layer="6300" to-port="1" />
		<edge from-layer="6300" from-port="2" to-layer="6302" to-port="0" />
		<edge from-layer="6301" from-port="0" to-layer="6302" to-port="1" />
		<edge from-layer="6302" from-port="2" to-layer="6304" to-port="0" />
		<edge from-layer="6303" from-port="0" to-layer="6304" to-port="1" />
		<edge from-layer="6304" from-port="2" to-layer="6322" to-port="0" />
		<edge from-layer="6304" from-port="2" to-layer="6316" to-port="0" />
		<edge from-layer="6304" from-port="2" to-layer="6306" to-port="0" />
		<edge from-layer="6304" from-port="2" to-layer="6305" to-port="0" />
		<edge from-layer="6305" from-port="2" to-layer="6325" to-port="0" />
		<edge from-layer="6306" from-port="1" to-layer="6308" to-port="0" />
		<edge from-layer="6307" from-port="0" to-layer="6308" to-port="2" />
		<edge from-layer="6308" from-port="3" to-layer="6309" to-port="0" />
		<edge from-layer="6309" from-port="2" to-layer="6310" to-port="0" />
		<edge from-layer="6310" from-port="1" to-layer="6312" to-port="0" />
		<edge from-layer="6311" from-port="0" to-layer="6312" to-port="1" />
		<edge from-layer="6312" from-port="2" to-layer="6322" to-port="2" />
		<edge from-layer="6312" from-port="2" to-layer="6316" to-port="1" />
		<edge from-layer="6313" from-port="0" to-layer="6316" to-port="2" />
		<edge from-layer="6314" from-port="0" to-layer="6316" to-port="3" />
		<edge from-layer="6315" from-port="0" to-layer="6316" to-port="4" />
		<edge from-layer="6316" from-port="5" to-layer="6318" to-port="0" />
		<edge from-layer="6317" from-port="0" to-layer="6318" to-port="1" />
		<edge from-layer="6318" from-port="2" to-layer="6323" to-port="0" />
		<edge from-layer="6319" from-port="0" to-layer="6322" to-port="1" />
		<edge from-layer="6320" from-port="0" to-layer="6322" to-port="3" />
		<edge from-layer="6321" from-port="0" to-layer="6322" to-port="4" />
		<edge from-layer="6322" from-port="5" to-layer="6323" to-port="1" />
		<edge from-layer="6323" from-port="2" to-layer="6324" to-port="0" />
		<edge from-layer="6324" from-port="2" to-layer="6325" to-port="1" />
		<edge from-layer="6325" from-port="2" to-layer="6326" to-port="1" />
		<edge from-layer="6325" from-port="2" to-layer="6359" to-port="0" />
		<edge from-layer="6326" from-port="2" to-layer="6367" to-port="1" />
		<edge from-layer="6326" from-port="2" to-layer="6512" to-port="0" />
		<edge from-layer="6327" from-port="0" to-layer="6332" to-port="0" />
		<edge from-layer="6328" from-port="0" to-layer="6331" to-port="1" />
		<edge from-layer="6329" from-port="0" to-layer="6331" to-port="2" />
		<edge from-layer="6330" from-port="0" to-layer="6331" to-port="3" />
		<edge from-layer="6331" from-port="4" to-layer="6332" to-port="1" />
		<edge from-layer="6332" from-port="2" to-layer="6333" to-port="0" />
		<edge from-layer="6333" from-port="1" to-layer="6335" to-port="0" />
		<edge from-layer="6334" from-port="0" to-layer="6335" to-port="2" />
		<edge from-layer="6335" from-port="3" to-layer="6353" to-port="0" />
		<edge from-layer="6336" from-port="0" to-layer="6337" to-port="0" />
		<edge from-layer="6337" from-port="1" to-layer="6340" to-port="0" />
		<edge from-layer="6338" from-port="0" to-layer="6339" to-port="0" />
		<edge from-layer="6339" from-port="1" to-layer="6340" to-port="1" />
		<edge from-layer="6340" from-port="2" to-layer="6342" to-port="0" />
		<edge from-layer="6341" from-port="0" to-layer="6342" to-port="1" />
		<edge from-layer="6342" from-port="2" to-layer="6344" to-port="0" />
		<edge from-layer="6343" from-port="0" to-layer="6344" to-port="1" />
		<edge from-layer="6344" from-port="2" to-layer="6345" to-port="0" />
		<edge from-layer="6345" from-port="1" to-layer="6346" to-port="1" />
		<edge from-layer="6346" from-port="2" to-layer="6348" to-port="0" />
		<edge from-layer="6347" from-port="0" to-layer="6348" to-port="1" />
		<edge from-layer="6348" from-port="2" to-layer="6350" to-port="0" />
		<edge from-layer="6349" from-port="0" to-layer="6350" to-port="1" />
		<edge from-layer="6350" from-port="2" to-layer="6352" to-port="0" />
		<edge from-layer="6351" from-port="0" to-layer="6352" to-port="1" />
		<edge from-layer="6352" from-port="2" to-layer="6353" to-port="1" />
		<edge from-layer="6353" from-port="2" to-layer="6511" to-port="0" />
		<edge from-layer="6353" from-port="2" to-layer="6367" to-port="2" />
		<edge from-layer="6354" from-port="0" to-layer="6366" to-port="1" />
		<edge from-layer="6355" from-port="1" to-layer="6358" to-port="0" />
		<edge from-layer="6356" from-port="0" to-layer="6358" to-port="1" />
		<edge from-layer="6357" from-port="0" to-layer="6358" to-port="2" />
		<edge from-layer="6358" from-port="3" to-layer="6363" to-port="0" />
		<edge from-layer="6359" from-port="1" to-layer="6362" to-port="0" />
		<edge from-layer="6360" from-port="0" to-layer="6362" to-port="1" />
		<edge from-layer="6361" from-port="0" to-layer="6362" to-port="2" />
		<edge from-layer="6362" from-port="3" to-layer="6363" to-port="1" />
		<edge from-layer="6363" from-port="2" to-layer="6366" to-port="2" />
		<edge from-layer="6364" from-port="0" to-layer="6366" to-port="3" />
		<edge from-layer="6365" from-port="0" to-layer="6366" to-port="4" />
		<edge from-layer="6366" from-port="5" to-layer="6367" to-port="3" />
		<edge from-layer="6367" from-port="4" to-layer="6369" to-port="0" />
		<edge from-layer="6368" from-port="0" to-layer="6369" to-port="1" />
		<edge from-layer="6369" from-port="2" to-layer="6371" to-port="0" />
		<edge from-layer="6370" from-port="0" to-layer="6371" to-port="1" />
		<edge from-layer="6371" from-port="2" to-layer="6382" to-port="0" />
		<edge from-layer="6372" from-port="0" to-layer="6373" to-port="0" />
		<edge from-layer="6373" from-port="1" to-layer="6376" to-port="0" />
		<edge from-layer="6374" from-port="0" to-layer="6375" to-port="0" />
		<edge from-layer="6375" from-port="1" to-layer="6376" to-port="1" />
		<edge from-layer="6376" from-port="2" to-layer="6378" to-port="0" />
		<edge from-layer="6377" from-port="0" to-layer="6378" to-port="1" />
		<edge from-layer="6378" from-port="2" to-layer="6380" to-port="0" />
		<edge from-layer="6379" from-port="0" to-layer="6380" to-port="1" />
		<edge from-layer="6380" from-port="2" to-layer="6381" to-port="0" />
		<edge from-layer="6381" from-port="1" to-layer="6382" to-port="1" />
		<edge from-layer="6382" from-port="2" to-layer="6383" to-port="1" />
		<edge from-layer="6383" from-port="2" to-layer="6387" to-port="0" />
		<edge from-layer="6383" from-port="2" to-layer="6394" to-port="0" />
		<edge from-layer="6383" from-port="2" to-layer="6431" to-port="0" />
		<edge from-layer="6384" from-port="0" to-layer="6395" to-port="0" />
		<edge from-layer="6385" from-port="0" to-layer="6393" to-port="0" />
		<edge from-layer="6386" from-port="0" to-layer="6387" to-port="1" />
		<edge from-layer="6387" from-port="2" to-layer="6389" to-port="0" />
		<edge from-layer="6388" from-port="0" to-layer="6389" to-port="1" />
		<edge from-layer="6389" from-port="2" to-layer="6391" to-port="0" />
		<edge from-layer="6390" from-port="0" to-layer="6391" to-port="1" />
		<edge from-layer="6391" from-port="2" to-layer="6392" to-port="0" />
		<edge from-layer="6392" from-port="1" to-layer="6393" to-port="1" />
		<edge from-layer="6393" from-port="2" to-layer="6394" to-port="1" />
		<edge from-layer="6394" from-port="2" to-layer="6395" to-port="1" />
		<edge from-layer="6395" from-port="2" to-layer="6406" to-port="0" />
		<edge from-layer="6395" from-port="2" to-layer="6418" to-port="0" />
		<edge from-layer="6396" from-port="0" to-layer="6397" to-port="0" />
		<edge from-layer="6397" from-port="1" to-layer="6400" to-port="0" />
		<edge from-layer="6398" from-port="0" to-layer="6399" to-port="0" />
		<edge from-layer="6399" from-port="1" to-layer="6400" to-port="1" />
		<edge from-layer="6400" from-port="2" to-layer="6402" to-port="0" />
		<edge from-layer="6401" from-port="0" to-layer="6402" to-port="1" />
		<edge from-layer="6402" from-port="2" to-layer="6404" to-port="0" />
		<edge from-layer="6403" from-port="0" to-layer="6404" to-port="1" />
		<edge from-layer="6404" from-port="2" to-layer="6405" to-port="0" />
		<edge from-layer="6405" from-port="1" to-layer="6406" to-port="1" />
		<edge from-layer="6406" from-port="2" to-layer="6407" to-port="0" />
		<edge from-layer="6407" from-port="1" to-layer="6419" to-port="0" />
		<edge from-layer="6408" from-port="0" to-layer="6409" to-port="0" />
		<edge from-layer="6409" from-port="1" to-layer="6412" to-port="0" />
		<edge from-layer="6410" from-port="0" to-layer="6411" to-port="0" />
		<edge from-layer="6411" from-port="1" to-layer="6412" to-port="1" />
		<edge from-layer="6412" from-port="2" to-layer="6414" to-port="0" />
		<edge from-layer="6413" from-port="0" to-layer="6414" to-port="1" />
		<edge from-layer="6414" from-port="2" to-layer="6416" to-port="0" />
		<edge from-layer="6415" from-port="0" to-layer="6416" to-port="1" />
		<edge from-layer="6416" from-port="2" to-layer="6417" to-port="0" />
		<edge from-layer="6417" from-port="1" to-layer="6418" to-port="1" />
		<edge from-layer="6418" from-port="2" to-layer="6419" to-port="1" />
		<edge from-layer="6419" from-port="2" to-layer="6430" to-port="0" />
		<edge from-layer="6420" from-port="0" to-layer="6421" to-port="0" />
		<edge from-layer="6421" from-port="1" to-layer="6424" to-port="0" />
		<edge from-layer="6422" from-port="0" to-layer="6423" to-port="0" />
		<edge from-layer="6423" from-port="1" to-layer="6424" to-port="1" />
		<edge from-layer="6424" from-port="2" to-layer="6426" to-port="0" />
		<edge from-layer="6425" from-port="0" to-layer="6426" to-port="1" />
		<edge from-layer="6426" from-port="2" to-layer="6428" to-port="0" />
		<edge from-layer="6427" from-port="0" to-layer="6428" to-port="1" />
		<edge from-layer="6428" from-port="2" to-layer="6429" to-port="0" />
		<edge from-layer="6429" from-port="1" to-layer="6430" to-port="1" />
		<edge from-layer="6430" from-port="2" to-layer="6431" to-port="1" />
		<edge from-layer="6431" from-port="2" to-layer="6434" to-port="0" />
		<edge from-layer="6431" from-port="2" to-layer="6629" to-port="0" />
		<edge from-layer="6431" from-port="2" to-layer="6441" to-port="0" />
		<edge from-layer="6432" from-port="0" to-layer="6440" to-port="0" />
		<edge from-layer="6433" from-port="0" to-layer="6434" to-port="1" />
		<edge from-layer="6434" from-port="2" to-layer="6436" to-port="0" />
		<edge from-layer="6435" from-port="0" to-layer="6436" to-port="1" />
		<edge from-layer="6436" from-port="2" to-layer="6438" to-port="0" />
		<edge from-layer="6437" from-port="0" to-layer="6438" to-port="1" />
		<edge from-layer="6438" from-port="2" to-layer="6439" to-port="0" />
		<edge from-layer="6439" from-port="1" to-layer="6440" to-port="1" />
		<edge from-layer="6440" from-port="2" to-layer="6441" to-port="1" />
		<edge from-layer="6441" from-port="2" to-layer="6442" to-port="1" />
		<edge from-layer="6442" from-port="2" to-layer="6453" to-port="0" />
		<edge from-layer="6442" from-port="2" to-layer="6481" to-port="0" />
		<edge from-layer="6442" from-port="2" to-layer="6572" to-port="0" />
		<edge from-layer="6443" from-port="0" to-layer="6444" to-port="0" />
		<edge from-layer="6444" from-port="1" to-layer="6447" to-port="0" />
		<edge from-layer="6445" from-port="0" to-layer="6446" to-port="0" />
		<edge from-layer="6446" from-port="1" to-layer="6447" to-port="1" />
		<edge from-layer="6447" from-port="2" to-layer="6449" to-port="0" />
		<edge from-layer="6448" from-port="0" to-layer="6449" to-port="1" />
		<edge from-layer="6449" from-port="2" to-layer="6451" to-port="0" />
		<edge from-layer="6450" from-port="0" to-layer="6451" to-port="1" />
		<edge from-layer="6451" from-port="2" to-layer="6452" to-port="0" />
		<edge from-layer="6452" from-port="1" to-layer="6453" to-port="1" />
		<edge from-layer="6453" from-port="2" to-layer="6455" to-port="0" />
		<edge from-layer="6454" from-port="0" to-layer="6455" to-port="1" />
		<edge from-layer="6455" from-port="2" to-layer="6457" to-port="0" />
		<edge from-layer="6456" from-port="0" to-layer="6457" to-port="1" />
		<edge from-layer="6457" from-port="2" to-layer="6459" to-port="0" />
		<edge from-layer="6458" from-port="0" to-layer="6459" to-port="1" />
		<edge from-layer="6459" from-port="2" to-layer="6460" to-port="1" />
		<edge from-layer="6460" from-port="2" to-layer="6613" to-port="2" />
		<edge from-layer="6460" from-port="2" to-layer="6461" to-port="0" />
		<edge from-layer="6462" from-port="0" to-layer="6467" to-port="0" />
		<edge from-layer="6463" from-port="0" to-layer="6466" to-port="1" />
		<edge from-layer="6464" from-port="0" to-layer="6466" to-port="2" />
		<edge from-layer="6465" from-port="0" to-layer="6466" to-port="3" />
		<edge from-layer="6466" from-port="4" to-layer="6467" to-port="1" />
		<edge from-layer="6467" from-port="2" to-layer="6468" to-port="0" />
		<edge from-layer="6468" from-port="1" to-layer="6470" to-port="0" />
		<edge from-layer="6469" from-port="0" to-layer="6470" to-port="2" />
		<edge from-layer="6470" from-port="3" to-layer="6509" to-port="0" />
		<edge from-layer="6470" from-port="3" to-layer="6601" to-port="0" />
		<edge from-layer="6471" from-port="0" to-layer="6472" to-port="0" />
		<edge from-layer="6472" from-port="1" to-layer="6475" to-port="0" />
		<edge from-layer="6473" from-port="0" to-layer="6474" to-port="0" />
		<edge from-layer="6474" from-port="1" to-layer="6475" to-port="1" />
		<edge from-layer="6475" from-port="2" to-layer="6477" to-port="0" />
		<edge from-layer="6476" from-port="0" to-layer="6477" to-port="1" />
		<edge from-layer="6477" from-port="2" to-layer="6479" to-port="0" />
		<edge from-layer="6478" from-port="0" to-layer="6479" to-port="1" />
		<edge from-layer="6479" from-port="2" to-layer="6480" to-port="0" />
		<edge from-layer="6480" from-port="1" to-layer="6481" to-port="1" />
		<edge from-layer="6481" from-port="2" to-layer="6483" to-port="0" />
		<edge from-layer="6482" from-port="0" to-layer="6483" to-port="1" />
		<edge from-layer="6483" from-port="2" to-layer="6485" to-port="0" />
		<edge from-layer="6484" from-port="0" to-layer="6485" to-port="1" />
		<edge from-layer="6485" from-port="2" to-layer="6487" to-port="0" />
		<edge from-layer="6486" from-port="0" to-layer="6487" to-port="1" />
		<edge from-layer="6487" from-port="2" to-layer="6505" to-port="0" />
		<edge from-layer="6487" from-port="2" to-layer="6499" to-port="0" />
		<edge from-layer="6487" from-port="2" to-layer="6488" to-port="0" />
		<edge from-layer="6487" from-port="2" to-layer="6489" to-port="0" />
		<edge from-layer="6488" from-port="2" to-layer="6508" to-port="0" />
		<edge from-layer="6489" from-port="1" to-layer="6491" to-port="0" />
		<edge from-layer="6490" from-port="0" to-layer="6491" to-port="2" />
		<edge from-layer="6491" from-port="3" to-layer="6492" to-port="0" />
		<edge from-layer="6492" from-port="2" to-layer="6493" to-port="0" />
		<edge from-layer="6493" from-port="1" to-layer="6495" to-port="0" />
		<edge from-layer="6494" from-port="0" to-layer="6495" to-port="1" />
		<edge from-layer="6495" from-port="2" to-layer="6499" to-port="1" />
		<edge from-layer="6495" from-port="2" to-layer="6505" to-port="2" />
		<edge from-layer="6496" from-port="0" to-layer="6499" to-port="2" />
		<edge from-layer="6497" from-port="0" to-layer="6499" to-port="3" />
		<edge from-layer="6498" from-port="0" to-layer="6499" to-port="4" />
		<edge from-layer="6499" from-port="5" to-layer="6501" to-port="0" />
		<edge from-layer="6500" from-port="0" to-layer="6501" to-port="1" />
		<edge from-layer="6501" from-port="2" to-layer="6506" to-port="0" />
		<edge from-layer="6502" from-port="0" to-layer="6505" to-port="1" />
		<edge from-layer="6503" from-port="0" to-layer="6505" to-port="3" />
		<edge from-layer="6504" from-port="0" to-layer="6505" to-port="4" />
		<edge from-layer="6505" from-port="5" to-layer="6506" to-port="1" />
		<edge from-layer="6506" from-port="2" to-layer="6507" to-port="0" />
		<edge from-layer="6507" from-port="2" to-layer="6508" to-port="1" />
		<edge from-layer="6508" from-port="2" to-layer="6509" to-port="1" />
		<edge from-layer="6508" from-port="2" to-layer="6605" to-port="0" />
		<edge from-layer="6509" from-port="2" to-layer="6510" to-port="0" />
		<edge from-layer="6509" from-port="2" to-layer="6613" to-port="1" />
		<edge from-layer="6561" from-port="0" to-layer="6688" to-port="0" />
		<edge from-layer="6562" from-port="0" to-layer="6563" to-port="0" />
		<edge from-layer="6563" from-port="1" to-layer="6566" to-port="0" />
		<edge from-layer="6564" from-port="0" to-layer="6565" to-port="0" />
		<edge from-layer="6565" from-port="1" to-layer="6566" to-port="1" />
		<edge from-layer="6566" from-port="2" to-layer="6568" to-port="0" />
		<edge from-layer="6567" from-port="0" to-layer="6568" to-port="1" />
		<edge from-layer="6568" from-port="2" to-layer="6570" to-port="0" />
		<edge from-layer="6569" from-port="0" to-layer="6570" to-port="1" />
		<edge from-layer="6570" from-port="2" to-layer="6571" to-port="0" />
		<edge from-layer="6571" from-port="1" to-layer="6572" to-port="1" />
		<edge from-layer="6572" from-port="2" to-layer="6574" to-port="0" />
		<edge from-layer="6573" from-port="0" to-layer="6574" to-port="1" />
		<edge from-layer="6574" from-port="2" to-layer="6576" to-port="0" />
		<edge from-layer="6575" from-port="0" to-layer="6576" to-port="1" />
		<edge from-layer="6576" from-port="2" to-layer="6578" to-port="0" />
		<edge from-layer="6577" from-port="0" to-layer="6578" to-port="1" />
		<edge from-layer="6578" from-port="2" to-layer="6579" to-port="0" />
		<edge from-layer="6578" from-port="2" to-layer="6596" to-port="0" />
		<edge from-layer="6578" from-port="2" to-layer="6580" to-port="0" />
		<edge from-layer="6578" from-port="2" to-layer="6590" to-port="0" />
		<edge from-layer="6579" from-port="2" to-layer="6599" to-port="0" />
		<edge from-layer="6580" from-port="1" to-layer="6582" to-port="0" />
		<edge from-layer="6581" from-port="0" to-layer="6582" to-port="2" />
		<edge from-layer="6582" from-port="3" to-layer="6583" to-port="0" />
		<edge from-layer="6583" from-port="2" to-layer="6584" to-port="0" />
		<edge from-layer="6584" from-port="1" to-layer="6586" to-port="0" />
		<edge from-layer="6585" from-port="0" to-layer="6586" to-port="1" />
		<edge from-layer="6586" from-port="2" to-layer="6590" to-port="1" />
		<edge from-layer="6586" from-port="2" to-layer="6596" to-port="2" />
		<edge from-layer="6587" from-port="0" to-layer="6590" to-port="2" />
		<edge from-layer="6588" from-port="0" to-layer="6590" to-port="3" />
		<edge from-layer="6589" from-port="0" to-layer="6590" to-port="4" />
		<edge from-layer="6590" from-port="5" to-layer="6592" to-port="0" />
		<edge from-layer="6591" from-port="0" to-layer="6592" to-port="1" />
		<edge from-layer="6592" from-port="2" to-layer="6597" to-port="0" />
		<edge from-layer="6593" from-port="0" to-layer="6596" to-port="1" />
		<edge from-layer="6594" from-port="0" to-layer="6596" to-port="3" />
		<edge from-layer="6595" from-port="0" to-layer="6596" to-port="4" />
		<edge from-layer="6596" from-port="5" to-layer="6597" to-port="1" />
		<edge from-layer="6597" from-port="2" to-layer="6598" to-port="0" />
		<edge from-layer="6598" from-port="2" to-layer="6599" to-port="1" />
		<edge from-layer="6599" from-port="2" to-layer="6613" to-port="0" />
		<edge from-layer="6600" from-port="0" to-layer="6612" to-port="1" />
		<edge from-layer="6601" from-port="1" to-layer="6604" to-port="0" />
		<edge from-layer="6602" from-port="0" to-layer="6604" to-port="1" />
		<edge from-layer="6603" from-port="0" to-layer="6604" to-port="2" />
		<edge from-layer="6604" from-port="3" to-layer="6609" to-port="0" />
		<edge from-layer="6605" from-port="1" to-layer="6608" to-port="0" />
		<edge from-layer="6606" from-port="0" to-layer="6608" to-port="1" />
		<edge from-layer="6607" from-port="0" to-layer="6608" to-port="2" />
		<edge from-layer="6608" from-port="3" to-layer="6609" to-port="1" />
		<edge from-layer="6609" from-port="2" to-layer="6612" to-port="2" />
		<edge from-layer="6610" from-port="0" to-layer="6612" to-port="3" />
		<edge from-layer="6611" from-port="0" to-layer="6612" to-port="4" />
		<edge from-layer="6612" from-port="5" to-layer="6613" to-port="3" />
		<edge from-layer="6613" from-port="4" to-layer="6615" to-port="0" />
		<edge from-layer="6614" from-port="0" to-layer="6615" to-port="1" />
		<edge from-layer="6615" from-port="2" to-layer="6617" to-port="0" />
		<edge from-layer="6616" from-port="0" to-layer="6617" to-port="1" />
		<edge from-layer="6617" from-port="2" to-layer="6628" to-port="0" />
		<edge from-layer="6618" from-port="0" to-layer="6619" to-port="0" />
		<edge from-layer="6619" from-port="1" to-layer="6622" to-port="0" />
		<edge from-layer="6620" from-port="0" to-layer="6621" to-port="0" />
		<edge from-layer="6621" from-port="1" to-layer="6622" to-port="1" />
		<edge from-layer="6622" from-port="2" to-layer="6624" to-port="0" />
		<edge from-layer="6623" from-port="0" to-layer="6624" to-port="1" />
		<edge from-layer="6624" from-port="2" to-layer="6626" to-port="0" />
		<edge from-layer="6625" from-port="0" to-layer="6626" to-port="1" />
		<edge from-layer="6626" from-port="2" to-layer="6627" to-port="0" />
		<edge from-layer="6627" from-port="1" to-layer="6628" to-port="1" />
		<edge from-layer="6628" from-port="2" to-layer="6629" to-port="1" />
		<edge from-layer="6629" from-port="2" to-layer="6633" to-port="0" />
		<edge from-layer="6629" from-port="2" to-layer="6677" to-port="0" />
		<edge from-layer="6629" from-port="2" to-layer="6640" to-port="0" />
		<edge from-layer="6630" from-port="0" to-layer="6641" to-port="0" />
		<edge from-layer="6631" from-port="0" to-layer="6639" to-port="0" />
		<edge from-layer="6632" from-port="0" to-layer="6633" to-port="1" />
		<edge from-layer="6633" from-port="2" to-layer="6635" to-port="0" />
		<edge from-layer="6634" from-port="0" to-layer="6635" to-port="1" />
		<edge from-layer="6635" from-port="2" to-layer="6637" to-port="0" />
		<edge from-layer="6636" from-port="0" to-layer="6637" to-port="1" />
		<edge from-layer="6637" from-port="2" to-layer="6638" to-port="0" />
		<edge from-layer="6638" from-port="1" to-layer="6639" to-port="1" />
		<edge from-layer="6639" from-port="2" to-layer="6640" to-port="1" />
		<edge from-layer="6640" from-port="2" to-layer="6641" to-port="1" />
		<edge from-layer="6641" from-port="2" to-layer="6664" to-port="0" />
		<edge from-layer="6641" from-port="2" to-layer="6652" to-port="0" />
		<edge from-layer="6642" from-port="0" to-layer="6643" to-port="0" />
		<edge from-layer="6643" from-port="1" to-layer="6646" to-port="0" />
		<edge from-layer="6644" from-port="0" to-layer="6645" to-port="0" />
		<edge from-layer="6645" from-port="1" to-layer="6646" to-port="1" />
		<edge from-layer="6646" from-port="2" to-layer="6648" to-port="0" />
		<edge from-layer="6647" from-port="0" to-layer="6648" to-port="1" />
		<edge from-layer="6648" from-port="2" to-layer="6650" to-port="0" />
		<edge from-layer="6649" from-port="0" to-layer="6650" to-port="1" />
		<edge from-layer="6650" from-port="2" to-layer="6651" to-port="0" />
		<edge from-layer="6651" from-port="1" to-layer="6652" to-port="1" />
		<edge from-layer="6652" from-port="2" to-layer="6653" to-port="0" />
		<edge from-layer="6653" from-port="1" to-layer="6665" to-port="0" />
		<edge from-layer="6654" from-port="0" to-layer="6655" to-port="0" />
		<edge from-layer="6655" from-port="1" to-layer="6658" to-port="0" />
		<edge from-layer="6656" from-port="0" to-layer="6657" to-port="0" />
		<edge from-layer="6657" from-port="1" to-layer="6658" to-port="1" />
		<edge from-layer="6658" from-port="2" to-layer="6660" to-port="0" />
		<edge from-layer="6659" from-port="0" to-layer="6660" to-port="1" />
		<edge from-layer="6660" from-port="2" to-layer="6662" to-port="0" />
		<edge from-layer="6661" from-port="0" to-layer="6662" to-port="1" />
		<edge from-layer="6662" from-port="2" to-layer="6663" to-port="0" />
		<edge from-layer="6663" from-port="1" to-layer="6664" to-port="1" />
		<edge from-layer="6664" from-port="2" to-layer="6665" to-port="1" />
		<edge from-layer="6665" from-port="2" to-layer="6676" to-port="0" />
		<edge from-layer="6666" from-port="0" to-layer="6667" to-port="0" />
		<edge from-layer="6667" from-port="1" to-layer="6670" to-port="0" />
		<edge from-layer="6668" from-port="0" to-layer="6669" to-port="0" />
		<edge from-layer="6669" from-port="1" to-layer="6670" to-port="1" />
		<edge from-layer="6670" from-port="2" to-layer="6672" to-port="0" />
		<edge from-layer="6671" from-port="0" to-layer="6672" to-port="1" />
		<edge from-layer="6672" from-port="2" to-layer="6674" to-port="0" />
		<edge from-layer="6673" from-port="0" to-layer="6674" to-port="1" />
		<edge from-layer="6674" from-port="2" to-layer="6675" to-port="0" />
		<edge from-layer="6675" from-port="1" to-layer="6676" to-port="1" />
		<edge from-layer="6676" from-port="2" to-layer="6677" to-port="1" />
		<edge from-layer="6677" from-port="2" to-layer="6680" to-port="0" />
		<edge from-layer="6677" from-port="2" to-layer="6687" to-port="0" />
		<edge from-layer="6678" from-port="0" to-layer="6686" to-port="0" />
		<edge from-layer="6679" from-port="0" to-layer="6680" to-port="1" />
		<edge from-layer="6680" from-port="2" to-layer="6682" to-port="0" />
		<edge from-layer="6681" from-port="0" to-layer="6682" to-port="1" />
		<edge from-layer="6682" from-port="2" to-layer="6684" to-port="0" />
		<edge from-layer="6683" from-port="0" to-layer="6684" to-port="1" />
		<edge from-layer="6684" from-port="2" to-layer="6685" to-port="0" />
		<edge from-layer="6685" from-port="1" to-layer="6686" to-port="1" />
		<edge from-layer="6686" from-port="2" to-layer="6687" to-port="1" />
		<edge from-layer="6687" from-port="2" to-layer="6688" to-port="1" />
		<edge from-layer="6688" from-port="2" to-layer="6697" to-port="0" />
		<edge from-layer="6689" from-port="0" to-layer="6690" to-port="0" />
		<edge from-layer="6690" from-port="1" to-layer="6693" to-port="0" />
		<edge from-layer="6691" from-port="0" to-layer="6692" to-port="0" />
		<edge from-layer="6692" from-port="1" to-layer="6693" to-port="1" />
		<edge from-layer="6693" from-port="2" to-layer="6695" to-port="0" />
		<edge from-layer="6694" from-port="0" to-layer="6695" to-port="1" />
		<edge from-layer="6695" from-port="2" to-layer="6696" to-port="0" />
		<edge from-layer="6696" from-port="1" to-layer="6697" to-port="1" />
		<edge from-layer="6697" from-port="2" to-layer="6698" to-port="0" />
	</edges>
	<rt_info>
		<Runtime_version value="2024.4.0-16579-c3152d32c9c-releases/2024/4" />
		<conversion_parameters>
			<framework value="pytorch" />
			<is_python_object value="True" />
		</conversion_parameters>
		<nncf>
			<friendly_names_were_updated value="True" />
			<weight_compression>
				<advanced_parameters value="{'awq_params': {'subset_size': 32, 'percent_to_apply': 0.002, 'alpha_min': 0.0, 'alpha_max': 1.0, 'steps': 100}, 'scale_estimation_params': {'subset_size': 64, 'initial_steps': 5, 'scale_steps': 5, 'weight_penalty': -1.0}, 'gptq_params': {'damp_percent': 0.1, 'block_size': 128, 'subset_size': 128}, 'lora_correction_params': {'adapter_rank': 8, 'num_iterations': 3, 'apply_regularization': True, 'subset_size': 128, 'use_int8_adapters': True}}" />
				<all_layers value="False" />
				<awq value="False" />
				<gptq value="False" />
				<group_size value="128" />
				<ignored_scope value="[]" />
				<lora_correction value="False" />
				<mode value="int4_asym" />
				<ratio value="1.0" />
				<scale_estimation value="False" />
				<sensitivity_metric value="weight_quantization_error" />
			</weight_compression>
		</nncf>
	</rt_info>
</net>
