<?xml version="1.0"?>
<net name="Model3" version="11">
	<layers>
		<layer id="1" name="input_features" type="Parameter" version="opset1">
			<data shape="?,?,?" element_type="f32" />
			<output>
				<port id="0" precision="FP32" names="78,input_features">
					<dim>-1</dim>
					<dim>-1</dim>
					<dim>-1</dim>
				</port>
			</output>
		</layer>
		<layer id="0" name="attention_mask" type="Parameter" version="opset1">
			<data shape="?,?,?,?" element_type="f32" />
			<output>
				<port id="0" precision="FP32" names="1006,1007,1008,1085,1086,1087,1164,1165,1166,1243,1244,1245,1322,1323,1324,1401,1402,1403,1480,1481,1482,1559,1560,1561,1638,1639,1640,1717,1718,1719,1796,1797,1798,1875,1876,1877,1954,1955,1956,2033,2034,2035,2112,2113,2114,216,217,218,2191,2192,2193,2270,2271,2272,2349,2350,2351,2428,2429,2430,2507,2508,2509,2586,2587,2588,2665,2666,2667,295,296,297,374,375,376,453,454,455,532,533,534,611,612,613,690,691,692,769,770,771,848,849,850,927,928,929,attention_mask">
					<dim>-1</dim>
					<dim>-1</dim>
					<dim>-1</dim>
					<dim>-1</dim>
				</port>
			</output>
		</layer>
		<layer id="2" name="self.conv1.weight_compressed" type="Const" version="opset1">
			<data element_type="f16" shape="1280, 128, 3" offset="0" size="983040" />
			<output>
				<port id="0" precision="FP16" names="self.conv1.weight">
					<dim>1280</dim>
					<dim>128</dim>
					<dim>3</dim>
				</port>
			</output>
		</layer>
		<layer id="3" name="self.conv1.weight" type="Convert" version="opset1">
			<data destination_type="f32" />
			<rt_info>
				<attribute name="decompression" version="0" />
			</rt_info>
			<input>
				<port id="0" precision="FP16">
					<dim>1280</dim>
					<dim>128</dim>
					<dim>3</dim>
				</port>
			</input>
			<output>
				<port id="1" precision="FP32">
					<dim>1280</dim>
					<dim>128</dim>
					<dim>3</dim>
				</port>
			</output>
		</layer>
		<layer id="4" name="__module.conv1/aten::_convolution/Convolution" type="Convolution" version="opset1">
			<data strides="1" dilations="1" pads_begin="1" pads_end="1" auto_pad="explicit" />
			<input>
				<port id="0" precision="FP32">
					<dim>-1</dim>
					<dim>-1</dim>
					<dim>-1</dim>
				</port>
				<port id="1" precision="FP32">
					<dim>1280</dim>
					<dim>128</dim>
					<dim>3</dim>
				</port>
			</input>
			<output>
				<port id="2" precision="FP32">
					<dim>-1</dim>
					<dim>1280</dim>
					<dim>-1</dim>
				</port>
			</output>
		</layer>
		<layer id="5" name="__module.conv1/aten::_convolution/Reshape_compressed" type="Const" version="opset1">
			<data element_type="f16" shape="1, 1280, 1" offset="983040" size="2560" />
			<output>
				<port id="0" precision="FP16">
					<dim>1</dim>
					<dim>1280</dim>
					<dim>1</dim>
				</port>
			</output>
		</layer>
		<layer id="6" name="__module.conv1/aten::_convolution/Reshape" type="Convert" version="opset1">
			<data destination_type="f32" />
			<rt_info>
				<attribute name="decompression" version="0" />
			</rt_info>
			<input>
				<port id="0" precision="FP16">
					<dim>1</dim>
					<dim>1280</dim>
					<dim>1</dim>
				</port>
			</input>
			<output>
				<port id="1" precision="FP32">
					<dim>1</dim>
					<dim>1280</dim>
					<dim>1</dim>
				</port>
			</output>
		</layer>
		<layer id="7" name="__module.conv1/aten::_convolution/Add" type="Add" version="opset1">
			<data auto_broadcast="numpy" />
			<input>
				<port id="0" precision="FP32">
					<dim>-1</dim>
					<dim>1280</dim>
					<dim>-1</dim>
				</port>
				<port id="1" precision="FP32">
					<dim>1</dim>
					<dim>1280</dim>
					<dim>1</dim>
				</port>
			</input>
			<output>
				<port id="2" precision="FP32" names="151">
					<dim>-1</dim>
					<dim>1280</dim>
					<dim>-1</dim>
				</port>
			</output>
		</layer>
		<layer id="8" name="aten::gelu/Gelu" type="Gelu" version="opset7">
			<data approximation_mode="ERF" />
			<input>
				<port id="0" precision="FP32">
					<dim>-1</dim>
					<dim>1280</dim>
					<dim>-1</dim>
				</port>
			</input>
			<output>
				<port id="1" precision="FP32" names="81">
					<dim>-1</dim>
					<dim>1280</dim>
					<dim>-1</dim>
				</port>
			</output>
		</layer>
		<layer id="9" name="self.conv2.weight_compressed" type="Const" version="opset1">
			<data element_type="f16" shape="1280, 1280, 3" offset="985600" size="9830400" />
			<output>
				<port id="0" precision="FP16" names="self.conv2.weight">
					<dim>1280</dim>
					<dim>1280</dim>
					<dim>3</dim>
				</port>
			</output>
		</layer>
		<layer id="10" name="self.conv2.weight" type="Convert" version="opset1">
			<data destination_type="f32" />
			<rt_info>
				<attribute name="decompression" version="0" />
			</rt_info>
			<input>
				<port id="0" precision="FP16">
					<dim>1280</dim>
					<dim>1280</dim>
					<dim>3</dim>
				</port>
			</input>
			<output>
				<port id="1" precision="FP32">
					<dim>1280</dim>
					<dim>1280</dim>
					<dim>3</dim>
				</port>
			</output>
		</layer>
		<layer id="11" name="__module.conv2/aten::_convolution/Convolution" type="Convolution" version="opset1">
			<data strides="2" dilations="1" pads_begin="1" pads_end="1" auto_pad="explicit" />
			<input>
				<port id="0" precision="FP32">
					<dim>-1</dim>
					<dim>1280</dim>
					<dim>-1</dim>
				</port>
				<port id="1" precision="FP32">
					<dim>1280</dim>
					<dim>1280</dim>
					<dim>3</dim>
				</port>
			</input>
			<output>
				<port id="2" precision="FP32">
					<dim>-1</dim>
					<dim>1280</dim>
					<dim>-1</dim>
				</port>
			</output>
		</layer>
		<layer id="12" name="__module.conv2/aten::_convolution/Reshape_compressed" type="Const" version="opset1">
			<data element_type="f16" shape="1, 1280, 1" offset="10816000" size="2560" />
			<output>
				<port id="0" precision="FP16">
					<dim>1</dim>
					<dim>1280</dim>
					<dim>1</dim>
				</port>
			</output>
		</layer>
		<layer id="13" name="__module.conv2/aten::_convolution/Reshape" type="Convert" version="opset1">
			<data destination_type="f32" />
			<rt_info>
				<attribute name="decompression" version="0" />
			</rt_info>
			<input>
				<port id="0" precision="FP16">
					<dim>1</dim>
					<dim>1280</dim>
					<dim>1</dim>
				</port>
			</input>
			<output>
				<port id="1" precision="FP32">
					<dim>1</dim>
					<dim>1280</dim>
					<dim>1</dim>
				</port>
			</output>
		</layer>
		<layer id="14" name="__module.conv2/aten::_convolution/Add" type="Add" version="opset1">
			<data auto_broadcast="numpy" />
			<input>
				<port id="0" precision="FP32">
					<dim>-1</dim>
					<dim>1280</dim>
					<dim>-1</dim>
				</port>
				<port id="1" precision="FP32">
					<dim>1</dim>
					<dim>1280</dim>
					<dim>1</dim>
				</port>
			</input>
			<output>
				<port id="2" precision="FP32" names="163">
					<dim>-1</dim>
					<dim>1280</dim>
					<dim>-1</dim>
				</port>
			</output>
		</layer>
		<layer id="15" name="aten::gelu/Gelu_1" type="Gelu" version="opset7">
			<data approximation_mode="ERF" />
			<input>
				<port id="0" precision="FP32">
					<dim>-1</dim>
					<dim>1280</dim>
					<dim>-1</dim>
				</port>
			</input>
			<output>
				<port id="1" precision="FP32" names="84,inputs_embeds.1">
					<dim>-1</dim>
					<dim>1280</dim>
					<dim>-1</dim>
				</port>
			</output>
		</layer>
		<layer id="16" name="Constant_1957" type="Const" version="opset1">
			<data element_type="i64" shape="3" offset="10818560" size="24" />
			<output>
				<port id="0" precision="I64" names="88">
					<dim>3</dim>
				</port>
			</output>
		</layer>
		<layer id="17" name="aten::permute/Transpose" type="Transpose" version="opset1">
			<input>
				<port id="0" precision="FP32">
					<dim>-1</dim>
					<dim>1280</dim>
					<dim>-1</dim>
				</port>
				<port id="1" precision="I64">
					<dim>3</dim>
				</port>
			</input>
			<output>
				<port id="2" precision="FP32" names="89,inputs_embeds">
					<dim>-1</dim>
					<dim>-1</dim>
					<dim>1280</dim>
				</port>
			</output>
		</layer>
		<layer id="18" name="Constant_54566_compressed" type="Const" version="opset1">
			<data element_type="f16" shape="1, 1500, 1280" offset="10818584" size="3840000" />
			<output>
				<port id="0" precision="FP16">
					<dim>1</dim>
					<dim>1500</dim>
					<dim>1280</dim>
				</port>
			</output>
		</layer>
		<layer id="19" name="Constant_54566" type="Convert" version="opset1">
			<data destination_type="f32" />
			<rt_info>
				<attribute name="decompression" version="0" />
			</rt_info>
			<input>
				<port id="0" precision="FP16">
					<dim>1</dim>
					<dim>1500</dim>
					<dim>1280</dim>
				</port>
			</input>
			<output>
				<port id="1" precision="FP32">
					<dim>1</dim>
					<dim>1500</dim>
					<dim>1280</dim>
				</port>
			</output>
		</layer>
		<layer id="20" name="aten::add/Add" type="Add" version="opset1">
			<data auto_broadcast="numpy" />
			<input>
				<port id="0" precision="FP32">
					<dim>-1</dim>
					<dim>-1</dim>
					<dim>1280</dim>
				</port>
				<port id="1" precision="FP32">
					<dim>1</dim>
					<dim>1500</dim>
					<dim>1280</dim>
				</port>
			</input>
			<output>
				<port id="2" precision="FP32" names="91,input.1">
					<dim>-1</dim>
					<dim>1500</dim>
					<dim>1280</dim>
				</port>
			</output>
		</layer>
		<layer id="21" name="__module.layers.0.self_attn_layer_norm/aten::layer_norm/Multiply" type="Const" version="opset1">
			<data element_type="i32" shape="1" offset="14658584" size="4" />
			<output>
				<port id="0" precision="I32">
					<dim>1</dim>
				</port>
			</output>
		</layer>
		<layer id="22" name="__module.layers.0.self_attn_layer_norm/aten::layer_norm/MVN" type="MVN" version="opset6">
			<data eps="9.9999997473787516e-06" normalize_variance="true" eps_mode="INSIDE_SQRT" />
			<input>
				<port id="0" precision="FP32">
					<dim>-1</dim>
					<dim>1500</dim>
					<dim>1280</dim>
				</port>
				<port id="1" precision="I32">
					<dim>1</dim>
				</port>
			</input>
			<output>
				<port id="2" precision="FP32">
					<dim>-1</dim>
					<dim>1500</dim>
					<dim>1280</dim>
				</port>
			</output>
		</layer>
		<layer id="23" name="Constant_54567_compressed" type="Const" version="opset1">
			<data element_type="f16" shape="1, 1, 1280" offset="14658588" size="2560" />
			<output>
				<port id="0" precision="FP16">
					<dim>1</dim>
					<dim>1</dim>
					<dim>1280</dim>
				</port>
			</output>
		</layer>
		<layer id="24" name="Constant_54567" type="Convert" version="opset1">
			<data destination_type="f32" />
			<rt_info>
				<attribute name="decompression" version="0" />
			</rt_info>
			<input>
				<port id="0" precision="FP16">
					<dim>1</dim>
					<dim>1</dim>
					<dim>1280</dim>
				</port>
			</input>
			<output>
				<port id="1" precision="FP32">
					<dim>1</dim>
					<dim>1</dim>
					<dim>1280</dim>
				</port>
			</output>
		</layer>
		<layer id="25" name="__module.layers.0.self_attn_layer_norm/aten::layer_norm/Multiply_1" type="Multiply" version="opset1">
			<data auto_broadcast="numpy" />
			<input>
				<port id="0" precision="FP32">
					<dim>-1</dim>
					<dim>1500</dim>
					<dim>1280</dim>
				</port>
				<port id="1" precision="FP32">
					<dim>1</dim>
					<dim>1</dim>
					<dim>1280</dim>
				</port>
			</input>
			<output>
				<port id="2" precision="FP32">
					<dim>-1</dim>
					<dim>1500</dim>
					<dim>1280</dim>
				</port>
			</output>
		</layer>
		<layer id="26" name="Constant_54568_compressed" type="Const" version="opset1">
			<data element_type="f16" shape="1, 1, 1280" offset="14661148" size="2560" />
			<output>
				<port id="0" precision="FP16">
					<dim>1</dim>
					<dim>1</dim>
					<dim>1280</dim>
				</port>
			</output>
		</layer>
		<layer id="27" name="Constant_54568" type="Convert" version="opset1">
			<data destination_type="f32" />
			<rt_info>
				<attribute name="decompression" version="0" />
			</rt_info>
			<input>
				<port id="0" precision="FP16">
					<dim>1</dim>
					<dim>1</dim>
					<dim>1280</dim>
				</port>
			</input>
			<output>
				<port id="1" precision="FP32">
					<dim>1</dim>
					<dim>1</dim>
					<dim>1280</dim>
				</port>
			</output>
		</layer>
		<layer id="28" name="__module.layers.0.self_attn_layer_norm/aten::layer_norm/Add" type="Add" version="opset1">
			<data auto_broadcast="numpy" />
			<input>
				<port id="0" precision="FP32">
					<dim>-1</dim>
					<dim>1500</dim>
					<dim>1280</dim>
				</port>
				<port id="1" precision="FP32">
					<dim>1</dim>
					<dim>1</dim>
					<dim>1280</dim>
				</port>
			</input>
			<output>
				<port id="2" precision="FP32" names="188,hidden_states.1">
					<dim>-1</dim>
					<dim>1500</dim>
					<dim>1280</dim>
				</port>
			</output>
		</layer>
		<layer id="29" name="self.layers.0.self_attn.q_proj.weight_compressed" type="Const" version="opset1">
			<data element_type="f16" shape="1280, 1280" offset="14663708" size="3276800" />
			<output>
				<port id="0" precision="FP16" names="self.layers.0.self_attn.q_proj.weight">
					<dim>1280</dim>
					<dim>1280</dim>
				</port>
			</output>
		</layer>
		<layer id="30" name="self.layers.0.self_attn.q_proj.weight" type="Convert" version="opset1">
			<data destination_type="f32" />
			<rt_info>
				<attribute name="decompression" version="0" />
			</rt_info>
			<input>
				<port id="0" precision="FP16">
					<dim>1280</dim>
					<dim>1280</dim>
				</port>
			</input>
			<output>
				<port id="1" precision="FP32">
					<dim>1280</dim>
					<dim>1280</dim>
				</port>
			</output>
		</layer>
		<layer id="31" name="__module.layers.0.self_attn.q_proj/aten::linear/MatMul" type="MatMul" version="opset1">
			<data transpose_a="false" transpose_b="true" />
			<input>
				<port id="0" precision="FP32">
					<dim>-1</dim>
					<dim>1500</dim>
					<dim>1280</dim>
				</port>
				<port id="1" precision="FP32">
					<dim>1280</dim>
					<dim>1280</dim>
				</port>
			</input>
			<output>
				<port id="2" precision="FP32">
					<dim>-1</dim>
					<dim>1500</dim>
					<dim>1280</dim>
				</port>
			</output>
		</layer>
		<layer id="32" name="Constant_54569_compressed" type="Const" version="opset1">
			<data element_type="f16" shape="1, 1, 1280" offset="17940508" size="2560" />
			<output>
				<port id="0" precision="FP16">
					<dim>1</dim>
					<dim>1</dim>
					<dim>1280</dim>
				</port>
			</output>
		</layer>
		<layer id="33" name="Constant_54569" type="Convert" version="opset1">
			<data destination_type="f32" />
			<rt_info>
				<attribute name="decompression" version="0" />
			</rt_info>
			<input>
				<port id="0" precision="FP16">
					<dim>1</dim>
					<dim>1</dim>
					<dim>1280</dim>
				</port>
			</input>
			<output>
				<port id="1" precision="FP32">
					<dim>1</dim>
					<dim>1</dim>
					<dim>1280</dim>
				</port>
			</output>
		</layer>
		<layer id="34" name="__module.layers.0.self_attn.q_proj/aten::linear/Add" type="Add" version="opset1">
			<data auto_broadcast="numpy" />
			<input>
				<port id="0" precision="FP32">
					<dim>-1</dim>
					<dim>1500</dim>
					<dim>1280</dim>
				</port>
				<port id="1" precision="FP32">
					<dim>1</dim>
					<dim>1</dim>
					<dim>1280</dim>
				</port>
			</input>
			<output>
				<port id="2" precision="FP32" names="197,tensor.1">
					<dim>-1</dim>
					<dim>1500</dim>
					<dim>1280</dim>
				</port>
			</output>
		</layer>
		<layer id="35" name="Constant_55406" type="Const" version="opset1">
			<data element_type="i64" shape="4" offset="17943068" size="32" />
			<rt_info>
				<attribute name="precise" version="0" />
			</rt_info>
			<output>
				<port id="0" precision="I64">
					<dim>4</dim>
				</port>
			</output>
		</layer>
		<layer id="36" name="__module.layers.0.self_attn/aten::view/Reshape" type="Reshape" version="opset1">
			<data special_zero="true" />
			<input>
				<port id="0" precision="FP32">
					<dim>-1</dim>
					<dim>1500</dim>
					<dim>1280</dim>
				</port>
				<port id="1" precision="I64">
					<dim>4</dim>
				</port>
			</input>
			<output>
				<port id="2" precision="FP32" names="199">
					<dim>-1</dim>
					<dim>1500</dim>
					<dim>20</dim>
					<dim>64</dim>
				</port>
			</output>
		</layer>
		<layer id="37" name="__module.layers.0.self_attn/aten::transpose/ScatterElementsUpdate" type="Const" version="opset1">
			<data element_type="i32" shape="4" offset="17943100" size="16" />
			<output>
				<port id="0" precision="I32">
					<dim>4</dim>
				</port>
			</output>
		</layer>
		<layer id="38" name="__module.layers.0.self_attn/aten::transpose/Transpose" type="Transpose" version="opset1">
			<input>
				<port id="0" precision="FP32">
					<dim>-1</dim>
					<dim>1500</dim>
					<dim>20</dim>
					<dim>64</dim>
				</port>
				<port id="1" precision="I32">
					<dim>4</dim>
				</port>
			</input>
			<output>
				<port id="2" precision="FP32" names="200">
					<dim>-1</dim>
					<dim>20</dim>
					<dim>1500</dim>
					<dim>64</dim>
				</port>
			</output>
		</layer>
		<layer id="39" name="self.layers.0.self_attn.k_proj.weight_compressed" type="Const" version="opset1">
			<data element_type="f16" shape="1280, 1280" offset="17943116" size="3276800" />
			<output>
				<port id="0" precision="FP16" names="self.layers.0.self_attn.k_proj.weight">
					<dim>1280</dim>
					<dim>1280</dim>
				</port>
			</output>
		</layer>
		<layer id="40" name="self.layers.0.self_attn.k_proj.weight" type="Convert" version="opset1">
			<data destination_type="f32" />
			<rt_info>
				<attribute name="decompression" version="0" />
			</rt_info>
			<input>
				<port id="0" precision="FP16">
					<dim>1280</dim>
					<dim>1280</dim>
				</port>
			</input>
			<output>
				<port id="1" precision="FP32">
					<dim>1280</dim>
					<dim>1280</dim>
				</port>
			</output>
		</layer>
		<layer id="41" name="__module.layers.0.self_attn.k_proj/aten::linear/MatMul" type="MatMul" version="opset1">
			<data transpose_a="false" transpose_b="true" />
			<input>
				<port id="0" precision="FP32">
					<dim>-1</dim>
					<dim>1500</dim>
					<dim>1280</dim>
				</port>
				<port id="1" precision="FP32">
					<dim>1280</dim>
					<dim>1280</dim>
				</port>
			</input>
			<output>
				<port id="2" precision="FP32" names="203,tensor.3">
					<dim>-1</dim>
					<dim>1500</dim>
					<dim>1280</dim>
				</port>
			</output>
		</layer>
		<layer id="42" name="Constant_55407" type="Const" version="opset1">
			<data element_type="i64" shape="4" offset="17943068" size="32" />
			<rt_info>
				<attribute name="precise" version="0" />
			</rt_info>
			<output>
				<port id="0" precision="I64">
					<dim>4</dim>
				</port>
			</output>
		</layer>
		<layer id="43" name="__module.layers.0.self_attn/aten::view/Reshape_1" type="Reshape" version="opset1">
			<data special_zero="true" />
			<input>
				<port id="0" precision="FP32">
					<dim>-1</dim>
					<dim>1500</dim>
					<dim>1280</dim>
				</port>
				<port id="1" precision="I64">
					<dim>4</dim>
				</port>
			</input>
			<output>
				<port id="2" precision="FP32" names="205">
					<dim>-1</dim>
					<dim>1500</dim>
					<dim>20</dim>
					<dim>64</dim>
				</port>
			</output>
		</layer>
		<layer id="44" name="__module.layers.0.self_attn/aten::transpose/ScatterElementsUpdate_1" type="Const" version="opset1">
			<data element_type="i32" shape="4" offset="17943100" size="16" />
			<output>
				<port id="0" precision="I32">
					<dim>4</dim>
				</port>
			</output>
		</layer>
		<layer id="45" name="__module.layers.0.self_attn/aten::transpose/Transpose_1" type="Transpose" version="opset1">
			<input>
				<port id="0" precision="FP32">
					<dim>-1</dim>
					<dim>1500</dim>
					<dim>20</dim>
					<dim>64</dim>
				</port>
				<port id="1" precision="I32">
					<dim>4</dim>
				</port>
			</input>
			<output>
				<port id="2" precision="FP32" names="206">
					<dim>-1</dim>
					<dim>20</dim>
					<dim>1500</dim>
					<dim>64</dim>
				</port>
			</output>
		</layer>
		<layer id="46" name="self.layers.0.self_attn.v_proj.weight_compressed" type="Const" version="opset1">
			<data element_type="f16" shape="1280, 1280" offset="21219916" size="3276800" />
			<output>
				<port id="0" precision="FP16" names="self.layers.0.self_attn.v_proj.weight">
					<dim>1280</dim>
					<dim>1280</dim>
				</port>
			</output>
		</layer>
		<layer id="47" name="self.layers.0.self_attn.v_proj.weight" type="Convert" version="opset1">
			<data destination_type="f32" />
			<rt_info>
				<attribute name="decompression" version="0" />
			</rt_info>
			<input>
				<port id="0" precision="FP16">
					<dim>1280</dim>
					<dim>1280</dim>
				</port>
			</input>
			<output>
				<port id="1" precision="FP32">
					<dim>1280</dim>
					<dim>1280</dim>
				</port>
			</output>
		</layer>
		<layer id="48" name="__module.layers.0.self_attn.v_proj/aten::linear/MatMul" type="MatMul" version="opset1">
			<data transpose_a="false" transpose_b="true" />
			<input>
				<port id="0" precision="FP32">
					<dim>-1</dim>
					<dim>1500</dim>
					<dim>1280</dim>
				</port>
				<port id="1" precision="FP32">
					<dim>1280</dim>
					<dim>1280</dim>
				</port>
			</input>
			<output>
				<port id="2" precision="FP32">
					<dim>-1</dim>
					<dim>1500</dim>
					<dim>1280</dim>
				</port>
			</output>
		</layer>
		<layer id="49" name="Constant_54570_compressed" type="Const" version="opset1">
			<data element_type="f16" shape="1, 1, 1280" offset="24496716" size="2560" />
			<output>
				<port id="0" precision="FP16">
					<dim>1</dim>
					<dim>1</dim>
					<dim>1280</dim>
				</port>
			</output>
		</layer>
		<layer id="50" name="Constant_54570" type="Convert" version="opset1">
			<data destination_type="f32" />
			<rt_info>
				<attribute name="decompression" version="0" />
			</rt_info>
			<input>
				<port id="0" precision="FP16">
					<dim>1</dim>
					<dim>1</dim>
					<dim>1280</dim>
				</port>
			</input>
			<output>
				<port id="1" precision="FP32">
					<dim>1</dim>
					<dim>1</dim>
					<dim>1280</dim>
				</port>
			</output>
		</layer>
		<layer id="51" name="__module.layers.0.self_attn.v_proj/aten::linear/Add" type="Add" version="opset1">
			<data auto_broadcast="numpy" />
			<input>
				<port id="0" precision="FP32">
					<dim>-1</dim>
					<dim>1500</dim>
					<dim>1280</dim>
				</port>
				<port id="1" precision="FP32">
					<dim>1</dim>
					<dim>1</dim>
					<dim>1280</dim>
				</port>
			</input>
			<output>
				<port id="2" precision="FP32" names="210,tensor.5">
					<dim>-1</dim>
					<dim>1500</dim>
					<dim>1280</dim>
				</port>
			</output>
		</layer>
		<layer id="52" name="Constant_55408" type="Const" version="opset1">
			<data element_type="i64" shape="4" offset="17943068" size="32" />
			<rt_info>
				<attribute name="precise" version="0" />
			</rt_info>
			<output>
				<port id="0" precision="I64">
					<dim>4</dim>
				</port>
			</output>
		</layer>
		<layer id="53" name="__module.layers.0.self_attn/aten::view/Reshape_2" type="Reshape" version="opset1">
			<data special_zero="true" />
			<input>
				<port id="0" precision="FP32">
					<dim>-1</dim>
					<dim>1500</dim>
					<dim>1280</dim>
				</port>
				<port id="1" precision="I64">
					<dim>4</dim>
				</port>
			</input>
			<output>
				<port id="2" precision="FP32" names="212">
					<dim>-1</dim>
					<dim>1500</dim>
					<dim>20</dim>
					<dim>64</dim>
				</port>
			</output>
		</layer>
		<layer id="54" name="__module.layers.0.self_attn/aten::transpose/ScatterElementsUpdate_2" type="Const" version="opset1">
			<data element_type="i32" shape="4" offset="17943100" size="16" />
			<output>
				<port id="0" precision="I32">
					<dim>4</dim>
				</port>
			</output>
		</layer>
		<layer id="55" name="__module.layers.0.self_attn/aten::transpose/Transpose_2" type="Transpose" version="opset1">
			<input>
				<port id="0" precision="FP32">
					<dim>-1</dim>
					<dim>1500</dim>
					<dim>20</dim>
					<dim>64</dim>
				</port>
				<port id="1" precision="I32">
					<dim>4</dim>
				</port>
			</input>
			<output>
				<port id="2" precision="FP32" names="213">
					<dim>-1</dim>
					<dim>20</dim>
					<dim>1500</dim>
					<dim>64</dim>
				</port>
			</output>
		</layer>
		<layer id="56" name="__module.layers.0.self_attn/aten::slice/Reshape_12" type="Const" version="opset1">
			<data element_type="i64" shape="1" offset="24499276" size="8" />
			<output>
				<port id="0" precision="I64">
					<dim>1</dim>
				</port>
			</output>
		</layer>
		<layer id="57" name="__module.layers.0.self_attn/aten::size/ShapeOf_1" type="ShapeOf" version="opset3">
			<data output_type="i64" />
			<input>
				<port id="0" precision="FP32">
					<dim>-1</dim>
					<dim>20</dim>
					<dim>1500</dim>
					<dim>64</dim>
				</port>
			</input>
			<output>
				<port id="1" precision="I64">
					<dim>4</dim>
				</port>
			</output>
		</layer>
		<layer id="58" name="Constant_52152" type="Const" version="opset1">
			<data element_type="i64" shape="1" offset="24499284" size="8" />
			<output>
				<port id="0" precision="I64">
					<dim>1</dim>
				</port>
			</output>
		</layer>
		<layer id="59" name="__module.layers.0.self_attn/aten::size/Constant_1" type="Const" version="opset1">
			<data element_type="i32" shape="" offset="24499292" size="4" />
			<output>
				<port id="0" precision="I32" />
			</output>
		</layer>
		<layer id="60" name="__module.layers.0.self_attn/aten::size/Gather_2" type="Gather" version="opset8">
			<data batch_dims="0" />
			<input>
				<port id="0" precision="I64">
					<dim>4</dim>
				</port>
				<port id="1" precision="I64">
					<dim>1</dim>
				</port>
				<port id="2" precision="I32" />
			</input>
			<output>
				<port id="3" precision="I64" names="215">
					<dim>1</dim>
				</port>
			</output>
		</layer>
		<layer id="61" name="__module.layers.0.self_attn/aten::slice/Reshape_14" type="Const" version="opset1">
			<data element_type="i64" shape="1" offset="24499296" size="8" />
			<output>
				<port id="0" precision="I64">
					<dim>1</dim>
				</port>
			</output>
		</layer>
		<layer id="62" name="__module.layers.0.self_attn/aten::slice/Reshape_15" type="Const" version="opset1">
			<data element_type="i64" shape="1" offset="24499304" size="8" />
			<output>
				<port id="0" precision="I64">
					<dim>1</dim>
				</port>
			</output>
		</layer>
		<layer id="63" name="__module.layers.0.self_attn/aten::slice/Slice_3" type="Slice" version="opset8">
			<input>
				<port id="0" precision="FP32">
					<dim>-1</dim>
					<dim>-1</dim>
					<dim>-1</dim>
					<dim>-1</dim>
				</port>
				<port id="1" precision="I64">
					<dim>1</dim>
				</port>
				<port id="2" precision="I64">
					<dim>1</dim>
				</port>
				<port id="3" precision="I64">
					<dim>1</dim>
				</port>
				<port id="4" precision="I64">
					<dim>1</dim>
				</port>
			</input>
			<output>
				<port id="5" precision="FP32" names="219">
					<dim>-1</dim>
					<dim>-1</dim>
					<dim>-1</dim>
					<dim>-1</dim>
				</port>
			</output>
		</layer>
		<layer id="64" name="__module.layers.0.self_attn/aten::scaled_dot_product_attention/ScaledDotProductAttention" type="ScaledDotProductAttention" version="opset13">
			<data causal="false" />
			<input>
				<port id="0" precision="FP32">
					<dim>-1</dim>
					<dim>20</dim>
					<dim>1500</dim>
					<dim>64</dim>
				</port>
				<port id="1" precision="FP32">
					<dim>-1</dim>
					<dim>20</dim>
					<dim>1500</dim>
					<dim>64</dim>
				</port>
				<port id="2" precision="FP32">
					<dim>-1</dim>
					<dim>20</dim>
					<dim>1500</dim>
					<dim>64</dim>
				</port>
				<port id="3" precision="FP32">
					<dim>-1</dim>
					<dim>-1</dim>
					<dim>-1</dim>
					<dim>-1</dim>
				</port>
			</input>
			<output>
				<port id="4" precision="FP32" names="220,attn_output.1">
					<dim>-1</dim>
					<dim>20</dim>
					<dim>1500</dim>
					<dim>64</dim>
				</port>
			</output>
		</layer>
		<layer id="65" name="__module.layers.0.self_attn/aten::transpose/ScatterElementsUpdate_3" type="Const" version="opset1">
			<data element_type="i32" shape="4" offset="17943100" size="16" />
			<output>
				<port id="0" precision="I32">
					<dim>4</dim>
				</port>
			</output>
		</layer>
		<layer id="66" name="__module.layers.0.self_attn/aten::transpose/Transpose_3" type="Transpose" version="opset1">
			<input>
				<port id="0" precision="FP32">
					<dim>-1</dim>
					<dim>20</dim>
					<dim>1500</dim>
					<dim>64</dim>
				</port>
				<port id="1" precision="I32">
					<dim>4</dim>
				</port>
			</input>
			<output>
				<port id="2" precision="FP32" names="221,attn_output.3">
					<dim>-1</dim>
					<dim>1500</dim>
					<dim>20</dim>
					<dim>64</dim>
				</port>
			</output>
		</layer>
		<layer id="67" name="Constant_55409" type="Const" version="opset1">
			<data element_type="i64" shape="3" offset="24499312" size="24" />
			<rt_info>
				<attribute name="precise" version="0" />
			</rt_info>
			<output>
				<port id="0" precision="I64">
					<dim>3</dim>
				</port>
			</output>
		</layer>
		<layer id="68" name="__module.layers.0.self_attn/aten::reshape/Reshape" type="Reshape" version="opset1">
			<data special_zero="true" />
			<input>
				<port id="0" precision="FP32">
					<dim>-1</dim>
					<dim>1500</dim>
					<dim>20</dim>
					<dim>64</dim>
				</port>
				<port id="1" precision="I64">
					<dim>3</dim>
				</port>
			</input>
			<output>
				<port id="2" precision="FP32" names="223">
					<dim>-1</dim>
					<dim>1500</dim>
					<dim>1280</dim>
				</port>
			</output>
		</layer>
		<layer id="69" name="self.layers.0.self_attn.out_proj.weight_compressed" type="Const" version="opset1">
			<data element_type="f16" shape="1280, 1280" offset="24499336" size="3276800" />
			<output>
				<port id="0" precision="FP16" names="self.layers.0.self_attn.out_proj.weight">
					<dim>1280</dim>
					<dim>1280</dim>
				</port>
			</output>
		</layer>
		<layer id="70" name="self.layers.0.self_attn.out_proj.weight" type="Convert" version="opset1">
			<data destination_type="f32" />
			<rt_info>
				<attribute name="decompression" version="0" />
			</rt_info>
			<input>
				<port id="0" precision="FP16">
					<dim>1280</dim>
					<dim>1280</dim>
				</port>
			</input>
			<output>
				<port id="1" precision="FP32">
					<dim>1280</dim>
					<dim>1280</dim>
				</port>
			</output>
		</layer>
		<layer id="71" name="__module.layers.0.self_attn.out_proj/aten::linear/MatMul" type="MatMul" version="opset1">
			<data transpose_a="false" transpose_b="true" />
			<input>
				<port id="0" precision="FP32">
					<dim>-1</dim>
					<dim>1500</dim>
					<dim>1280</dim>
				</port>
				<port id="1" precision="FP32">
					<dim>1280</dim>
					<dim>1280</dim>
				</port>
			</input>
			<output>
				<port id="2" precision="FP32">
					<dim>-1</dim>
					<dim>1500</dim>
					<dim>1280</dim>
				</port>
			</output>
		</layer>
		<layer id="72" name="Constant_54571_compressed" type="Const" version="opset1">
			<data element_type="f16" shape="1, 1, 1280" offset="27776136" size="2560" />
			<output>
				<port id="0" precision="FP16">
					<dim>1</dim>
					<dim>1</dim>
					<dim>1280</dim>
				</port>
			</output>
		</layer>
		<layer id="73" name="Constant_54571" type="Convert" version="opset1">
			<data destination_type="f32" />
			<rt_info>
				<attribute name="decompression" version="0" />
			</rt_info>
			<input>
				<port id="0" precision="FP16">
					<dim>1</dim>
					<dim>1</dim>
					<dim>1280</dim>
				</port>
			</input>
			<output>
				<port id="1" precision="FP32">
					<dim>1</dim>
					<dim>1</dim>
					<dim>1280</dim>
				</port>
			</output>
		</layer>
		<layer id="74" name="__module.layers.0.self_attn.out_proj/aten::linear/Add" type="Add" version="opset1">
			<data auto_broadcast="numpy" />
			<input>
				<port id="0" precision="FP32">
					<dim>-1</dim>
					<dim>1500</dim>
					<dim>1280</dim>
				</port>
				<port id="1" precision="FP32">
					<dim>1</dim>
					<dim>1</dim>
					<dim>1280</dim>
				</port>
			</input>
			<output>
				<port id="2" precision="FP32" names="226,input.3">
					<dim>-1</dim>
					<dim>1500</dim>
					<dim>1280</dim>
				</port>
			</output>
		</layer>
		<layer id="75" name="__module.layers.0/aten::add/Add" type="Add" version="opset1">
			<data auto_broadcast="numpy" />
			<input>
				<port id="0" precision="FP32">
					<dim>-1</dim>
					<dim>1500</dim>
					<dim>1280</dim>
				</port>
				<port id="1" precision="FP32">
					<dim>-1</dim>
					<dim>1500</dim>
					<dim>1280</dim>
				</port>
			</input>
			<output>
				<port id="2" precision="FP32" names="228,residual.3">
					<dim>-1</dim>
					<dim>1500</dim>
					<dim>1280</dim>
				</port>
			</output>
		</layer>
		<layer id="76" name="__module.layers.0.final_layer_norm/aten::layer_norm/Multiply" type="Const" version="opset1">
			<data element_type="i32" shape="1" offset="14658584" size="4" />
			<output>
				<port id="0" precision="I32">
					<dim>1</dim>
				</port>
			</output>
		</layer>
		<layer id="77" name="__module.layers.0.final_layer_norm/aten::layer_norm/MVN" type="MVN" version="opset6">
			<data eps="9.9999997473787516e-06" normalize_variance="true" eps_mode="INSIDE_SQRT" />
			<input>
				<port id="0" precision="FP32">
					<dim>-1</dim>
					<dim>1500</dim>
					<dim>1280</dim>
				</port>
				<port id="1" precision="I32">
					<dim>1</dim>
				</port>
			</input>
			<output>
				<port id="2" precision="FP32">
					<dim>-1</dim>
					<dim>1500</dim>
					<dim>1280</dim>
				</port>
			</output>
		</layer>
		<layer id="78" name="Constant_54572_compressed" type="Const" version="opset1">
			<data element_type="f16" shape="1, 1, 1280" offset="27778696" size="2560" />
			<output>
				<port id="0" precision="FP16">
					<dim>1</dim>
					<dim>1</dim>
					<dim>1280</dim>
				</port>
			</output>
		</layer>
		<layer id="79" name="Constant_54572" type="Convert" version="opset1">
			<data destination_type="f32" />
			<rt_info>
				<attribute name="decompression" version="0" />
			</rt_info>
			<input>
				<port id="0" precision="FP16">
					<dim>1</dim>
					<dim>1</dim>
					<dim>1280</dim>
				</port>
			</input>
			<output>
				<port id="1" precision="FP32">
					<dim>1</dim>
					<dim>1</dim>
					<dim>1280</dim>
				</port>
			</output>
		</layer>
		<layer id="80" name="__module.layers.0.final_layer_norm/aten::layer_norm/Multiply_1" type="Multiply" version="opset1">
			<data auto_broadcast="numpy" />
			<input>
				<port id="0" precision="FP32">
					<dim>-1</dim>
					<dim>1500</dim>
					<dim>1280</dim>
				</port>
				<port id="1" precision="FP32">
					<dim>1</dim>
					<dim>1</dim>
					<dim>1280</dim>
				</port>
			</input>
			<output>
				<port id="2" precision="FP32">
					<dim>-1</dim>
					<dim>1500</dim>
					<dim>1280</dim>
				</port>
			</output>
		</layer>
		<layer id="81" name="Constant_54573_compressed" type="Const" version="opset1">
			<data element_type="f16" shape="1, 1, 1280" offset="27781256" size="2560" />
			<output>
				<port id="0" precision="FP16">
					<dim>1</dim>
					<dim>1</dim>
					<dim>1280</dim>
				</port>
			</output>
		</layer>
		<layer id="82" name="Constant_54573" type="Convert" version="opset1">
			<data destination_type="f32" />
			<rt_info>
				<attribute name="decompression" version="0" />
			</rt_info>
			<input>
				<port id="0" precision="FP16">
					<dim>1</dim>
					<dim>1</dim>
					<dim>1280</dim>
				</port>
			</input>
			<output>
				<port id="1" precision="FP32">
					<dim>1</dim>
					<dim>1</dim>
					<dim>1280</dim>
				</port>
			</output>
		</layer>
		<layer id="83" name="__module.layers.0.final_layer_norm/aten::layer_norm/Add" type="Add" version="opset1">
			<data auto_broadcast="numpy" />
			<input>
				<port id="0" precision="FP32">
					<dim>-1</dim>
					<dim>1500</dim>
					<dim>1280</dim>
				</port>
				<port id="1" precision="FP32">
					<dim>1</dim>
					<dim>1</dim>
					<dim>1280</dim>
				</port>
			</input>
			<output>
				<port id="2" precision="FP32" names="232">
					<dim>-1</dim>
					<dim>1500</dim>
					<dim>1280</dim>
				</port>
			</output>
		</layer>
		<layer id="84" name="self.layers.0.fc1.weight_compressed" type="Const" version="opset1">
			<data element_type="f16" shape="5120, 1280" offset="27783816" size="13107200" />
			<output>
				<port id="0" precision="FP16" names="self.layers.0.fc1.weight">
					<dim>5120</dim>
					<dim>1280</dim>
				</port>
			</output>
		</layer>
		<layer id="85" name="self.layers.0.fc1.weight" type="Convert" version="opset1">
			<data destination_type="f32" />
			<rt_info>
				<attribute name="decompression" version="0" />
			</rt_info>
			<input>
				<port id="0" precision="FP16">
					<dim>5120</dim>
					<dim>1280</dim>
				</port>
			</input>
			<output>
				<port id="1" precision="FP32">
					<dim>5120</dim>
					<dim>1280</dim>
				</port>
			</output>
		</layer>
		<layer id="86" name="__module.layers.0.fc1/aten::linear/MatMul" type="MatMul" version="opset1">
			<data transpose_a="false" transpose_b="true" />
			<input>
				<port id="0" precision="FP32">
					<dim>-1</dim>
					<dim>1500</dim>
					<dim>1280</dim>
				</port>
				<port id="1" precision="FP32">
					<dim>5120</dim>
					<dim>1280</dim>
				</port>
			</input>
			<output>
				<port id="2" precision="FP32">
					<dim>-1</dim>
					<dim>1500</dim>
					<dim>5120</dim>
				</port>
			</output>
		</layer>
		<layer id="87" name="Constant_54574_compressed" type="Const" version="opset1">
			<data element_type="f16" shape="1, 1, 5120" offset="40891016" size="10240" />
			<output>
				<port id="0" precision="FP16">
					<dim>1</dim>
					<dim>1</dim>
					<dim>5120</dim>
				</port>
			</output>
		</layer>
		<layer id="88" name="Constant_54574" type="Convert" version="opset1">
			<data destination_type="f32" />
			<rt_info>
				<attribute name="decompression" version="0" />
			</rt_info>
			<input>
				<port id="0" precision="FP16">
					<dim>1</dim>
					<dim>1</dim>
					<dim>5120</dim>
				</port>
			</input>
			<output>
				<port id="1" precision="FP32">
					<dim>1</dim>
					<dim>1</dim>
					<dim>5120</dim>
				</port>
			</output>
		</layer>
		<layer id="89" name="__module.layers.0.fc1/aten::linear/Add" type="Add" version="opset1">
			<data auto_broadcast="numpy" />
			<input>
				<port id="0" precision="FP32">
					<dim>-1</dim>
					<dim>1500</dim>
					<dim>5120</dim>
				</port>
				<port id="1" precision="FP32">
					<dim>1</dim>
					<dim>1</dim>
					<dim>5120</dim>
				</port>
			</input>
			<output>
				<port id="2" precision="FP32" names="235,input.5">
					<dim>-1</dim>
					<dim>1500</dim>
					<dim>5120</dim>
				</port>
			</output>
		</layer>
		<layer id="90" name="__module.layers.0.activation_fn/aten::gelu/Gelu" type="Gelu" version="opset7">
			<data approximation_mode="ERF" />
			<input>
				<port id="0" precision="FP32">
					<dim>-1</dim>
					<dim>1500</dim>
					<dim>5120</dim>
				</port>
			</input>
			<output>
				<port id="1" precision="FP32" names="236,input.7">
					<dim>-1</dim>
					<dim>1500</dim>
					<dim>5120</dim>
				</port>
			</output>
		</layer>
		<layer id="91" name="self.layers.0.fc2.weight_compressed" type="Const" version="opset1">
			<data element_type="f16" shape="1280, 5120" offset="40901256" size="13107200" />
			<output>
				<port id="0" precision="FP16" names="self.layers.0.fc2.weight">
					<dim>1280</dim>
					<dim>5120</dim>
				</port>
			</output>
		</layer>
		<layer id="92" name="self.layers.0.fc2.weight" type="Convert" version="opset1">
			<data destination_type="f32" />
			<rt_info>
				<attribute name="decompression" version="0" />
			</rt_info>
			<input>
				<port id="0" precision="FP16">
					<dim>1280</dim>
					<dim>5120</dim>
				</port>
			</input>
			<output>
				<port id="1" precision="FP32">
					<dim>1280</dim>
					<dim>5120</dim>
				</port>
			</output>
		</layer>
		<layer id="93" name="__module.layers.0.fc2/aten::linear/MatMul" type="MatMul" version="opset1">
			<data transpose_a="false" transpose_b="true" />
			<input>
				<port id="0" precision="FP32">
					<dim>-1</dim>
					<dim>1500</dim>
					<dim>5120</dim>
				</port>
				<port id="1" precision="FP32">
					<dim>1280</dim>
					<dim>5120</dim>
				</port>
			</input>
			<output>
				<port id="2" precision="FP32">
					<dim>-1</dim>
					<dim>1500</dim>
					<dim>1280</dim>
				</port>
			</output>
		</layer>
		<layer id="94" name="Constant_54575_compressed" type="Const" version="opset1">
			<data element_type="f16" shape="1, 1, 1280" offset="54008456" size="2560" />
			<output>
				<port id="0" precision="FP16">
					<dim>1</dim>
					<dim>1</dim>
					<dim>1280</dim>
				</port>
			</output>
		</layer>
		<layer id="95" name="Constant_54575" type="Convert" version="opset1">
			<data destination_type="f32" />
			<rt_info>
				<attribute name="decompression" version="0" />
			</rt_info>
			<input>
				<port id="0" precision="FP16">
					<dim>1</dim>
					<dim>1</dim>
					<dim>1280</dim>
				</port>
			</input>
			<output>
				<port id="1" precision="FP32">
					<dim>1</dim>
					<dim>1</dim>
					<dim>1280</dim>
				</port>
			</output>
		</layer>
		<layer id="96" name="__module.layers.0.fc2/aten::linear/Add" type="Add" version="opset1">
			<data auto_broadcast="numpy" />
			<input>
				<port id="0" precision="FP32">
					<dim>-1</dim>
					<dim>1500</dim>
					<dim>1280</dim>
				</port>
				<port id="1" precision="FP32">
					<dim>1</dim>
					<dim>1</dim>
					<dim>1280</dim>
				</port>
			</input>
			<output>
				<port id="2" precision="FP32" names="240,input.9">
					<dim>-1</dim>
					<dim>1500</dim>
					<dim>1280</dim>
				</port>
			</output>
		</layer>
		<layer id="97" name="__module.layers.0/aten::add/Add_1" type="Add" version="opset1">
			<data auto_broadcast="numpy" />
			<input>
				<port id="0" precision="FP32">
					<dim>-1</dim>
					<dim>1500</dim>
					<dim>1280</dim>
				</port>
				<port id="1" precision="FP32">
					<dim>-1</dim>
					<dim>1500</dim>
					<dim>1280</dim>
				</port>
			</input>
			<output>
				<port id="2" precision="FP32" names="242,residual.5">
					<dim>-1</dim>
					<dim>1500</dim>
					<dim>1280</dim>
				</port>
			</output>
		</layer>
		<layer id="98" name="__module.layers.1.self_attn_layer_norm/aten::layer_norm/Multiply" type="Const" version="opset1">
			<data element_type="i32" shape="1" offset="14658584" size="4" />
			<output>
				<port id="0" precision="I32">
					<dim>1</dim>
				</port>
			</output>
		</layer>
		<layer id="99" name="__module.layers.1.self_attn_layer_norm/aten::layer_norm/MVN" type="MVN" version="opset6">
			<data eps="9.9999997473787516e-06" normalize_variance="true" eps_mode="INSIDE_SQRT" />
			<input>
				<port id="0" precision="FP32">
					<dim>-1</dim>
					<dim>1500</dim>
					<dim>1280</dim>
				</port>
				<port id="1" precision="I32">
					<dim>1</dim>
				</port>
			</input>
			<output>
				<port id="2" precision="FP32">
					<dim>-1</dim>
					<dim>1500</dim>
					<dim>1280</dim>
				</port>
			</output>
		</layer>
		<layer id="100" name="Constant_54576_compressed" type="Const" version="opset1">
			<data element_type="f16" shape="1, 1, 1280" offset="54011016" size="2560" />
			<output>
				<port id="0" precision="FP16">
					<dim>1</dim>
					<dim>1</dim>
					<dim>1280</dim>
				</port>
			</output>
		</layer>
		<layer id="101" name="Constant_54576" type="Convert" version="opset1">
			<data destination_type="f32" />
			<rt_info>
				<attribute name="decompression" version="0" />
			</rt_info>
			<input>
				<port id="0" precision="FP16">
					<dim>1</dim>
					<dim>1</dim>
					<dim>1280</dim>
				</port>
			</input>
			<output>
				<port id="1" precision="FP32">
					<dim>1</dim>
					<dim>1</dim>
					<dim>1280</dim>
				</port>
			</output>
		</layer>
		<layer id="102" name="__module.layers.1.self_attn_layer_norm/aten::layer_norm/Multiply_1" type="Multiply" version="opset1">
			<data auto_broadcast="numpy" />
			<input>
				<port id="0" precision="FP32">
					<dim>-1</dim>
					<dim>1500</dim>
					<dim>1280</dim>
				</port>
				<port id="1" precision="FP32">
					<dim>1</dim>
					<dim>1</dim>
					<dim>1280</dim>
				</port>
			</input>
			<output>
				<port id="2" precision="FP32">
					<dim>-1</dim>
					<dim>1500</dim>
					<dim>1280</dim>
				</port>
			</output>
		</layer>
		<layer id="103" name="Constant_54577_compressed" type="Const" version="opset1">
			<data element_type="f16" shape="1, 1, 1280" offset="54013576" size="2560" />
			<output>
				<port id="0" precision="FP16">
					<dim>1</dim>
					<dim>1</dim>
					<dim>1280</dim>
				</port>
			</output>
		</layer>
		<layer id="104" name="Constant_54577" type="Convert" version="opset1">
			<data destination_type="f32" />
			<rt_info>
				<attribute name="decompression" version="0" />
			</rt_info>
			<input>
				<port id="0" precision="FP16">
					<dim>1</dim>
					<dim>1</dim>
					<dim>1280</dim>
				</port>
			</input>
			<output>
				<port id="1" precision="FP32">
					<dim>1</dim>
					<dim>1</dim>
					<dim>1280</dim>
				</port>
			</output>
		</layer>
		<layer id="105" name="__module.layers.1.self_attn_layer_norm/aten::layer_norm/Add" type="Add" version="opset1">
			<data auto_broadcast="numpy" />
			<input>
				<port id="0" precision="FP32">
					<dim>-1</dim>
					<dim>1500</dim>
					<dim>1280</dim>
				</port>
				<port id="1" precision="FP32">
					<dim>1</dim>
					<dim>1</dim>
					<dim>1280</dim>
				</port>
			</input>
			<output>
				<port id="2" precision="FP32" names="267,hidden_states.7">
					<dim>-1</dim>
					<dim>1500</dim>
					<dim>1280</dim>
				</port>
			</output>
		</layer>
		<layer id="106" name="self.layers.1.self_attn.q_proj.weight_compressed" type="Const" version="opset1">
			<data element_type="f16" shape="1280, 1280" offset="54016136" size="3276800" />
			<output>
				<port id="0" precision="FP16" names="self.layers.1.self_attn.q_proj.weight">
					<dim>1280</dim>
					<dim>1280</dim>
				</port>
			</output>
		</layer>
		<layer id="107" name="self.layers.1.self_attn.q_proj.weight" type="Convert" version="opset1">
			<data destination_type="f32" />
			<rt_info>
				<attribute name="decompression" version="0" />
			</rt_info>
			<input>
				<port id="0" precision="FP16">
					<dim>1280</dim>
					<dim>1280</dim>
				</port>
			</input>
			<output>
				<port id="1" precision="FP32">
					<dim>1280</dim>
					<dim>1280</dim>
				</port>
			</output>
		</layer>
		<layer id="108" name="__module.layers.1.self_attn.q_proj/aten::linear/MatMul" type="MatMul" version="opset1">
			<data transpose_a="false" transpose_b="true" />
			<input>
				<port id="0" precision="FP32">
					<dim>-1</dim>
					<dim>1500</dim>
					<dim>1280</dim>
				</port>
				<port id="1" precision="FP32">
					<dim>1280</dim>
					<dim>1280</dim>
				</port>
			</input>
			<output>
				<port id="2" precision="FP32">
					<dim>-1</dim>
					<dim>1500</dim>
					<dim>1280</dim>
				</port>
			</output>
		</layer>
		<layer id="109" name="Constant_54578_compressed" type="Const" version="opset1">
			<data element_type="f16" shape="1, 1, 1280" offset="57292936" size="2560" />
			<output>
				<port id="0" precision="FP16">
					<dim>1</dim>
					<dim>1</dim>
					<dim>1280</dim>
				</port>
			</output>
		</layer>
		<layer id="110" name="Constant_54578" type="Convert" version="opset1">
			<data destination_type="f32" />
			<rt_info>
				<attribute name="decompression" version="0" />
			</rt_info>
			<input>
				<port id="0" precision="FP16">
					<dim>1</dim>
					<dim>1</dim>
					<dim>1280</dim>
				</port>
			</input>
			<output>
				<port id="1" precision="FP32">
					<dim>1</dim>
					<dim>1</dim>
					<dim>1280</dim>
				</port>
			</output>
		</layer>
		<layer id="111" name="__module.layers.1.self_attn.q_proj/aten::linear/Add" type="Add" version="opset1">
			<data auto_broadcast="numpy" />
			<input>
				<port id="0" precision="FP32">
					<dim>-1</dim>
					<dim>1500</dim>
					<dim>1280</dim>
				</port>
				<port id="1" precision="FP32">
					<dim>1</dim>
					<dim>1</dim>
					<dim>1280</dim>
				</port>
			</input>
			<output>
				<port id="2" precision="FP32" names="276,tensor.7">
					<dim>-1</dim>
					<dim>1500</dim>
					<dim>1280</dim>
				</port>
			</output>
		</layer>
		<layer id="112" name="Constant_55410" type="Const" version="opset1">
			<data element_type="i64" shape="4" offset="17943068" size="32" />
			<rt_info>
				<attribute name="precise" version="0" />
			</rt_info>
			<output>
				<port id="0" precision="I64">
					<dim>4</dim>
				</port>
			</output>
		</layer>
		<layer id="113" name="__module.layers.1.self_attn/aten::view/Reshape" type="Reshape" version="opset1">
			<data special_zero="true" />
			<input>
				<port id="0" precision="FP32">
					<dim>-1</dim>
					<dim>1500</dim>
					<dim>1280</dim>
				</port>
				<port id="1" precision="I64">
					<dim>4</dim>
				</port>
			</input>
			<output>
				<port id="2" precision="FP32" names="278">
					<dim>-1</dim>
					<dim>1500</dim>
					<dim>20</dim>
					<dim>64</dim>
				</port>
			</output>
		</layer>
		<layer id="114" name="__module.layers.1.self_attn/aten::transpose/ScatterElementsUpdate" type="Const" version="opset1">
			<data element_type="i32" shape="4" offset="17943100" size="16" />
			<output>
				<port id="0" precision="I32">
					<dim>4</dim>
				</port>
			</output>
		</layer>
		<layer id="115" name="__module.layers.1.self_attn/aten::transpose/Transpose" type="Transpose" version="opset1">
			<input>
				<port id="0" precision="FP32">
					<dim>-1</dim>
					<dim>1500</dim>
					<dim>20</dim>
					<dim>64</dim>
				</port>
				<port id="1" precision="I32">
					<dim>4</dim>
				</port>
			</input>
			<output>
				<port id="2" precision="FP32" names="279">
					<dim>-1</dim>
					<dim>20</dim>
					<dim>1500</dim>
					<dim>64</dim>
				</port>
			</output>
		</layer>
		<layer id="116" name="self.layers.1.self_attn.k_proj.weight_compressed" type="Const" version="opset1">
			<data element_type="f16" shape="1280, 1280" offset="57295496" size="3276800" />
			<output>
				<port id="0" precision="FP16" names="self.layers.1.self_attn.k_proj.weight">
					<dim>1280</dim>
					<dim>1280</dim>
				</port>
			</output>
		</layer>
		<layer id="117" name="self.layers.1.self_attn.k_proj.weight" type="Convert" version="opset1">
			<data destination_type="f32" />
			<rt_info>
				<attribute name="decompression" version="0" />
			</rt_info>
			<input>
				<port id="0" precision="FP16">
					<dim>1280</dim>
					<dim>1280</dim>
				</port>
			</input>
			<output>
				<port id="1" precision="FP32">
					<dim>1280</dim>
					<dim>1280</dim>
				</port>
			</output>
		</layer>
		<layer id="118" name="__module.layers.1.self_attn.k_proj/aten::linear/MatMul" type="MatMul" version="opset1">
			<data transpose_a="false" transpose_b="true" />
			<input>
				<port id="0" precision="FP32">
					<dim>-1</dim>
					<dim>1500</dim>
					<dim>1280</dim>
				</port>
				<port id="1" precision="FP32">
					<dim>1280</dim>
					<dim>1280</dim>
				</port>
			</input>
			<output>
				<port id="2" precision="FP32" names="282,tensor.9">
					<dim>-1</dim>
					<dim>1500</dim>
					<dim>1280</dim>
				</port>
			</output>
		</layer>
		<layer id="119" name="Constant_55411" type="Const" version="opset1">
			<data element_type="i64" shape="4" offset="17943068" size="32" />
			<rt_info>
				<attribute name="precise" version="0" />
			</rt_info>
			<output>
				<port id="0" precision="I64">
					<dim>4</dim>
				</port>
			</output>
		</layer>
		<layer id="120" name="__module.layers.1.self_attn/aten::view/Reshape_1" type="Reshape" version="opset1">
			<data special_zero="true" />
			<input>
				<port id="0" precision="FP32">
					<dim>-1</dim>
					<dim>1500</dim>
					<dim>1280</dim>
				</port>
				<port id="1" precision="I64">
					<dim>4</dim>
				</port>
			</input>
			<output>
				<port id="2" precision="FP32" names="284">
					<dim>-1</dim>
					<dim>1500</dim>
					<dim>20</dim>
					<dim>64</dim>
				</port>
			</output>
		</layer>
		<layer id="121" name="__module.layers.1.self_attn/aten::transpose/ScatterElementsUpdate_1" type="Const" version="opset1">
			<data element_type="i32" shape="4" offset="17943100" size="16" />
			<output>
				<port id="0" precision="I32">
					<dim>4</dim>
				</port>
			</output>
		</layer>
		<layer id="122" name="__module.layers.1.self_attn/aten::transpose/Transpose_1" type="Transpose" version="opset1">
			<input>
				<port id="0" precision="FP32">
					<dim>-1</dim>
					<dim>1500</dim>
					<dim>20</dim>
					<dim>64</dim>
				</port>
				<port id="1" precision="I32">
					<dim>4</dim>
				</port>
			</input>
			<output>
				<port id="2" precision="FP32" names="285">
					<dim>-1</dim>
					<dim>20</dim>
					<dim>1500</dim>
					<dim>64</dim>
				</port>
			</output>
		</layer>
		<layer id="123" name="self.layers.1.self_attn.v_proj.weight_compressed" type="Const" version="opset1">
			<data element_type="f16" shape="1280, 1280" offset="60572296" size="3276800" />
			<output>
				<port id="0" precision="FP16" names="self.layers.1.self_attn.v_proj.weight">
					<dim>1280</dim>
					<dim>1280</dim>
				</port>
			</output>
		</layer>
		<layer id="124" name="self.layers.1.self_attn.v_proj.weight" type="Convert" version="opset1">
			<data destination_type="f32" />
			<rt_info>
				<attribute name="decompression" version="0" />
			</rt_info>
			<input>
				<port id="0" precision="FP16">
					<dim>1280</dim>
					<dim>1280</dim>
				</port>
			</input>
			<output>
				<port id="1" precision="FP32">
					<dim>1280</dim>
					<dim>1280</dim>
				</port>
			</output>
		</layer>
		<layer id="125" name="__module.layers.1.self_attn.v_proj/aten::linear/MatMul" type="MatMul" version="opset1">
			<data transpose_a="false" transpose_b="true" />
			<input>
				<port id="0" precision="FP32">
					<dim>-1</dim>
					<dim>1500</dim>
					<dim>1280</dim>
				</port>
				<port id="1" precision="FP32">
					<dim>1280</dim>
					<dim>1280</dim>
				</port>
			</input>
			<output>
				<port id="2" precision="FP32">
					<dim>-1</dim>
					<dim>1500</dim>
					<dim>1280</dim>
				</port>
			</output>
		</layer>
		<layer id="126" name="Constant_54579_compressed" type="Const" version="opset1">
			<data element_type="f16" shape="1, 1, 1280" offset="63849096" size="2560" />
			<output>
				<port id="0" precision="FP16">
					<dim>1</dim>
					<dim>1</dim>
					<dim>1280</dim>
				</port>
			</output>
		</layer>
		<layer id="127" name="Constant_54579" type="Convert" version="opset1">
			<data destination_type="f32" />
			<rt_info>
				<attribute name="decompression" version="0" />
			</rt_info>
			<input>
				<port id="0" precision="FP16">
					<dim>1</dim>
					<dim>1</dim>
					<dim>1280</dim>
				</port>
			</input>
			<output>
				<port id="1" precision="FP32">
					<dim>1</dim>
					<dim>1</dim>
					<dim>1280</dim>
				</port>
			</output>
		</layer>
		<layer id="128" name="__module.layers.1.self_attn.v_proj/aten::linear/Add" type="Add" version="opset1">
			<data auto_broadcast="numpy" />
			<input>
				<port id="0" precision="FP32">
					<dim>-1</dim>
					<dim>1500</dim>
					<dim>1280</dim>
				</port>
				<port id="1" precision="FP32">
					<dim>1</dim>
					<dim>1</dim>
					<dim>1280</dim>
				</port>
			</input>
			<output>
				<port id="2" precision="FP32" names="289,tensor.11">
					<dim>-1</dim>
					<dim>1500</dim>
					<dim>1280</dim>
				</port>
			</output>
		</layer>
		<layer id="129" name="Constant_55412" type="Const" version="opset1">
			<data element_type="i64" shape="4" offset="17943068" size="32" />
			<rt_info>
				<attribute name="precise" version="0" />
			</rt_info>
			<output>
				<port id="0" precision="I64">
					<dim>4</dim>
				</port>
			</output>
		</layer>
		<layer id="130" name="__module.layers.1.self_attn/aten::view/Reshape_2" type="Reshape" version="opset1">
			<data special_zero="true" />
			<input>
				<port id="0" precision="FP32">
					<dim>-1</dim>
					<dim>1500</dim>
					<dim>1280</dim>
				</port>
				<port id="1" precision="I64">
					<dim>4</dim>
				</port>
			</input>
			<output>
				<port id="2" precision="FP32" names="291">
					<dim>-1</dim>
					<dim>1500</dim>
					<dim>20</dim>
					<dim>64</dim>
				</port>
			</output>
		</layer>
		<layer id="131" name="__module.layers.1.self_attn/aten::transpose/ScatterElementsUpdate_2" type="Const" version="opset1">
			<data element_type="i32" shape="4" offset="17943100" size="16" />
			<output>
				<port id="0" precision="I32">
					<dim>4</dim>
				</port>
			</output>
		</layer>
		<layer id="132" name="__module.layers.1.self_attn/aten::transpose/Transpose_2" type="Transpose" version="opset1">
			<input>
				<port id="0" precision="FP32">
					<dim>-1</dim>
					<dim>1500</dim>
					<dim>20</dim>
					<dim>64</dim>
				</port>
				<port id="1" precision="I32">
					<dim>4</dim>
				</port>
			</input>
			<output>
				<port id="2" precision="FP32" names="292">
					<dim>-1</dim>
					<dim>20</dim>
					<dim>1500</dim>
					<dim>64</dim>
				</port>
			</output>
		</layer>
		<layer id="133" name="__module.layers.1.self_attn/aten::slice/Reshape_12" type="Const" version="opset1">
			<data element_type="i64" shape="1" offset="24499276" size="8" />
			<output>
				<port id="0" precision="I64">
					<dim>1</dim>
				</port>
			</output>
		</layer>
		<layer id="134" name="__module.layers.1.self_attn/aten::size/ShapeOf_2" type="ShapeOf" version="opset3">
			<data output_type="i64" />
			<input>
				<port id="0" precision="FP32">
					<dim>-1</dim>
					<dim>20</dim>
					<dim>1500</dim>
					<dim>64</dim>
				</port>
			</input>
			<output>
				<port id="1" precision="I64">
					<dim>4</dim>
				</port>
			</output>
		</layer>
		<layer id="135" name="Constant_52161" type="Const" version="opset1">
			<data element_type="i64" shape="1" offset="24499284" size="8" />
			<output>
				<port id="0" precision="I64">
					<dim>1</dim>
				</port>
			</output>
		</layer>
		<layer id="136" name="__module.layers.1.self_attn/aten::size/Constant_2" type="Const" version="opset1">
			<data element_type="i32" shape="" offset="24499292" size="4" />
			<output>
				<port id="0" precision="I32" />
			</output>
		</layer>
		<layer id="137" name="__module.layers.1.self_attn/aten::size/Gather_2" type="Gather" version="opset8">
			<data batch_dims="0" />
			<input>
				<port id="0" precision="I64">
					<dim>4</dim>
				</port>
				<port id="1" precision="I64">
					<dim>1</dim>
				</port>
				<port id="2" precision="I32" />
			</input>
			<output>
				<port id="3" precision="I64" names="294">
					<dim>1</dim>
				</port>
			</output>
		</layer>
		<layer id="138" name="__module.layers.1.self_attn/aten::slice/Reshape_14" type="Const" version="opset1">
			<data element_type="i64" shape="1" offset="24499296" size="8" />
			<output>
				<port id="0" precision="I64">
					<dim>1</dim>
				</port>
			</output>
		</layer>
		<layer id="139" name="__module.layers.1.self_attn/aten::slice/Reshape_15" type="Const" version="opset1">
			<data element_type="i64" shape="1" offset="24499304" size="8" />
			<output>
				<port id="0" precision="I64">
					<dim>1</dim>
				</port>
			</output>
		</layer>
		<layer id="140" name="__module.layers.1.self_attn/aten::slice/Slice_3" type="Slice" version="opset8">
			<input>
				<port id="0" precision="FP32">
					<dim>-1</dim>
					<dim>-1</dim>
					<dim>-1</dim>
					<dim>-1</dim>
				</port>
				<port id="1" precision="I64">
					<dim>1</dim>
				</port>
				<port id="2" precision="I64">
					<dim>1</dim>
				</port>
				<port id="3" precision="I64">
					<dim>1</dim>
				</port>
				<port id="4" precision="I64">
					<dim>1</dim>
				</port>
			</input>
			<output>
				<port id="5" precision="FP32" names="298">
					<dim>-1</dim>
					<dim>-1</dim>
					<dim>-1</dim>
					<dim>-1</dim>
				</port>
			</output>
		</layer>
		<layer id="141" name="__module.layers.1.self_attn/aten::scaled_dot_product_attention/ScaledDotProductAttention" type="ScaledDotProductAttention" version="opset13">
			<data causal="false" />
			<input>
				<port id="0" precision="FP32">
					<dim>-1</dim>
					<dim>20</dim>
					<dim>1500</dim>
					<dim>64</dim>
				</port>
				<port id="1" precision="FP32">
					<dim>-1</dim>
					<dim>20</dim>
					<dim>1500</dim>
					<dim>64</dim>
				</port>
				<port id="2" precision="FP32">
					<dim>-1</dim>
					<dim>20</dim>
					<dim>1500</dim>
					<dim>64</dim>
				</port>
				<port id="3" precision="FP32">
					<dim>-1</dim>
					<dim>-1</dim>
					<dim>-1</dim>
					<dim>-1</dim>
				</port>
			</input>
			<output>
				<port id="4" precision="FP32" names="299,attn_output.5">
					<dim>-1</dim>
					<dim>20</dim>
					<dim>1500</dim>
					<dim>64</dim>
				</port>
			</output>
		</layer>
		<layer id="142" name="__module.layers.1.self_attn/aten::transpose/ScatterElementsUpdate_3" type="Const" version="opset1">
			<data element_type="i32" shape="4" offset="17943100" size="16" />
			<output>
				<port id="0" precision="I32">
					<dim>4</dim>
				</port>
			</output>
		</layer>
		<layer id="143" name="__module.layers.1.self_attn/aten::transpose/Transpose_3" type="Transpose" version="opset1">
			<input>
				<port id="0" precision="FP32">
					<dim>-1</dim>
					<dim>20</dim>
					<dim>1500</dim>
					<dim>64</dim>
				</port>
				<port id="1" precision="I32">
					<dim>4</dim>
				</port>
			</input>
			<output>
				<port id="2" precision="FP32" names="300,attn_output.7">
					<dim>-1</dim>
					<dim>1500</dim>
					<dim>20</dim>
					<dim>64</dim>
				</port>
			</output>
		</layer>
		<layer id="144" name="Constant_55413" type="Const" version="opset1">
			<data element_type="i64" shape="3" offset="24499312" size="24" />
			<rt_info>
				<attribute name="precise" version="0" />
			</rt_info>
			<output>
				<port id="0" precision="I64">
					<dim>3</dim>
				</port>
			</output>
		</layer>
		<layer id="145" name="__module.layers.1.self_attn/aten::reshape/Reshape" type="Reshape" version="opset1">
			<data special_zero="true" />
			<input>
				<port id="0" precision="FP32">
					<dim>-1</dim>
					<dim>1500</dim>
					<dim>20</dim>
					<dim>64</dim>
				</port>
				<port id="1" precision="I64">
					<dim>3</dim>
				</port>
			</input>
			<output>
				<port id="2" precision="FP32" names="302">
					<dim>-1</dim>
					<dim>1500</dim>
					<dim>1280</dim>
				</port>
			</output>
		</layer>
		<layer id="146" name="self.layers.1.self_attn.out_proj.weight_compressed" type="Const" version="opset1">
			<data element_type="f16" shape="1280, 1280" offset="63851656" size="3276800" />
			<output>
				<port id="0" precision="FP16" names="self.layers.1.self_attn.out_proj.weight">
					<dim>1280</dim>
					<dim>1280</dim>
				</port>
			</output>
		</layer>
		<layer id="147" name="self.layers.1.self_attn.out_proj.weight" type="Convert" version="opset1">
			<data destination_type="f32" />
			<rt_info>
				<attribute name="decompression" version="0" />
			</rt_info>
			<input>
				<port id="0" precision="FP16">
					<dim>1280</dim>
					<dim>1280</dim>
				</port>
			</input>
			<output>
				<port id="1" precision="FP32">
					<dim>1280</dim>
					<dim>1280</dim>
				</port>
			</output>
		</layer>
		<layer id="148" name="__module.layers.1.self_attn.out_proj/aten::linear/MatMul" type="MatMul" version="opset1">
			<data transpose_a="false" transpose_b="true" />
			<input>
				<port id="0" precision="FP32">
					<dim>-1</dim>
					<dim>1500</dim>
					<dim>1280</dim>
				</port>
				<port id="1" precision="FP32">
					<dim>1280</dim>
					<dim>1280</dim>
				</port>
			</input>
			<output>
				<port id="2" precision="FP32">
					<dim>-1</dim>
					<dim>1500</dim>
					<dim>1280</dim>
				</port>
			</output>
		</layer>
		<layer id="149" name="Constant_54580_compressed" type="Const" version="opset1">
			<data element_type="f16" shape="1, 1, 1280" offset="67128456" size="2560" />
			<output>
				<port id="0" precision="FP16">
					<dim>1</dim>
					<dim>1</dim>
					<dim>1280</dim>
				</port>
			</output>
		</layer>
		<layer id="150" name="Constant_54580" type="Convert" version="opset1">
			<data destination_type="f32" />
			<rt_info>
				<attribute name="decompression" version="0" />
			</rt_info>
			<input>
				<port id="0" precision="FP16">
					<dim>1</dim>
					<dim>1</dim>
					<dim>1280</dim>
				</port>
			</input>
			<output>
				<port id="1" precision="FP32">
					<dim>1</dim>
					<dim>1</dim>
					<dim>1280</dim>
				</port>
			</output>
		</layer>
		<layer id="151" name="__module.layers.1.self_attn.out_proj/aten::linear/Add" type="Add" version="opset1">
			<data auto_broadcast="numpy" />
			<input>
				<port id="0" precision="FP32">
					<dim>-1</dim>
					<dim>1500</dim>
					<dim>1280</dim>
				</port>
				<port id="1" precision="FP32">
					<dim>1</dim>
					<dim>1</dim>
					<dim>1280</dim>
				</port>
			</input>
			<output>
				<port id="2" precision="FP32" names="305,input.11">
					<dim>-1</dim>
					<dim>1500</dim>
					<dim>1280</dim>
				</port>
			</output>
		</layer>
		<layer id="152" name="__module.layers.1/aten::add/Add" type="Add" version="opset1">
			<data auto_broadcast="numpy" />
			<input>
				<port id="0" precision="FP32">
					<dim>-1</dim>
					<dim>1500</dim>
					<dim>1280</dim>
				</port>
				<port id="1" precision="FP32">
					<dim>-1</dim>
					<dim>1500</dim>
					<dim>1280</dim>
				</port>
			</input>
			<output>
				<port id="2" precision="FP32" names="307,residual.7">
					<dim>-1</dim>
					<dim>1500</dim>
					<dim>1280</dim>
				</port>
			</output>
		</layer>
		<layer id="153" name="__module.layers.1.final_layer_norm/aten::layer_norm/Multiply" type="Const" version="opset1">
			<data element_type="i32" shape="1" offset="14658584" size="4" />
			<output>
				<port id="0" precision="I32">
					<dim>1</dim>
				</port>
			</output>
		</layer>
		<layer id="154" name="__module.layers.1.final_layer_norm/aten::layer_norm/MVN" type="MVN" version="opset6">
			<data eps="9.9999997473787516e-06" normalize_variance="true" eps_mode="INSIDE_SQRT" />
			<input>
				<port id="0" precision="FP32">
					<dim>-1</dim>
					<dim>1500</dim>
					<dim>1280</dim>
				</port>
				<port id="1" precision="I32">
					<dim>1</dim>
				</port>
			</input>
			<output>
				<port id="2" precision="FP32">
					<dim>-1</dim>
					<dim>1500</dim>
					<dim>1280</dim>
				</port>
			</output>
		</layer>
		<layer id="155" name="Constant_54581_compressed" type="Const" version="opset1">
			<data element_type="f16" shape="1, 1, 1280" offset="67131016" size="2560" />
			<output>
				<port id="0" precision="FP16">
					<dim>1</dim>
					<dim>1</dim>
					<dim>1280</dim>
				</port>
			</output>
		</layer>
		<layer id="156" name="Constant_54581" type="Convert" version="opset1">
			<data destination_type="f32" />
			<rt_info>
				<attribute name="decompression" version="0" />
			</rt_info>
			<input>
				<port id="0" precision="FP16">
					<dim>1</dim>
					<dim>1</dim>
					<dim>1280</dim>
				</port>
			</input>
			<output>
				<port id="1" precision="FP32">
					<dim>1</dim>
					<dim>1</dim>
					<dim>1280</dim>
				</port>
			</output>
		</layer>
		<layer id="157" name="__module.layers.1.final_layer_norm/aten::layer_norm/Multiply_1" type="Multiply" version="opset1">
			<data auto_broadcast="numpy" />
			<input>
				<port id="0" precision="FP32">
					<dim>-1</dim>
					<dim>1500</dim>
					<dim>1280</dim>
				</port>
				<port id="1" precision="FP32">
					<dim>1</dim>
					<dim>1</dim>
					<dim>1280</dim>
				</port>
			</input>
			<output>
				<port id="2" precision="FP32">
					<dim>-1</dim>
					<dim>1500</dim>
					<dim>1280</dim>
				</port>
			</output>
		</layer>
		<layer id="158" name="Constant_54582_compressed" type="Const" version="opset1">
			<data element_type="f16" shape="1, 1, 1280" offset="67133576" size="2560" />
			<output>
				<port id="0" precision="FP16">
					<dim>1</dim>
					<dim>1</dim>
					<dim>1280</dim>
				</port>
			</output>
		</layer>
		<layer id="159" name="Constant_54582" type="Convert" version="opset1">
			<data destination_type="f32" />
			<rt_info>
				<attribute name="decompression" version="0" />
			</rt_info>
			<input>
				<port id="0" precision="FP16">
					<dim>1</dim>
					<dim>1</dim>
					<dim>1280</dim>
				</port>
			</input>
			<output>
				<port id="1" precision="FP32">
					<dim>1</dim>
					<dim>1</dim>
					<dim>1280</dim>
				</port>
			</output>
		</layer>
		<layer id="160" name="__module.layers.1.final_layer_norm/aten::layer_norm/Add" type="Add" version="opset1">
			<data auto_broadcast="numpy" />
			<input>
				<port id="0" precision="FP32">
					<dim>-1</dim>
					<dim>1500</dim>
					<dim>1280</dim>
				</port>
				<port id="1" precision="FP32">
					<dim>1</dim>
					<dim>1</dim>
					<dim>1280</dim>
				</port>
			</input>
			<output>
				<port id="2" precision="FP32" names="311">
					<dim>-1</dim>
					<dim>1500</dim>
					<dim>1280</dim>
				</port>
			</output>
		</layer>
		<layer id="161" name="self.layers.1.fc1.weight_compressed" type="Const" version="opset1">
			<data element_type="f16" shape="5120, 1280" offset="67136136" size="13107200" />
			<output>
				<port id="0" precision="FP16" names="self.layers.1.fc1.weight">
					<dim>5120</dim>
					<dim>1280</dim>
				</port>
			</output>
		</layer>
		<layer id="162" name="self.layers.1.fc1.weight" type="Convert" version="opset1">
			<data destination_type="f32" />
			<rt_info>
				<attribute name="decompression" version="0" />
			</rt_info>
			<input>
				<port id="0" precision="FP16">
					<dim>5120</dim>
					<dim>1280</dim>
				</port>
			</input>
			<output>
				<port id="1" precision="FP32">
					<dim>5120</dim>
					<dim>1280</dim>
				</port>
			</output>
		</layer>
		<layer id="163" name="__module.layers.1.fc1/aten::linear/MatMul" type="MatMul" version="opset1">
			<data transpose_a="false" transpose_b="true" />
			<input>
				<port id="0" precision="FP32">
					<dim>-1</dim>
					<dim>1500</dim>
					<dim>1280</dim>
				</port>
				<port id="1" precision="FP32">
					<dim>5120</dim>
					<dim>1280</dim>
				</port>
			</input>
			<output>
				<port id="2" precision="FP32">
					<dim>-1</dim>
					<dim>1500</dim>
					<dim>5120</dim>
				</port>
			</output>
		</layer>
		<layer id="164" name="Constant_54583_compressed" type="Const" version="opset1">
			<data element_type="f16" shape="1, 1, 5120" offset="80243336" size="10240" />
			<output>
				<port id="0" precision="FP16">
					<dim>1</dim>
					<dim>1</dim>
					<dim>5120</dim>
				</port>
			</output>
		</layer>
		<layer id="165" name="Constant_54583" type="Convert" version="opset1">
			<data destination_type="f32" />
			<rt_info>
				<attribute name="decompression" version="0" />
			</rt_info>
			<input>
				<port id="0" precision="FP16">
					<dim>1</dim>
					<dim>1</dim>
					<dim>5120</dim>
				</port>
			</input>
			<output>
				<port id="1" precision="FP32">
					<dim>1</dim>
					<dim>1</dim>
					<dim>5120</dim>
				</port>
			</output>
		</layer>
		<layer id="166" name="__module.layers.1.fc1/aten::linear/Add" type="Add" version="opset1">
			<data auto_broadcast="numpy" />
			<input>
				<port id="0" precision="FP32">
					<dim>-1</dim>
					<dim>1500</dim>
					<dim>5120</dim>
				</port>
				<port id="1" precision="FP32">
					<dim>1</dim>
					<dim>1</dim>
					<dim>5120</dim>
				</port>
			</input>
			<output>
				<port id="2" precision="FP32" names="314,input.13">
					<dim>-1</dim>
					<dim>1500</dim>
					<dim>5120</dim>
				</port>
			</output>
		</layer>
		<layer id="167" name="__module.layers.1.activation_fn/aten::gelu/Gelu" type="Gelu" version="opset7">
			<data approximation_mode="ERF" />
			<input>
				<port id="0" precision="FP32">
					<dim>-1</dim>
					<dim>1500</dim>
					<dim>5120</dim>
				</port>
			</input>
			<output>
				<port id="1" precision="FP32" names="315,input.15">
					<dim>-1</dim>
					<dim>1500</dim>
					<dim>5120</dim>
				</port>
			</output>
		</layer>
		<layer id="168" name="self.layers.1.fc2.weight_compressed" type="Const" version="opset1">
			<data element_type="f16" shape="1280, 5120" offset="80253576" size="13107200" />
			<output>
				<port id="0" precision="FP16" names="self.layers.1.fc2.weight">
					<dim>1280</dim>
					<dim>5120</dim>
				</port>
			</output>
		</layer>
		<layer id="169" name="self.layers.1.fc2.weight" type="Convert" version="opset1">
			<data destination_type="f32" />
			<rt_info>
				<attribute name="decompression" version="0" />
			</rt_info>
			<input>
				<port id="0" precision="FP16">
					<dim>1280</dim>
					<dim>5120</dim>
				</port>
			</input>
			<output>
				<port id="1" precision="FP32">
					<dim>1280</dim>
					<dim>5120</dim>
				</port>
			</output>
		</layer>
		<layer id="170" name="__module.layers.1.fc2/aten::linear/MatMul" type="MatMul" version="opset1">
			<data transpose_a="false" transpose_b="true" />
			<input>
				<port id="0" precision="FP32">
					<dim>-1</dim>
					<dim>1500</dim>
					<dim>5120</dim>
				</port>
				<port id="1" precision="FP32">
					<dim>1280</dim>
					<dim>5120</dim>
				</port>
			</input>
			<output>
				<port id="2" precision="FP32">
					<dim>-1</dim>
					<dim>1500</dim>
					<dim>1280</dim>
				</port>
			</output>
		</layer>
		<layer id="171" name="Constant_54584_compressed" type="Const" version="opset1">
			<data element_type="f16" shape="1, 1, 1280" offset="93360776" size="2560" />
			<output>
				<port id="0" precision="FP16">
					<dim>1</dim>
					<dim>1</dim>
					<dim>1280</dim>
				</port>
			</output>
		</layer>
		<layer id="172" name="Constant_54584" type="Convert" version="opset1">
			<data destination_type="f32" />
			<rt_info>
				<attribute name="decompression" version="0" />
			</rt_info>
			<input>
				<port id="0" precision="FP16">
					<dim>1</dim>
					<dim>1</dim>
					<dim>1280</dim>
				</port>
			</input>
			<output>
				<port id="1" precision="FP32">
					<dim>1</dim>
					<dim>1</dim>
					<dim>1280</dim>
				</port>
			</output>
		</layer>
		<layer id="173" name="__module.layers.1.fc2/aten::linear/Add" type="Add" version="opset1">
			<data auto_broadcast="numpy" />
			<input>
				<port id="0" precision="FP32">
					<dim>-1</dim>
					<dim>1500</dim>
					<dim>1280</dim>
				</port>
				<port id="1" precision="FP32">
					<dim>1</dim>
					<dim>1</dim>
					<dim>1280</dim>
				</port>
			</input>
			<output>
				<port id="2" precision="FP32" names="319,input.17">
					<dim>-1</dim>
					<dim>1500</dim>
					<dim>1280</dim>
				</port>
			</output>
		</layer>
		<layer id="174" name="__module.layers.1/aten::add/Add_1" type="Add" version="opset1">
			<data auto_broadcast="numpy" />
			<input>
				<port id="0" precision="FP32">
					<dim>-1</dim>
					<dim>1500</dim>
					<dim>1280</dim>
				</port>
				<port id="1" precision="FP32">
					<dim>-1</dim>
					<dim>1500</dim>
					<dim>1280</dim>
				</port>
			</input>
			<output>
				<port id="2" precision="FP32" names="321,residual.9">
					<dim>-1</dim>
					<dim>1500</dim>
					<dim>1280</dim>
				</port>
			</output>
		</layer>
		<layer id="175" name="__module.layers.2.self_attn_layer_norm/aten::layer_norm/Multiply" type="Const" version="opset1">
			<data element_type="i32" shape="1" offset="14658584" size="4" />
			<output>
				<port id="0" precision="I32">
					<dim>1</dim>
				</port>
			</output>
		</layer>
		<layer id="176" name="__module.layers.2.self_attn_layer_norm/aten::layer_norm/MVN" type="MVN" version="opset6">
			<data eps="9.9999997473787516e-06" normalize_variance="true" eps_mode="INSIDE_SQRT" />
			<input>
				<port id="0" precision="FP32">
					<dim>-1</dim>
					<dim>1500</dim>
					<dim>1280</dim>
				</port>
				<port id="1" precision="I32">
					<dim>1</dim>
				</port>
			</input>
			<output>
				<port id="2" precision="FP32">
					<dim>-1</dim>
					<dim>1500</dim>
					<dim>1280</dim>
				</port>
			</output>
		</layer>
		<layer id="177" name="Constant_54585_compressed" type="Const" version="opset1">
			<data element_type="f16" shape="1, 1, 1280" offset="93363336" size="2560" />
			<output>
				<port id="0" precision="FP16">
					<dim>1</dim>
					<dim>1</dim>
					<dim>1280</dim>
				</port>
			</output>
		</layer>
		<layer id="178" name="Constant_54585" type="Convert" version="opset1">
			<data destination_type="f32" />
			<rt_info>
				<attribute name="decompression" version="0" />
			</rt_info>
			<input>
				<port id="0" precision="FP16">
					<dim>1</dim>
					<dim>1</dim>
					<dim>1280</dim>
				</port>
			</input>
			<output>
				<port id="1" precision="FP32">
					<dim>1</dim>
					<dim>1</dim>
					<dim>1280</dim>
				</port>
			</output>
		</layer>
		<layer id="179" name="__module.layers.2.self_attn_layer_norm/aten::layer_norm/Multiply_1" type="Multiply" version="opset1">
			<data auto_broadcast="numpy" />
			<input>
				<port id="0" precision="FP32">
					<dim>-1</dim>
					<dim>1500</dim>
					<dim>1280</dim>
				</port>
				<port id="1" precision="FP32">
					<dim>1</dim>
					<dim>1</dim>
					<dim>1280</dim>
				</port>
			</input>
			<output>
				<port id="2" precision="FP32">
					<dim>-1</dim>
					<dim>1500</dim>
					<dim>1280</dim>
				</port>
			</output>
		</layer>
		<layer id="180" name="Constant_54586_compressed" type="Const" version="opset1">
			<data element_type="f16" shape="1, 1, 1280" offset="93365896" size="2560" />
			<output>
				<port id="0" precision="FP16">
					<dim>1</dim>
					<dim>1</dim>
					<dim>1280</dim>
				</port>
			</output>
		</layer>
		<layer id="181" name="Constant_54586" type="Convert" version="opset1">
			<data destination_type="f32" />
			<rt_info>
				<attribute name="decompression" version="0" />
			</rt_info>
			<input>
				<port id="0" precision="FP16">
					<dim>1</dim>
					<dim>1</dim>
					<dim>1280</dim>
				</port>
			</input>
			<output>
				<port id="1" precision="FP32">
					<dim>1</dim>
					<dim>1</dim>
					<dim>1280</dim>
				</port>
			</output>
		</layer>
		<layer id="182" name="__module.layers.2.self_attn_layer_norm/aten::layer_norm/Add" type="Add" version="opset1">
			<data auto_broadcast="numpy" />
			<input>
				<port id="0" precision="FP32">
					<dim>-1</dim>
					<dim>1500</dim>
					<dim>1280</dim>
				</port>
				<port id="1" precision="FP32">
					<dim>1</dim>
					<dim>1</dim>
					<dim>1280</dim>
				</port>
			</input>
			<output>
				<port id="2" precision="FP32" names="346,hidden_states.13">
					<dim>-1</dim>
					<dim>1500</dim>
					<dim>1280</dim>
				</port>
			</output>
		</layer>
		<layer id="183" name="self.layers.2.self_attn.q_proj.weight_compressed" type="Const" version="opset1">
			<data element_type="f16" shape="1280, 1280" offset="93368456" size="3276800" />
			<output>
				<port id="0" precision="FP16" names="self.layers.2.self_attn.q_proj.weight">
					<dim>1280</dim>
					<dim>1280</dim>
				</port>
			</output>
		</layer>
		<layer id="184" name="self.layers.2.self_attn.q_proj.weight" type="Convert" version="opset1">
			<data destination_type="f32" />
			<rt_info>
				<attribute name="decompression" version="0" />
			</rt_info>
			<input>
				<port id="0" precision="FP16">
					<dim>1280</dim>
					<dim>1280</dim>
				</port>
			</input>
			<output>
				<port id="1" precision="FP32">
					<dim>1280</dim>
					<dim>1280</dim>
				</port>
			</output>
		</layer>
		<layer id="185" name="__module.layers.2.self_attn.q_proj/aten::linear/MatMul" type="MatMul" version="opset1">
			<data transpose_a="false" transpose_b="true" />
			<input>
				<port id="0" precision="FP32">
					<dim>-1</dim>
					<dim>1500</dim>
					<dim>1280</dim>
				</port>
				<port id="1" precision="FP32">
					<dim>1280</dim>
					<dim>1280</dim>
				</port>
			</input>
			<output>
				<port id="2" precision="FP32">
					<dim>-1</dim>
					<dim>1500</dim>
					<dim>1280</dim>
				</port>
			</output>
		</layer>
		<layer id="186" name="Constant_54587_compressed" type="Const" version="opset1">
			<data element_type="f16" shape="1, 1, 1280" offset="96645256" size="2560" />
			<output>
				<port id="0" precision="FP16">
					<dim>1</dim>
					<dim>1</dim>
					<dim>1280</dim>
				</port>
			</output>
		</layer>
		<layer id="187" name="Constant_54587" type="Convert" version="opset1">
			<data destination_type="f32" />
			<rt_info>
				<attribute name="decompression" version="0" />
			</rt_info>
			<input>
				<port id="0" precision="FP16">
					<dim>1</dim>
					<dim>1</dim>
					<dim>1280</dim>
				</port>
			</input>
			<output>
				<port id="1" precision="FP32">
					<dim>1</dim>
					<dim>1</dim>
					<dim>1280</dim>
				</port>
			</output>
		</layer>
		<layer id="188" name="__module.layers.2.self_attn.q_proj/aten::linear/Add" type="Add" version="opset1">
			<data auto_broadcast="numpy" />
			<input>
				<port id="0" precision="FP32">
					<dim>-1</dim>
					<dim>1500</dim>
					<dim>1280</dim>
				</port>
				<port id="1" precision="FP32">
					<dim>1</dim>
					<dim>1</dim>
					<dim>1280</dim>
				</port>
			</input>
			<output>
				<port id="2" precision="FP32" names="355,tensor.13">
					<dim>-1</dim>
					<dim>1500</dim>
					<dim>1280</dim>
				</port>
			</output>
		</layer>
		<layer id="189" name="Constant_55414" type="Const" version="opset1">
			<data element_type="i64" shape="4" offset="17943068" size="32" />
			<rt_info>
				<attribute name="precise" version="0" />
			</rt_info>
			<output>
				<port id="0" precision="I64">
					<dim>4</dim>
				</port>
			</output>
		</layer>
		<layer id="190" name="__module.layers.2.self_attn/aten::view/Reshape" type="Reshape" version="opset1">
			<data special_zero="true" />
			<input>
				<port id="0" precision="FP32">
					<dim>-1</dim>
					<dim>1500</dim>
					<dim>1280</dim>
				</port>
				<port id="1" precision="I64">
					<dim>4</dim>
				</port>
			</input>
			<output>
				<port id="2" precision="FP32" names="357">
					<dim>-1</dim>
					<dim>1500</dim>
					<dim>20</dim>
					<dim>64</dim>
				</port>
			</output>
		</layer>
		<layer id="191" name="__module.layers.2.self_attn/aten::transpose/ScatterElementsUpdate" type="Const" version="opset1">
			<data element_type="i32" shape="4" offset="17943100" size="16" />
			<output>
				<port id="0" precision="I32">
					<dim>4</dim>
				</port>
			</output>
		</layer>
		<layer id="192" name="__module.layers.2.self_attn/aten::transpose/Transpose" type="Transpose" version="opset1">
			<input>
				<port id="0" precision="FP32">
					<dim>-1</dim>
					<dim>1500</dim>
					<dim>20</dim>
					<dim>64</dim>
				</port>
				<port id="1" precision="I32">
					<dim>4</dim>
				</port>
			</input>
			<output>
				<port id="2" precision="FP32" names="358">
					<dim>-1</dim>
					<dim>20</dim>
					<dim>1500</dim>
					<dim>64</dim>
				</port>
			</output>
		</layer>
		<layer id="193" name="self.layers.2.self_attn.k_proj.weight_compressed" type="Const" version="opset1">
			<data element_type="f16" shape="1280, 1280" offset="96647816" size="3276800" />
			<output>
				<port id="0" precision="FP16" names="self.layers.2.self_attn.k_proj.weight">
					<dim>1280</dim>
					<dim>1280</dim>
				</port>
			</output>
		</layer>
		<layer id="194" name="self.layers.2.self_attn.k_proj.weight" type="Convert" version="opset1">
			<data destination_type="f32" />
			<rt_info>
				<attribute name="decompression" version="0" />
			</rt_info>
			<input>
				<port id="0" precision="FP16">
					<dim>1280</dim>
					<dim>1280</dim>
				</port>
			</input>
			<output>
				<port id="1" precision="FP32">
					<dim>1280</dim>
					<dim>1280</dim>
				</port>
			</output>
		</layer>
		<layer id="195" name="__module.layers.2.self_attn.k_proj/aten::linear/MatMul" type="MatMul" version="opset1">
			<data transpose_a="false" transpose_b="true" />
			<input>
				<port id="0" precision="FP32">
					<dim>-1</dim>
					<dim>1500</dim>
					<dim>1280</dim>
				</port>
				<port id="1" precision="FP32">
					<dim>1280</dim>
					<dim>1280</dim>
				</port>
			</input>
			<output>
				<port id="2" precision="FP32" names="361,tensor.15">
					<dim>-1</dim>
					<dim>1500</dim>
					<dim>1280</dim>
				</port>
			</output>
		</layer>
		<layer id="196" name="Constant_55415" type="Const" version="opset1">
			<data element_type="i64" shape="4" offset="17943068" size="32" />
			<rt_info>
				<attribute name="precise" version="0" />
			</rt_info>
			<output>
				<port id="0" precision="I64">
					<dim>4</dim>
				</port>
			</output>
		</layer>
		<layer id="197" name="__module.layers.2.self_attn/aten::view/Reshape_1" type="Reshape" version="opset1">
			<data special_zero="true" />
			<input>
				<port id="0" precision="FP32">
					<dim>-1</dim>
					<dim>1500</dim>
					<dim>1280</dim>
				</port>
				<port id="1" precision="I64">
					<dim>4</dim>
				</port>
			</input>
			<output>
				<port id="2" precision="FP32" names="363">
					<dim>-1</dim>
					<dim>1500</dim>
					<dim>20</dim>
					<dim>64</dim>
				</port>
			</output>
		</layer>
		<layer id="198" name="__module.layers.2.self_attn/aten::transpose/ScatterElementsUpdate_1" type="Const" version="opset1">
			<data element_type="i32" shape="4" offset="17943100" size="16" />
			<output>
				<port id="0" precision="I32">
					<dim>4</dim>
				</port>
			</output>
		</layer>
		<layer id="199" name="__module.layers.2.self_attn/aten::transpose/Transpose_1" type="Transpose" version="opset1">
			<input>
				<port id="0" precision="FP32">
					<dim>-1</dim>
					<dim>1500</dim>
					<dim>20</dim>
					<dim>64</dim>
				</port>
				<port id="1" precision="I32">
					<dim>4</dim>
				</port>
			</input>
			<output>
				<port id="2" precision="FP32" names="364">
					<dim>-1</dim>
					<dim>20</dim>
					<dim>1500</dim>
					<dim>64</dim>
				</port>
			</output>
		</layer>
		<layer id="200" name="self.layers.2.self_attn.v_proj.weight_compressed" type="Const" version="opset1">
			<data element_type="f16" shape="1280, 1280" offset="99924616" size="3276800" />
			<output>
				<port id="0" precision="FP16" names="self.layers.2.self_attn.v_proj.weight">
					<dim>1280</dim>
					<dim>1280</dim>
				</port>
			</output>
		</layer>
		<layer id="201" name="self.layers.2.self_attn.v_proj.weight" type="Convert" version="opset1">
			<data destination_type="f32" />
			<rt_info>
				<attribute name="decompression" version="0" />
			</rt_info>
			<input>
				<port id="0" precision="FP16">
					<dim>1280</dim>
					<dim>1280</dim>
				</port>
			</input>
			<output>
				<port id="1" precision="FP32">
					<dim>1280</dim>
					<dim>1280</dim>
				</port>
			</output>
		</layer>
		<layer id="202" name="__module.layers.2.self_attn.v_proj/aten::linear/MatMul" type="MatMul" version="opset1">
			<data transpose_a="false" transpose_b="true" />
			<input>
				<port id="0" precision="FP32">
					<dim>-1</dim>
					<dim>1500</dim>
					<dim>1280</dim>
				</port>
				<port id="1" precision="FP32">
					<dim>1280</dim>
					<dim>1280</dim>
				</port>
			</input>
			<output>
				<port id="2" precision="FP32">
					<dim>-1</dim>
					<dim>1500</dim>
					<dim>1280</dim>
				</port>
			</output>
		</layer>
		<layer id="203" name="Constant_54588_compressed" type="Const" version="opset1">
			<data element_type="f16" shape="1, 1, 1280" offset="103201416" size="2560" />
			<output>
				<port id="0" precision="FP16">
					<dim>1</dim>
					<dim>1</dim>
					<dim>1280</dim>
				</port>
			</output>
		</layer>
		<layer id="204" name="Constant_54588" type="Convert" version="opset1">
			<data destination_type="f32" />
			<rt_info>
				<attribute name="decompression" version="0" />
			</rt_info>
			<input>
				<port id="0" precision="FP16">
					<dim>1</dim>
					<dim>1</dim>
					<dim>1280</dim>
				</port>
			</input>
			<output>
				<port id="1" precision="FP32">
					<dim>1</dim>
					<dim>1</dim>
					<dim>1280</dim>
				</port>
			</output>
		</layer>
		<layer id="205" name="__module.layers.2.self_attn.v_proj/aten::linear/Add" type="Add" version="opset1">
			<data auto_broadcast="numpy" />
			<input>
				<port id="0" precision="FP32">
					<dim>-1</dim>
					<dim>1500</dim>
					<dim>1280</dim>
				</port>
				<port id="1" precision="FP32">
					<dim>1</dim>
					<dim>1</dim>
					<dim>1280</dim>
				</port>
			</input>
			<output>
				<port id="2" precision="FP32" names="368,tensor.17">
					<dim>-1</dim>
					<dim>1500</dim>
					<dim>1280</dim>
				</port>
			</output>
		</layer>
		<layer id="206" name="Constant_55416" type="Const" version="opset1">
			<data element_type="i64" shape="4" offset="17943068" size="32" />
			<rt_info>
				<attribute name="precise" version="0" />
			</rt_info>
			<output>
				<port id="0" precision="I64">
					<dim>4</dim>
				</port>
			</output>
		</layer>
		<layer id="207" name="__module.layers.2.self_attn/aten::view/Reshape_2" type="Reshape" version="opset1">
			<data special_zero="true" />
			<input>
				<port id="0" precision="FP32">
					<dim>-1</dim>
					<dim>1500</dim>
					<dim>1280</dim>
				</port>
				<port id="1" precision="I64">
					<dim>4</dim>
				</port>
			</input>
			<output>
				<port id="2" precision="FP32" names="370">
					<dim>-1</dim>
					<dim>1500</dim>
					<dim>20</dim>
					<dim>64</dim>
				</port>
			</output>
		</layer>
		<layer id="208" name="__module.layers.2.self_attn/aten::transpose/ScatterElementsUpdate_2" type="Const" version="opset1">
			<data element_type="i32" shape="4" offset="17943100" size="16" />
			<output>
				<port id="0" precision="I32">
					<dim>4</dim>
				</port>
			</output>
		</layer>
		<layer id="209" name="__module.layers.2.self_attn/aten::transpose/Transpose_2" type="Transpose" version="opset1">
			<input>
				<port id="0" precision="FP32">
					<dim>-1</dim>
					<dim>1500</dim>
					<dim>20</dim>
					<dim>64</dim>
				</port>
				<port id="1" precision="I32">
					<dim>4</dim>
				</port>
			</input>
			<output>
				<port id="2" precision="FP32" names="371">
					<dim>-1</dim>
					<dim>20</dim>
					<dim>1500</dim>
					<dim>64</dim>
				</port>
			</output>
		</layer>
		<layer id="210" name="__module.layers.2.self_attn/aten::slice/Reshape_12" type="Const" version="opset1">
			<data element_type="i64" shape="1" offset="24499276" size="8" />
			<output>
				<port id="0" precision="I64">
					<dim>1</dim>
				</port>
			</output>
		</layer>
		<layer id="211" name="__module.layers.2.self_attn/aten::size/ShapeOf_2" type="ShapeOf" version="opset3">
			<data output_type="i64" />
			<input>
				<port id="0" precision="FP32">
					<dim>-1</dim>
					<dim>20</dim>
					<dim>1500</dim>
					<dim>64</dim>
				</port>
			</input>
			<output>
				<port id="1" precision="I64">
					<dim>4</dim>
				</port>
			</output>
		</layer>
		<layer id="212" name="Constant_52170" type="Const" version="opset1">
			<data element_type="i64" shape="1" offset="24499284" size="8" />
			<output>
				<port id="0" precision="I64">
					<dim>1</dim>
				</port>
			</output>
		</layer>
		<layer id="213" name="__module.layers.2.self_attn/aten::size/Constant_2" type="Const" version="opset1">
			<data element_type="i32" shape="" offset="24499292" size="4" />
			<output>
				<port id="0" precision="I32" />
			</output>
		</layer>
		<layer id="214" name="__module.layers.2.self_attn/aten::size/Gather_2" type="Gather" version="opset8">
			<data batch_dims="0" />
			<input>
				<port id="0" precision="I64">
					<dim>4</dim>
				</port>
				<port id="1" precision="I64">
					<dim>1</dim>
				</port>
				<port id="2" precision="I32" />
			</input>
			<output>
				<port id="3" precision="I64" names="373">
					<dim>1</dim>
				</port>
			</output>
		</layer>
		<layer id="215" name="__module.layers.2.self_attn/aten::slice/Reshape_14" type="Const" version="opset1">
			<data element_type="i64" shape="1" offset="24499296" size="8" />
			<output>
				<port id="0" precision="I64">
					<dim>1</dim>
				</port>
			</output>
		</layer>
		<layer id="216" name="__module.layers.2.self_attn/aten::slice/Reshape_15" type="Const" version="opset1">
			<data element_type="i64" shape="1" offset="24499304" size="8" />
			<output>
				<port id="0" precision="I64">
					<dim>1</dim>
				</port>
			</output>
		</layer>
		<layer id="217" name="__module.layers.2.self_attn/aten::slice/Slice_3" type="Slice" version="opset8">
			<input>
				<port id="0" precision="FP32">
					<dim>-1</dim>
					<dim>-1</dim>
					<dim>-1</dim>
					<dim>-1</dim>
				</port>
				<port id="1" precision="I64">
					<dim>1</dim>
				</port>
				<port id="2" precision="I64">
					<dim>1</dim>
				</port>
				<port id="3" precision="I64">
					<dim>1</dim>
				</port>
				<port id="4" precision="I64">
					<dim>1</dim>
				</port>
			</input>
			<output>
				<port id="5" precision="FP32" names="377">
					<dim>-1</dim>
					<dim>-1</dim>
					<dim>-1</dim>
					<dim>-1</dim>
				</port>
			</output>
		</layer>
		<layer id="218" name="__module.layers.2.self_attn/aten::scaled_dot_product_attention/ScaledDotProductAttention" type="ScaledDotProductAttention" version="opset13">
			<data causal="false" />
			<input>
				<port id="0" precision="FP32">
					<dim>-1</dim>
					<dim>20</dim>
					<dim>1500</dim>
					<dim>64</dim>
				</port>
				<port id="1" precision="FP32">
					<dim>-1</dim>
					<dim>20</dim>
					<dim>1500</dim>
					<dim>64</dim>
				</port>
				<port id="2" precision="FP32">
					<dim>-1</dim>
					<dim>20</dim>
					<dim>1500</dim>
					<dim>64</dim>
				</port>
				<port id="3" precision="FP32">
					<dim>-1</dim>
					<dim>-1</dim>
					<dim>-1</dim>
					<dim>-1</dim>
				</port>
			</input>
			<output>
				<port id="4" precision="FP32" names="378,attn_output.9">
					<dim>-1</dim>
					<dim>20</dim>
					<dim>1500</dim>
					<dim>64</dim>
				</port>
			</output>
		</layer>
		<layer id="219" name="__module.layers.2.self_attn/aten::transpose/ScatterElementsUpdate_3" type="Const" version="opset1">
			<data element_type="i32" shape="4" offset="17943100" size="16" />
			<output>
				<port id="0" precision="I32">
					<dim>4</dim>
				</port>
			</output>
		</layer>
		<layer id="220" name="__module.layers.2.self_attn/aten::transpose/Transpose_3" type="Transpose" version="opset1">
			<input>
				<port id="0" precision="FP32">
					<dim>-1</dim>
					<dim>20</dim>
					<dim>1500</dim>
					<dim>64</dim>
				</port>
				<port id="1" precision="I32">
					<dim>4</dim>
				</port>
			</input>
			<output>
				<port id="2" precision="FP32" names="379,attn_output.11">
					<dim>-1</dim>
					<dim>1500</dim>
					<dim>20</dim>
					<dim>64</dim>
				</port>
			</output>
		</layer>
		<layer id="221" name="Constant_55417" type="Const" version="opset1">
			<data element_type="i64" shape="3" offset="24499312" size="24" />
			<rt_info>
				<attribute name="precise" version="0" />
			</rt_info>
			<output>
				<port id="0" precision="I64">
					<dim>3</dim>
				</port>
			</output>
		</layer>
		<layer id="222" name="__module.layers.2.self_attn/aten::reshape/Reshape" type="Reshape" version="opset1">
			<data special_zero="true" />
			<input>
				<port id="0" precision="FP32">
					<dim>-1</dim>
					<dim>1500</dim>
					<dim>20</dim>
					<dim>64</dim>
				</port>
				<port id="1" precision="I64">
					<dim>3</dim>
				</port>
			</input>
			<output>
				<port id="2" precision="FP32" names="381">
					<dim>-1</dim>
					<dim>1500</dim>
					<dim>1280</dim>
				</port>
			</output>
		</layer>
		<layer id="223" name="self.layers.2.self_attn.out_proj.weight_compressed" type="Const" version="opset1">
			<data element_type="f16" shape="1280, 1280" offset="103203976" size="3276800" />
			<output>
				<port id="0" precision="FP16" names="self.layers.2.self_attn.out_proj.weight">
					<dim>1280</dim>
					<dim>1280</dim>
				</port>
			</output>
		</layer>
		<layer id="224" name="self.layers.2.self_attn.out_proj.weight" type="Convert" version="opset1">
			<data destination_type="f32" />
			<rt_info>
				<attribute name="decompression" version="0" />
			</rt_info>
			<input>
				<port id="0" precision="FP16">
					<dim>1280</dim>
					<dim>1280</dim>
				</port>
			</input>
			<output>
				<port id="1" precision="FP32">
					<dim>1280</dim>
					<dim>1280</dim>
				</port>
			</output>
		</layer>
		<layer id="225" name="__module.layers.2.self_attn.out_proj/aten::linear/MatMul" type="MatMul" version="opset1">
			<data transpose_a="false" transpose_b="true" />
			<input>
				<port id="0" precision="FP32">
					<dim>-1</dim>
					<dim>1500</dim>
					<dim>1280</dim>
				</port>
				<port id="1" precision="FP32">
					<dim>1280</dim>
					<dim>1280</dim>
				</port>
			</input>
			<output>
				<port id="2" precision="FP32">
					<dim>-1</dim>
					<dim>1500</dim>
					<dim>1280</dim>
				</port>
			</output>
		</layer>
		<layer id="226" name="Constant_54589_compressed" type="Const" version="opset1">
			<data element_type="f16" shape="1, 1, 1280" offset="106480776" size="2560" />
			<output>
				<port id="0" precision="FP16">
					<dim>1</dim>
					<dim>1</dim>
					<dim>1280</dim>
				</port>
			</output>
		</layer>
		<layer id="227" name="Constant_54589" type="Convert" version="opset1">
			<data destination_type="f32" />
			<rt_info>
				<attribute name="decompression" version="0" />
			</rt_info>
			<input>
				<port id="0" precision="FP16">
					<dim>1</dim>
					<dim>1</dim>
					<dim>1280</dim>
				</port>
			</input>
			<output>
				<port id="1" precision="FP32">
					<dim>1</dim>
					<dim>1</dim>
					<dim>1280</dim>
				</port>
			</output>
		</layer>
		<layer id="228" name="__module.layers.2.self_attn.out_proj/aten::linear/Add" type="Add" version="opset1">
			<data auto_broadcast="numpy" />
			<input>
				<port id="0" precision="FP32">
					<dim>-1</dim>
					<dim>1500</dim>
					<dim>1280</dim>
				</port>
				<port id="1" precision="FP32">
					<dim>1</dim>
					<dim>1</dim>
					<dim>1280</dim>
				</port>
			</input>
			<output>
				<port id="2" precision="FP32" names="384,input.19">
					<dim>-1</dim>
					<dim>1500</dim>
					<dim>1280</dim>
				</port>
			</output>
		</layer>
		<layer id="229" name="__module.layers.2/aten::add/Add" type="Add" version="opset1">
			<data auto_broadcast="numpy" />
			<input>
				<port id="0" precision="FP32">
					<dim>-1</dim>
					<dim>1500</dim>
					<dim>1280</dim>
				</port>
				<port id="1" precision="FP32">
					<dim>-1</dim>
					<dim>1500</dim>
					<dim>1280</dim>
				</port>
			</input>
			<output>
				<port id="2" precision="FP32" names="386,residual.11">
					<dim>-1</dim>
					<dim>1500</dim>
					<dim>1280</dim>
				</port>
			</output>
		</layer>
		<layer id="230" name="__module.layers.2.final_layer_norm/aten::layer_norm/Multiply" type="Const" version="opset1">
			<data element_type="i32" shape="1" offset="14658584" size="4" />
			<output>
				<port id="0" precision="I32">
					<dim>1</dim>
				</port>
			</output>
		</layer>
		<layer id="231" name="__module.layers.2.final_layer_norm/aten::layer_norm/MVN" type="MVN" version="opset6">
			<data eps="9.9999997473787516e-06" normalize_variance="true" eps_mode="INSIDE_SQRT" />
			<input>
				<port id="0" precision="FP32">
					<dim>-1</dim>
					<dim>1500</dim>
					<dim>1280</dim>
				</port>
				<port id="1" precision="I32">
					<dim>1</dim>
				</port>
			</input>
			<output>
				<port id="2" precision="FP32">
					<dim>-1</dim>
					<dim>1500</dim>
					<dim>1280</dim>
				</port>
			</output>
		</layer>
		<layer id="232" name="Constant_54590_compressed" type="Const" version="opset1">
			<data element_type="f16" shape="1, 1, 1280" offset="106483336" size="2560" />
			<output>
				<port id="0" precision="FP16">
					<dim>1</dim>
					<dim>1</dim>
					<dim>1280</dim>
				</port>
			</output>
		</layer>
		<layer id="233" name="Constant_54590" type="Convert" version="opset1">
			<data destination_type="f32" />
			<rt_info>
				<attribute name="decompression" version="0" />
			</rt_info>
			<input>
				<port id="0" precision="FP16">
					<dim>1</dim>
					<dim>1</dim>
					<dim>1280</dim>
				</port>
			</input>
			<output>
				<port id="1" precision="FP32">
					<dim>1</dim>
					<dim>1</dim>
					<dim>1280</dim>
				</port>
			</output>
		</layer>
		<layer id="234" name="__module.layers.2.final_layer_norm/aten::layer_norm/Multiply_1" type="Multiply" version="opset1">
			<data auto_broadcast="numpy" />
			<input>
				<port id="0" precision="FP32">
					<dim>-1</dim>
					<dim>1500</dim>
					<dim>1280</dim>
				</port>
				<port id="1" precision="FP32">
					<dim>1</dim>
					<dim>1</dim>
					<dim>1280</dim>
				</port>
			</input>
			<output>
				<port id="2" precision="FP32">
					<dim>-1</dim>
					<dim>1500</dim>
					<dim>1280</dim>
				</port>
			</output>
		</layer>
		<layer id="235" name="Constant_54591_compressed" type="Const" version="opset1">
			<data element_type="f16" shape="1, 1, 1280" offset="106485896" size="2560" />
			<output>
				<port id="0" precision="FP16">
					<dim>1</dim>
					<dim>1</dim>
					<dim>1280</dim>
				</port>
			</output>
		</layer>
		<layer id="236" name="Constant_54591" type="Convert" version="opset1">
			<data destination_type="f32" />
			<rt_info>
				<attribute name="decompression" version="0" />
			</rt_info>
			<input>
				<port id="0" precision="FP16">
					<dim>1</dim>
					<dim>1</dim>
					<dim>1280</dim>
				</port>
			</input>
			<output>
				<port id="1" precision="FP32">
					<dim>1</dim>
					<dim>1</dim>
					<dim>1280</dim>
				</port>
			</output>
		</layer>
		<layer id="237" name="__module.layers.2.final_layer_norm/aten::layer_norm/Add" type="Add" version="opset1">
			<data auto_broadcast="numpy" />
			<input>
				<port id="0" precision="FP32">
					<dim>-1</dim>
					<dim>1500</dim>
					<dim>1280</dim>
				</port>
				<port id="1" precision="FP32">
					<dim>1</dim>
					<dim>1</dim>
					<dim>1280</dim>
				</port>
			</input>
			<output>
				<port id="2" precision="FP32" names="390">
					<dim>-1</dim>
					<dim>1500</dim>
					<dim>1280</dim>
				</port>
			</output>
		</layer>
		<layer id="238" name="self.layers.2.fc1.weight_compressed" type="Const" version="opset1">
			<data element_type="f16" shape="5120, 1280" offset="106488456" size="13107200" />
			<output>
				<port id="0" precision="FP16" names="self.layers.2.fc1.weight">
					<dim>5120</dim>
					<dim>1280</dim>
				</port>
			</output>
		</layer>
		<layer id="239" name="self.layers.2.fc1.weight" type="Convert" version="opset1">
			<data destination_type="f32" />
			<rt_info>
				<attribute name="decompression" version="0" />
			</rt_info>
			<input>
				<port id="0" precision="FP16">
					<dim>5120</dim>
					<dim>1280</dim>
				</port>
			</input>
			<output>
				<port id="1" precision="FP32">
					<dim>5120</dim>
					<dim>1280</dim>
				</port>
			</output>
		</layer>
		<layer id="240" name="__module.layers.2.fc1/aten::linear/MatMul" type="MatMul" version="opset1">
			<data transpose_a="false" transpose_b="true" />
			<input>
				<port id="0" precision="FP32">
					<dim>-1</dim>
					<dim>1500</dim>
					<dim>1280</dim>
				</port>
				<port id="1" precision="FP32">
					<dim>5120</dim>
					<dim>1280</dim>
				</port>
			</input>
			<output>
				<port id="2" precision="FP32">
					<dim>-1</dim>
					<dim>1500</dim>
					<dim>5120</dim>
				</port>
			</output>
		</layer>
		<layer id="241" name="Constant_54592_compressed" type="Const" version="opset1">
			<data element_type="f16" shape="1, 1, 5120" offset="119595656" size="10240" />
			<output>
				<port id="0" precision="FP16">
					<dim>1</dim>
					<dim>1</dim>
					<dim>5120</dim>
				</port>
			</output>
		</layer>
		<layer id="242" name="Constant_54592" type="Convert" version="opset1">
			<data destination_type="f32" />
			<rt_info>
				<attribute name="decompression" version="0" />
			</rt_info>
			<input>
				<port id="0" precision="FP16">
					<dim>1</dim>
					<dim>1</dim>
					<dim>5120</dim>
				</port>
			</input>
			<output>
				<port id="1" precision="FP32">
					<dim>1</dim>
					<dim>1</dim>
					<dim>5120</dim>
				</port>
			</output>
		</layer>
		<layer id="243" name="__module.layers.2.fc1/aten::linear/Add" type="Add" version="opset1">
			<data auto_broadcast="numpy" />
			<input>
				<port id="0" precision="FP32">
					<dim>-1</dim>
					<dim>1500</dim>
					<dim>5120</dim>
				</port>
				<port id="1" precision="FP32">
					<dim>1</dim>
					<dim>1</dim>
					<dim>5120</dim>
				</port>
			</input>
			<output>
				<port id="2" precision="FP32" names="393,input.21">
					<dim>-1</dim>
					<dim>1500</dim>
					<dim>5120</dim>
				</port>
			</output>
		</layer>
		<layer id="244" name="__module.layers.2.activation_fn/aten::gelu/Gelu" type="Gelu" version="opset7">
			<data approximation_mode="ERF" />
			<input>
				<port id="0" precision="FP32">
					<dim>-1</dim>
					<dim>1500</dim>
					<dim>5120</dim>
				</port>
			</input>
			<output>
				<port id="1" precision="FP32" names="394,input.23">
					<dim>-1</dim>
					<dim>1500</dim>
					<dim>5120</dim>
				</port>
			</output>
		</layer>
		<layer id="245" name="self.layers.2.fc2.weight_compressed" type="Const" version="opset1">
			<data element_type="f16" shape="1280, 5120" offset="119605896" size="13107200" />
			<output>
				<port id="0" precision="FP16" names="self.layers.2.fc2.weight">
					<dim>1280</dim>
					<dim>5120</dim>
				</port>
			</output>
		</layer>
		<layer id="246" name="self.layers.2.fc2.weight" type="Convert" version="opset1">
			<data destination_type="f32" />
			<rt_info>
				<attribute name="decompression" version="0" />
			</rt_info>
			<input>
				<port id="0" precision="FP16">
					<dim>1280</dim>
					<dim>5120</dim>
				</port>
			</input>
			<output>
				<port id="1" precision="FP32">
					<dim>1280</dim>
					<dim>5120</dim>
				</port>
			</output>
		</layer>
		<layer id="247" name="__module.layers.2.fc2/aten::linear/MatMul" type="MatMul" version="opset1">
			<data transpose_a="false" transpose_b="true" />
			<input>
				<port id="0" precision="FP32">
					<dim>-1</dim>
					<dim>1500</dim>
					<dim>5120</dim>
				</port>
				<port id="1" precision="FP32">
					<dim>1280</dim>
					<dim>5120</dim>
				</port>
			</input>
			<output>
				<port id="2" precision="FP32">
					<dim>-1</dim>
					<dim>1500</dim>
					<dim>1280</dim>
				</port>
			</output>
		</layer>
		<layer id="248" name="Constant_54593_compressed" type="Const" version="opset1">
			<data element_type="f16" shape="1, 1, 1280" offset="132713096" size="2560" />
			<output>
				<port id="0" precision="FP16">
					<dim>1</dim>
					<dim>1</dim>
					<dim>1280</dim>
				</port>
			</output>
		</layer>
		<layer id="249" name="Constant_54593" type="Convert" version="opset1">
			<data destination_type="f32" />
			<rt_info>
				<attribute name="decompression" version="0" />
			</rt_info>
			<input>
				<port id="0" precision="FP16">
					<dim>1</dim>
					<dim>1</dim>
					<dim>1280</dim>
				</port>
			</input>
			<output>
				<port id="1" precision="FP32">
					<dim>1</dim>
					<dim>1</dim>
					<dim>1280</dim>
				</port>
			</output>
		</layer>
		<layer id="250" name="__module.layers.2.fc2/aten::linear/Add" type="Add" version="opset1">
			<data auto_broadcast="numpy" />
			<input>
				<port id="0" precision="FP32">
					<dim>-1</dim>
					<dim>1500</dim>
					<dim>1280</dim>
				</port>
				<port id="1" precision="FP32">
					<dim>1</dim>
					<dim>1</dim>
					<dim>1280</dim>
				</port>
			</input>
			<output>
				<port id="2" precision="FP32" names="398,input.25">
					<dim>-1</dim>
					<dim>1500</dim>
					<dim>1280</dim>
				</port>
			</output>
		</layer>
		<layer id="251" name="__module.layers.2/aten::add/Add_1" type="Add" version="opset1">
			<data auto_broadcast="numpy" />
			<input>
				<port id="0" precision="FP32">
					<dim>-1</dim>
					<dim>1500</dim>
					<dim>1280</dim>
				</port>
				<port id="1" precision="FP32">
					<dim>-1</dim>
					<dim>1500</dim>
					<dim>1280</dim>
				</port>
			</input>
			<output>
				<port id="2" precision="FP32" names="400,residual.13">
					<dim>-1</dim>
					<dim>1500</dim>
					<dim>1280</dim>
				</port>
			</output>
		</layer>
		<layer id="252" name="__module.layers.3.self_attn_layer_norm/aten::layer_norm/Multiply" type="Const" version="opset1">
			<data element_type="i32" shape="1" offset="14658584" size="4" />
			<output>
				<port id="0" precision="I32">
					<dim>1</dim>
				</port>
			</output>
		</layer>
		<layer id="253" name="__module.layers.3.self_attn_layer_norm/aten::layer_norm/MVN" type="MVN" version="opset6">
			<data eps="9.9999997473787516e-06" normalize_variance="true" eps_mode="INSIDE_SQRT" />
			<input>
				<port id="0" precision="FP32">
					<dim>-1</dim>
					<dim>1500</dim>
					<dim>1280</dim>
				</port>
				<port id="1" precision="I32">
					<dim>1</dim>
				</port>
			</input>
			<output>
				<port id="2" precision="FP32">
					<dim>-1</dim>
					<dim>1500</dim>
					<dim>1280</dim>
				</port>
			</output>
		</layer>
		<layer id="254" name="Constant_54594_compressed" type="Const" version="opset1">
			<data element_type="f16" shape="1, 1, 1280" offset="132715656" size="2560" />
			<output>
				<port id="0" precision="FP16">
					<dim>1</dim>
					<dim>1</dim>
					<dim>1280</dim>
				</port>
			</output>
		</layer>
		<layer id="255" name="Constant_54594" type="Convert" version="opset1">
			<data destination_type="f32" />
			<rt_info>
				<attribute name="decompression" version="0" />
			</rt_info>
			<input>
				<port id="0" precision="FP16">
					<dim>1</dim>
					<dim>1</dim>
					<dim>1280</dim>
				</port>
			</input>
			<output>
				<port id="1" precision="FP32">
					<dim>1</dim>
					<dim>1</dim>
					<dim>1280</dim>
				</port>
			</output>
		</layer>
		<layer id="256" name="__module.layers.3.self_attn_layer_norm/aten::layer_norm/Multiply_1" type="Multiply" version="opset1">
			<data auto_broadcast="numpy" />
			<input>
				<port id="0" precision="FP32">
					<dim>-1</dim>
					<dim>1500</dim>
					<dim>1280</dim>
				</port>
				<port id="1" precision="FP32">
					<dim>1</dim>
					<dim>1</dim>
					<dim>1280</dim>
				</port>
			</input>
			<output>
				<port id="2" precision="FP32">
					<dim>-1</dim>
					<dim>1500</dim>
					<dim>1280</dim>
				</port>
			</output>
		</layer>
		<layer id="257" name="Constant_54595_compressed" type="Const" version="opset1">
			<data element_type="f16" shape="1, 1, 1280" offset="132718216" size="2560" />
			<output>
				<port id="0" precision="FP16">
					<dim>1</dim>
					<dim>1</dim>
					<dim>1280</dim>
				</port>
			</output>
		</layer>
		<layer id="258" name="Constant_54595" type="Convert" version="opset1">
			<data destination_type="f32" />
			<rt_info>
				<attribute name="decompression" version="0" />
			</rt_info>
			<input>
				<port id="0" precision="FP16">
					<dim>1</dim>
					<dim>1</dim>
					<dim>1280</dim>
				</port>
			</input>
			<output>
				<port id="1" precision="FP32">
					<dim>1</dim>
					<dim>1</dim>
					<dim>1280</dim>
				</port>
			</output>
		</layer>
		<layer id="259" name="__module.layers.3.self_attn_layer_norm/aten::layer_norm/Add" type="Add" version="opset1">
			<data auto_broadcast="numpy" />
			<input>
				<port id="0" precision="FP32">
					<dim>-1</dim>
					<dim>1500</dim>
					<dim>1280</dim>
				</port>
				<port id="1" precision="FP32">
					<dim>1</dim>
					<dim>1</dim>
					<dim>1280</dim>
				</port>
			</input>
			<output>
				<port id="2" precision="FP32" names="425,hidden_states.19">
					<dim>-1</dim>
					<dim>1500</dim>
					<dim>1280</dim>
				</port>
			</output>
		</layer>
		<layer id="260" name="self.layers.3.self_attn.q_proj.weight_compressed" type="Const" version="opset1">
			<data element_type="f16" shape="1280, 1280" offset="132720776" size="3276800" />
			<output>
				<port id="0" precision="FP16" names="self.layers.3.self_attn.q_proj.weight">
					<dim>1280</dim>
					<dim>1280</dim>
				</port>
			</output>
		</layer>
		<layer id="261" name="self.layers.3.self_attn.q_proj.weight" type="Convert" version="opset1">
			<data destination_type="f32" />
			<rt_info>
				<attribute name="decompression" version="0" />
			</rt_info>
			<input>
				<port id="0" precision="FP16">
					<dim>1280</dim>
					<dim>1280</dim>
				</port>
			</input>
			<output>
				<port id="1" precision="FP32">
					<dim>1280</dim>
					<dim>1280</dim>
				</port>
			</output>
		</layer>
		<layer id="262" name="__module.layers.3.self_attn.q_proj/aten::linear/MatMul" type="MatMul" version="opset1">
			<data transpose_a="false" transpose_b="true" />
			<input>
				<port id="0" precision="FP32">
					<dim>-1</dim>
					<dim>1500</dim>
					<dim>1280</dim>
				</port>
				<port id="1" precision="FP32">
					<dim>1280</dim>
					<dim>1280</dim>
				</port>
			</input>
			<output>
				<port id="2" precision="FP32">
					<dim>-1</dim>
					<dim>1500</dim>
					<dim>1280</dim>
				</port>
			</output>
		</layer>
		<layer id="263" name="Constant_54596_compressed" type="Const" version="opset1">
			<data element_type="f16" shape="1, 1, 1280" offset="135997576" size="2560" />
			<output>
				<port id="0" precision="FP16">
					<dim>1</dim>
					<dim>1</dim>
					<dim>1280</dim>
				</port>
			</output>
		</layer>
		<layer id="264" name="Constant_54596" type="Convert" version="opset1">
			<data destination_type="f32" />
			<rt_info>
				<attribute name="decompression" version="0" />
			</rt_info>
			<input>
				<port id="0" precision="FP16">
					<dim>1</dim>
					<dim>1</dim>
					<dim>1280</dim>
				</port>
			</input>
			<output>
				<port id="1" precision="FP32">
					<dim>1</dim>
					<dim>1</dim>
					<dim>1280</dim>
				</port>
			</output>
		</layer>
		<layer id="265" name="__module.layers.3.self_attn.q_proj/aten::linear/Add" type="Add" version="opset1">
			<data auto_broadcast="numpy" />
			<input>
				<port id="0" precision="FP32">
					<dim>-1</dim>
					<dim>1500</dim>
					<dim>1280</dim>
				</port>
				<port id="1" precision="FP32">
					<dim>1</dim>
					<dim>1</dim>
					<dim>1280</dim>
				</port>
			</input>
			<output>
				<port id="2" precision="FP32" names="434,tensor.19">
					<dim>-1</dim>
					<dim>1500</dim>
					<dim>1280</dim>
				</port>
			</output>
		</layer>
		<layer id="266" name="Constant_55418" type="Const" version="opset1">
			<data element_type="i64" shape="4" offset="17943068" size="32" />
			<rt_info>
				<attribute name="precise" version="0" />
			</rt_info>
			<output>
				<port id="0" precision="I64">
					<dim>4</dim>
				</port>
			</output>
		</layer>
		<layer id="267" name="__module.layers.3.self_attn/aten::view/Reshape" type="Reshape" version="opset1">
			<data special_zero="true" />
			<input>
				<port id="0" precision="FP32">
					<dim>-1</dim>
					<dim>1500</dim>
					<dim>1280</dim>
				</port>
				<port id="1" precision="I64">
					<dim>4</dim>
				</port>
			</input>
			<output>
				<port id="2" precision="FP32" names="436">
					<dim>-1</dim>
					<dim>1500</dim>
					<dim>20</dim>
					<dim>64</dim>
				</port>
			</output>
		</layer>
		<layer id="268" name="__module.layers.3.self_attn/aten::transpose/ScatterElementsUpdate" type="Const" version="opset1">
			<data element_type="i32" shape="4" offset="17943100" size="16" />
			<output>
				<port id="0" precision="I32">
					<dim>4</dim>
				</port>
			</output>
		</layer>
		<layer id="269" name="__module.layers.3.self_attn/aten::transpose/Transpose" type="Transpose" version="opset1">
			<input>
				<port id="0" precision="FP32">
					<dim>-1</dim>
					<dim>1500</dim>
					<dim>20</dim>
					<dim>64</dim>
				</port>
				<port id="1" precision="I32">
					<dim>4</dim>
				</port>
			</input>
			<output>
				<port id="2" precision="FP32" names="437">
					<dim>-1</dim>
					<dim>20</dim>
					<dim>1500</dim>
					<dim>64</dim>
				</port>
			</output>
		</layer>
		<layer id="270" name="self.layers.3.self_attn.k_proj.weight_compressed" type="Const" version="opset1">
			<data element_type="f16" shape="1280, 1280" offset="136000136" size="3276800" />
			<output>
				<port id="0" precision="FP16" names="self.layers.3.self_attn.k_proj.weight">
					<dim>1280</dim>
					<dim>1280</dim>
				</port>
			</output>
		</layer>
		<layer id="271" name="self.layers.3.self_attn.k_proj.weight" type="Convert" version="opset1">
			<data destination_type="f32" />
			<rt_info>
				<attribute name="decompression" version="0" />
			</rt_info>
			<input>
				<port id="0" precision="FP16">
					<dim>1280</dim>
					<dim>1280</dim>
				</port>
			</input>
			<output>
				<port id="1" precision="FP32">
					<dim>1280</dim>
					<dim>1280</dim>
				</port>
			</output>
		</layer>
		<layer id="272" name="__module.layers.3.self_attn.k_proj/aten::linear/MatMul" type="MatMul" version="opset1">
			<data transpose_a="false" transpose_b="true" />
			<input>
				<port id="0" precision="FP32">
					<dim>-1</dim>
					<dim>1500</dim>
					<dim>1280</dim>
				</port>
				<port id="1" precision="FP32">
					<dim>1280</dim>
					<dim>1280</dim>
				</port>
			</input>
			<output>
				<port id="2" precision="FP32" names="440,tensor.21">
					<dim>-1</dim>
					<dim>1500</dim>
					<dim>1280</dim>
				</port>
			</output>
		</layer>
		<layer id="273" name="Constant_55419" type="Const" version="opset1">
			<data element_type="i64" shape="4" offset="17943068" size="32" />
			<rt_info>
				<attribute name="precise" version="0" />
			</rt_info>
			<output>
				<port id="0" precision="I64">
					<dim>4</dim>
				</port>
			</output>
		</layer>
		<layer id="274" name="__module.layers.3.self_attn/aten::view/Reshape_1" type="Reshape" version="opset1">
			<data special_zero="true" />
			<input>
				<port id="0" precision="FP32">
					<dim>-1</dim>
					<dim>1500</dim>
					<dim>1280</dim>
				</port>
				<port id="1" precision="I64">
					<dim>4</dim>
				</port>
			</input>
			<output>
				<port id="2" precision="FP32" names="442">
					<dim>-1</dim>
					<dim>1500</dim>
					<dim>20</dim>
					<dim>64</dim>
				</port>
			</output>
		</layer>
		<layer id="275" name="__module.layers.3.self_attn/aten::transpose/ScatterElementsUpdate_1" type="Const" version="opset1">
			<data element_type="i32" shape="4" offset="17943100" size="16" />
			<output>
				<port id="0" precision="I32">
					<dim>4</dim>
				</port>
			</output>
		</layer>
		<layer id="276" name="__module.layers.3.self_attn/aten::transpose/Transpose_1" type="Transpose" version="opset1">
			<input>
				<port id="0" precision="FP32">
					<dim>-1</dim>
					<dim>1500</dim>
					<dim>20</dim>
					<dim>64</dim>
				</port>
				<port id="1" precision="I32">
					<dim>4</dim>
				</port>
			</input>
			<output>
				<port id="2" precision="FP32" names="443">
					<dim>-1</dim>
					<dim>20</dim>
					<dim>1500</dim>
					<dim>64</dim>
				</port>
			</output>
		</layer>
		<layer id="277" name="self.layers.3.self_attn.v_proj.weight_compressed" type="Const" version="opset1">
			<data element_type="f16" shape="1280, 1280" offset="139276936" size="3276800" />
			<output>
				<port id="0" precision="FP16" names="self.layers.3.self_attn.v_proj.weight">
					<dim>1280</dim>
					<dim>1280</dim>
				</port>
			</output>
		</layer>
		<layer id="278" name="self.layers.3.self_attn.v_proj.weight" type="Convert" version="opset1">
			<data destination_type="f32" />
			<rt_info>
				<attribute name="decompression" version="0" />
			</rt_info>
			<input>
				<port id="0" precision="FP16">
					<dim>1280</dim>
					<dim>1280</dim>
				</port>
			</input>
			<output>
				<port id="1" precision="FP32">
					<dim>1280</dim>
					<dim>1280</dim>
				</port>
			</output>
		</layer>
		<layer id="279" name="__module.layers.3.self_attn.v_proj/aten::linear/MatMul" type="MatMul" version="opset1">
			<data transpose_a="false" transpose_b="true" />
			<input>
				<port id="0" precision="FP32">
					<dim>-1</dim>
					<dim>1500</dim>
					<dim>1280</dim>
				</port>
				<port id="1" precision="FP32">
					<dim>1280</dim>
					<dim>1280</dim>
				</port>
			</input>
			<output>
				<port id="2" precision="FP32">
					<dim>-1</dim>
					<dim>1500</dim>
					<dim>1280</dim>
				</port>
			</output>
		</layer>
		<layer id="280" name="Constant_54597_compressed" type="Const" version="opset1">
			<data element_type="f16" shape="1, 1, 1280" offset="142553736" size="2560" />
			<output>
				<port id="0" precision="FP16">
					<dim>1</dim>
					<dim>1</dim>
					<dim>1280</dim>
				</port>
			</output>
		</layer>
		<layer id="281" name="Constant_54597" type="Convert" version="opset1">
			<data destination_type="f32" />
			<rt_info>
				<attribute name="decompression" version="0" />
			</rt_info>
			<input>
				<port id="0" precision="FP16">
					<dim>1</dim>
					<dim>1</dim>
					<dim>1280</dim>
				</port>
			</input>
			<output>
				<port id="1" precision="FP32">
					<dim>1</dim>
					<dim>1</dim>
					<dim>1280</dim>
				</port>
			</output>
		</layer>
		<layer id="282" name="__module.layers.3.self_attn.v_proj/aten::linear/Add" type="Add" version="opset1">
			<data auto_broadcast="numpy" />
			<input>
				<port id="0" precision="FP32">
					<dim>-1</dim>
					<dim>1500</dim>
					<dim>1280</dim>
				</port>
				<port id="1" precision="FP32">
					<dim>1</dim>
					<dim>1</dim>
					<dim>1280</dim>
				</port>
			</input>
			<output>
				<port id="2" precision="FP32" names="447,tensor.23">
					<dim>-1</dim>
					<dim>1500</dim>
					<dim>1280</dim>
				</port>
			</output>
		</layer>
		<layer id="283" name="Constant_55420" type="Const" version="opset1">
			<data element_type="i64" shape="4" offset="17943068" size="32" />
			<rt_info>
				<attribute name="precise" version="0" />
			</rt_info>
			<output>
				<port id="0" precision="I64">
					<dim>4</dim>
				</port>
			</output>
		</layer>
		<layer id="284" name="__module.layers.3.self_attn/aten::view/Reshape_2" type="Reshape" version="opset1">
			<data special_zero="true" />
			<input>
				<port id="0" precision="FP32">
					<dim>-1</dim>
					<dim>1500</dim>
					<dim>1280</dim>
				</port>
				<port id="1" precision="I64">
					<dim>4</dim>
				</port>
			</input>
			<output>
				<port id="2" precision="FP32" names="449">
					<dim>-1</dim>
					<dim>1500</dim>
					<dim>20</dim>
					<dim>64</dim>
				</port>
			</output>
		</layer>
		<layer id="285" name="__module.layers.3.self_attn/aten::transpose/ScatterElementsUpdate_2" type="Const" version="opset1">
			<data element_type="i32" shape="4" offset="17943100" size="16" />
			<output>
				<port id="0" precision="I32">
					<dim>4</dim>
				</port>
			</output>
		</layer>
		<layer id="286" name="__module.layers.3.self_attn/aten::transpose/Transpose_2" type="Transpose" version="opset1">
			<input>
				<port id="0" precision="FP32">
					<dim>-1</dim>
					<dim>1500</dim>
					<dim>20</dim>
					<dim>64</dim>
				</port>
				<port id="1" precision="I32">
					<dim>4</dim>
				</port>
			</input>
			<output>
				<port id="2" precision="FP32" names="450">
					<dim>-1</dim>
					<dim>20</dim>
					<dim>1500</dim>
					<dim>64</dim>
				</port>
			</output>
		</layer>
		<layer id="287" name="__module.layers.3.self_attn/aten::slice/Reshape_12" type="Const" version="opset1">
			<data element_type="i64" shape="1" offset="24499276" size="8" />
			<output>
				<port id="0" precision="I64">
					<dim>1</dim>
				</port>
			</output>
		</layer>
		<layer id="288" name="__module.layers.3.self_attn/aten::size/ShapeOf_2" type="ShapeOf" version="opset3">
			<data output_type="i64" />
			<input>
				<port id="0" precision="FP32">
					<dim>-1</dim>
					<dim>20</dim>
					<dim>1500</dim>
					<dim>64</dim>
				</port>
			</input>
			<output>
				<port id="1" precision="I64">
					<dim>4</dim>
				</port>
			</output>
		</layer>
		<layer id="289" name="Constant_52179" type="Const" version="opset1">
			<data element_type="i64" shape="1" offset="24499284" size="8" />
			<output>
				<port id="0" precision="I64">
					<dim>1</dim>
				</port>
			</output>
		</layer>
		<layer id="290" name="__module.layers.3.self_attn/aten::size/Constant_2" type="Const" version="opset1">
			<data element_type="i32" shape="" offset="24499292" size="4" />
			<output>
				<port id="0" precision="I32" />
			</output>
		</layer>
		<layer id="291" name="__module.layers.3.self_attn/aten::size/Gather_2" type="Gather" version="opset8">
			<data batch_dims="0" />
			<input>
				<port id="0" precision="I64">
					<dim>4</dim>
				</port>
				<port id="1" precision="I64">
					<dim>1</dim>
				</port>
				<port id="2" precision="I32" />
			</input>
			<output>
				<port id="3" precision="I64" names="452">
					<dim>1</dim>
				</port>
			</output>
		</layer>
		<layer id="292" name="__module.layers.3.self_attn/aten::slice/Reshape_14" type="Const" version="opset1">
			<data element_type="i64" shape="1" offset="24499296" size="8" />
			<output>
				<port id="0" precision="I64">
					<dim>1</dim>
				</port>
			</output>
		</layer>
		<layer id="293" name="__module.layers.3.self_attn/aten::slice/Reshape_15" type="Const" version="opset1">
			<data element_type="i64" shape="1" offset="24499304" size="8" />
			<output>
				<port id="0" precision="I64">
					<dim>1</dim>
				</port>
			</output>
		</layer>
		<layer id="294" name="__module.layers.3.self_attn/aten::slice/Slice_3" type="Slice" version="opset8">
			<input>
				<port id="0" precision="FP32">
					<dim>-1</dim>
					<dim>-1</dim>
					<dim>-1</dim>
					<dim>-1</dim>
				</port>
				<port id="1" precision="I64">
					<dim>1</dim>
				</port>
				<port id="2" precision="I64">
					<dim>1</dim>
				</port>
				<port id="3" precision="I64">
					<dim>1</dim>
				</port>
				<port id="4" precision="I64">
					<dim>1</dim>
				</port>
			</input>
			<output>
				<port id="5" precision="FP32" names="456">
					<dim>-1</dim>
					<dim>-1</dim>
					<dim>-1</dim>
					<dim>-1</dim>
				</port>
			</output>
		</layer>
		<layer id="295" name="__module.layers.3.self_attn/aten::scaled_dot_product_attention/ScaledDotProductAttention" type="ScaledDotProductAttention" version="opset13">
			<data causal="false" />
			<input>
				<port id="0" precision="FP32">
					<dim>-1</dim>
					<dim>20</dim>
					<dim>1500</dim>
					<dim>64</dim>
				</port>
				<port id="1" precision="FP32">
					<dim>-1</dim>
					<dim>20</dim>
					<dim>1500</dim>
					<dim>64</dim>
				</port>
				<port id="2" precision="FP32">
					<dim>-1</dim>
					<dim>20</dim>
					<dim>1500</dim>
					<dim>64</dim>
				</port>
				<port id="3" precision="FP32">
					<dim>-1</dim>
					<dim>-1</dim>
					<dim>-1</dim>
					<dim>-1</dim>
				</port>
			</input>
			<output>
				<port id="4" precision="FP32" names="457,attn_output.13">
					<dim>-1</dim>
					<dim>20</dim>
					<dim>1500</dim>
					<dim>64</dim>
				</port>
			</output>
		</layer>
		<layer id="296" name="__module.layers.3.self_attn/aten::transpose/ScatterElementsUpdate_3" type="Const" version="opset1">
			<data element_type="i32" shape="4" offset="17943100" size="16" />
			<output>
				<port id="0" precision="I32">
					<dim>4</dim>
				</port>
			</output>
		</layer>
		<layer id="297" name="__module.layers.3.self_attn/aten::transpose/Transpose_3" type="Transpose" version="opset1">
			<input>
				<port id="0" precision="FP32">
					<dim>-1</dim>
					<dim>20</dim>
					<dim>1500</dim>
					<dim>64</dim>
				</port>
				<port id="1" precision="I32">
					<dim>4</dim>
				</port>
			</input>
			<output>
				<port id="2" precision="FP32" names="458,attn_output.15">
					<dim>-1</dim>
					<dim>1500</dim>
					<dim>20</dim>
					<dim>64</dim>
				</port>
			</output>
		</layer>
		<layer id="298" name="Constant_55421" type="Const" version="opset1">
			<data element_type="i64" shape="3" offset="24499312" size="24" />
			<rt_info>
				<attribute name="precise" version="0" />
			</rt_info>
			<output>
				<port id="0" precision="I64">
					<dim>3</dim>
				</port>
			</output>
		</layer>
		<layer id="299" name="__module.layers.3.self_attn/aten::reshape/Reshape" type="Reshape" version="opset1">
			<data special_zero="true" />
			<input>
				<port id="0" precision="FP32">
					<dim>-1</dim>
					<dim>1500</dim>
					<dim>20</dim>
					<dim>64</dim>
				</port>
				<port id="1" precision="I64">
					<dim>3</dim>
				</port>
			</input>
			<output>
				<port id="2" precision="FP32" names="460">
					<dim>-1</dim>
					<dim>1500</dim>
					<dim>1280</dim>
				</port>
			</output>
		</layer>
		<layer id="300" name="self.layers.3.self_attn.out_proj.weight_compressed" type="Const" version="opset1">
			<data element_type="f16" shape="1280, 1280" offset="142556296" size="3276800" />
			<output>
				<port id="0" precision="FP16" names="self.layers.3.self_attn.out_proj.weight">
					<dim>1280</dim>
					<dim>1280</dim>
				</port>
			</output>
		</layer>
		<layer id="301" name="self.layers.3.self_attn.out_proj.weight" type="Convert" version="opset1">
			<data destination_type="f32" />
			<rt_info>
				<attribute name="decompression" version="0" />
			</rt_info>
			<input>
				<port id="0" precision="FP16">
					<dim>1280</dim>
					<dim>1280</dim>
				</port>
			</input>
			<output>
				<port id="1" precision="FP32">
					<dim>1280</dim>
					<dim>1280</dim>
				</port>
			</output>
		</layer>
		<layer id="302" name="__module.layers.3.self_attn.out_proj/aten::linear/MatMul" type="MatMul" version="opset1">
			<data transpose_a="false" transpose_b="true" />
			<input>
				<port id="0" precision="FP32">
					<dim>-1</dim>
					<dim>1500</dim>
					<dim>1280</dim>
				</port>
				<port id="1" precision="FP32">
					<dim>1280</dim>
					<dim>1280</dim>
				</port>
			</input>
			<output>
				<port id="2" precision="FP32">
					<dim>-1</dim>
					<dim>1500</dim>
					<dim>1280</dim>
				</port>
			</output>
		</layer>
		<layer id="303" name="Constant_54598_compressed" type="Const" version="opset1">
			<data element_type="f16" shape="1, 1, 1280" offset="145833096" size="2560" />
			<output>
				<port id="0" precision="FP16">
					<dim>1</dim>
					<dim>1</dim>
					<dim>1280</dim>
				</port>
			</output>
		</layer>
		<layer id="304" name="Constant_54598" type="Convert" version="opset1">
			<data destination_type="f32" />
			<rt_info>
				<attribute name="decompression" version="0" />
			</rt_info>
			<input>
				<port id="0" precision="FP16">
					<dim>1</dim>
					<dim>1</dim>
					<dim>1280</dim>
				</port>
			</input>
			<output>
				<port id="1" precision="FP32">
					<dim>1</dim>
					<dim>1</dim>
					<dim>1280</dim>
				</port>
			</output>
		</layer>
		<layer id="305" name="__module.layers.3.self_attn.out_proj/aten::linear/Add" type="Add" version="opset1">
			<data auto_broadcast="numpy" />
			<input>
				<port id="0" precision="FP32">
					<dim>-1</dim>
					<dim>1500</dim>
					<dim>1280</dim>
				</port>
				<port id="1" precision="FP32">
					<dim>1</dim>
					<dim>1</dim>
					<dim>1280</dim>
				</port>
			</input>
			<output>
				<port id="2" precision="FP32" names="463,input.27">
					<dim>-1</dim>
					<dim>1500</dim>
					<dim>1280</dim>
				</port>
			</output>
		</layer>
		<layer id="306" name="__module.layers.3/aten::add/Add" type="Add" version="opset1">
			<data auto_broadcast="numpy" />
			<input>
				<port id="0" precision="FP32">
					<dim>-1</dim>
					<dim>1500</dim>
					<dim>1280</dim>
				</port>
				<port id="1" precision="FP32">
					<dim>-1</dim>
					<dim>1500</dim>
					<dim>1280</dim>
				</port>
			</input>
			<output>
				<port id="2" precision="FP32" names="465,residual.15">
					<dim>-1</dim>
					<dim>1500</dim>
					<dim>1280</dim>
				</port>
			</output>
		</layer>
		<layer id="307" name="__module.layers.3.final_layer_norm/aten::layer_norm/Multiply" type="Const" version="opset1">
			<data element_type="i32" shape="1" offset="14658584" size="4" />
			<output>
				<port id="0" precision="I32">
					<dim>1</dim>
				</port>
			</output>
		</layer>
		<layer id="308" name="__module.layers.3.final_layer_norm/aten::layer_norm/MVN" type="MVN" version="opset6">
			<data eps="9.9999997473787516e-06" normalize_variance="true" eps_mode="INSIDE_SQRT" />
			<input>
				<port id="0" precision="FP32">
					<dim>-1</dim>
					<dim>1500</dim>
					<dim>1280</dim>
				</port>
				<port id="1" precision="I32">
					<dim>1</dim>
				</port>
			</input>
			<output>
				<port id="2" precision="FP32">
					<dim>-1</dim>
					<dim>1500</dim>
					<dim>1280</dim>
				</port>
			</output>
		</layer>
		<layer id="309" name="Constant_54599_compressed" type="Const" version="opset1">
			<data element_type="f16" shape="1, 1, 1280" offset="145835656" size="2560" />
			<output>
				<port id="0" precision="FP16">
					<dim>1</dim>
					<dim>1</dim>
					<dim>1280</dim>
				</port>
			</output>
		</layer>
		<layer id="310" name="Constant_54599" type="Convert" version="opset1">
			<data destination_type="f32" />
			<rt_info>
				<attribute name="decompression" version="0" />
			</rt_info>
			<input>
				<port id="0" precision="FP16">
					<dim>1</dim>
					<dim>1</dim>
					<dim>1280</dim>
				</port>
			</input>
			<output>
				<port id="1" precision="FP32">
					<dim>1</dim>
					<dim>1</dim>
					<dim>1280</dim>
				</port>
			</output>
		</layer>
		<layer id="311" name="__module.layers.3.final_layer_norm/aten::layer_norm/Multiply_1" type="Multiply" version="opset1">
			<data auto_broadcast="numpy" />
			<input>
				<port id="0" precision="FP32">
					<dim>-1</dim>
					<dim>1500</dim>
					<dim>1280</dim>
				</port>
				<port id="1" precision="FP32">
					<dim>1</dim>
					<dim>1</dim>
					<dim>1280</dim>
				</port>
			</input>
			<output>
				<port id="2" precision="FP32">
					<dim>-1</dim>
					<dim>1500</dim>
					<dim>1280</dim>
				</port>
			</output>
		</layer>
		<layer id="312" name="Constant_54600_compressed" type="Const" version="opset1">
			<data element_type="f16" shape="1, 1, 1280" offset="145838216" size="2560" />
			<output>
				<port id="0" precision="FP16">
					<dim>1</dim>
					<dim>1</dim>
					<dim>1280</dim>
				</port>
			</output>
		</layer>
		<layer id="313" name="Constant_54600" type="Convert" version="opset1">
			<data destination_type="f32" />
			<rt_info>
				<attribute name="decompression" version="0" />
			</rt_info>
			<input>
				<port id="0" precision="FP16">
					<dim>1</dim>
					<dim>1</dim>
					<dim>1280</dim>
				</port>
			</input>
			<output>
				<port id="1" precision="FP32">
					<dim>1</dim>
					<dim>1</dim>
					<dim>1280</dim>
				</port>
			</output>
		</layer>
		<layer id="314" name="__module.layers.3.final_layer_norm/aten::layer_norm/Add" type="Add" version="opset1">
			<data auto_broadcast="numpy" />
			<input>
				<port id="0" precision="FP32">
					<dim>-1</dim>
					<dim>1500</dim>
					<dim>1280</dim>
				</port>
				<port id="1" precision="FP32">
					<dim>1</dim>
					<dim>1</dim>
					<dim>1280</dim>
				</port>
			</input>
			<output>
				<port id="2" precision="FP32" names="469">
					<dim>-1</dim>
					<dim>1500</dim>
					<dim>1280</dim>
				</port>
			</output>
		</layer>
		<layer id="315" name="self.layers.3.fc1.weight_compressed" type="Const" version="opset1">
			<data element_type="f16" shape="5120, 1280" offset="145840776" size="13107200" />
			<output>
				<port id="0" precision="FP16" names="self.layers.3.fc1.weight">
					<dim>5120</dim>
					<dim>1280</dim>
				</port>
			</output>
		</layer>
		<layer id="316" name="self.layers.3.fc1.weight" type="Convert" version="opset1">
			<data destination_type="f32" />
			<rt_info>
				<attribute name="decompression" version="0" />
			</rt_info>
			<input>
				<port id="0" precision="FP16">
					<dim>5120</dim>
					<dim>1280</dim>
				</port>
			</input>
			<output>
				<port id="1" precision="FP32">
					<dim>5120</dim>
					<dim>1280</dim>
				</port>
			</output>
		</layer>
		<layer id="317" name="__module.layers.3.fc1/aten::linear/MatMul" type="MatMul" version="opset1">
			<data transpose_a="false" transpose_b="true" />
			<input>
				<port id="0" precision="FP32">
					<dim>-1</dim>
					<dim>1500</dim>
					<dim>1280</dim>
				</port>
				<port id="1" precision="FP32">
					<dim>5120</dim>
					<dim>1280</dim>
				</port>
			</input>
			<output>
				<port id="2" precision="FP32">
					<dim>-1</dim>
					<dim>1500</dim>
					<dim>5120</dim>
				</port>
			</output>
		</layer>
		<layer id="318" name="Constant_54601_compressed" type="Const" version="opset1">
			<data element_type="f16" shape="1, 1, 5120" offset="158947976" size="10240" />
			<output>
				<port id="0" precision="FP16">
					<dim>1</dim>
					<dim>1</dim>
					<dim>5120</dim>
				</port>
			</output>
		</layer>
		<layer id="319" name="Constant_54601" type="Convert" version="opset1">
			<data destination_type="f32" />
			<rt_info>
				<attribute name="decompression" version="0" />
			</rt_info>
			<input>
				<port id="0" precision="FP16">
					<dim>1</dim>
					<dim>1</dim>
					<dim>5120</dim>
				</port>
			</input>
			<output>
				<port id="1" precision="FP32">
					<dim>1</dim>
					<dim>1</dim>
					<dim>5120</dim>
				</port>
			</output>
		</layer>
		<layer id="320" name="__module.layers.3.fc1/aten::linear/Add" type="Add" version="opset1">
			<data auto_broadcast="numpy" />
			<input>
				<port id="0" precision="FP32">
					<dim>-1</dim>
					<dim>1500</dim>
					<dim>5120</dim>
				</port>
				<port id="1" precision="FP32">
					<dim>1</dim>
					<dim>1</dim>
					<dim>5120</dim>
				</port>
			</input>
			<output>
				<port id="2" precision="FP32" names="472,input.29">
					<dim>-1</dim>
					<dim>1500</dim>
					<dim>5120</dim>
				</port>
			</output>
		</layer>
		<layer id="321" name="__module.layers.3.activation_fn/aten::gelu/Gelu" type="Gelu" version="opset7">
			<data approximation_mode="ERF" />
			<input>
				<port id="0" precision="FP32">
					<dim>-1</dim>
					<dim>1500</dim>
					<dim>5120</dim>
				</port>
			</input>
			<output>
				<port id="1" precision="FP32" names="473,input.31">
					<dim>-1</dim>
					<dim>1500</dim>
					<dim>5120</dim>
				</port>
			</output>
		</layer>
		<layer id="322" name="self.layers.3.fc2.weight_compressed" type="Const" version="opset1">
			<data element_type="f16" shape="1280, 5120" offset="158958216" size="13107200" />
			<output>
				<port id="0" precision="FP16" names="self.layers.3.fc2.weight">
					<dim>1280</dim>
					<dim>5120</dim>
				</port>
			</output>
		</layer>
		<layer id="323" name="self.layers.3.fc2.weight" type="Convert" version="opset1">
			<data destination_type="f32" />
			<rt_info>
				<attribute name="decompression" version="0" />
			</rt_info>
			<input>
				<port id="0" precision="FP16">
					<dim>1280</dim>
					<dim>5120</dim>
				</port>
			</input>
			<output>
				<port id="1" precision="FP32">
					<dim>1280</dim>
					<dim>5120</dim>
				</port>
			</output>
		</layer>
		<layer id="324" name="__module.layers.3.fc2/aten::linear/MatMul" type="MatMul" version="opset1">
			<data transpose_a="false" transpose_b="true" />
			<input>
				<port id="0" precision="FP32">
					<dim>-1</dim>
					<dim>1500</dim>
					<dim>5120</dim>
				</port>
				<port id="1" precision="FP32">
					<dim>1280</dim>
					<dim>5120</dim>
				</port>
			</input>
			<output>
				<port id="2" precision="FP32">
					<dim>-1</dim>
					<dim>1500</dim>
					<dim>1280</dim>
				</port>
			</output>
		</layer>
		<layer id="325" name="Constant_54602_compressed" type="Const" version="opset1">
			<data element_type="f16" shape="1, 1, 1280" offset="172065416" size="2560" />
			<output>
				<port id="0" precision="FP16">
					<dim>1</dim>
					<dim>1</dim>
					<dim>1280</dim>
				</port>
			</output>
		</layer>
		<layer id="326" name="Constant_54602" type="Convert" version="opset1">
			<data destination_type="f32" />
			<rt_info>
				<attribute name="decompression" version="0" />
			</rt_info>
			<input>
				<port id="0" precision="FP16">
					<dim>1</dim>
					<dim>1</dim>
					<dim>1280</dim>
				</port>
			</input>
			<output>
				<port id="1" precision="FP32">
					<dim>1</dim>
					<dim>1</dim>
					<dim>1280</dim>
				</port>
			</output>
		</layer>
		<layer id="327" name="__module.layers.3.fc2/aten::linear/Add" type="Add" version="opset1">
			<data auto_broadcast="numpy" />
			<input>
				<port id="0" precision="FP32">
					<dim>-1</dim>
					<dim>1500</dim>
					<dim>1280</dim>
				</port>
				<port id="1" precision="FP32">
					<dim>1</dim>
					<dim>1</dim>
					<dim>1280</dim>
				</port>
			</input>
			<output>
				<port id="2" precision="FP32" names="477,input.33">
					<dim>-1</dim>
					<dim>1500</dim>
					<dim>1280</dim>
				</port>
			</output>
		</layer>
		<layer id="328" name="__module.layers.3/aten::add/Add_1" type="Add" version="opset1">
			<data auto_broadcast="numpy" />
			<input>
				<port id="0" precision="FP32">
					<dim>-1</dim>
					<dim>1500</dim>
					<dim>1280</dim>
				</port>
				<port id="1" precision="FP32">
					<dim>-1</dim>
					<dim>1500</dim>
					<dim>1280</dim>
				</port>
			</input>
			<output>
				<port id="2" precision="FP32" names="479,residual.17">
					<dim>-1</dim>
					<dim>1500</dim>
					<dim>1280</dim>
				</port>
			</output>
		</layer>
		<layer id="329" name="__module.layers.4.self_attn_layer_norm/aten::layer_norm/Multiply" type="Const" version="opset1">
			<data element_type="i32" shape="1" offset="14658584" size="4" />
			<output>
				<port id="0" precision="I32">
					<dim>1</dim>
				</port>
			</output>
		</layer>
		<layer id="330" name="__module.layers.4.self_attn_layer_norm/aten::layer_norm/MVN" type="MVN" version="opset6">
			<data eps="9.9999997473787516e-06" normalize_variance="true" eps_mode="INSIDE_SQRT" />
			<input>
				<port id="0" precision="FP32">
					<dim>-1</dim>
					<dim>1500</dim>
					<dim>1280</dim>
				</port>
				<port id="1" precision="I32">
					<dim>1</dim>
				</port>
			</input>
			<output>
				<port id="2" precision="FP32">
					<dim>-1</dim>
					<dim>1500</dim>
					<dim>1280</dim>
				</port>
			</output>
		</layer>
		<layer id="331" name="Constant_54603_compressed" type="Const" version="opset1">
			<data element_type="f16" shape="1, 1, 1280" offset="172067976" size="2560" />
			<output>
				<port id="0" precision="FP16">
					<dim>1</dim>
					<dim>1</dim>
					<dim>1280</dim>
				</port>
			</output>
		</layer>
		<layer id="332" name="Constant_54603" type="Convert" version="opset1">
			<data destination_type="f32" />
			<rt_info>
				<attribute name="decompression" version="0" />
			</rt_info>
			<input>
				<port id="0" precision="FP16">
					<dim>1</dim>
					<dim>1</dim>
					<dim>1280</dim>
				</port>
			</input>
			<output>
				<port id="1" precision="FP32">
					<dim>1</dim>
					<dim>1</dim>
					<dim>1280</dim>
				</port>
			</output>
		</layer>
		<layer id="333" name="__module.layers.4.self_attn_layer_norm/aten::layer_norm/Multiply_1" type="Multiply" version="opset1">
			<data auto_broadcast="numpy" />
			<input>
				<port id="0" precision="FP32">
					<dim>-1</dim>
					<dim>1500</dim>
					<dim>1280</dim>
				</port>
				<port id="1" precision="FP32">
					<dim>1</dim>
					<dim>1</dim>
					<dim>1280</dim>
				</port>
			</input>
			<output>
				<port id="2" precision="FP32">
					<dim>-1</dim>
					<dim>1500</dim>
					<dim>1280</dim>
				</port>
			</output>
		</layer>
		<layer id="334" name="Constant_54604_compressed" type="Const" version="opset1">
			<data element_type="f16" shape="1, 1, 1280" offset="172070536" size="2560" />
			<output>
				<port id="0" precision="FP16">
					<dim>1</dim>
					<dim>1</dim>
					<dim>1280</dim>
				</port>
			</output>
		</layer>
		<layer id="335" name="Constant_54604" type="Convert" version="opset1">
			<data destination_type="f32" />
			<rt_info>
				<attribute name="decompression" version="0" />
			</rt_info>
			<input>
				<port id="0" precision="FP16">
					<dim>1</dim>
					<dim>1</dim>
					<dim>1280</dim>
				</port>
			</input>
			<output>
				<port id="1" precision="FP32">
					<dim>1</dim>
					<dim>1</dim>
					<dim>1280</dim>
				</port>
			</output>
		</layer>
		<layer id="336" name="__module.layers.4.self_attn_layer_norm/aten::layer_norm/Add" type="Add" version="opset1">
			<data auto_broadcast="numpy" />
			<input>
				<port id="0" precision="FP32">
					<dim>-1</dim>
					<dim>1500</dim>
					<dim>1280</dim>
				</port>
				<port id="1" precision="FP32">
					<dim>1</dim>
					<dim>1</dim>
					<dim>1280</dim>
				</port>
			</input>
			<output>
				<port id="2" precision="FP32" names="504,hidden_states.25">
					<dim>-1</dim>
					<dim>1500</dim>
					<dim>1280</dim>
				</port>
			</output>
		</layer>
		<layer id="337" name="self.layers.4.self_attn.q_proj.weight_compressed" type="Const" version="opset1">
			<data element_type="f16" shape="1280, 1280" offset="172073096" size="3276800" />
			<output>
				<port id="0" precision="FP16" names="self.layers.4.self_attn.q_proj.weight">
					<dim>1280</dim>
					<dim>1280</dim>
				</port>
			</output>
		</layer>
		<layer id="338" name="self.layers.4.self_attn.q_proj.weight" type="Convert" version="opset1">
			<data destination_type="f32" />
			<rt_info>
				<attribute name="decompression" version="0" />
			</rt_info>
			<input>
				<port id="0" precision="FP16">
					<dim>1280</dim>
					<dim>1280</dim>
				</port>
			</input>
			<output>
				<port id="1" precision="FP32">
					<dim>1280</dim>
					<dim>1280</dim>
				</port>
			</output>
		</layer>
		<layer id="339" name="__module.layers.4.self_attn.q_proj/aten::linear/MatMul" type="MatMul" version="opset1">
			<data transpose_a="false" transpose_b="true" />
			<input>
				<port id="0" precision="FP32">
					<dim>-1</dim>
					<dim>1500</dim>
					<dim>1280</dim>
				</port>
				<port id="1" precision="FP32">
					<dim>1280</dim>
					<dim>1280</dim>
				</port>
			</input>
			<output>
				<port id="2" precision="FP32">
					<dim>-1</dim>
					<dim>1500</dim>
					<dim>1280</dim>
				</port>
			</output>
		</layer>
		<layer id="340" name="Constant_54605_compressed" type="Const" version="opset1">
			<data element_type="f16" shape="1, 1, 1280" offset="175349896" size="2560" />
			<output>
				<port id="0" precision="FP16">
					<dim>1</dim>
					<dim>1</dim>
					<dim>1280</dim>
				</port>
			</output>
		</layer>
		<layer id="341" name="Constant_54605" type="Convert" version="opset1">
			<data destination_type="f32" />
			<rt_info>
				<attribute name="decompression" version="0" />
			</rt_info>
			<input>
				<port id="0" precision="FP16">
					<dim>1</dim>
					<dim>1</dim>
					<dim>1280</dim>
				</port>
			</input>
			<output>
				<port id="1" precision="FP32">
					<dim>1</dim>
					<dim>1</dim>
					<dim>1280</dim>
				</port>
			</output>
		</layer>
		<layer id="342" name="__module.layers.4.self_attn.q_proj/aten::linear/Add" type="Add" version="opset1">
			<data auto_broadcast="numpy" />
			<input>
				<port id="0" precision="FP32">
					<dim>-1</dim>
					<dim>1500</dim>
					<dim>1280</dim>
				</port>
				<port id="1" precision="FP32">
					<dim>1</dim>
					<dim>1</dim>
					<dim>1280</dim>
				</port>
			</input>
			<output>
				<port id="2" precision="FP32" names="513,tensor.25">
					<dim>-1</dim>
					<dim>1500</dim>
					<dim>1280</dim>
				</port>
			</output>
		</layer>
		<layer id="343" name="Constant_55422" type="Const" version="opset1">
			<data element_type="i64" shape="4" offset="17943068" size="32" />
			<rt_info>
				<attribute name="precise" version="0" />
			</rt_info>
			<output>
				<port id="0" precision="I64">
					<dim>4</dim>
				</port>
			</output>
		</layer>
		<layer id="344" name="__module.layers.4.self_attn/aten::view/Reshape" type="Reshape" version="opset1">
			<data special_zero="true" />
			<input>
				<port id="0" precision="FP32">
					<dim>-1</dim>
					<dim>1500</dim>
					<dim>1280</dim>
				</port>
				<port id="1" precision="I64">
					<dim>4</dim>
				</port>
			</input>
			<output>
				<port id="2" precision="FP32" names="515">
					<dim>-1</dim>
					<dim>1500</dim>
					<dim>20</dim>
					<dim>64</dim>
				</port>
			</output>
		</layer>
		<layer id="345" name="__module.layers.4.self_attn/aten::transpose/ScatterElementsUpdate" type="Const" version="opset1">
			<data element_type="i32" shape="4" offset="17943100" size="16" />
			<output>
				<port id="0" precision="I32">
					<dim>4</dim>
				</port>
			</output>
		</layer>
		<layer id="346" name="__module.layers.4.self_attn/aten::transpose/Transpose" type="Transpose" version="opset1">
			<input>
				<port id="0" precision="FP32">
					<dim>-1</dim>
					<dim>1500</dim>
					<dim>20</dim>
					<dim>64</dim>
				</port>
				<port id="1" precision="I32">
					<dim>4</dim>
				</port>
			</input>
			<output>
				<port id="2" precision="FP32" names="516">
					<dim>-1</dim>
					<dim>20</dim>
					<dim>1500</dim>
					<dim>64</dim>
				</port>
			</output>
		</layer>
		<layer id="347" name="self.layers.4.self_attn.k_proj.weight_compressed" type="Const" version="opset1">
			<data element_type="f16" shape="1280, 1280" offset="175352456" size="3276800" />
			<output>
				<port id="0" precision="FP16" names="self.layers.4.self_attn.k_proj.weight">
					<dim>1280</dim>
					<dim>1280</dim>
				</port>
			</output>
		</layer>
		<layer id="348" name="self.layers.4.self_attn.k_proj.weight" type="Convert" version="opset1">
			<data destination_type="f32" />
			<rt_info>
				<attribute name="decompression" version="0" />
			</rt_info>
			<input>
				<port id="0" precision="FP16">
					<dim>1280</dim>
					<dim>1280</dim>
				</port>
			</input>
			<output>
				<port id="1" precision="FP32">
					<dim>1280</dim>
					<dim>1280</dim>
				</port>
			</output>
		</layer>
		<layer id="349" name="__module.layers.4.self_attn.k_proj/aten::linear/MatMul" type="MatMul" version="opset1">
			<data transpose_a="false" transpose_b="true" />
			<input>
				<port id="0" precision="FP32">
					<dim>-1</dim>
					<dim>1500</dim>
					<dim>1280</dim>
				</port>
				<port id="1" precision="FP32">
					<dim>1280</dim>
					<dim>1280</dim>
				</port>
			</input>
			<output>
				<port id="2" precision="FP32" names="519,tensor.27">
					<dim>-1</dim>
					<dim>1500</dim>
					<dim>1280</dim>
				</port>
			</output>
		</layer>
		<layer id="350" name="Constant_55423" type="Const" version="opset1">
			<data element_type="i64" shape="4" offset="17943068" size="32" />
			<rt_info>
				<attribute name="precise" version="0" />
			</rt_info>
			<output>
				<port id="0" precision="I64">
					<dim>4</dim>
				</port>
…
		<edge from-layer="1838" from-port="0" to-layer="1839" to-port="1" />
		<edge from-layer="1839" from-port="2" to-layer="1842" to-port="0" />
		<edge from-layer="1840" from-port="0" to-layer="1841" to-port="0" />
		<edge from-layer="1841" from-port="1" to-layer="1842" to-port="1" />
		<edge from-layer="1842" from-port="2" to-layer="1845" to-port="0" />
		<edge from-layer="1843" from-port="0" to-layer="1844" to-port="0" />
		<edge from-layer="1844" from-port="1" to-layer="1845" to-port="1" />
		<edge from-layer="1845" from-port="2" to-layer="1846" to-port="1" />
		<edge from-layer="1846" from-port="2" to-layer="1848" to-port="0" />
		<edge from-layer="1846" from-port="2" to-layer="1868" to-port="0" />
		<edge from-layer="1847" from-port="0" to-layer="1848" to-port="1" />
		<edge from-layer="1848" from-port="2" to-layer="1851" to-port="0" />
		<edge from-layer="1849" from-port="0" to-layer="1850" to-port="0" />
		<edge from-layer="1850" from-port="1" to-layer="1851" to-port="1" />
		<edge from-layer="1851" from-port="2" to-layer="1854" to-port="0" />
		<edge from-layer="1852" from-port="0" to-layer="1853" to-port="0" />
		<edge from-layer="1853" from-port="1" to-layer="1854" to-port="1" />
		<edge from-layer="1854" from-port="2" to-layer="1857" to-port="0" />
		<edge from-layer="1855" from-port="0" to-layer="1856" to-port="0" />
		<edge from-layer="1856" from-port="1" to-layer="1857" to-port="1" />
		<edge from-layer="1857" from-port="2" to-layer="1860" to-port="0" />
		<edge from-layer="1858" from-port="0" to-layer="1859" to-port="0" />
		<edge from-layer="1859" from-port="1" to-layer="1860" to-port="1" />
		<edge from-layer="1860" from-port="2" to-layer="1861" to-port="0" />
		<edge from-layer="1861" from-port="1" to-layer="1864" to-port="0" />
		<edge from-layer="1862" from-port="0" to-layer="1863" to-port="0" />
		<edge from-layer="1863" from-port="1" to-layer="1864" to-port="1" />
		<edge from-layer="1864" from-port="2" to-layer="1867" to-port="0" />
		<edge from-layer="1865" from-port="0" to-layer="1866" to-port="0" />
		<edge from-layer="1866" from-port="1" to-layer="1867" to-port="1" />
		<edge from-layer="1867" from-port="2" to-layer="1868" to-port="1" />
		<edge from-layer="1868" from-port="2" to-layer="1923" to-port="0" />
		<edge from-layer="1868" from-port="2" to-layer="1870" to-port="0" />
		<edge from-layer="1869" from-port="0" to-layer="1870" to-port="1" />
		<edge from-layer="1870" from-port="2" to-layer="1873" to-port="0" />
		<edge from-layer="1871" from-port="0" to-layer="1872" to-port="0" />
		<edge from-layer="1872" from-port="1" to-layer="1873" to-port="1" />
		<edge from-layer="1873" from-port="2" to-layer="1876" to-port="0" />
		<edge from-layer="1874" from-port="0" to-layer="1875" to-port="0" />
		<edge from-layer="1875" from-port="1" to-layer="1876" to-port="1" />
		<edge from-layer="1876" from-port="2" to-layer="1896" to-port="0" />
		<edge from-layer="1876" from-port="2" to-layer="1889" to-port="0" />
		<edge from-layer="1876" from-port="2" to-layer="1879" to-port="0" />
		<edge from-layer="1877" from-port="0" to-layer="1878" to-port="0" />
		<edge from-layer="1878" from-port="1" to-layer="1879" to-port="1" />
		<edge from-layer="1879" from-port="2" to-layer="1882" to-port="0" />
		<edge from-layer="1880" from-port="0" to-layer="1881" to-port="0" />
		<edge from-layer="1881" from-port="1" to-layer="1882" to-port="1" />
		<edge from-layer="1882" from-port="2" to-layer="1884" to-port="0" />
		<edge from-layer="1883" from-port="0" to-layer="1884" to-port="1" />
		<edge from-layer="1884" from-port="2" to-layer="1886" to-port="0" />
		<edge from-layer="1885" from-port="0" to-layer="1886" to-port="1" />
		<edge from-layer="1886" from-port="2" to-layer="1912" to-port="0" />
		<edge from-layer="1887" from-port="0" to-layer="1888" to-port="0" />
		<edge from-layer="1888" from-port="1" to-layer="1889" to-port="1" />
		<edge from-layer="1889" from-port="2" to-layer="1891" to-port="0" />
		<edge from-layer="1890" from-port="0" to-layer="1891" to-port="1" />
		<edge from-layer="1891" from-port="2" to-layer="1893" to-port="0" />
		<edge from-layer="1892" from-port="0" to-layer="1893" to-port="1" />
		<edge from-layer="1893" from-port="2" to-layer="1905" to-port="0" />
		<edge from-layer="1893" from-port="2" to-layer="1912" to-port="1" />
		<edge from-layer="1894" from-port="0" to-layer="1895" to-port="0" />
		<edge from-layer="1895" from-port="1" to-layer="1896" to-port="1" />
		<edge from-layer="1896" from-port="2" to-layer="1899" to-port="0" />
		<edge from-layer="1897" from-port="0" to-layer="1898" to-port="0" />
		<edge from-layer="1898" from-port="1" to-layer="1899" to-port="1" />
		<edge from-layer="1899" from-port="2" to-layer="1901" to-port="0" />
		<edge from-layer="1900" from-port="0" to-layer="1901" to-port="1" />
		<edge from-layer="1901" from-port="2" to-layer="1903" to-port="0" />
		<edge from-layer="1902" from-port="0" to-layer="1903" to-port="1" />
		<edge from-layer="1903" from-port="2" to-layer="1912" to-port="2" />
		<edge from-layer="1904" from-port="0" to-layer="1911" to-port="1" />
		<edge from-layer="1905" from-port="1" to-layer="1908" to-port="0" />
		<edge from-layer="1906" from-port="0" to-layer="1908" to-port="1" />
		<edge from-layer="1907" from-port="0" to-layer="1908" to-port="2" />
		<edge from-layer="1908" from-port="3" to-layer="1911" to-port="2" />
		<edge from-layer="1909" from-port="0" to-layer="1911" to-port="3" />
		<edge from-layer="1910" from-port="0" to-layer="1911" to-port="4" />
		<edge from-layer="1911" from-port="5" to-layer="1912" to-port="3" />
		<edge from-layer="1912" from-port="4" to-layer="1914" to-port="0" />
		<edge from-layer="1913" from-port="0" to-layer="1914" to-port="1" />
		<edge from-layer="1914" from-port="2" to-layer="1916" to-port="0" />
		<edge from-layer="1915" from-port="0" to-layer="1916" to-port="1" />
		<edge from-layer="1916" from-port="2" to-layer="1919" to-port="0" />
		<edge from-layer="1917" from-port="0" to-layer="1918" to-port="0" />
		<edge from-layer="1918" from-port="1" to-layer="1919" to-port="1" />
		<edge from-layer="1919" from-port="2" to-layer="1922" to-port="0" />
		<edge from-layer="1920" from-port="0" to-layer="1921" to-port="0" />
		<edge from-layer="1921" from-port="1" to-layer="1922" to-port="1" />
		<edge from-layer="1922" from-port="2" to-layer="1923" to-port="1" />
		<edge from-layer="1923" from-port="2" to-layer="1945" to-port="0" />
		<edge from-layer="1923" from-port="2" to-layer="1925" to-port="0" />
		<edge from-layer="1924" from-port="0" to-layer="1925" to-port="1" />
		<edge from-layer="1925" from-port="2" to-layer="1928" to-port="0" />
		<edge from-layer="1926" from-port="0" to-layer="1927" to-port="0" />
		<edge from-layer="1927" from-port="1" to-layer="1928" to-port="1" />
		<edge from-layer="1928" from-port="2" to-layer="1931" to-port="0" />
		<edge from-layer="1929" from-port="0" to-layer="1930" to-port="0" />
		<edge from-layer="1930" from-port="1" to-layer="1931" to-port="1" />
		<edge from-layer="1931" from-port="2" to-layer="1934" to-port="0" />
		<edge from-layer="1932" from-port="0" to-layer="1933" to-port="0" />
		<edge from-layer="1933" from-port="1" to-layer="1934" to-port="1" />
		<edge from-layer="1934" from-port="2" to-layer="1937" to-port="0" />
		<edge from-layer="1935" from-port="0" to-layer="1936" to-port="0" />
		<edge from-layer="1936" from-port="1" to-layer="1937" to-port="1" />
		<edge from-layer="1937" from-port="2" to-layer="1938" to-port="0" />
		<edge from-layer="1938" from-port="1" to-layer="1941" to-port="0" />
		<edge from-layer="1939" from-port="0" to-layer="1940" to-port="0" />
		<edge from-layer="1940" from-port="1" to-layer="1941" to-port="1" />
		<edge from-layer="1941" from-port="2" to-layer="1944" to-port="0" />
		<edge from-layer="1942" from-port="0" to-layer="1943" to-port="0" />
		<edge from-layer="1943" from-port="1" to-layer="1944" to-port="1" />
		<edge from-layer="1944" from-port="2" to-layer="1945" to-port="1" />
		<edge from-layer="1945" from-port="2" to-layer="2000" to-port="0" />
		<edge from-layer="1945" from-port="2" to-layer="1947" to-port="0" />
		<edge from-layer="1946" from-port="0" to-layer="1947" to-port="1" />
		<edge from-layer="1947" from-port="2" to-layer="1950" to-port="0" />
		<edge from-layer="1948" from-port="0" to-layer="1949" to-port="0" />
		<edge from-layer="1949" from-port="1" to-layer="1950" to-port="1" />
		<edge from-layer="1950" from-port="2" to-layer="1953" to-port="0" />
		<edge from-layer="1951" from-port="0" to-layer="1952" to-port="0" />
		<edge from-layer="1952" from-port="1" to-layer="1953" to-port="1" />
		<edge from-layer="1953" from-port="2" to-layer="1956" to-port="0" />
		<edge from-layer="1953" from-port="2" to-layer="1973" to-port="0" />
		<edge from-layer="1953" from-port="2" to-layer="1966" to-port="0" />
		<edge from-layer="1954" from-port="0" to-layer="1955" to-port="0" />
		<edge from-layer="1955" from-port="1" to-layer="1956" to-port="1" />
		<edge from-layer="1956" from-port="2" to-layer="1959" to-port="0" />
		<edge from-layer="1957" from-port="0" to-layer="1958" to-port="0" />
		<edge from-layer="1958" from-port="1" to-layer="1959" to-port="1" />
		<edge from-layer="1959" from-port="2" to-layer="1961" to-port="0" />
		<edge from-layer="1960" from-port="0" to-layer="1961" to-port="1" />
		<edge from-layer="1961" from-port="2" to-layer="1963" to-port="0" />
		<edge from-layer="1962" from-port="0" to-layer="1963" to-port="1" />
		<edge from-layer="1963" from-port="2" to-layer="1989" to-port="0" />
		<edge from-layer="1964" from-port="0" to-layer="1965" to-port="0" />
		<edge from-layer="1965" from-port="1" to-layer="1966" to-port="1" />
		<edge from-layer="1966" from-port="2" to-layer="1968" to-port="0" />
		<edge from-layer="1967" from-port="0" to-layer="1968" to-port="1" />
		<edge from-layer="1968" from-port="2" to-layer="1970" to-port="0" />
		<edge from-layer="1969" from-port="0" to-layer="1970" to-port="1" />
		<edge from-layer="1970" from-port="2" to-layer="1982" to-port="0" />
		<edge from-layer="1970" from-port="2" to-layer="1989" to-port="1" />
		<edge from-layer="1971" from-port="0" to-layer="1972" to-port="0" />
		<edge from-layer="1972" from-port="1" to-layer="1973" to-port="1" />
		<edge from-layer="1973" from-port="2" to-layer="1976" to-port="0" />
		<edge from-layer="1974" from-port="0" to-layer="1975" to-port="0" />
		<edge from-layer="1975" from-port="1" to-layer="1976" to-port="1" />
		<edge from-layer="1976" from-port="2" to-layer="1978" to-port="0" />
		<edge from-layer="1977" from-port="0" to-layer="1978" to-port="1" />
		<edge from-layer="1978" from-port="2" to-layer="1980" to-port="0" />
		<edge from-layer="1979" from-port="0" to-layer="1980" to-port="1" />
		<edge from-layer="1980" from-port="2" to-layer="1989" to-port="2" />
		<edge from-layer="1981" from-port="0" to-layer="1988" to-port="1" />
		<edge from-layer="1982" from-port="1" to-layer="1985" to-port="0" />
		<edge from-layer="1983" from-port="0" to-layer="1985" to-port="1" />
		<edge from-layer="1984" from-port="0" to-layer="1985" to-port="2" />
		<edge from-layer="1985" from-port="3" to-layer="1988" to-port="2" />
		<edge from-layer="1986" from-port="0" to-layer="1988" to-port="3" />
		<edge from-layer="1987" from-port="0" to-layer="1988" to-port="4" />
		<edge from-layer="1988" from-port="5" to-layer="1989" to-port="3" />
		<edge from-layer="1989" from-port="4" to-layer="1991" to-port="0" />
		<edge from-layer="1990" from-port="0" to-layer="1991" to-port="1" />
		<edge from-layer="1991" from-port="2" to-layer="1993" to-port="0" />
		<edge from-layer="1992" from-port="0" to-layer="1993" to-port="1" />
		<edge from-layer="1993" from-port="2" to-layer="1996" to-port="0" />
		<edge from-layer="1994" from-port="0" to-layer="1995" to-port="0" />
		<edge from-layer="1995" from-port="1" to-layer="1996" to-port="1" />
		<edge from-layer="1996" from-port="2" to-layer="1999" to-port="0" />
		<edge from-layer="1997" from-port="0" to-layer="1998" to-port="0" />
		<edge from-layer="1998" from-port="1" to-layer="1999" to-port="1" />
		<edge from-layer="1999" from-port="2" to-layer="2000" to-port="1" />
		<edge from-layer="2000" from-port="2" to-layer="2002" to-port="0" />
		<edge from-layer="2000" from-port="2" to-layer="2022" to-port="0" />
		<edge from-layer="2001" from-port="0" to-layer="2002" to-port="1" />
		<edge from-layer="2002" from-port="2" to-layer="2005" to-port="0" />
		<edge from-layer="2003" from-port="0" to-layer="2004" to-port="0" />
		<edge from-layer="2004" from-port="1" to-layer="2005" to-port="1" />
		<edge from-layer="2005" from-port="2" to-layer="2008" to-port="0" />
		<edge from-layer="2006" from-port="0" to-layer="2007" to-port="0" />
		<edge from-layer="2007" from-port="1" to-layer="2008" to-port="1" />
		<edge from-layer="2008" from-port="2" to-layer="2011" to-port="0" />
		<edge from-layer="2009" from-port="0" to-layer="2010" to-port="0" />
		<edge from-layer="2010" from-port="1" to-layer="2011" to-port="1" />
		<edge from-layer="2011" from-port="2" to-layer="2014" to-port="0" />
		<edge from-layer="2012" from-port="0" to-layer="2013" to-port="0" />
		<edge from-layer="2013" from-port="1" to-layer="2014" to-port="1" />
		<edge from-layer="2014" from-port="2" to-layer="2015" to-port="0" />
		<edge from-layer="2015" from-port="1" to-layer="2018" to-port="0" />
		<edge from-layer="2016" from-port="0" to-layer="2017" to-port="0" />
		<edge from-layer="2017" from-port="1" to-layer="2018" to-port="1" />
		<edge from-layer="2018" from-port="2" to-layer="2021" to-port="0" />
		<edge from-layer="2019" from-port="0" to-layer="2020" to-port="0" />
		<edge from-layer="2020" from-port="1" to-layer="2021" to-port="1" />
		<edge from-layer="2021" from-port="2" to-layer="2022" to-port="1" />
		<edge from-layer="2022" from-port="2" to-layer="2077" to-port="0" />
		<edge from-layer="2022" from-port="2" to-layer="2024" to-port="0" />
		<edge from-layer="2023" from-port="0" to-layer="2024" to-port="1" />
		<edge from-layer="2024" from-port="2" to-layer="2027" to-port="0" />
		<edge from-layer="2025" from-port="0" to-layer="2026" to-port="0" />
		<edge from-layer="2026" from-port="1" to-layer="2027" to-port="1" />
		<edge from-layer="2027" from-port="2" to-layer="2030" to-port="0" />
		<edge from-layer="2028" from-port="0" to-layer="2029" to-port="0" />
		<edge from-layer="2029" from-port="1" to-layer="2030" to-port="1" />
		<edge from-layer="2030" from-port="2" to-layer="2043" to-port="0" />
		<edge from-layer="2030" from-port="2" to-layer="2033" to-port="0" />
		<edge from-layer="2030" from-port="2" to-layer="2050" to-port="0" />
		<edge from-layer="2031" from-port="0" to-layer="2032" to-port="0" />
		<edge from-layer="2032" from-port="1" to-layer="2033" to-port="1" />
		<edge from-layer="2033" from-port="2" to-layer="2036" to-port="0" />
		<edge from-layer="2034" from-port="0" to-layer="2035" to-port="0" />
		<edge from-layer="2035" from-port="1" to-layer="2036" to-port="1" />
		<edge from-layer="2036" from-port="2" to-layer="2038" to-port="0" />
		<edge from-layer="2037" from-port="0" to-layer="2038" to-port="1" />
		<edge from-layer="2038" from-port="2" to-layer="2040" to-port="0" />
		<edge from-layer="2039" from-port="0" to-layer="2040" to-port="1" />
		<edge from-layer="2040" from-port="2" to-layer="2066" to-port="0" />
		<edge from-layer="2041" from-port="0" to-layer="2042" to-port="0" />
		<edge from-layer="2042" from-port="1" to-layer="2043" to-port="1" />
		<edge from-layer="2043" from-port="2" to-layer="2045" to-port="0" />
		<edge from-layer="2044" from-port="0" to-layer="2045" to-port="1" />
		<edge from-layer="2045" from-port="2" to-layer="2047" to-port="0" />
		<edge from-layer="2046" from-port="0" to-layer="2047" to-port="1" />
		<edge from-layer="2047" from-port="2" to-layer="2066" to-port="1" />
		<edge from-layer="2047" from-port="2" to-layer="2059" to-port="0" />
		<edge from-layer="2048" from-port="0" to-layer="2049" to-port="0" />
		<edge from-layer="2049" from-port="1" to-layer="2050" to-port="1" />
		<edge from-layer="2050" from-port="2" to-layer="2053" to-port="0" />
		<edge from-layer="2051" from-port="0" to-layer="2052" to-port="0" />
		<edge from-layer="2052" from-port="1" to-layer="2053" to-port="1" />
		<edge from-layer="2053" from-port="2" to-layer="2055" to-port="0" />
		<edge from-layer="2054" from-port="0" to-layer="2055" to-port="1" />
		<edge from-layer="2055" from-port="2" to-layer="2057" to-port="0" />
		<edge from-layer="2056" from-port="0" to-layer="2057" to-port="1" />
		<edge from-layer="2057" from-port="2" to-layer="2066" to-port="2" />
		<edge from-layer="2058" from-port="0" to-layer="2065" to-port="1" />
		<edge from-layer="2059" from-port="1" to-layer="2062" to-port="0" />
		<edge from-layer="2060" from-port="0" to-layer="2062" to-port="1" />
		<edge from-layer="2061" from-port="0" to-layer="2062" to-port="2" />
		<edge from-layer="2062" from-port="3" to-layer="2065" to-port="2" />
		<edge from-layer="2063" from-port="0" to-layer="2065" to-port="3" />
		<edge from-layer="2064" from-port="0" to-layer="2065" to-port="4" />
		<edge from-layer="2065" from-port="5" to-layer="2066" to-port="3" />
		<edge from-layer="2066" from-port="4" to-layer="2068" to-port="0" />
		<edge from-layer="2067" from-port="0" to-layer="2068" to-port="1" />
		<edge from-layer="2068" from-port="2" to-layer="2070" to-port="0" />
		<edge from-layer="2069" from-port="0" to-layer="2070" to-port="1" />
		<edge from-layer="2070" from-port="2" to-layer="2073" to-port="0" />
		<edge from-layer="2071" from-port="0" to-layer="2072" to-port="0" />
		<edge from-layer="2072" from-port="1" to-layer="2073" to-port="1" />
		<edge from-layer="2073" from-port="2" to-layer="2076" to-port="0" />
		<edge from-layer="2074" from-port="0" to-layer="2075" to-port="0" />
		<edge from-layer="2075" from-port="1" to-layer="2076" to-port="1" />
		<edge from-layer="2076" from-port="2" to-layer="2077" to-port="1" />
		<edge from-layer="2077" from-port="2" to-layer="2099" to-port="0" />
		<edge from-layer="2077" from-port="2" to-layer="2079" to-port="0" />
		<edge from-layer="2078" from-port="0" to-layer="2079" to-port="1" />
		<edge from-layer="2079" from-port="2" to-layer="2082" to-port="0" />
		<edge from-layer="2080" from-port="0" to-layer="2081" to-port="0" />
		<edge from-layer="2081" from-port="1" to-layer="2082" to-port="1" />
		<edge from-layer="2082" from-port="2" to-layer="2085" to-port="0" />
		<edge from-layer="2083" from-port="0" to-layer="2084" to-port="0" />
		<edge from-layer="2084" from-port="1" to-layer="2085" to-port="1" />
		<edge from-layer="2085" from-port="2" to-layer="2088" to-port="0" />
		<edge from-layer="2086" from-port="0" to-layer="2087" to-port="0" />
		<edge from-layer="2087" from-port="1" to-layer="2088" to-port="1" />
		<edge from-layer="2088" from-port="2" to-layer="2091" to-port="0" />
		<edge from-layer="2089" from-port="0" to-layer="2090" to-port="0" />
		<edge from-layer="2090" from-port="1" to-layer="2091" to-port="1" />
		<edge from-layer="2091" from-port="2" to-layer="2092" to-port="0" />
		<edge from-layer="2092" from-port="1" to-layer="2095" to-port="0" />
		<edge from-layer="2093" from-port="0" to-layer="2094" to-port="0" />
		<edge from-layer="2094" from-port="1" to-layer="2095" to-port="1" />
		<edge from-layer="2095" from-port="2" to-layer="2098" to-port="0" />
		<edge from-layer="2096" from-port="0" to-layer="2097" to-port="0" />
		<edge from-layer="2097" from-port="1" to-layer="2098" to-port="1" />
		<edge from-layer="2098" from-port="2" to-layer="2099" to-port="1" />
		<edge from-layer="2099" from-port="2" to-layer="2101" to-port="0" />
		<edge from-layer="2099" from-port="2" to-layer="2154" to-port="0" />
		<edge from-layer="2100" from-port="0" to-layer="2101" to-port="1" />
		<edge from-layer="2101" from-port="2" to-layer="2104" to-port="0" />
		<edge from-layer="2102" from-port="0" to-layer="2103" to-port="0" />
		<edge from-layer="2103" from-port="1" to-layer="2104" to-port="1" />
		<edge from-layer="2104" from-port="2" to-layer="2107" to-port="0" />
		<edge from-layer="2105" from-port="0" to-layer="2106" to-port="0" />
		<edge from-layer="2106" from-port="1" to-layer="2107" to-port="1" />
		<edge from-layer="2107" from-port="2" to-layer="2110" to-port="0" />
		<edge from-layer="2107" from-port="2" to-layer="2127" to-port="0" />
		<edge from-layer="2107" from-port="2" to-layer="2120" to-port="0" />
		<edge from-layer="2108" from-port="0" to-layer="2109" to-port="0" />
		<edge from-layer="2109" from-port="1" to-layer="2110" to-port="1" />
		<edge from-layer="2110" from-port="2" to-layer="2113" to-port="0" />
		<edge from-layer="2111" from-port="0" to-layer="2112" to-port="0" />
		<edge from-layer="2112" from-port="1" to-layer="2113" to-port="1" />
		<edge from-layer="2113" from-port="2" to-layer="2115" to-port="0" />
		<edge from-layer="2114" from-port="0" to-layer="2115" to-port="1" />
		<edge from-layer="2115" from-port="2" to-layer="2117" to-port="0" />
		<edge from-layer="2116" from-port="0" to-layer="2117" to-port="1" />
		<edge from-layer="2117" from-port="2" to-layer="2143" to-port="0" />
		<edge from-layer="2118" from-port="0" to-layer="2119" to-port="0" />
		<edge from-layer="2119" from-port="1" to-layer="2120" to-port="1" />
		<edge from-layer="2120" from-port="2" to-layer="2122" to-port="0" />
		<edge from-layer="2121" from-port="0" to-layer="2122" to-port="1" />
		<edge from-layer="2122" from-port="2" to-layer="2124" to-port="0" />
		<edge from-layer="2123" from-port="0" to-layer="2124" to-port="1" />
		<edge from-layer="2124" from-port="2" to-layer="2143" to-port="1" />
		<edge from-layer="2124" from-port="2" to-layer="2136" to-port="0" />
		<edge from-layer="2125" from-port="0" to-layer="2126" to-port="0" />
		<edge from-layer="2126" from-port="1" to-layer="2127" to-port="1" />
		<edge from-layer="2127" from-port="2" to-layer="2130" to-port="0" />
		<edge from-layer="2128" from-port="0" to-layer="2129" to-port="0" />
		<edge from-layer="2129" from-port="1" to-layer="2130" to-port="1" />
		<edge from-layer="2130" from-port="2" to-layer="2132" to-port="0" />
		<edge from-layer="2131" from-port="0" to-layer="2132" to-port="1" />
		<edge from-layer="2132" from-port="2" to-layer="2134" to-port="0" />
		<edge from-layer="2133" from-port="0" to-layer="2134" to-port="1" />
		<edge from-layer="2134" from-port="2" to-layer="2143" to-port="2" />
		<edge from-layer="2135" from-port="0" to-layer="2142" to-port="1" />
		<edge from-layer="2136" from-port="1" to-layer="2139" to-port="0" />
		<edge from-layer="2137" from-port="0" to-layer="2139" to-port="1" />
		<edge from-layer="2138" from-port="0" to-layer="2139" to-port="2" />
		<edge from-layer="2139" from-port="3" to-layer="2142" to-port="2" />
		<edge from-layer="2140" from-port="0" to-layer="2142" to-port="3" />
		<edge from-layer="2141" from-port="0" to-layer="2142" to-port="4" />
		<edge from-layer="2142" from-port="5" to-layer="2143" to-port="3" />
		<edge from-layer="2143" from-port="4" to-layer="2145" to-port="0" />
		<edge from-layer="2144" from-port="0" to-layer="2145" to-port="1" />
		<edge from-layer="2145" from-port="2" to-layer="2147" to-port="0" />
		<edge from-layer="2146" from-port="0" to-layer="2147" to-port="1" />
		<edge from-layer="2147" from-port="2" to-layer="2150" to-port="0" />
		<edge from-layer="2148" from-port="0" to-layer="2149" to-port="0" />
		<edge from-layer="2149" from-port="1" to-layer="2150" to-port="1" />
		<edge from-layer="2150" from-port="2" to-layer="2153" to-port="0" />
		<edge from-layer="2151" from-port="0" to-layer="2152" to-port="0" />
		<edge from-layer="2152" from-port="1" to-layer="2153" to-port="1" />
		<edge from-layer="2153" from-port="2" to-layer="2154" to-port="1" />
		<edge from-layer="2154" from-port="2" to-layer="2156" to-port="0" />
		<edge from-layer="2154" from-port="2" to-layer="2176" to-port="0" />
		<edge from-layer="2155" from-port="0" to-layer="2156" to-port="1" />
		<edge from-layer="2156" from-port="2" to-layer="2159" to-port="0" />
		<edge from-layer="2157" from-port="0" to-layer="2158" to-port="0" />
		<edge from-layer="2158" from-port="1" to-layer="2159" to-port="1" />
		<edge from-layer="2159" from-port="2" to-layer="2162" to-port="0" />
		<edge from-layer="2160" from-port="0" to-layer="2161" to-port="0" />
		<edge from-layer="2161" from-port="1" to-layer="2162" to-port="1" />
		<edge from-layer="2162" from-port="2" to-layer="2165" to-port="0" />
		<edge from-layer="2163" from-port="0" to-layer="2164" to-port="0" />
		<edge from-layer="2164" from-port="1" to-layer="2165" to-port="1" />
		<edge from-layer="2165" from-port="2" to-layer="2168" to-port="0" />
		<edge from-layer="2166" from-port="0" to-layer="2167" to-port="0" />
		<edge from-layer="2167" from-port="1" to-layer="2168" to-port="1" />
		<edge from-layer="2168" from-port="2" to-layer="2169" to-port="0" />
		<edge from-layer="2169" from-port="1" to-layer="2172" to-port="0" />
		<edge from-layer="2170" from-port="0" to-layer="2171" to-port="0" />
		<edge from-layer="2171" from-port="1" to-layer="2172" to-port="1" />
		<edge from-layer="2172" from-port="2" to-layer="2175" to-port="0" />
		<edge from-layer="2173" from-port="0" to-layer="2174" to-port="0" />
		<edge from-layer="2174" from-port="1" to-layer="2175" to-port="1" />
		<edge from-layer="2175" from-port="2" to-layer="2176" to-port="1" />
		<edge from-layer="2176" from-port="2" to-layer="2178" to-port="0" />
		<edge from-layer="2176" from-port="2" to-layer="2231" to-port="0" />
		<edge from-layer="2177" from-port="0" to-layer="2178" to-port="1" />
		<edge from-layer="2178" from-port="2" to-layer="2181" to-port="0" />
		<edge from-layer="2179" from-port="0" to-layer="2180" to-port="0" />
		<edge from-layer="2180" from-port="1" to-layer="2181" to-port="1" />
		<edge from-layer="2181" from-port="2" to-layer="2184" to-port="0" />
		<edge from-layer="2182" from-port="0" to-layer="2183" to-port="0" />
		<edge from-layer="2183" from-port="1" to-layer="2184" to-port="1" />
		<edge from-layer="2184" from-port="2" to-layer="2187" to-port="0" />
		<edge from-layer="2184" from-port="2" to-layer="2204" to-port="0" />
		<edge from-layer="2184" from-port="2" to-layer="2197" to-port="0" />
		<edge from-layer="2185" from-port="0" to-layer="2186" to-port="0" />
		<edge from-layer="2186" from-port="1" to-layer="2187" to-port="1" />
		<edge from-layer="2187" from-port="2" to-layer="2190" to-port="0" />
		<edge from-layer="2188" from-port="0" to-layer="2189" to-port="0" />
		<edge from-layer="2189" from-port="1" to-layer="2190" to-port="1" />
		<edge from-layer="2190" from-port="2" to-layer="2192" to-port="0" />
		<edge from-layer="2191" from-port="0" to-layer="2192" to-port="1" />
		<edge from-layer="2192" from-port="2" to-layer="2194" to-port="0" />
		<edge from-layer="2193" from-port="0" to-layer="2194" to-port="1" />
		<edge from-layer="2194" from-port="2" to-layer="2220" to-port="0" />
		<edge from-layer="2195" from-port="0" to-layer="2196" to-port="0" />
		<edge from-layer="2196" from-port="1" to-layer="2197" to-port="1" />
		<edge from-layer="2197" from-port="2" to-layer="2199" to-port="0" />
		<edge from-layer="2198" from-port="0" to-layer="2199" to-port="1" />
		<edge from-layer="2199" from-port="2" to-layer="2201" to-port="0" />
		<edge from-layer="2200" from-port="0" to-layer="2201" to-port="1" />
		<edge from-layer="2201" from-port="2" to-layer="2220" to-port="1" />
		<edge from-layer="2201" from-port="2" to-layer="2213" to-port="0" />
		<edge from-layer="2202" from-port="0" to-layer="2203" to-port="0" />
		<edge from-layer="2203" from-port="1" to-layer="2204" to-port="1" />
		<edge from-layer="2204" from-port="2" to-layer="2207" to-port="0" />
		<edge from-layer="2205" from-port="0" to-layer="2206" to-port="0" />
		<edge from-layer="2206" from-port="1" to-layer="2207" to-port="1" />
		<edge from-layer="2207" from-port="2" to-layer="2209" to-port="0" />
		<edge from-layer="2208" from-port="0" to-layer="2209" to-port="1" />
		<edge from-layer="2209" from-port="2" to-layer="2211" to-port="0" />
		<edge from-layer="2210" from-port="0" to-layer="2211" to-port="1" />
		<edge from-layer="2211" from-port="2" to-layer="2220" to-port="2" />
		<edge from-layer="2212" from-port="0" to-layer="2219" to-port="1" />
		<edge from-layer="2213" from-port="1" to-layer="2216" to-port="0" />
		<edge from-layer="2214" from-port="0" to-layer="2216" to-port="1" />
		<edge from-layer="2215" from-port="0" to-layer="2216" to-port="2" />
		<edge from-layer="2216" from-port="3" to-layer="2219" to-port="2" />
		<edge from-layer="2217" from-port="0" to-layer="2219" to-port="3" />
		<edge from-layer="2218" from-port="0" to-layer="2219" to-port="4" />
		<edge from-layer="2219" from-port="5" to-layer="2220" to-port="3" />
		<edge from-layer="2220" from-port="4" to-layer="2222" to-port="0" />
		<edge from-layer="2221" from-port="0" to-layer="2222" to-port="1" />
		<edge from-layer="2222" from-port="2" to-layer="2224" to-port="0" />
		<edge from-layer="2223" from-port="0" to-layer="2224" to-port="1" />
		<edge from-layer="2224" from-port="2" to-layer="2227" to-port="0" />
		<edge from-layer="2225" from-port="0" to-layer="2226" to-port="0" />
		<edge from-layer="2226" from-port="1" to-layer="2227" to-port="1" />
		<edge from-layer="2227" from-port="2" to-layer="2230" to-port="0" />
		<edge from-layer="2228" from-port="0" to-layer="2229" to-port="0" />
		<edge from-layer="2229" from-port="1" to-layer="2230" to-port="1" />
		<edge from-layer="2230" from-port="2" to-layer="2231" to-port="1" />
		<edge from-layer="2231" from-port="2" to-layer="2253" to-port="0" />
		<edge from-layer="2231" from-port="2" to-layer="2233" to-port="0" />
		<edge from-layer="2232" from-port="0" to-layer="2233" to-port="1" />
		<edge from-layer="2233" from-port="2" to-layer="2236" to-port="0" />
		<edge from-layer="2234" from-port="0" to-layer="2235" to-port="0" />
		<edge from-layer="2235" from-port="1" to-layer="2236" to-port="1" />
		<edge from-layer="2236" from-port="2" to-layer="2239" to-port="0" />
		<edge from-layer="2237" from-port="0" to-layer="2238" to-port="0" />
		<edge from-layer="2238" from-port="1" to-layer="2239" to-port="1" />
		<edge from-layer="2239" from-port="2" to-layer="2242" to-port="0" />
		<edge from-layer="2240" from-port="0" to-layer="2241" to-port="0" />
		<edge from-layer="2241" from-port="1" to-layer="2242" to-port="1" />
		<edge from-layer="2242" from-port="2" to-layer="2245" to-port="0" />
		<edge from-layer="2243" from-port="0" to-layer="2244" to-port="0" />
		<edge from-layer="2244" from-port="1" to-layer="2245" to-port="1" />
		<edge from-layer="2245" from-port="2" to-layer="2246" to-port="0" />
		<edge from-layer="2246" from-port="1" to-layer="2249" to-port="0" />
		<edge from-layer="2247" from-port="0" to-layer="2248" to-port="0" />
		<edge from-layer="2248" from-port="1" to-layer="2249" to-port="1" />
		<edge from-layer="2249" from-port="2" to-layer="2252" to-port="0" />
		<edge from-layer="2250" from-port="0" to-layer="2251" to-port="0" />
		<edge from-layer="2251" from-port="1" to-layer="2252" to-port="1" />
		<edge from-layer="2252" from-port="2" to-layer="2253" to-port="1" />
		<edge from-layer="2253" from-port="2" to-layer="2255" to-port="0" />
		<edge from-layer="2253" from-port="2" to-layer="2308" to-port="0" />
		<edge from-layer="2254" from-port="0" to-layer="2255" to-port="1" />
		<edge from-layer="2255" from-port="2" to-layer="2258" to-port="0" />
		<edge from-layer="2256" from-port="0" to-layer="2257" to-port="0" />
		<edge from-layer="2257" from-port="1" to-layer="2258" to-port="1" />
		<edge from-layer="2258" from-port="2" to-layer="2261" to-port="0" />
		<edge from-layer="2259" from-port="0" to-layer="2260" to-port="0" />
		<edge from-layer="2260" from-port="1" to-layer="2261" to-port="1" />
		<edge from-layer="2261" from-port="2" to-layer="2274" to-port="0" />
		<edge from-layer="2261" from-port="2" to-layer="2281" to-port="0" />
		<edge from-layer="2261" from-port="2" to-layer="2264" to-port="0" />
		<edge from-layer="2262" from-port="0" to-layer="2263" to-port="0" />
		<edge from-layer="2263" from-port="1" to-layer="2264" to-port="1" />
		<edge from-layer="2264" from-port="2" to-layer="2267" to-port="0" />
		<edge from-layer="2265" from-port="0" to-layer="2266" to-port="0" />
		<edge from-layer="2266" from-port="1" to-layer="2267" to-port="1" />
		<edge from-layer="2267" from-port="2" to-layer="2269" to-port="0" />
		<edge from-layer="2268" from-port="0" to-layer="2269" to-port="1" />
		<edge from-layer="2269" from-port="2" to-layer="2271" to-port="0" />
		<edge from-layer="2270" from-port="0" to-layer="2271" to-port="1" />
		<edge from-layer="2271" from-port="2" to-layer="2297" to-port="0" />
		<edge from-layer="2272" from-port="0" to-layer="2273" to-port="0" />
		<edge from-layer="2273" from-port="1" to-layer="2274" to-port="1" />
		<edge from-layer="2274" from-port="2" to-layer="2276" to-port="0" />
		<edge from-layer="2275" from-port="0" to-layer="2276" to-port="1" />
		<edge from-layer="2276" from-port="2" to-layer="2278" to-port="0" />
		<edge from-layer="2277" from-port="0" to-layer="2278" to-port="1" />
		<edge from-layer="2278" from-port="2" to-layer="2297" to-port="1" />
		<edge from-layer="2278" from-port="2" to-layer="2290" to-port="0" />
		<edge from-layer="2279" from-port="0" to-layer="2280" to-port="0" />
		<edge from-layer="2280" from-port="1" to-layer="2281" to-port="1" />
		<edge from-layer="2281" from-port="2" to-layer="2284" to-port="0" />
		<edge from-layer="2282" from-port="0" to-layer="2283" to-port="0" />
		<edge from-layer="2283" from-port="1" to-layer="2284" to-port="1" />
		<edge from-layer="2284" from-port="2" to-layer="2286" to-port="0" />
		<edge from-layer="2285" from-port="0" to-layer="2286" to-port="1" />
		<edge from-layer="2286" from-port="2" to-layer="2288" to-port="0" />
		<edge from-layer="2287" from-port="0" to-layer="2288" to-port="1" />
		<edge from-layer="2288" from-port="2" to-layer="2297" to-port="2" />
		<edge from-layer="2289" from-port="0" to-layer="2296" to-port="1" />
		<edge from-layer="2290" from-port="1" to-layer="2293" to-port="0" />
		<edge from-layer="2291" from-port="0" to-layer="2293" to-port="1" />
		<edge from-layer="2292" from-port="0" to-layer="2293" to-port="2" />
		<edge from-layer="2293" from-port="3" to-layer="2296" to-port="2" />
		<edge from-layer="2294" from-port="0" to-layer="2296" to-port="3" />
		<edge from-layer="2295" from-port="0" to-layer="2296" to-port="4" />
		<edge from-layer="2296" from-port="5" to-layer="2297" to-port="3" />
		<edge from-layer="2297" from-port="4" to-layer="2299" to-port="0" />
		<edge from-layer="2298" from-port="0" to-layer="2299" to-port="1" />
		<edge from-layer="2299" from-port="2" to-layer="2301" to-port="0" />
		<edge from-layer="2300" from-port="0" to-layer="2301" to-port="1" />
		<edge from-layer="2301" from-port="2" to-layer="2304" to-port="0" />
		<edge from-layer="2302" from-port="0" to-layer="2303" to-port="0" />
		<edge from-layer="2303" from-port="1" to-layer="2304" to-port="1" />
		<edge from-layer="2304" from-port="2" to-layer="2307" to-port="0" />
		<edge from-layer="2305" from-port="0" to-layer="2306" to-port="0" />
		<edge from-layer="2306" from-port="1" to-layer="2307" to-port="1" />
		<edge from-layer="2307" from-port="2" to-layer="2308" to-port="1" />
		<edge from-layer="2308" from-port="2" to-layer="2310" to-port="0" />
		<edge from-layer="2308" from-port="2" to-layer="2330" to-port="0" />
		<edge from-layer="2309" from-port="0" to-layer="2310" to-port="1" />
		<edge from-layer="2310" from-port="2" to-layer="2313" to-port="0" />
		<edge from-layer="2311" from-port="0" to-layer="2312" to-port="0" />
		<edge from-layer="2312" from-port="1" to-layer="2313" to-port="1" />
		<edge from-layer="2313" from-port="2" to-layer="2316" to-port="0" />
		<edge from-layer="2314" from-port="0" to-layer="2315" to-port="0" />
		<edge from-layer="2315" from-port="1" to-layer="2316" to-port="1" />
		<edge from-layer="2316" from-port="2" to-layer="2319" to-port="0" />
		<edge from-layer="2317" from-port="0" to-layer="2318" to-port="0" />
		<edge from-layer="2318" from-port="1" to-layer="2319" to-port="1" />
		<edge from-layer="2319" from-port="2" to-layer="2322" to-port="0" />
		<edge from-layer="2320" from-port="0" to-layer="2321" to-port="0" />
		<edge from-layer="2321" from-port="1" to-layer="2322" to-port="1" />
		<edge from-layer="2322" from-port="2" to-layer="2323" to-port="0" />
		<edge from-layer="2323" from-port="1" to-layer="2326" to-port="0" />
		<edge from-layer="2324" from-port="0" to-layer="2325" to-port="0" />
		<edge from-layer="2325" from-port="1" to-layer="2326" to-port="1" />
		<edge from-layer="2326" from-port="2" to-layer="2329" to-port="0" />
		<edge from-layer="2327" from-port="0" to-layer="2328" to-port="0" />
		<edge from-layer="2328" from-port="1" to-layer="2329" to-port="1" />
		<edge from-layer="2329" from-port="2" to-layer="2330" to-port="1" />
		<edge from-layer="2330" from-port="2" to-layer="2332" to-port="0" />
		<edge from-layer="2330" from-port="2" to-layer="2385" to-port="0" />
		<edge from-layer="2331" from-port="0" to-layer="2332" to-port="1" />
		<edge from-layer="2332" from-port="2" to-layer="2335" to-port="0" />
		<edge from-layer="2333" from-port="0" to-layer="2334" to-port="0" />
		<edge from-layer="2334" from-port="1" to-layer="2335" to-port="1" />
		<edge from-layer="2335" from-port="2" to-layer="2338" to-port="0" />
		<edge from-layer="2336" from-port="0" to-layer="2337" to-port="0" />
		<edge from-layer="2337" from-port="1" to-layer="2338" to-port="1" />
		<edge from-layer="2338" from-port="2" to-layer="2358" to-port="0" />
		<edge from-layer="2338" from-port="2" to-layer="2351" to-port="0" />
		<edge from-layer="2338" from-port="2" to-layer="2341" to-port="0" />
		<edge from-layer="2339" from-port="0" to-layer="2340" to-port="0" />
		<edge from-layer="2340" from-port="1" to-layer="2341" to-port="1" />
		<edge from-layer="2341" from-port="2" to-layer="2344" to-port="0" />
		<edge from-layer="2342" from-port="0" to-layer="2343" to-port="0" />
		<edge from-layer="2343" from-port="1" to-layer="2344" to-port="1" />
		<edge from-layer="2344" from-port="2" to-layer="2346" to-port="0" />
		<edge from-layer="2345" from-port="0" to-layer="2346" to-port="1" />
		<edge from-layer="2346" from-port="2" to-layer="2348" to-port="0" />
		<edge from-layer="2347" from-port="0" to-layer="2348" to-port="1" />
		<edge from-layer="2348" from-port="2" to-layer="2374" to-port="0" />
		<edge from-layer="2349" from-port="0" to-layer="2350" to-port="0" />
		<edge from-layer="2350" from-port="1" to-layer="2351" to-port="1" />
		<edge from-layer="2351" from-port="2" to-layer="2353" to-port="0" />
		<edge from-layer="2352" from-port="0" to-layer="2353" to-port="1" />
		<edge from-layer="2353" from-port="2" to-layer="2355" to-port="0" />
		<edge from-layer="2354" from-port="0" to-layer="2355" to-port="1" />
		<edge from-layer="2355" from-port="2" to-layer="2374" to-port="1" />
		<edge from-layer="2355" from-port="2" to-layer="2367" to-port="0" />
		<edge from-layer="2356" from-port="0" to-layer="2357" to-port="0" />
		<edge from-layer="2357" from-port="1" to-layer="2358" to-port="1" />
		<edge from-layer="2358" from-port="2" to-layer="2361" to-port="0" />
		<edge from-layer="2359" from-port="0" to-layer="2360" to-port="0" />
		<edge from-layer="2360" from-port="1" to-layer="2361" to-port="1" />
		<edge from-layer="2361" from-port="2" to-layer="2363" to-port="0" />
		<edge from-layer="2362" from-port="0" to-layer="2363" to-port="1" />
		<edge from-layer="2363" from-port="2" to-layer="2365" to-port="0" />
		<edge from-layer="2364" from-port="0" to-layer="2365" to-port="1" />
		<edge from-layer="2365" from-port="2" to-layer="2374" to-port="2" />
		<edge from-layer="2366" from-port="0" to-layer="2373" to-port="1" />
		<edge from-layer="2367" from-port="1" to-layer="2370" to-port="0" />
		<edge from-layer="2368" from-port="0" to-layer="2370" to-port="1" />
		<edge from-layer="2369" from-port="0" to-layer="2370" to-port="2" />
		<edge from-layer="2370" from-port="3" to-layer="2373" to-port="2" />
		<edge from-layer="2371" from-port="0" to-layer="2373" to-port="3" />
		<edge from-layer="2372" from-port="0" to-layer="2373" to-port="4" />
		<edge from-layer="2373" from-port="5" to-layer="2374" to-port="3" />
		<edge from-layer="2374" from-port="4" to-layer="2376" to-port="0" />
		<edge from-layer="2375" from-port="0" to-layer="2376" to-port="1" />
		<edge from-layer="2376" from-port="2" to-layer="2378" to-port="0" />
		<edge from-layer="2377" from-port="0" to-layer="2378" to-port="1" />
		<edge from-layer="2378" from-port="2" to-layer="2381" to-port="0" />
		<edge from-layer="2379" from-port="0" to-layer="2380" to-port="0" />
		<edge from-layer="2380" from-port="1" to-layer="2381" to-port="1" />
		<edge from-layer="2381" from-port="2" to-layer="2384" to-port="0" />
		<edge from-layer="2382" from-port="0" to-layer="2383" to-port="0" />
		<edge from-layer="2383" from-port="1" to-layer="2384" to-port="1" />
		<edge from-layer="2384" from-port="2" to-layer="2385" to-port="1" />
		<edge from-layer="2385" from-port="2" to-layer="2407" to-port="0" />
		<edge from-layer="2385" from-port="2" to-layer="2387" to-port="0" />
		<edge from-layer="2386" from-port="0" to-layer="2387" to-port="1" />
		<edge from-layer="2387" from-port="2" to-layer="2390" to-port="0" />
		<edge from-layer="2388" from-port="0" to-layer="2389" to-port="0" />
		<edge from-layer="2389" from-port="1" to-layer="2390" to-port="1" />
		<edge from-layer="2390" from-port="2" to-layer="2393" to-port="0" />
		<edge from-layer="2391" from-port="0" to-layer="2392" to-port="0" />
		<edge from-layer="2392" from-port="1" to-layer="2393" to-port="1" />
		<edge from-layer="2393" from-port="2" to-layer="2396" to-port="0" />
		<edge from-layer="2394" from-port="0" to-layer="2395" to-port="0" />
		<edge from-layer="2395" from-port="1" to-layer="2396" to-port="1" />
		<edge from-layer="2396" from-port="2" to-layer="2399" to-port="0" />
		<edge from-layer="2397" from-port="0" to-layer="2398" to-port="0" />
		<edge from-layer="2398" from-port="1" to-layer="2399" to-port="1" />
		<edge from-layer="2399" from-port="2" to-layer="2400" to-port="0" />
		<edge from-layer="2400" from-port="1" to-layer="2403" to-port="0" />
		<edge from-layer="2401" from-port="0" to-layer="2402" to-port="0" />
		<edge from-layer="2402" from-port="1" to-layer="2403" to-port="1" />
		<edge from-layer="2403" from-port="2" to-layer="2406" to-port="0" />
		<edge from-layer="2404" from-port="0" to-layer="2405" to-port="0" />
		<edge from-layer="2405" from-port="1" to-layer="2406" to-port="1" />
		<edge from-layer="2406" from-port="2" to-layer="2407" to-port="1" />
		<edge from-layer="2407" from-port="2" to-layer="2409" to-port="0" />
		<edge from-layer="2407" from-port="2" to-layer="2462" to-port="0" />
		<edge from-layer="2408" from-port="0" to-layer="2409" to-port="1" />
		<edge from-layer="2409" from-port="2" to-layer="2412" to-port="0" />
		<edge from-layer="2410" from-port="0" to-layer="2411" to-port="0" />
		<edge from-layer="2411" from-port="1" to-layer="2412" to-port="1" />
		<edge from-layer="2412" from-port="2" to-layer="2415" to-port="0" />
		<edge from-layer="2413" from-port="0" to-layer="2414" to-port="0" />
		<edge from-layer="2414" from-port="1" to-layer="2415" to-port="1" />
		<edge from-layer="2415" from-port="2" to-layer="2418" to-port="0" />
		<edge from-layer="2415" from-port="2" to-layer="2435" to-port="0" />
		<edge from-layer="2415" from-port="2" to-layer="2428" to-port="0" />
		<edge from-layer="2416" from-port="0" to-layer="2417" to-port="0" />
		<edge from-layer="2417" from-port="1" to-layer="2418" to-port="1" />
		<edge from-layer="2418" from-port="2" to-layer="2421" to-port="0" />
		<edge from-layer="2419" from-port="0" to-layer="2420" to-port="0" />
		<edge from-layer="2420" from-port="1" to-layer="2421" to-port="1" />
		<edge from-layer="2421" from-port="2" to-layer="2423" to-port="0" />
		<edge from-layer="2422" from-port="0" to-layer="2423" to-port="1" />
		<edge from-layer="2423" from-port="2" to-layer="2425" to-port="0" />
		<edge from-layer="2424" from-port="0" to-layer="2425" to-port="1" />
		<edge from-layer="2425" from-port="2" to-layer="2451" to-port="0" />
		<edge from-layer="2426" from-port="0" to-layer="2427" to-port="0" />
		<edge from-layer="2427" from-port="1" to-layer="2428" to-port="1" />
		<edge from-layer="2428" from-port="2" to-layer="2430" to-port="0" />
		<edge from-layer="2429" from-port="0" to-layer="2430" to-port="1" />
		<edge from-layer="2430" from-port="2" to-layer="2432" to-port="0" />
		<edge from-layer="2431" from-port="0" to-layer="2432" to-port="1" />
		<edge from-layer="2432" from-port="2" to-layer="2444" to-port="0" />
		<edge from-layer="2432" from-port="2" to-layer="2451" to-port="1" />
		<edge from-layer="2433" from-port="0" to-layer="2434" to-port="0" />
		<edge from-layer="2434" from-port="1" to-layer="2435" to-port="1" />
		<edge from-layer="2435" from-port="2" to-layer="2438" to-port="0" />
		<edge from-layer="2436" from-port="0" to-layer="2437" to-port="0" />
		<edge from-layer="2437" from-port="1" to-layer="2438" to-port="1" />
		<edge from-layer="2438" from-port="2" to-layer="2440" to-port="0" />
		<edge from-layer="2439" from-port="0" to-layer="2440" to-port="1" />
		<edge from-layer="2440" from-port="2" to-layer="2442" to-port="0" />
		<edge from-layer="2441" from-port="0" to-layer="2442" to-port="1" />
		<edge from-layer="2442" from-port="2" to-layer="2451" to-port="2" />
		<edge from-layer="2443" from-port="0" to-layer="2450" to-port="1" />
		<edge from-layer="2444" from-port="1" to-layer="2447" to-port="0" />
		<edge from-layer="2445" from-port="0" to-layer="2447" to-port="1" />
		<edge from-layer="2446" from-port="0" to-layer="2447" to-port="2" />
		<edge from-layer="2447" from-port="3" to-layer="2450" to-port="2" />
		<edge from-layer="2448" from-port="0" to-layer="2450" to-port="3" />
		<edge from-layer="2449" from-port="0" to-layer="2450" to-port="4" />
		<edge from-layer="2450" from-port="5" to-layer="2451" to-port="3" />
		<edge from-layer="2451" from-port="4" to-layer="2453" to-port="0" />
		<edge from-layer="2452" from-port="0" to-layer="2453" to-port="1" />
		<edge from-layer="2453" from-port="2" to-layer="2455" to-port="0" />
		<edge from-layer="2454" from-port="0" to-layer="2455" to-port="1" />
		<edge from-layer="2455" from-port="2" to-layer="2458" to-port="0" />
		<edge from-layer="2456" from-port="0" to-layer="2457" to-port="0" />
		<edge from-layer="2457" from-port="1" to-layer="2458" to-port="1" />
		<edge from-layer="2458" from-port="2" to-layer="2461" to-port="0" />
		<edge from-layer="2459" from-port="0" to-layer="2460" to-port="0" />
		<edge from-layer="2460" from-port="1" to-layer="2461" to-port="1" />
		<edge from-layer="2461" from-port="2" to-layer="2462" to-port="1" />
		<edge from-layer="2462" from-port="2" to-layer="2464" to-port="0" />
		<edge from-layer="2462" from-port="2" to-layer="2484" to-port="0" />
		<edge from-layer="2463" from-port="0" to-layer="2464" to-port="1" />
		<edge from-layer="2464" from-port="2" to-layer="2467" to-port="0" />
		<edge from-layer="2465" from-port="0" to-layer="2466" to-port="0" />
		<edge from-layer="2466" from-port="1" to-layer="2467" to-port="1" />
		<edge from-layer="2467" from-port="2" to-layer="2470" to-port="0" />
		<edge from-layer="2468" from-port="0" to-layer="2469" to-port="0" />
		<edge from-layer="2469" from-port="1" to-layer="2470" to-port="1" />
		<edge from-layer="2470" from-port="2" to-layer="2473" to-port="0" />
		<edge from-layer="2471" from-port="0" to-layer="2472" to-port="0" />
		<edge from-layer="2472" from-port="1" to-layer="2473" to-port="1" />
		<edge from-layer="2473" from-port="2" to-layer="2476" to-port="0" />
		<edge from-layer="2474" from-port="0" to-layer="2475" to-port="0" />
		<edge from-layer="2475" from-port="1" to-layer="2476" to-port="1" />
		<edge from-layer="2476" from-port="2" to-layer="2477" to-port="0" />
		<edge from-layer="2477" from-port="1" to-layer="2480" to-port="0" />
		<edge from-layer="2478" from-port="0" to-layer="2479" to-port="0" />
		<edge from-layer="2479" from-port="1" to-layer="2480" to-port="1" />
		<edge from-layer="2480" from-port="2" to-layer="2483" to-port="0" />
		<edge from-layer="2481" from-port="0" to-layer="2482" to-port="0" />
		<edge from-layer="2482" from-port="1" to-layer="2483" to-port="1" />
		<edge from-layer="2483" from-port="2" to-layer="2484" to-port="1" />
		<edge from-layer="2484" from-port="2" to-layer="2486" to-port="0" />
		<edge from-layer="2485" from-port="0" to-layer="2486" to-port="1" />
		<edge from-layer="2486" from-port="2" to-layer="2487" to-port="0" />
		<edge from-layer="2487" from-port="1" to-layer="2489" to-port="0" />
		<edge from-layer="2488" from-port="0" to-layer="2489" to-port="1" />
		<edge from-layer="2489" from-port="2" to-layer="2491" to-port="0" />
		<edge from-layer="2490" from-port="0" to-layer="2491" to-port="1" />
		<edge from-layer="2491" from-port="2" to-layer="2494" to-port="0" />
		<edge from-layer="2492" from-port="0" to-layer="2493" to-port="0" />
		<edge from-layer="2493" from-port="1" to-layer="2494" to-port="1" />
		<edge from-layer="2494" from-port="2" to-layer="2497" to-port="0" />
		<edge from-layer="2495" from-port="0" to-layer="2496" to-port="0" />
		<edge from-layer="2496" from-port="1" to-layer="2497" to-port="1" />
		<edge from-layer="2497" from-port="2" to-layer="2498" to-port="0" />
	</edges>
	<rt_info>
		<Runtime_version value="2024.4.0-16579-c3152d32c9c-releases/2024/4" />
		<conversion_parameters>
			<framework value="pytorch" />
			<is_python_object value="True" />
		</conversion_parameters>
	</rt_info>
</net>
