<?xml version="1.0"?>
<net name="Model0" version="11">
	<layers>
		<layer id="3" name="input_ids" type="Parameter" version="opset1">
			<data shape="?,?" element_type="i64" />
			<output>
				<port id="0" precision="I64" names="input_ids">
					<dim>-1</dim>
					<dim>-1</dim>
				</port>
			</output>
		</layer>
		<layer id="2" name="attention_mask" type="Parameter" version="opset1">
			<data shape="?,?" element_type="i64" />
			<output>
				<port id="0" precision="I64" names="attention_mask">
					<dim>-1</dim>
					<dim>-1</dim>
				</port>
			</output>
		</layer>
		<layer id="1" name="position_ids" type="Parameter" version="opset1">
			<data shape="?,?" element_type="i64" />
			<output>
				<port id="0" precision="I64" names="position_ids">
					<dim>-1</dim>
					<dim>-1</dim>
				</port>
			</output>
		</layer>
		<layer id="0" name="beam_idx" type="Parameter" version="opset1">
			<data shape="?" element_type="i32" />
			<output>
				<port id="0" precision="I32" names="beam_idx">
					<dim>-1</dim>
				</port>
			</output>
		</layer>
		<layer id="4" name="Constant_276413" type="Const" version="opset1">
			<data element_type="f32" shape="" offset="0" size="4" />
			<output>
				<port id="0" precision="FP32" />
			</output>
		</layer>
		<layer id="5" name="ShapeOf_276399" type="ShapeOf" version="opset3">
			<data output_type="i64" />
			<input>
				<port id="0" precision="I64">
					<dim>-1</dim>
					<dim>-1</dim>
				</port>
			</input>
			<output>
				<port id="1" precision="I64">
					<dim>2</dim>
				</port>
			</output>
		</layer>
		<layer id="6" name="Constant_276401" type="Const" version="opset1">
			<data element_type="i64" shape="1" offset="4" size="8" />
			<output>
				<port id="0" precision="I64">
					<dim>1</dim>
				</port>
			</output>
		</layer>
		<layer id="7" name="Constant_276403" type="Const" version="opset1">
			<data element_type="i64" shape="" offset="4" size="8" />
			<output>
				<port id="0" precision="I64" />
			</output>
		</layer>
		<layer id="8" name="Gather_276404" type="Gather" version="opset8">
			<data batch_dims="0" />
			<input>
				<port id="0" precision="I64">
					<dim>2</dim>
				</port>
				<port id="1" precision="I64">
					<dim>1</dim>
				</port>
				<port id="2" precision="I64" />
			</input>
			<output>
				<port id="3" precision="I64">
					<dim>1</dim>
				</port>
			</output>
		</layer>
		<layer id="9" name="Constant_276406" type="Const" version="opset1">
			<data element_type="i64" shape="1" offset="12" size="8" />
			<output>
				<port id="0" precision="I64">
					<dim>1</dim>
				</port>
			</output>
		</layer>
		<layer id="10" name="Constant_276408" type="Const" version="opset1">
			<data element_type="i64" shape="1" offset="4" size="8" />
			<output>
				<port id="0" precision="I64">
					<dim>1</dim>
				</port>
			</output>
		</layer>
		<layer id="11" name="Constant_276410" type="Const" version="opset1">
			<data element_type="i64" shape="1" offset="20" size="8" />
			<output>
				<port id="0" precision="I64">
					<dim>1</dim>
				</port>
			</output>
		</layer>
		<layer id="12" name="Concat_276411" type="Concat" version="opset1">
			<data axis="0" />
			<input>
				<port id="0" precision="I64">
					<dim>1</dim>
				</port>
				<port id="1" precision="I64">
					<dim>1</dim>
				</port>
				<port id="2" precision="I64">
					<dim>1</dim>
				</port>
				<port id="3" precision="I64">
					<dim>1</dim>
				</port>
			</input>
			<output>
				<port id="4" precision="I64">
					<dim>4</dim>
				</port>
			</output>
		</layer>
		<layer id="13" name="Broadcast_276414" type="Broadcast" version="opset3">
			<data mode="numpy" />
			<input>
				<port id="0" precision="FP32" />
				<port id="1" precision="I64">
					<dim>4</dim>
				</port>
			</input>
			<output>
				<port id="2" precision="FP32">
					<dim>-1</dim>
					<dim>4</dim>
					<dim>0</dim>
					<dim>128</dim>
				</port>
			</output>
		</layer>
		<layer id="14" name="ReadValue_270066" type="ReadValue" version="opset6">
			<data variable_id="past_key_values.9.valuepresent.9.value" variable_type="f32" variable_shape="?,4,?,128" />
			<input>
				<port id="0" precision="FP32">
					<dim>-1</dim>
					<dim>4</dim>
					<dim>0</dim>
					<dim>128</dim>
				</port>
			</input>
			<output>
				<port id="1" precision="FP32" names="past_key_values.9.value">
					<dim>-1</dim>
					<dim>4</dim>
					<dim>-1</dim>
					<dim>128</dim>
				</port>
			</output>
		</layer>
		<layer id="15" name="Constant_263515" type="Const" version="opset1">
			<data element_type="i64" shape="" offset="4" size="8" />
			<output>
				<port id="0" precision="I64" />
			</output>
		</layer>
		<layer id="16" name="Gather_263516" type="Gather" version="opset8">
			<data batch_dims="0" />
			<input>
				<port id="0" precision="FP32">
					<dim>-1</dim>
					<dim>4</dim>
					<dim>-1</dim>
					<dim>128</dim>
				</port>
				<port id="1" precision="I32">
					<dim>-1</dim>
				</port>
				<port id="2" precision="I64" />
			</input>
			<output>
				<port id="3" precision="FP32">
					<dim>-1</dim>
					<dim>4</dim>
					<dim>-1</dim>
					<dim>128</dim>
				</port>
			</output>
		</layer>
		<layer id="17" name="Constant_226276" type="Const" version="opset1">
			<data element_type="f32" shape="1, 1, 3584" offset="28" size="14336" />
			<output>
				<port id="0" precision="FP32">
					<dim>1</dim>
					<dim>1</dim>
					<dim>3584</dim>
				</port>
			</output>
		</layer>
		<layer id="18" name="self.model.embed_tokens.weight" type="Const" version="opset1">
			<data element_type="u8" shape="152064, 3584" offset="14364" size="544997376" />
			<output>
				<port id="0" precision="U8">
					<dim>152064</dim>
					<dim>3584</dim>
				</port>
			</output>
		</layer>
		<layer id="19" name="Convert_283634" type="Convert" version="opset1">
			<data destination_type="f16" />
			<input>
				<port id="0" precision="U8">
					<dim>152064</dim>
					<dim>3584</dim>
				</port>
			</input>
			<output>
				<port id="1" precision="FP16">
					<dim>152064</dim>
					<dim>3584</dim>
				</port>
			</output>
		</layer>
		<layer id="20" name="self.model.embed_tokens.weight/zero_point" type="Const" version="opset1">
			<data element_type="u8" shape="152064, 1" offset="545011740" size="152064" />
			<output>
				<port id="0" precision="U8">
					<dim>152064</dim>
					<dim>1</dim>
				</port>
			</output>
		</layer>
		<layer id="21" name="Convert_283637" type="Convert" version="opset1">
			<data destination_type="f16" />
			<input>
				<port id="0" precision="U8">
					<dim>152064</dim>
					<dim>1</dim>
				</port>
			</input>
			<output>
				<port id="1" precision="FP16">
					<dim>152064</dim>
					<dim>1</dim>
				</port>
			</output>
		</layer>
		<layer id="22" name="self.model.embed_tokens.weight/zero_point/subtract" type="Subtract" version="opset1">
			<data auto_broadcast="numpy" />
			<input>
				<port id="0" precision="FP16">
					<dim>152064</dim>
					<dim>3584</dim>
				</port>
				<port id="1" precision="FP16">
					<dim>152064</dim>
					<dim>1</dim>
				</port>
			</input>
			<output>
				<port id="2" precision="FP16">
					<dim>152064</dim>
					<dim>3584</dim>
				</port>
			</output>
		</layer>
		<layer id="23" name="self.model.embed_tokens.weight/scale" type="Const" version="opset1">
			<data element_type="f16" shape="152064, 1" offset="545163804" size="304128" />
			<output>
				<port id="0" precision="FP16">
					<dim>152064</dim>
					<dim>1</dim>
				</port>
			</output>
		</layer>
		<layer id="24" name="self.model.embed_tokens.weight/fq_weights_0" type="Multiply" version="opset1">
			<data auto_broadcast="numpy" />
			<input>
				<port id="0" precision="FP16">
					<dim>152064</dim>
					<dim>3584</dim>
				</port>
				<port id="1" precision="FP16">
					<dim>152064</dim>
					<dim>1</dim>
				</port>
			</input>
			<output>
				<port id="2" precision="FP16">
					<dim>152064</dim>
					<dim>3584</dim>
				</port>
			</output>
		</layer>
		<layer id="25" name="self.model.embed_tokens.weight/fq_weights_0/convert" type="Convert" version="opset1">
			<data destination_type="f32" />
			<input>
				<port id="0" precision="FP16">
					<dim>152064</dim>
					<dim>3584</dim>
				</port>
			</input>
			<output>
				<port id="1" precision="FP32">
					<dim>152064</dim>
					<dim>3584</dim>
				</port>
			</output>
		</layer>
		<layer id="26" name="__module.model.embed_tokens/aten::embedding/Convert" type="Convert" version="opset1">
			<data destination_type="i32" />
			<input>
				<port id="0" precision="I64">
					<dim>-1</dim>
					<dim>-1</dim>
				</port>
			</input>
			<output>
				<port id="1" precision="I32">
					<dim>-1</dim>
					<dim>-1</dim>
				</port>
			</output>
		</layer>
		<layer id="27" name="__module.model.embed_tokens/aten::embedding/Constant" type="Const" version="opset1">
			<data element_type="i32" shape="" offset="0" size="4" />
			<output>
				<port id="0" precision="I32" />
			</output>
		</layer>
		<layer id="28" name="__module.model.embed_tokens/aten::embedding/Gather" type="Gather" version="opset8">
			<data batch_dims="0" />
			<input>
				<port id="0" precision="FP32">
					<dim>152064</dim>
					<dim>3584</dim>
				</port>
				<port id="1" precision="I32">
					<dim>-1</dim>
					<dim>-1</dim>
				</port>
				<port id="2" precision="I32" />
			</input>
			<output>
				<port id="3" precision="FP32" names="271,324,335,hidden_states.1,inputs_embeds">
					<dim>-1</dim>
					<dim>-1</dim>
					<dim>3584</dim>
				</port>
			</output>
		</layer>
		<layer id="29" name="Constant_226158" type="Const" version="opset1">
			<data element_type="f32" shape="1, 1, 3584" offset="545467932" size="14336" />
			<output>
				<port id="0" precision="FP32">
					<dim>1</dim>
					<dim>1</dim>
					<dim>3584</dim>
				</port>
			</output>
		</layer>
		<layer id="30" name="Constant_226157" type="Const" version="opset1">
			<data element_type="f32" shape="1, 1, 1" offset="545482268" size="4" />
			<output>
				<port id="0" precision="FP32">
					<dim>1</dim>
					<dim>1</dim>
					<dim>1</dim>
				</port>
			</output>
		</layer>
		<layer id="31" name="Constant_226155" type="Const" version="opset1">
			<data element_type="f32" shape="1, 1, 1" offset="545482272" size="4" />
			<output>
				<port id="0" precision="FP32">
					<dim>1</dim>
					<dim>1</dim>
					<dim>1</dim>
				</port>
			</output>
		</layer>
		<layer id="32" name="__module.model.layers.0.input_layernorm/aten::pow/Power" type="Power" version="opset1">
			<data auto_broadcast="numpy" />
			<input>
				<port id="0" precision="FP32">
					<dim>-1</dim>
					<dim>-1</dim>
					<dim>3584</dim>
				</port>
				<port id="1" precision="FP32">
					<dim>1</dim>
					<dim>1</dim>
					<dim>1</dim>
				</port>
			</input>
			<output>
				<port id="2" precision="FP32" names="325">
					<dim>-1</dim>
					<dim>-1</dim>
					<dim>3584</dim>
				</port>
			</output>
		</layer>
		<layer id="33" name="Constant_361" type="Const" version="opset1">
			<data element_type="i64" shape="1" offset="545482276" size="8" />
			<output>
				<port id="0" precision="I64" names="326">
					<dim>1</dim>
				</port>
			</output>
		</layer>
		<layer id="34" name="__module.model.layers.0.input_layernorm/aten::mean/ReduceMean" type="ReduceMean" version="opset1">
			<data keep_dims="true" />
			<input>
				<port id="0" precision="FP32">
					<dim>-1</dim>
					<dim>-1</dim>
					<dim>3584</dim>
				</port>
				<port id="1" precision="I64">
					<dim>1</dim>
				</port>
			</input>
			<output>
				<port id="2" precision="FP32" names="327,variance.1">
					<dim>-1</dim>
					<dim>-1</dim>
					<dim>1</dim>
				</port>
			</output>
		</layer>
		<layer id="35" name="Constant_226156" type="Const" version="opset1">
			<data element_type="f32" shape="1, 1, 1" offset="545482284" size="4" />
			<output>
				<port id="0" precision="FP32">
					<dim>1</dim>
					<dim>1</dim>
					<dim>1</dim>
				</port>
			</output>
		</layer>
		<layer id="36" name="__module.model.layers.0.input_layernorm/aten::add/Add" type="Add" version="opset1">
			<data auto_broadcast="numpy" />
			<input>
				<port id="0" precision="FP32">
					<dim>-1</dim>
					<dim>-1</dim>
					<dim>1</dim>
				</port>
				<port id="1" precision="FP32">
					<dim>1</dim>
					<dim>1</dim>
					<dim>1</dim>
				</port>
			</input>
			<output>
				<port id="2" precision="FP32" names="328">
					<dim>-1</dim>
					<dim>-1</dim>
					<dim>1</dim>
				</port>
			</output>
		</layer>
		<layer id="37" name="__module.model.layers.0.input_layernorm/aten::rsqrt/Sqrt" type="Sqrt" version="opset1">
			<input>
				<port id="0" precision="FP32">
					<dim>-1</dim>
					<dim>-1</dim>
					<dim>1</dim>
				</port>
			</input>
			<output>
				<port id="1" precision="FP32">
					<dim>-1</dim>
					<dim>-1</dim>
					<dim>1</dim>
				</port>
			</output>
		</layer>
		<layer id="38" name="__module.model.layers.0.input_layernorm/aten::rsqrt/Divide" type="Divide" version="opset1">
			<data auto_broadcast="numpy" m_pythondiv="true" />
			<input>
				<port id="0" precision="FP32">
					<dim>1</dim>
					<dim>1</dim>
					<dim>1</dim>
				</port>
				<port id="1" precision="FP32">
					<dim>-1</dim>
					<dim>-1</dim>
					<dim>1</dim>
				</port>
			</input>
			<output>
				<port id="2" precision="FP32" names="329">
					<dim>-1</dim>
					<dim>-1</dim>
					<dim>1</dim>
				</port>
			</output>
		</layer>
		<layer id="39" name="__module.model.layers.0.input_layernorm/aten::mul/Multiply" type="Multiply" version="opset1">
			<data auto_broadcast="numpy" />
			<input>
				<port id="0" precision="FP32">
					<dim>-1</dim>
					<dim>-1</dim>
					<dim>3584</dim>
				</port>
				<port id="1" precision="FP32">
					<dim>-1</dim>
					<dim>-1</dim>
					<dim>1</dim>
				</port>
			</input>
			<output>
				<port id="2" precision="FP32" names="330,331,hidden_states.3,hidden_states.5">
					<dim>-1</dim>
					<dim>-1</dim>
					<dim>3584</dim>
				</port>
			</output>
		</layer>
		<layer id="40" name="__module.model.layers.0.input_layernorm/aten::mul/Multiply_1" type="Multiply" version="opset1">
			<data auto_broadcast="numpy" />
			<input>
				<port id="0" precision="FP32">
					<dim>1</dim>
					<dim>1</dim>
					<dim>3584</dim>
				</port>
				<port id="1" precision="FP32">
					<dim>-1</dim>
					<dim>-1</dim>
					<dim>3584</dim>
				</port>
			</input>
			<output>
				<port id="2" precision="FP32" names="332,334,hidden_states.7">
					<dim>-1</dim>
					<dim>-1</dim>
					<dim>3584</dim>
				</port>
			</output>
		</layer>
		<layer id="41" name="self.model.layers.0.self_attn.q_proj.weight" type="Const" version="opset1">
			<data element_type="u4" shape="3584, 28, 128" offset="545482288" size="6422528" />
			<output>
				<port id="0" precision="U4">
					<dim>3584</dim>
					<dim>28</dim>
					<dim>128</dim>
				</port>
			</output>
		</layer>
		<layer id="42" name="Convert_284579" type="Convert" version="opset1">
			<data destination_type="f16" />
			<input>
				<port id="0" precision="U4">
					<dim>3584</dim>
					<dim>28</dim>
					<dim>128</dim>
				</port>
			</input>
			<output>
				<port id="1" precision="FP16">
					<dim>3584</dim>
					<dim>28</dim>
					<dim>128</dim>
				</port>
			</output>
		</layer>
		<layer id="43" name="self.model.layers.0.self_attn.q_proj.weight/zero_point" type="Const" version="opset1">
			<data element_type="u4" shape="3584, 28, 1" offset="551904816" size="50176" />
			<output>
				<port id="0" precision="U4">
					<dim>3584</dim>
					<dim>28</dim>
					<dim>1</dim>
				</port>
			</output>
		</layer>
		<layer id="44" name="Convert_284581" type="Convert" version="opset1">
			<data destination_type="f16" />
			<input>
				<port id="0" precision="U4">
					<dim>3584</dim>
					<dim>28</dim>
					<dim>1</dim>
				</port>
			</input>
			<output>
				<port id="1" precision="FP16">
					<dim>3584</dim>
					<dim>28</dim>
					<dim>1</dim>
				</port>
			</output>
		</layer>
		<layer id="45" name="self.model.layers.0.self_attn.q_proj.weight/zero_point/subtract" type="Subtract" version="opset1">
			<data auto_broadcast="numpy" />
			<input>
				<port id="0" precision="FP16">
					<dim>3584</dim>
					<dim>28</dim>
					<dim>128</dim>
				</port>
				<port id="1" precision="FP16">
					<dim>3584</dim>
					<dim>28</dim>
					<dim>1</dim>
				</port>
			</input>
			<output>
				<port id="2" precision="FP16">
					<dim>3584</dim>
					<dim>28</dim>
					<dim>128</dim>
				</port>
			</output>
		</layer>
		<layer id="46" name="self.model.layers.0.self_attn.q_proj.weight/scale" type="Const" version="opset1">
			<data element_type="f16" shape="3584, 28, 1" offset="551954992" size="200704" />
			<output>
				<port id="0" precision="FP16">
					<dim>3584</dim>
					<dim>28</dim>
					<dim>1</dim>
				</port>
			</output>
		</layer>
		<layer id="47" name="self.model.layers.0.self_attn.q_proj.weight/fq_weights_1" type="Multiply" version="opset1">
			<data auto_broadcast="numpy" />
			<input>
				<port id="0" precision="FP16">
					<dim>3584</dim>
					<dim>28</dim>
					<dim>128</dim>
				</port>
				<port id="1" precision="FP16">
					<dim>3584</dim>
					<dim>28</dim>
					<dim>1</dim>
				</port>
			</input>
			<output>
				<port id="2" precision="FP16">
					<dim>3584</dim>
					<dim>28</dim>
					<dim>128</dim>
				</port>
			</output>
		</layer>
		<layer id="48" name="Constant_284586" type="Const" version="opset1">
			<data element_type="i64" shape="2" offset="552155696" size="16" />
			<output>
				<port id="0" precision="I64">
					<dim>2</dim>
				</port>
			</output>
		</layer>
		<layer id="49" name="Reshape_284587" type="Reshape" version="opset1">
			<data special_zero="false" />
			<input>
				<port id="0" precision="FP16">
					<dim>3584</dim>
					<dim>28</dim>
					<dim>128</dim>
				</port>
				<port id="1" precision="I64">
					<dim>2</dim>
				</port>
			</input>
			<output>
				<port id="2" precision="FP16">
					<dim>3584</dim>
					<dim>3584</dim>
				</port>
			</output>
		</layer>
		<layer id="50" name="self.model.layers.0.self_attn.q_proj.weight/fq_weights_1/convert" type="Convert" version="opset1">
			<data destination_type="f32" />
			<input>
				<port id="0" precision="FP16">
					<dim>3584</dim>
					<dim>3584</dim>
				</port>
			</input>
			<output>
				<port id="1" precision="FP32">
					<dim>3584</dim>
					<dim>3584</dim>
				</port>
			</output>
		</layer>
		<layer id="51" name="__module.model.layers.0.self_attn.q_proj/aten::linear/MatMul" type="MatMul" version="opset1">
			<data transpose_a="false" transpose_b="true" />
			<input>
				<port id="0" precision="FP32">
					<dim>-1</dim>
					<dim>-1</dim>
					<dim>3584</dim>
				</port>
				<port id="1" precision="FP32">
					<dim>3584</dim>
					<dim>3584</dim>
				</port>
			</input>
			<output>
				<port id="2" precision="FP32">
					<dim>-1</dim>
					<dim>-1</dim>
					<dim>3584</dim>
				</port>
			</output>
		</layer>
		<layer id="52" name="Constant_226159" type="Const" version="opset1">
			<data element_type="f32" shape="1, 1, 3584" offset="552155712" size="14336" />
			<output>
				<port id="0" precision="FP32">
					<dim>1</dim>
					<dim>1</dim>
					<dim>3584</dim>
				</port>
			</output>
		</layer>
		<layer id="53" name="__module.model.layers.0.self_attn.q_proj/aten::linear/Add" type="Add" version="opset1">
			<data auto_broadcast="numpy" />
			<input>
				<port id="0" precision="FP32">
					<dim>-1</dim>
					<dim>-1</dim>
					<dim>3584</dim>
				</port>
				<port id="1" precision="FP32">
					<dim>1</dim>
					<dim>1</dim>
					<dim>3584</dim>
				</port>
			</input>
			<output>
				<port id="2" precision="FP32" names="345,query_states.1">
					<dim>-1</dim>
					<dim>-1</dim>
					<dim>3584</dim>
				</port>
			</output>
		</layer>
		<layer id="54" name="Constant_237684" type="Const" version="opset1">
			<data element_type="i64" shape="4" offset="552170048" size="32" />
			<output>
				<port id="0" precision="I64">
					<dim>4</dim>
				</port>
			</output>
		</layer>
		<layer id="55" name="__module.model.layers.0.self_attn/aten::view/Reshape" type="Reshape" version="opset1">
			<data special_zero="true" />
			<input>
				<port id="0" precision="FP32">
					<dim>-1</dim>
					<dim>-1</dim>
					<dim>3584</dim>
				</port>
				<port id="1" precision="I64">
					<dim>4</dim>
				</port>
			</input>
			<output>
				<port id="2" precision="FP32" names="353">
					<dim>-1</dim>
					<dim>-1</dim>
					<dim>28</dim>
					<dim>128</dim>
				</port>
			</output>
		</layer>
		<layer id="56" name="__module.model.layers.0.self_attn/aten::transpose/ScatterElementsUpdate" type="Const" version="opset1">
			<data element_type="i32" shape="4" offset="552170080" size="16" />
			<output>
				<port id="0" precision="I32">
					<dim>4</dim>
				</port>
			</output>
		</layer>
		<layer id="57" name="__module.model.layers.0.self_attn/aten::transpose/Transpose" type="Transpose" version="opset1">
			<input>
				<port id="0" precision="FP32">
					<dim>-1</dim>
					<dim>-1</dim>
					<dim>28</dim>
					<dim>128</dim>
				</port>
				<port id="1" precision="I32">
					<dim>4</dim>
				</port>
			</input>
			<output>
				<port id="2" precision="FP32" names="354,q.1">
					<dim>-1</dim>
					<dim>28</dim>
					<dim>-1</dim>
					<dim>128</dim>
				</port>
			</output>
		</layer>
		<layer id="58" name="self.model.layers.0.self_attn.rotary_emb.cos_cached" type="Const" version="opset1">
			<data element_type="f32" shape="32768, 128" offset="552170096" size="16777216" />
			<output>
				<port id="0" precision="FP32" names="self.model.layers.0.self_attn.rotary_emb.cos_cached">
					<dim>32768</dim>
					<dim>128</dim>
				</port>
			</output>
		</layer>
		<layer id="59" name="__module.model.layers.0.self_attn.rotary_emb/aten::slice/Reshape" type="Const" version="opset1">
			<data element_type="i64" shape="1" offset="4" size="8" />
			<output>
				<port id="0" precision="I64">
					<dim>1</dim>
				</port>
			</output>
		</layer>
		<layer id="60" name="ShapeOf_232904" type="ShapeOf" version="opset3">
			<data output_type="i64" />
			<input>
				<port id="0" precision="FP32">
					<dim>-1</dim>
					<dim>-1</dim>
					<dim>3584</dim>
				</port>
			</input>
			<output>
				<port id="1" precision="I64">
					<dim>3</dim>
				</port>
			</output>
		</layer>
		<layer id="61" name="Constant_232905" type="Const" version="opset1">
			<data element_type="i64" shape="" offset="568947312" size="8" />
			<output>
				<port id="0" precision="I64" />
			</output>
		</layer>
		<layer id="62" name="Constant_232906" type="Const" version="opset1">
			<data element_type="i64" shape="" offset="4" size="8" />
			<output>
				<port id="0" precision="I64" />
			</output>
		</layer>
		<layer id="63" name="Gather_232907" type="Gather" version="opset8">
			<data batch_dims="0" />
			<input>
				<port id="0" precision="I64">
					<dim>3</dim>
				</port>
				<port id="1" precision="I64" />
				<port id="2" precision="I64" />
			</input>
			<output>
				<port id="3" precision="I64" names="1076,1254,1432,1610,1788,1966,2144,2322,2500,2678,274,279,2856,3034,3212,3390,3568,361,3746,3924,4102,4280,4458,4636,4814,4992,5170,542,720,898" />
			</output>
		</layer>
		<layer id="64" name="Constant_172269" type="Const" version="opset1">
			<data element_type="i64" shape="1" offset="545482276" size="8" />
			<output>
				<port id="0" precision="I64">
					<dim>1</dim>
				</port>
			</output>
		</layer>
		<layer id="65" name="Reshape_232639" type="Reshape" version="opset1">
			<data special_zero="false" />
			<input>
				<port id="0" precision="I64" />
				<port id="1" precision="I64">
					<dim>1</dim>
				</port>
			</input>
			<output>
				<port id="2" precision="I64">
					<dim>1</dim>
				</port>
			</output>
		</layer>
		<layer id="66" name="Constant_276530" type="Const" version="opset1">
			<data element_type="f32" shape="" offset="0" size="4" />
			<output>
				<port id="0" precision="FP32" />
			</output>
		</layer>
		<layer id="67" name="Constant_276523" type="Const" version="opset1">
			<data element_type="i64" shape="1" offset="12" size="8" />
			<output>
				<port id="0" precision="I64">
					<dim>1</dim>
				</port>
			</output>
		</layer>
		<layer id="68" name="Constant_276525" type="Const" version="opset1">
			<data element_type="i64" shape="1" offset="4" size="8" />
			<output>
				<port id="0" precision="I64">
					<dim>1</dim>
				</port>
			</output>
		</layer>
		<layer id="69" name="Constant_276527" type="Const" version="opset1">
			<data element_type="i64" shape="1" offset="20" size="8" />
			<output>
				<port id="0" precision="I64">
					<dim>1</dim>
				</port>
			</output>
		</layer>
		<layer id="70" name="Concat_276528" type="Concat" version="opset1">
			<data axis="0" />
			<input>
				<port id="0" precision="I64">
					<dim>1</dim>
				</port>
				<port id="1" precision="I64">
					<dim>1</dim>
				</port>
				<port id="2" precision="I64">
					<dim>1</dim>
				</port>
				<port id="3" precision="I64">
					<dim>1</dim>
				</port>
			</input>
			<output>
				<port id="4" precision="I64">
					<dim>4</dim>
				</port>
			</output>
		</layer>
		<layer id="71" name="Broadcast_276531" type="Broadcast" version="opset3">
			<data mode="numpy" />
			<input>
				<port id="0" precision="FP32" />
				<port id="1" precision="I64">
					<dim>4</dim>
				</port>
			</input>
			<output>
				<port id="2" precision="FP32">
					<dim>-1</dim>
					<dim>4</dim>
					<dim>0</dim>
					<dim>128</dim>
				</port>
			</output>
		</layer>
		<layer id="72" name="ReadValue_269956" type="ReadValue" version="opset6">
			<data variable_id="past_key_values.0.keypresent.0.key" variable_type="f32" variable_shape="?,4,?,128" />
			<input>
				<port id="0" precision="FP32">
					<dim>-1</dim>
					<dim>4</dim>
					<dim>0</dim>
					<dim>128</dim>
				</port>
			</input>
			<output>
				<port id="1" precision="FP32" names="past_key_values.0.key">
					<dim>-1</dim>
					<dim>4</dim>
					<dim>-1</dim>
					<dim>128</dim>
				</port>
			</output>
		</layer>
		<layer id="73" name="Constant_263458" type="Const" version="opset1">
			<data element_type="i64" shape="" offset="4" size="8" />
			<output>
				<port id="0" precision="I64" />
			</output>
		</layer>
		<layer id="74" name="Gather_263459" type="Gather" version="opset8">
			<data batch_dims="0" />
			<input>
				<port id="0" precision="FP32">
					<dim>-1</dim>
					<dim>4</dim>
					<dim>-1</dim>
					<dim>128</dim>
				</port>
				<port id="1" precision="I32">
					<dim>-1</dim>
				</port>
				<port id="2" precision="I64" />
			</input>
			<output>
				<port id="3" precision="FP32">
					<dim>-1</dim>
					<dim>4</dim>
					<dim>-1</dim>
					<dim>128</dim>
				</port>
			</output>
		</layer>
		<layer id="75" name="ShapeOf_232909" type="ShapeOf" version="opset3">
			<data output_type="i64" />
			<input>
				<port id="0" precision="FP32">
					<dim>-1</dim>
					<dim>4</dim>
					<dim>-1</dim>
					<dim>128</dim>
				</port>
			</input>
			<output>
				<port id="1" precision="I64">
					<dim>4</dim>
				</port>
			</output>
		</layer>
		<layer id="76" name="Constant_232910" type="Const" version="opset1">
			<data element_type="i64" shape="" offset="568947320" size="8" />
			<output>
				<port id="0" precision="I64" />
			</output>
		</layer>
		<layer id="77" name="Constant_232911" type="Const" version="opset1">
			<data element_type="i64" shape="" offset="4" size="8" />
			<output>
				<port id="0" precision="I64" />
			</output>
		</layer>
		<layer id="78" name="Gather_232912" type="Gather" version="opset8">
			<data batch_dims="0" />
			<input>
				<port id="0" precision="I64">
					<dim>4</dim>
				</port>
				<port id="1" precision="I64" />
				<port id="2" precision="I64" />
			</input>
			<output>
				<port id="3" precision="I64" names="272,363" />
			</output>
		</layer>
		<layer id="79" name="Reshape_232640" type="Reshape" version="opset1">
			<data special_zero="false" />
			<input>
				<port id="0" precision="I64" />
				<port id="1" precision="I64">
					<dim>1</dim>
				</port>
			</input>
			<output>
				<port id="2" precision="I64">
					<dim>1</dim>
				</port>
			</output>
		</layer>
		<layer id="80" name="__module.model.layers.0.self_attn/aten::add_/Add" type="Add" version="opset1">
			<data auto_broadcast="numpy" />
			<input>
				<port id="0" precision="I64">
					<dim>1</dim>
				</port>
				<port id="1" precision="I64">
					<dim>1</dim>
				</port>
			</input>
			<output>
				<port id="2" precision="I64" names="362,366,367,kv_seq_len.1">
					<dim>1</dim>
				</port>
			</output>
		</layer>
		<layer id="81" name="__module.model.layers.0.self_attn.rotary_emb/aten::slice/Reshape_2" type="Const" version="opset1">
			<data element_type="i64" shape="1" offset="568947312" size="8" />
			<output>
				<port id="0" precision="I64">
					<dim>1</dim>
				</port>
			</output>
		</layer>
		<layer id="82" name="__module.model.layers.0.self_attn.rotary_emb/aten::slice/Reshape_3" type="Const" version="opset1">
			<data element_type="i64" shape="1" offset="4" size="8" />
			<output>
				<port id="0" precision="I64">
					<dim>1</dim>
				</port>
			</output>
		</layer>
		<layer id="83" name="__module.model.layers.0.self_attn.rotary_emb/aten::slice/Slice" type="Slice" version="opset8">
			<input>
				<port id="0" precision="FP32">
					<dim>32768</dim>
					<dim>128</dim>
				</port>
				<port id="1" precision="I64">
					<dim>1</dim>
				</port>
				<port id="2" precision="I64">
					<dim>1</dim>
				</port>
				<port id="3" precision="I64">
					<dim>1</dim>
				</port>
				<port id="4" precision="I64">
					<dim>1</dim>
				</port>
			</input>
			<output>
				<port id="5" precision="FP32" names="370,371,375,cos.1">
					<dim>-1</dim>
					<dim>128</dim>
				</port>
			</output>
		</layer>
		<layer id="84" name="__module.model.layers.0.self_attn/aten::index/Convert" type="Convert" version="opset1">
			<data destination_type="i32" />
			<input>
				<port id="0" precision="I64">
					<dim>-1</dim>
					<dim>-1</dim>
				</port>
			</input>
			<output>
				<port id="1" precision="I32">
					<dim>-1</dim>
					<dim>-1</dim>
				</port>
			</output>
		</layer>
		<layer id="85" name="Constant_26235" type="Const" version="opset1">
			<data element_type="i32" shape="" offset="0" size="4" />
			<output>
				<port id="0" precision="I32" />
			</output>
		</layer>
		<layer id="86" name="__module.model.layers.0.self_attn/aten::index/Gather" type="Gather" version="opset8">
			<data batch_dims="0" />
			<input>
				<port id="0" precision="FP32">
					<dim>-1</dim>
					<dim>128</dim>
				</port>
				<port id="1" precision="I32">
					<dim>-1</dim>
					<dim>-1</dim>
				</port>
				<port id="2" precision="I32" />
			</input>
			<output>
				<port id="3" precision="FP32" names="378">
					<dim>-1</dim>
					<dim>-1</dim>
					<dim>128</dim>
				</port>
			</output>
		</layer>
		<layer id="87" name="206" type="Const" version="opset1">
			<data element_type="i64" shape="" offset="568947312" size="8" />
			<output>
				<port id="0" precision="I64" names="206" />
			</output>
		</layer>
		<layer id="88" name="__module.model.layers.0.self_attn/aten::unsqueeze/Unsqueeze" type="Unsqueeze" version="opset1">
			<input>
				<port id="0" precision="FP32">
					<dim>-1</dim>
					<dim>-1</dim>
					<dim>128</dim>
				</port>
				<port id="1" precision="I64" />
			</input>
			<output>
				<port id="2" precision="FP32" names="379,cos.3">
					<dim>-1</dim>
					<dim>1</dim>
					<dim>-1</dim>
					<dim>128</dim>
				</port>
			</output>
		</layer>
		<layer id="89" name="__module.model.layers.0.self_attn/aten::mul/Multiply" type="Multiply" version="opset1">
			<data auto_broadcast="numpy" />
			<input>
				<port id="0" precision="FP32">
					<dim>-1</dim>
					<dim>28</dim>
					<dim>-1</dim>
					<dim>128</dim>
				</port>
				<port id="1" precision="FP32">
					<dim>-1</dim>
					<dim>1</dim>
					<dim>-1</dim>
					<dim>128</dim>
				</port>
			</input>
			<output>
				<port id="2" precision="FP32" names="383">
					<dim>-1</dim>
					<dim>28</dim>
					<dim>-1</dim>
					<dim>128</dim>
				</port>
			</output>
		</layer>
		<layer id="90" name="__module.model.layers.0.self_attn/aten::size/ShapeOf_5" type="ShapeOf" version="opset3">
			<data output_type="i64" />
			<input>
				<port id="0" precision="FP32">
					<dim>-1</dim>
					<dim>28</dim>
					<dim>-1</dim>
					<dim>128</dim>
				</port>
			</input>
			<output>
				<port id="1" precision="I64">
					<dim>4</dim>
				</port>
			</output>
		</layer>
		<layer id="91" name="197" type="Const" version="opset1">
			<data element_type="i64" shape="" offset="568947328" size="8" />
			<output>
				<port id="0" precision="I64" names="197" />
			</output>
		</layer>
		<layer id="92" name="__module.model.layers.0.self_attn/aten::size/Constant_5" type="Const" version="opset1">
			<data element_type="i32" shape="" offset="0" size="4" />
			<output>
				<port id="0" precision="I32" />
			</output>
		</layer>
		<layer id="93" name="__module.model.layers.0.self_attn/aten::size/Gather_5" type="Gather" version="opset8">
			<data batch_dims="0" />
			<input>
				<port id="0" precision="I64">
					<dim>4</dim>
				</port>
				<port id="1" precision="I64" />
				<port id="2" precision="I32" />
			</input>
			<output>
				<port id="3" precision="I64" names="384,389" />
			</output>
		</layer>
		<layer id="94" name="Constant_44" type="Const" version="opset1">
			<data element_type="i64" shape="" offset="568947320" size="8" />
			<output>
				<port id="0" precision="I64" names="192" />
			</output>
		</layer>
		<layer id="95" name="__module.model.layers.0.self_attn/aten::floor_divide/Divide_1" type="Divide" version="opset1">
			<data auto_broadcast="numpy" m_pythondiv="true" />
			<input>
				<port id="0" precision="I64" />
				<port id="1" precision="I64" />
			</input>
			<output>
				<port id="2" precision="I64" />
			</output>
		</layer>
		<layer id="96" name="__module.model.layers.0.self_attn/aten::floor_divide/Floor_1" type="Floor" version="opset1">
			<input>
				<port id="0" precision="I64" />
			</input>
			<output>
				<port id="1" precision="I64" names="386,387,391,392" />
			</output>
		</layer>
		<layer id="97" name="Constant_232942" type="Const" version="opset1">
			<data element_type="i64" shape="1" offset="568947312" size="8" />
			<output>
				<port id="0" precision="I64">
					<dim>1</dim>
				</port>
			</output>
		</layer>
		<layer id="98" name="Reshape_232943" type="Reshape" version="opset1">
			<data special_zero="false" />
			<input>
				<port id="0" precision="I64" />
				<port id="1" precision="I64">
					<dim>1</dim>
				</port>
			</input>
			<output>
				<port id="2" precision="I64">
					<dim>1</dim>
				</port>
			</output>
		</layer>
		<layer id="99" name="__module.model.layers.0.self_attn/aten::slice/Reshape_1" type="Const" version="opset1">
			<data element_type="i64" shape="1" offset="568947336" size="8" />
			<output>
				<port id="0" precision="I64">
					<dim>1</dim>
				</port>
			</output>
		</layer>
		<layer id="100" name="__module.model.layers.0.self_attn/aten::slice/Reshape_2" type="Const" version="opset1">
			<data element_type="i64" shape="1" offset="568947312" size="8" />
			<output>
				<port id="0" precision="I64">
					<dim>1</dim>
				</port>
			</output>
		</layer>
		<layer id="101" name="__module.model.layers.0.self_attn/aten::slice/Reshape_3" type="Const" version="opset1">
			<data element_type="i64" shape="1" offset="568947328" size="8" />
			<output>
				<port id="0" precision="I64">
					<dim>1</dim>
				</port>
			</output>
		</layer>
		<layer id="102" name="__module.model.layers.0.self_attn/aten::slice/Slice" type="Slice" version="opset8">
			<input>
				<port id="0" precision="FP32">
					<dim>-1</dim>
					<dim>28</dim>
					<dim>-1</dim>
					<dim>128</dim>
				</port>
				<port id="1" precision="I64">
					<dim>1</dim>
				</port>
				<port id="2" precision="I64">
					<dim>1</dim>
				</port>
				<port id="3" precision="I64">
					<dim>1</dim>
				</port>
				<port id="4" precision="I64">
					<dim>1</dim>
				</port>
			</input>
			<output>
				<port id="5" precision="FP32" names="393,x2.1">
					<dim>-1</dim>
					<dim>28</dim>
					<dim>-1</dim>
					<dim>64</dim>
				</port>
			</output>
		</layer>
		<layer id="103" name="Constant_226161" type="Const" version="opset1">
			<data element_type="f32" shape="1, 1, 1, 1" offset="568947344" size="4" />
			<output>
				<port id="0" precision="FP32">
					<dim>1</dim>
					<dim>1</dim>
					<dim>1</dim>
					<dim>1</dim>
				</port>
			</output>
		</layer>
		<layer id="104" name="__module.model.layers.0.self_attn/aten::neg/Multiply" type="Multiply" version="opset1">
			<data auto_broadcast="numpy" />
			<input>
				<port id="0" precision="FP32">
					<dim>-1</dim>
					<dim>28</dim>
					<dim>-1</dim>
					<dim>64</dim>
				</port>
				<port id="1" precision="FP32">
					<dim>1</dim>
					<dim>1</dim>
					<dim>1</dim>
					<dim>1</dim>
				</port>
			</input>
			<output>
				<port id="2" precision="FP32" names="394">
					<dim>-1</dim>
					<dim>28</dim>
					<dim>-1</dim>
					<dim>64</dim>
				</port>
			</output>
		</layer>
		<layer id="105" name="__module.model.layers.0.self_attn/aten::slice/Reshape_4" type="Const" version="opset1">
			<data element_type="i64" shape="1" offset="4" size="8" />
			<output>
				<port id="0" precision="I64">
					<dim>1</dim>
				</port>
			</output>
		</layer>
		<layer id="106" name="__module.model.layers.0.self_attn/aten::slice/Reshape_6" type="Const" version="opset1">
			<data element_type="i64" shape="1" offset="568947312" size="8" />
			<output>
				<port id="0" precision="I64">
					<dim>1</dim>
				</port>
			</output>
		</layer>
		<layer id="107" name="__module.model.layers.0.self_attn/aten::slice/Reshape_7" type="Const" version="opset1">
			<data element_type="i64" shape="1" offset="568947328" size="8" />
			<output>
				<port id="0" precision="I64">
					<dim>1</dim>
				</port>
			</output>
		</layer>
		<layer id="108" name="__module.model.layers.0.self_attn/aten::slice/Slice_1" type="Slice" version="opset8">
			<input>
				<port id="0" precision="FP32">
					<dim>-1</dim>
					<dim>28</dim>
					<dim>-1</dim>
					<dim>128</dim>
				</port>
				<port id="1" precision="I64">
					<dim>1</dim>
				</port>
				<port id="2" precision="I64">
					<dim>1</dim>
				</port>
				<port id="3" precision="I64">
					<dim>1</dim>
				</port>
				<port id="4" precision="I64">
					<dim>1</dim>
				</port>
			</input>
			<output>
				<port id="5" precision="FP32" names="388">
					<dim>-1</dim>
					<dim>28</dim>
					<dim>-1</dim>
					<dim>64</dim>
				</port>
			</output>
		</layer>
		<layer id="109" name="__module.model.layers.0.self_attn/aten::cat/Concat" type="Concat" version="opset1">
			<data axis="-1" />
			<input>
				<port id="0" precision="FP32">
					<dim>-1</dim>
					<dim>28</dim>
					<dim>-1</dim>
					<dim>64</dim>
				</port>
				<port id="1" precision="FP32">
					<dim>-1</dim>
					<dim>28</dim>
					<dim>-1</dim>
					<dim>64</dim>
				</port>
			</input>
			<output>
				<port id="2" precision="FP32" names="396">
					<dim>-1</dim>
					<dim>28</dim>
					<dim>-1</dim>
					<dim>128</dim>
				</port>
			</output>
		</layer>
		<layer id="110" name="self.model.layers.0.self_attn.rotary_emb.sin_cached" type="Const" version="opset1">
			<data element_type="f32" shape="32768, 128" offset="568947348" size="16777216" />
			<output>
				<port id="0" precision="FP32" names="self.model.layers.0.self_attn.rotary_emb.sin_cached">
					<dim>32768</dim>
					<dim>128</dim>
				</port>
			</output>
		</layer>
		<layer id="111" name="__module.model.layers.0.self_attn.rotary_emb/aten::slice/Reshape_4" type="Const" version="opset1">
			<data element_type="i64" shape="1" offset="4" size="8" />
			<output>
				<port id="0" precision="I64">
					<dim>1</dim>
				</port>
			</output>
		</layer>
		<layer id="112" name="__module.model.layers.0.self_attn.rotary_emb/aten::slice/Reshape_6" type="Const" version="opset1">
			<data element_type="i64" shape="1" offset="568947312" size="8" />
			<output>
				<port id="0" precision="I64">
					<dim>1</dim>
				</port>
			</output>
		</layer>
		<layer id="113" name="__module.model.layers.0.self_attn.rotary_emb/aten::slice/Reshape_7" type="Const" version="opset1">
			<data element_type="i64" shape="1" offset="4" size="8" />
			<output>
				<port id="0" precision="I64">
					<dim>1</dim>
				</port>
			</output>
		</layer>
		<layer id="114" name="__module.model.layers.0.self_attn.rotary_emb/aten::slice/Slice_1" type="Slice" version="opset8">
			<input>
				<port id="0" precision="FP32">
					<dim>32768</dim>
					<dim>128</dim>
				</port>
				<port id="1" precision="I64">
					<dim>1</dim>
				</port>
				<port id="2" precision="I64">
					<dim>1</dim>
				</port>
				<port id="3" precision="I64">
					<dim>1</dim>
				</port>
				<port id="4" precision="I64">
					<dim>1</dim>
				</port>
			</input>
			<output>
				<port id="5" precision="FP32" names="372,373,376,sin.1">
					<dim>-1</dim>
					<dim>128</dim>
				</port>
			</output>
		</layer>
		<layer id="115" name="Constant_26238" type="Const" version="opset1">
			<data element_type="i32" shape="" offset="0" size="4" />
			<output>
				<port id="0" precision="I32" />
			</output>
		</layer>
		<layer id="116" name="__module.model.layers.0.self_attn/aten::index/Gather_1" type="Gather" version="opset8">
			<data batch_dims="0" />
			<input>
				<port id="0" precision="FP32">
					<dim>-1</dim>
					<dim>128</dim>
				</port>
				<port id="1" precision="I32">
					<dim>-1</dim>
					<dim>-1</dim>
				</port>
				<port id="2" precision="I32" />
			</input>
			<output>
				<port id="3" precision="FP32" names="381">
					<dim>-1</dim>
					<dim>-1</dim>
					<dim>128</dim>
				</port>
			</output>
		</layer>
		<layer id="117" name="__module.model.layers.0.self_attn/aten::unsqueeze/Unsqueeze_1" type="Unsqueeze" version="opset1">
			<input>
				<port id="0" precision="FP32">
					<dim>-1</dim>
					<dim>-1</dim>
					<dim>128</dim>
				</port>
				<port id="1" precision="I64" />
			</input>
			<output>
				<port id="2" precision="FP32" names="382,sin.3">
					<dim>-1</dim>
					<dim>1</dim>
					<dim>-1</dim>
					<dim>128</dim>
				</port>
			</output>
		</layer>
		<layer id="118" name="__module.model.layers.0.self_attn/aten::mul/Multiply_1" type="Multiply" version="opset1">
			<data auto_broadcast="numpy" />
			<input>
				<port id="0" precision="FP32">
					<dim>-1</dim>
					<dim>28</dim>
					<dim>-1</dim>
					<dim>128</dim>
				</port>
				<port id="1" precision="FP32">
					<dim>-1</dim>
					<dim>1</dim>
					<dim>-1</dim>
					<dim>128</dim>
				</port>
			</input>
			<output>
				<port id="2" precision="FP32" names="397">
					<dim>-1</dim>
					<dim>28</dim>
					<dim>-1</dim>
					<dim>128</dim>
				</port>
			</output>
		</layer>
		<layer id="119" name="__module.model.layers.0.self_attn/aten::add/Add" type="Add" version="opset1">
			<data auto_broadcast="numpy" />
			<input>
				<port id="0" precision="FP32">
					<dim>-1</dim>
					<dim>28</dim>
					<dim>-1</dim>
					<dim>128</dim>
				</port>
				<port id="1" precision="FP32">
					<dim>-1</dim>
					<dim>28</dim>
					<dim>-1</dim>
					<dim>128</dim>
				</port>
			</input>
			<output>
				<port id="2" precision="FP32" names="398">
					<dim>-1</dim>
					<dim>28</dim>
					<dim>-1</dim>
					<dim>128</dim>
				</port>
			</output>
		</layer>
		<layer id="120" name="self.model.layers.0.self_attn.k_proj.weight" type="Const" version="opset1">
			<data element_type="u8" shape="512, 3584" offset="585724564" size="1835008" />
			<output>
				<port id="0" precision="U8">
					<dim>512</dim>
					<dim>3584</dim>
				</port>
			</output>
		</layer>
		<layer id="121" name="Convert_285196" type="Convert" version="opset1">
			<data destination_type="f16" />
			<input>
				<port id="0" precision="U8">
					<dim>512</dim>
					<dim>3584</dim>
				</port>
			</input>
			<output>
				<port id="1" precision="FP16">
					<dim>512</dim>
					<dim>3584</dim>
				</port>
			</output>
		</layer>
		<layer id="122" name="self.model.layers.0.self_attn.k_proj.weight/zero_point" type="Const" version="opset1">
			<data element_type="u8" shape="512, 1" offset="587559572" size="512" />
			<output>
				<port id="0" precision="U8">
					<dim>512</dim>
					<dim>1</dim>
				</port>
			</output>
		</layer>
		<layer id="123" name="Convert_285199" type="Convert" version="opset1">
			<data destination_type="f16" />
			<input>
				<port id="0" precision="U8">
					<dim>512</dim>
					<dim>1</dim>
				</port>
			</input>
			<output>
				<port id="1" precision="FP16">
					<dim>512</dim>
					<dim>1</dim>
				</port>
			</output>
		</layer>
		<layer id="124" name="self.model.layers.0.self_attn.k_proj.weight/zero_point/subtract" type="Subtract" version="opset1">
			<data auto_broadcast="numpy" />
			<input>
				<port id="0" precision="FP16">
					<dim>512</dim>
					<dim>3584</dim>
				</port>
				<port id="1" precision="FP16">
					<dim>512</dim>
					<dim>1</dim>
				</port>
			</input>
			<output>
				<port id="2" precision="FP16">
					<dim>512</dim>
					<dim>3584</dim>
				</port>
			</output>
		</layer>
		<layer id="125" name="self.model.layers.0.self_attn.k_proj.weight/scale" type="Const" version="opset1">
			<data element_type="f16" shape="512, 1" offset="587560084" size="1024" />
			<output>
				<port id="0" precision="FP16">
					<dim>512</dim>
					<dim>1</dim>
				</port>
			</output>
		</layer>
		<layer id="126" name="self.model.layers.0.self_attn.k_proj.weight/fq_weights_1" type="Multiply" version="opset1">
			<data auto_broadcast="numpy" />
			<input>
				<port id="0" precision="FP16">
					<dim>512</dim>
					<dim>3584</dim>
				</port>
				<port id="1" precision="FP16">
					<dim>512</dim>
					<dim>1</dim>
				</port>
			</input>
			<output>
				<port id="2" precision="FP16">
					<dim>512</dim>
					<dim>3584</dim>
				</port>
			</output>
		</layer>
		<layer id="127" name="self.model.layers.0.self_attn.k_proj.weight/fq_weights_1/convert" type="Convert" version="opset1">
			<data destination_type="f32" />
			<input>
				<port id="0" precision="FP16">
					<dim>512</dim>
					<dim>3584</dim>
				</port>
			</input>
			<output>
				<port id="1" precision="FP32">
					<dim>512</dim>
					<dim>3584</dim>
				</port>
			</output>
		</layer>
		<layer id="128" name="__module.model.layers.0.self_attn.k_proj/aten::linear/MatMul" type="MatMul" version="opset1">
			<data transpose_a="false" transpose_b="true" />
			<input>
				<port id="0" precision="FP32">
					<dim>-1</dim>
					<dim>-1</dim>
					<dim>3584</dim>
				</port>
				<port id="1" precision="FP32">
					<dim>512</dim>
					<dim>3584</dim>
				</port>
			</input>
			<output>
				<port id="2" precision="FP32">
					<dim>-1</dim>
					<dim>-1</dim>
					<dim>512</dim>
				</port>
			</output>
		</layer>
		<layer id="129" name="Constant_226160" type="Const" version="opset1">
			<data element_type="f32" shape="1, 1, 512" offset="587561108" size="2048" />
			<output>
				<port id="0" precision="FP32">
					<dim>1</dim>
					<dim>1</dim>
					<dim>512</dim>
				</port>
			</output>
		</layer>
		<layer id="130" name="__module.model.layers.0.self_attn.k_proj/aten::linear/Add" type="Add" version="opset1">
			<data auto_broadcast="numpy" />
			<input>
				<port id="0" precision="FP32">
					<dim>-1</dim>
					<dim>-1</dim>
					<dim>512</dim>
				</port>
				<port id="1" precision="FP32">
					<dim>1</dim>
					<dim>1</dim>
					<dim>512</dim>
				</port>
			</input>
			<output>
				<port id="2" precision="FP32" names="348,key_states.3">
					<dim>-1</dim>
					<dim>-1</dim>
					<dim>512</dim>
				</port>
			</output>
		</layer>
		<layer id="131" name="Constant_237685" type="Const" version="opset1">
			<data element_type="i64" shape="4" offset="587563156" size="32" />
			<output>
				<port id="0" precision="I64">
					<dim>4</dim>
				</port>
			</output>
		</layer>
		<layer id="132" name="__module.model.layers.0.self_attn/aten::view/Reshape_1" type="Reshape" version="opset1">
			<data special_zero="true" />
			<input>
				<port id="0" precision="FP32">
					<dim>-1</dim>
					<dim>-1</dim>
					<dim>512</dim>
				</port>
				<port id="1" precision="I64">
					<dim>4</dim>
				</port>
			</input>
			<output>
				<port id="2" precision="FP32" names="356">
					<dim>-1</dim>
					<dim>-1</dim>
					<dim>4</dim>
					<dim>128</dim>
				</port>
			</output>
		</layer>
		<layer id="133" name="__module.model.layers.0.self_attn/aten::transpose/ScatterElementsUpdate_1" type="Const" version="opset1">
			<data element_type="i32" shape="4" offset="552170080" size="16" />
			<output>
				<port id="0" precision="I32">
					<dim>4</dim>
				</port>
			</output>
		</layer>
		<layer id="134" name="__module.model.layers.0.self_attn/aten::transpose/Transpose_1" type="Transpose" version="opset1">
			<input>
				<port id="0" precision="FP32">
					<dim>-1</dim>
					<dim>-1</dim>
					<dim>4</dim>
					<dim>128</dim>
				</port>
				<port id="1" precision="I32">
					<dim>4</dim>
				</port>
			</input>
			<output>
				<port id="2" precision="FP32" names="357,key_states.5">
					<dim>-1</dim>
					<dim>4</dim>
					<dim>-1</dim>
					<dim>128</dim>
				</port>
			</output>
		</layer>
		<layer id="135" name="__module.model.layers.0.self_attn/aten::mul/Multiply_2" type="Multiply" version="opset1">
			<data auto_broadcast="numpy" />
			<input>
				<port id="0" precision="FP32">
					<dim>-1</dim>
					<dim>4</dim>
					<dim>-1</dim>
					<dim>128</dim>
				</port>
				<port id="1" precision="FP32">
					<dim>-1</dim>
					<dim>1</dim>
					<dim>-1</dim>
					<dim>128</dim>
				</port>
			</input>
			<output>
				<port id="2" precision="FP32" names="399">
					<dim>-1</dim>
					<dim>4</dim>
					<dim>-1</dim>
					<dim>128</dim>
				</port>
			</output>
		</layer>
		<layer id="136" name="__module.model.layers.0.self_attn/aten::size/ShapeOf_2" type="ShapeOf" version="opset3">
			<data output_type="i64" />
			<input>
				<port id="0" precision="FP32">
					<dim>-1</dim>
					<dim>4</dim>
					<dim>-1</dim>
					<dim>128</dim>
				</port>
			</input>
			<output>
				<port id="1" precision="I64">
					<dim>4</dim>
				</port>
			</output>
		</layer>
		<layer id="137" name="__module.model.layers.0.self_attn/aten::size/Constant_7" type="Const" version="opset1">
			<data element_type="i32" shape="" offset="0" size="4" />
			<output>
				<port id="0" precision="I32" />
			</output>
		</layer>
		<layer id="138" name="__module.model.layers.0.self_attn/aten::size/Gather_7" type="Gather" version="opset8">
			<data batch_dims="0" />
			<input>
				<port id="0" precision="I64">
					<dim>4</dim>
				</port>
				<port id="1" precision="I64" />
				<port id="2" precision="I32" />
			</input>
			<output>
				<port id="3" precision="I64" names="400,405" />
			</output>
		</layer>
		<layer id="139" name="__module.model.layers.0.self_attn/aten::floor_divide/Divide_3" type="Divide" version="opset1">
			<data auto_broadcast="numpy" m_pythondiv="true" />
			<input>
				<port id="0" precision="I64" />
				<port id="1" precision="I64" />
			</input>
			<output>
				<port id="2" precision="I64" />
			</output>
		</layer>
		<layer id="140" name="__module.model.layers.0.self_attn/aten::floor_divide/Floor_3" type="Floor" version="opset1">
			<input>
				<port id="0" precision="I64" />
			</input>
			<output>
				<port id="1" precision="I64" names="402,403,407,408" />
			</output>
		</layer>
		<layer id="141" name="Constant_232863" type="Const" version="opset1">
			<data element_type="i64" shape="1" offset="568947312" size="8" />
			<output>
				<port id="0" precision="I64">
					<dim>1</dim>
				</port>
			</output>
		</layer>
		<layer id="142" name="Reshape_232864" type="Reshape" version="opset1">
			<data special_zero="false" />
			<input>
				<port id="0" precision="I64" />
				<port id="1" precision="I64">
					<dim>1</dim>
				</port>
			</input>
			<output>
				<port id="2" precision="I64">
					<dim>1</dim>
				</port>
			</output>
		</layer>
		<layer id="143" name="__module.model.layers.0.self_attn/aten::slice/Reshape_9" type="Const" version="opset1">
			<data element_type="i64" shape="1" offset="568947336" size="8" />
			<output>
				<port id="0" precision="I64">
					<dim>1</dim>
				</port>
			</output>
		</layer>
		<layer id="144" name="__module.model.layers.0.self_attn/aten::slice/Reshape_10" type="Const" version="opset1">
			<data element_type="i64" shape="1" offset="568947312" size="8" />
			<output>
				<port id="0" precision="I64">
					<dim>1</dim>
				</port>
			</output>
		</layer>
		<layer id="145" name="__module.model.layers.0.self_attn/aten::slice/Reshape_11" type="Const" version="opset1">
			<data element_type="i64" shape="1" offset="568947328" size="8" />
			<output>
				<port id="0" precision="I64">
					<dim>1</dim>
				</port>
			</output>
		</layer>
		<layer id="146" name="__module.model.layers.0.self_attn/aten::slice/Slice_2" type="Slice" version="opset8">
			<input>
				<port id="0" precision="FP32">
					<dim>-1</dim>
					<dim>4</dim>
					<dim>-1</dim>
					<dim>128</dim>
				</port>
				<port id="1" precision="I64">
					<dim>1</dim>
				</port>
				<port id="2" precision="I64">
					<dim>1</dim>
				</port>
				<port id="3" precision="I64">
					<dim>1</dim>
				</port>
				<port id="4" precision="I64">
					<dim>1</dim>
				</port>
			</input>
			<output>
				<port id="5" precision="FP32" names="409,x2.3">
					<dim>-1</dim>
					<dim>4</dim>
					<dim>-1</dim>
					<dim>64</dim>
				</port>
			</output>
		</layer>
		<layer id="147" name="Constant_226162" type="Const" version="opset1">
			<data element_type="f32" shape="1, 1, 1, 1" offset="568947344" size="4" />
			<output>
				<port id="0" precision="FP32">
					<dim>1</dim>
					<dim>1</dim>
					<dim>1</dim>
					<dim>1</dim>
				</port>
			</output>
		</layer>
		<layer id="148" name="__module.model.layers.0.self_attn/aten::neg/Multiply_1" type="Multiply" version="opset1">
			<data auto_broadcast="numpy" />
			<input>
				<port id="0" precision="FP32">
					<dim>-1</dim>
					<dim>4</dim>
					<dim>-1</dim>
					<dim>64</dim>
				</port>
				<port id="1" precision="FP32">
					<dim>1</dim>
					<dim>1</dim>
					<dim>1</dim>
					<dim>1</dim>
				</port>
			</input>
			<output>
				<port id="2" precision="FP32" names="410">
					<dim>-1</dim>
					<dim>4</dim>
					<dim>-1</dim>
					<dim>64</dim>
				</port>
			</output>
		</layer>
		<layer id="149" name="__module.model.layers.0.self_attn/aten::slice/Reshape_12" type="Const" version="opset1">
			<data element_type="i64" shape="1" offset="4" size="8" />
			<output>
				<port id="0" precision="I64">
					<dim>1</dim>
				</port>
			</output>
		</layer>
		<layer id="150" name="__module.model.layers.0.self_attn/aten::slice/Reshape_14" type="Const" version="opset1">
			<data element_type="i64" shape="1" offset="568947312" size="8" />
			<output>
				<port id="0" precision="I64">
					<dim>1</dim>
				</port>
			</output>
		</layer>
		<layer id="151" name="__module.model.layers.0.self_attn/aten::slice/Reshape_15" type="Const" version="opset1">
			<data element_type="i64" shape="1" offset="568947328" size="8" />
			<output>
				<port id="0" precision="I64">
					<dim>1</dim>
				</port>
			</output>
		</layer>
		<layer id="152" name="__module.model.layers.0.self_attn/aten::slice/Slice_3" type="Slice" version="opset8">
			<input>
				<port id="0" precision="FP32">
					<dim>-1</dim>
					<dim>4</dim>
					<dim>-1</dim>
					<dim>128</dim>
				</port>
				<port id="1" precision="I64">
					<dim>1</dim>
				</port>
				<port id="2" precision="I64">
					<dim>1</dim>
				</port>
				<port id="3" precision="I64">
					<dim>1</dim>
				</port>
				<port id="4" precision="I64">
					<dim>1</dim>
				</port>
			</input>
			<output>
				<port id="5" precision="FP32" names="404">
					<dim>-1</dim>
					<dim>4</dim>
					<dim>-1</dim>
					<dim>64</dim>
				</port>
			</output>
		</layer>
		<layer id="153" name="__module.model.layers.0.self_attn/aten::cat/Concat_1" type="Concat" version="opset1">
			<data axis="-1" />
			<input>
				<port id="0" precision="FP32">
					<dim>-1</dim>
					<dim>4</dim>
					<dim>-1</dim>
					<dim>64</dim>
				</port>
				<port id="1" precision="FP32">
					<dim>-1</dim>
					<dim>4</dim>
					<dim>-1</dim>
					<dim>64</dim>
				</port>
			</input>
			<output>
				<port id="2" precision="FP32" names="412">
					<dim>-1</dim>
					<dim>4</dim>
					<dim>-1</dim>
					<dim>128</dim>
				</port>
			</output>
		</layer>
		<layer id="154" name="__module.model.layers.0.self_attn/aten::mul/Multiply_3" type="Multiply" version="opset1">
			<data auto_broadcast="numpy" />
			<input>
				<port id="0" precision="FP32">
					<dim>-1</dim>
					<dim>4</dim>
					<dim>-1</dim>
					<dim>128</dim>
				</port>
				<port id="1" precision="FP32">
					<dim>-1</dim>
					<dim>1</dim>
					<dim>-1</dim>
					<dim>128</dim>
				</port>
			</input>
			<output>
				<port id="2" precision="FP32" names="413">
					<dim>-1</dim>
					<dim>4</dim>
					<dim>-1</dim>
					<dim>128</dim>
				</port>
			</output>
		</layer>
		<layer id="155" name="__module.model.layers.0.self_attn/aten::add/Add_1" type="Add" version="opset1">
			<data auto_broadcast="numpy" />
			<input>
				<port id="0" precision="FP32">
					<dim>-1</dim>
					<dim>4</dim>
					<dim>-1</dim>
					<dim>128</dim>
				</port>
				<port id="1" precision="FP32">
					<dim>-1</dim>
					<dim>4</dim>
					<dim>-1</dim>
					<dim>128</dim>
				</port>
			</input>
			<output>
				<port id="2" precision="FP32" names="414,key_states.7">
					<dim>-1</dim>
					<dim>4</dim>
					<dim>-1</dim>
					<dim>128</dim>
				</port>
			</output>
		</layer>
		<layer id="156" name="__module.model.layers.0.self_attn/aten::cat/Concat_2" type="Concat" version="opset1">
			<data axis="-2" />
			<input>
				<port id="0" precision="FP32">
					<dim>-1</dim>
					<dim>4</dim>
					<dim>-1</dim>
					<dim>128</dim>
				</port>
				<port id="1" precision="FP32">
					<dim>-1</dim>
					<dim>4</dim>
					<dim>-1</dim>
					<dim>128</dim>
				</port>
			</input>
			<output>
				<port id="2" precision="FP32" names="present.0.key">
					<dim>-1</dim>
					<dim>4</dim>
					<dim>-1</dim>
					<dim>128</dim>
				</port>
			</output>
		</layer>
		<layer id="157" name="208" type="Const" version="opset1">
			<data element_type="i64" shape="" offset="568947320" size="8" />
			<output>
				<port id="0" precision="I64" names="208" />
			</output>
		</layer>
		<layer id="158" name="__module.model.layers.0.self_attn/aten::unsqueeze/Unsqueeze_2" type="Unsqueeze" version="opset1">
			<input>
				<port id="0" precision="FP32">
					<dim>-1</dim>
					<dim>4</dim>
					<dim>-1</dim>
					<dim>128</dim>
				</port>
				<port id="1" precision="I64" />
			</input>
			<output>
				<port id="2" precision="FP32" names="429,430,431">
					<dim>-1</dim>
					<dim>4</dim>
					<dim>1</dim>
					<dim>-1</dim>
					<dim>128</dim>
				</port>
			</output>
		</layer>
		<layer id="159" name="Constant_232984" type="Const" version="opset1">
			<data element_type="i64" shape="1" offset="4" size="8" />
			<output>
				<port id="0" precision="I64">
					<dim>1</dim>
				</port>
			</output>
		</layer>
		<layer id="160" name="Constant_232985" type="Const" version="opset1">
			<data element_type="i64" shape="" offset="4" size="8" />
			<output>
				<port id="0" precision="I64" />
			</output>
		</layer>
		<layer id="161" name="Gather_232986" type="Gather" version="opset8">
			<data batch_dims="0" />
			<input>
				<port id="0" precision="I64">
					<dim>4</dim>
				</port>
				<port id="1" precision="I64">
					<dim>1</dim>
				</port>
				<port id="2" precision="I64" />
			</input>
			<output>
				<port id="3" precision="I64" names="422">
					<dim>1</dim>
				</port>
			</output>
		</layer>
		<layer id="162" name="__module.model.layers.0.self_attn/aten::size/ShapeOf_8" type="ShapeOf" version="opset3">
			<data output_type="i64" />
			<input>
				<port id="0" precision="FP32">
					<dim>-1</dim>
					<dim>4</dim>
					<dim>-1</dim>
					<dim>128</dim>
				</port>
			</input>
			<output>
				<port id="1" precision="I64">
					<dim>4</dim>
				</port>
			</output>
		</layer>
		<layer id="163" name="Constant_237949" type="Const" version="opset1">
			<data element_type="i64" shape="1" offset="568947312" size="8" />
			<output>
				<port id="0" precision="I64">
					<dim>1</dim>
				</port>
			</output>
		</layer>
		<layer id="164" name="__module.model.layers.0.self_attn/aten::size/Constant_9" type="Const" version="opset1">
			<data element_type="i32" shape="" offset="0" size="4" />
			<output>
				<port id="0" precision="I32" />
			</output>
		</layer>
		<layer id="165" name="__module.model.layers.0.self_attn/aten::size/Gather_9" type="Gather" version="opset8">
			<data batch_dims="0" />
			<input>
				<port id="0" precision="I64">
					<dim>4</dim>
				</port>
				<port id="1" precision="I64">
					<dim>1</dim>
				</port>
				<port id="2" precision="I32" />
			</input>
			<output>
				<port id="3" precision="I64" names="423">
					<dim>1</dim>
				</port>
			</output>
		</layer>
		<layer id="166" name="Constant_206913" type="Const" version="opset1">
			<data element_type="i64" shape="1" offset="587563188" size="8" />
			<output>
				<port id="0" precision="I64">
					<dim>1</dim>
				</port>
			</output>
		</layer>
		<layer id="167" name="Constant_215533" type="Const" version="opset1">
			<data element_type="i64" shape="2" offset="587563196" size="16" />
			<output>
				<port id="0" precision="I64">
					<dim>2</dim>
				</port>
			</output>
		</layer>
		<layer id="168" name="Constant_215534" type="Const" version="opset1">
			<data element_type="i64" shape="" offset="4" size="8" />
			<output>
				<port id="0" precision="I64" />
			</output>
		</layer>
		<layer id="169" name="Gather_215535" type="Gather" version="opset8">
			<data batch_dims="0" />
			<input>
				<port id="0" precision="I64">
					<dim>4</dim>
				</port>
				<port id="1" precision="I64">
					<dim>2</dim>
				</port>
				<port id="2" precision="I64" />
			</input>
			<output>
				<port id="3" precision="I64">
					<dim>2</dim>
				</port>
			</output>
		</layer>
		<layer id="170" name="__module.model.layers.0.self_attn/prim::ListConstruct/Concat_2" type="Concat" version="opset1">
			<data axis="0" />
			<input>
				<port id="0" precision="I64">
					<dim>1</dim>
				</port>
				<port id="1" precision="I64">
					<dim>1</dim>
				</port>
				<port id="2" precision="I64">
					<dim>1</dim>
				</port>
				<port id="3" precision="I64">
					<dim>2</dim>
				</port>
			</input>
			<output>
				<port id="4" precision="I64" names="432">
					<dim>5</dim>
				</port>
			</output>
		</layer>
		<layer id="171" name="__module.model.layers.0.self_attn/aten::expand/Broadcast" type="Broadcast" version="opset3">
			<data mode="bidirectional" />
			<input>
				<port id="0" precision="FP32">
					<dim>-1</dim>
					<dim>4</dim>
					<dim>1</dim>
					<dim>-1</dim>
					<dim>128</dim>
				</port>
				<port id="1" precision="I64">
					<dim>5</dim>
				</port>
			</input>
			<output>
				<port id="2" precision="FP32" names="433,hidden_states.11">
					<dim>-1</dim>
					<dim>4</dim>
					<dim>7</dim>
					<dim>-1</dim>
					<dim>128</dim>
				</port>
			</output>
		</layer>
		<layer id="172" name="Constant_237686" type="Const" version="opset1">
			<data element_type="i64" shape="4" offset="587563212" size="32" />
			<output>
				<port id="0" precision="I64">
					<dim>4</dim>
				</port>
			</output>
		</layer>
		<layer id="173" name="__module.model.layers.0.self_attn/aten::reshape/Reshape" type="Reshape" version="opset1">
			<data special_zero="true" />
			<input>
				<port id="0" precision="FP32">
					<dim>-1</dim>
					<dim>4</dim>
					<dim>7</dim>
					<dim>-1</dim>
					<dim>128</dim>
				</port>
				<port id="1" precision="I64">
					<dim>4</dim>
				</port>
			</input>
			<output>
				<port id="2" precision="FP32" names="437,key_states.9">
					<dim>-1</dim>
					<dim>28</dim>
					<dim>-1</dim>
					<dim>128</dim>
				</port>
			</output>
		</layer>
		<layer id="174" name="Constant_276543" type="Const" version="opset1">
			<data element_type="f32" shape="" offset="0" size="4" />
			<output>
				<port id="0" precision="FP32" />
			</output>
		</layer>
		<layer id="175" name="Constant_276536" type="Const" version="opset1">
			<data element_type="i64" shape="1" offset="12" size="8" />
			<output>
				<port id="0" precision="I64">
					<dim>1</dim>
				</port>
			</output>
		</layer>
		<layer id="176" name="Constant_276538" type="Const" version="opset1">
			<data element_type="i64" shape="1" offset="4" size="8" />
			<output>
				<port id="0" precision="I64">
					<dim>1</dim>
				</port>
			</output>
		</layer>
		<layer id="177" name="Constant_276540" type="Const" version="opset1">
			<data element_type="i64" shape="1" offset="20" size="8" />
			<output>
				<port id="0" precision="I64">
					<dim>1</dim>
				</port>
			</output>
		</layer>
		<layer id="178" name="Concat_276541" type="Concat" version="opset1">
			<data axis="0" />
			<input>
				<port id="0" precision="I64">
					<dim>1</dim>
				</port>
				<port id="1" precision="I64">
					<dim>1</dim>
				</port>
				<port id="2" precision="I64">
					<dim>1</dim>
				</port>
				<port id="3" precision="I64">
					<dim>1</dim>
				</port>
			</input>
			<output>
				<port id="4" precision="I64">
					<dim>4</dim>
				</port>
			</output>
		</layer>
		<layer id="179" name="Broadcast_276544" type="Broadcast" version="opset3">
			<data mode="numpy" />
			<input>
				<port id="0" precision="FP32" />
				<port id="1" precision="I64">
					<dim>4</dim>
				</port>
			</input>
			<output>
				<port id="2" precision="FP32">
					<dim>-1</dim>
					<dim>4</dim>
					<dim>0</dim>
					<dim>128</dim>
				</port>
			</output>
		</layer>
		<layer id="180" name="ReadValue_269958" type="ReadValue" version="opset6">
			<data variable_id="past_key_values.0.valuepresent.0.value" variable_type="f32" variable_shape="?,4,?,128" />
			<input>
				<port id="0" precision="FP32">
					<dim>-1</dim>
					<dim>4</dim>
					<dim>0</dim>
					<dim>128</dim>
				</port>
			</input>
			<output>
				<port id="1" precision="FP32" names="past_key_values.0.value">
					<dim>-1</dim>
					<dim>4</dim>
					<dim>-1</dim>
					<dim>128</dim>
				</port>
			</output>
		</layer>
		<layer id="181" name="Constant_263461" type="Const" version="opset1">
			<data element_type="i64" shape="" offset="4" size="8" />
			<output>
				<port id="0" precision="I64" />
			</output>
		</layer>
		<layer id="182" name="Gather_263462" type="Gather" version="opset8">
			<data batch_dims="0" />
			<input>
				<port id="0" precision="FP32">
					<dim>-1</dim>
					<dim>4</dim>
					<dim>-1</dim>
					<dim>128</dim>
				</port>
				<port id="1" precision="I32">
					<dim>-1</dim>
				</port>
				<port id="2" precision="I64" />
			</input>
			<output>
				<port id="3" precision="FP32">
					<dim>-1</dim>
					<dim>4</dim>
					<dim>-1</dim>
					<dim>128</dim>
				</port>
			</output>
		</layer>
		<layer id="183" name="self.model.layers.0.self_attn.v_proj.weight" type="Const" version="opset1">
			<data element_type="u8" shape="512, 3584" offset="587563244" size="1835008" />
			<output>
				<port id="0" precision="U8">
					<dim>512</dim>
					<dim>3584</dim>
				</port>
			</output>
		</layer>
		<layer id="184" name="Convert_285207" type="Convert" version="opset1">
			<data destination_type="f16" />
			<input>
				<port id="0" precision="U8">
					<dim>512</dim>
					<dim>3584</dim>
				</port>
			</input>
			<output>
				<port id="1" precision="FP16">
					<dim>512</dim>
					<dim>3584</dim>
				</port>
			</output>
		</layer>
		<layer id="185" name="self.model.layers.0.self_attn.v_proj.weight/zero_point" type="Const" version="opset1">
			<data element_type="u8" shape="512, 1" offset="589398252" size="512" />
			<output>
				<port id="0" precision="U8">
					<dim>512</dim>
					<dim>1</dim>
				</port>
			</output>
		</layer>
		<layer id="186" name="Convert_285210" type="Convert" version="opset1">
			<data destination_type="f16" />
			<input>
				<port id="0" precision="U8">
					<dim>512</dim>
					<dim>1</dim>
				</port>
			</input>
			<output>
				<port id="1" precision="FP16">
					<dim>512</dim>
					<dim>1</dim>
				</port>
			</output>
		</layer>
		<layer id="187" name="self.model.layers.0.self_attn.v_proj.weight/zero_point/subtract" type="Subtract" version="opset1">
			<data auto_broadcast="numpy" />
			<input>
				<port id="0" precision="FP16">
					<dim>512</dim>
					<dim>3584</dim>
				</port>
				<port id="1" precision="FP16">
					<dim>512</dim>
					<dim>1</dim>
				</port>
			</input>
			<output>
				<port id="2" precision="FP16">
					<dim>512</dim>
					<dim>3584</dim>
				</port>
			</output>
		</layer>
		<layer id="188" name="self.model.layers.0.self_attn.v_proj.weight/scale" type="Const" version="opset1">
			<data element_type="f16" shape="512, 1" offset="589398764" size="1024" />
			<output>
				<port id="0" precision="FP16">
					<dim>512</dim>
					<dim>1</dim>
				</port>
			</output>
		</layer>
		<layer id="189" name="self.model.layers.0.self_attn.v_proj.weight/fq_weights_1" type="Multiply" version="opset1">
			<data auto_broadcast="numpy" />
			<input>
				<port id="0" precision="FP16">
					<dim>512</dim>
					<dim>3584</dim>
				</port>
				<port id="1" precision="FP16">
					<dim>512</dim>
					<dim>1</dim>
				</port>
			</input>
			<output>
				<port id="2" precision="FP16">
					<dim>512</dim>
					<dim>3584</dim>
				</port>
			</output>
		</layer>
		<layer id="190" name="self.model.layers.0.self_attn.v_proj.weight/fq_weights_1/convert" type="Convert" version="opset1">
			<data destination_type="f32" />
			<input>
				<port id="0" precision="FP16">
					<dim>512</dim>
					<dim>3584</dim>
				</port>
			</input>
			<output>
				<port id="1" precision="FP32">
					<dim>512</dim>
					<dim>3584</dim>
				</port>
			</output>
		</layer>
		<layer id="191" name="__module.model.layers.0.self_attn.v_proj/aten::linear/MatMul" type="MatMul" version="opset1">
			<data transpose_a="false" transpose_b="true" />
			<input>
				<port id="0" precision="FP32">
					<dim>-1</dim>
					<dim>-1</dim>
					<dim>3584</dim>
				</port>
				<port id="1" precision="FP32">
					<dim>512</dim>
					<dim>3584</dim>
				</port>
			</input>
			<output>
				<port id="2" precision="FP32">
					<dim>-1</dim>
					<dim>-1</dim>
					<dim>512</dim>
				</port>
			</output>
		</layer>
		<layer id="192" name="Constant_226163" type="Const" version="opset1">
			<data element_type="f32" shape="1, 1, 512" offset="589399788" size="2048" />
			<output>
				<port id="0" precision="FP32">
					<dim>1</dim>
					<dim>1</dim>
					<dim>512</dim>
				</port>
			</output>
		</layer>
		<layer id="193" name="__module.model.layers.0.self_attn.v_proj/aten::linear/Add" type="Add" version="opset1">
			<data auto_broadcast="numpy" />
			<input>
				<port id="0" precision="FP32">
					<dim>-1</dim>
					<dim>-1</dim>
					<dim>512</dim>
				</port>
				<port id="1" precision="FP32">
					<dim>1</dim>
					<dim>1</dim>
					<dim>512</dim>
				</port>
			</input>
			<output>
				<port id="2" precision="FP32" names="351,value_states.1">
					<dim>-1</dim>
					<dim>-1</dim>
					<dim>512</dim>
				</port>
			</output>
		</layer>
		<layer id="194" name="Constant_237687" type="Const" version="opset1">
			<data element_type="i64" shape="4" offset="587563156" size="32" />
			<output>
				<port id="0" precision="I64">
					<dim>4</dim>
				</port>
			</output>
		</layer>
		<layer id="195" name="__module.model.layers.0.self_attn/aten::view/Reshape_2" type="Reshape" version="opset1">
			<data special_zero="true" />
			<input>
				<port id="0" precision="FP32">
					<dim>-1</dim>
					<dim>-1</dim>
					<dim>512</dim>
				</port>
				<port id="1" precision="I64">
					<dim>4</dim>
				</port>
			</input>
			<output>
				<port id="2" precision="FP32" names="359">
					<dim>-1</dim>
					<dim>-1</dim>
					<dim>4</dim>
					<dim>128</dim>
				</port>
			</output>
		</layer>
		<layer id="196" name="__module.model.layers.0.self_attn/aten::transpose/ScatterElementsUpdate_2" type="Const" version="opset1">
			<data element_type="i32" shape="4" offset="552170080" size="16" />
			<output>
				<port id="0" precision="I32">
					<dim>4</dim>
				</port>
			</output>
		</layer>
		<layer id="197" name="__module.model.layers.0.self_attn/aten::transpose/Transpose_2" type="Transpose" version="opset1">
			<input>
				<port id="0" precision="FP32">
					<dim>-1</dim>
					<dim>-1</dim>
					<dim>4</dim>
					<dim>128</dim>
				</port>
				<port id="1" precision="I32">
					<dim>4</dim>
				</port>
			</input>
			<output>
				<port id="2" precision="FP32" names="360">
					<dim>-1</dim>
					<dim>4</dim>
					<dim>-1</dim>
					<dim>128</dim>
				</port>
			</output>
		</layer>
		<layer id="198" name="__module.model.layers.0.self_attn/aten::cat/Concat_3" type="Concat" version="opset1">
			<data axis="-2" />
			<input>
				<port id="0" precision="FP32">
					<dim>-1</dim>
					<dim>4</dim>
					<dim>-1</dim>
					<dim>128</dim>
				</port>
				<port id="1" precision="FP32">
					<dim>-1</dim>
					<dim>4</dim>
					<dim>-1</dim>
					<dim>128</dim>
				</port>
			</input>
			<output>
				<port id="2" precision="FP32" names="present.0.value">
					<dim>-1</dim>
					<dim>4</dim>
					<dim>-1</dim>
					<dim>128</dim>
				</port>
			</output>
		</layer>
		<layer id="199" name="__module.model.layers.0.self_attn/aten::unsqueeze/Unsqueeze_3" type="Unsqueeze" version="opset1">
			<input>
				<port id="0" precision="FP32">
					<dim>-1</dim>
					<dim>4</dim>
					<dim>-1</dim>
					<dim>128</dim>
				</port>
				<port id="1" precision="I64" />
			</input>
			<output>
				<port id="2" precision="FP32" names="445,446,447">
					<dim>-1</dim>
					<dim>4</dim>
					<dim>1</dim>
					<dim>-1</dim>
					<dim>128</dim>
				</port>
			</output>
		</layer>
		<layer id="200" name="Constant_232938" type="Const" version="opset1">
			<data element_type="i64" shape="1" offset="4" size="8" />
			<output>
				<port id="0" precision="I64">
					<dim>1</dim>
				</port>
			</output>
		</layer>
		<layer id="201" name="Constant_232939" type="Const" version="opset1">
			<data element_type="i64" shape="" offset="4" size="8" />
			<output>
				<port id="0" precision="I64" />
			</output>
		</layer>
		<layer id="202" name="Gather_232940" type="Gather" version="opset8">
			<data batch_dims="0" />
			<input>
				<port id="0" precision="I64">
					<dim>3</dim>
				</port>
				<port id="1" precision="I64">
					<dim>1</dim>
				</port>
				<port id="2" precision="I64" />
			</input>
			<output>
				<port id="3" precision="I64" names="1150,1328,1506,1684,1862,2040,2218,2396,2574,2752,2930,294,3108,3286,3464,3642,3820,3998,4176,4354,438,4532,4710,4888,5066,5244,616,794,972">
					<dim>1</dim>
				</port>
			</output>
		</layer>
		<layer id="203" name="__module.model.layers.0.self_attn/aten::size/ShapeOf_12" type="ShapeOf" version="opset3">
			<data output_type="i64" />
			<input>
				<port id="0" precision="FP32">
					<dim>-1</dim>
					<dim>4</dim>
					<dim>-1</dim>
					<dim>128</dim>
				</port>
			</input>
			<output>
				<port id="1" precision="I64">
					<dim>4</dim>
				</port>
			</output>
		</layer>
		<layer id="204" name="Constant_237952" type="Const" version="opset1">
			<data element_type="i64" shape="1" offset="568947312" size="8" />
			<output>
				<port id="0" precision="I64">
					<dim>1</dim>
				</port>
			</output>
		</layer>
		<layer id="205" name="__module.model.layers.0.self_attn/aten::size/Constant_13" type="Const" version="opset1">
			<data element_type="i32" shape="" offset="0" size="4" />
			<output>
				<port id="0" precision="I32" />
			</output>
		</layer>
		<layer id="206" name="__module.model.layers.0.self_attn/aten::size/Gather_13" type="Gather" version="opset8">
			<data batch_dims="0" />
			<input>
				<port id="0" precision="I64">
					<dim>4</dim>
				</port>
				<port id="1" precision="I64">
					<dim>1</dim>
				</port>
				<port id="2" precision="I32" />
			</input>
			<output>
				<port id="3" precision="I64" names="439">
					<dim>1</dim>
				</port>
			</output>
		</layer>
		<layer id="207" name="Constant_206931" type="Const" version="opset1">
			<data element_type="i64" shape="1" offset="587563188" size="8" />
			<output>
				<port id="0" precision="I64">
					<dim>1</dim>
				</port>
			</output>
		</layer>
		<layer id="208" name="Constant_215543" type="Const" version="opset1">
			<data element_type="i64" shape="2" offset="587563196" size="16" />
			<output>
				<port id="0" precision="I64">
					<dim>2</dim>
				</port>
			</output>
		</layer>
		<layer id="209" name="Constant_215544" type="Const" version="opset1">
			<data element_type="i64" shape="" offset="4" size="8" />
			<output>
				<port id="0" precision="I64" />
			</output>
		</layer>
		<layer id="210" name="Gather_215545" type="Gather" version="opset8">
			<data batch_dims="0" />
			<input>
				<port id="0" precision="I64">
					<dim>4</dim>
				</port>
				<port id="1" precision="I64">
					<dim>2</dim>
				</port>
				<port id="2" precision="I64" />
			</input>
			<output>
				<port id="3" precision="I64">
					<dim>2</dim>
				</port>
			</output>
		</layer>
		<layer id="211" name="__module.model.layers.0.self_attn/prim::ListConstruct/Concat_5" type="Concat" version="opset1">
			<data axis="0" />
			<input>
				<port id="0" precision="I64">
					<dim>1</dim>
				</port>
				<port id="1" precision="I64">
					<dim>1</dim>
				</port>
				<port id="2" precision="I64">
					<dim>1</dim>
				</port>
				<port id="3" precision="I64">
					<dim>2</dim>
				</port>
			</input>
			<output>
				<port id="4" precision="I64" names="448">
					<dim>5</dim>
				</port>
			</output>
		</layer>
		<layer id="212" name="__module.model.layers.0.self_attn/aten::expand/Broadcast_1" type="Broadcast" version="opset3">
			<data mode="bidirectional" />
			<input>
				<port id="0" precision="FP32">
					<dim>-1</dim>
					<dim>4</dim>
					<dim>1</dim>
					<dim>-1</dim>
					<dim>128</dim>
				</port>
				<port id="1" precision="I64">
					<dim>5</dim>
				</port>
			</input>
			<output>
				<port id="2" precision="FP32" names="449,hidden_states.15">
					<dim>-1</dim>
					<dim>4</dim>
					<dim>7</dim>
					<dim>-1</dim>
					<dim>128</dim>
				</port>
			</output>
		</layer>
		<layer id="213" name="Constant_237688" type="Const" version="opset1">
			<data element_type="i64" shape="4" offset="587563212" size="32" />
			<output>
				<port id="0" precision="I64">
					<dim>4</dim>
				</port>
			</output>
		</layer>
		<layer id="214" name="__module.model.layers.0.self_attn/aten::reshape/Reshape_1" type="Reshape" version="opset1">
			<data special_zero="true" />
			<input>
				<port id="0" precision="FP32">
					<dim>-1</dim>
					<dim>4</dim>
					<dim>7</dim>
					<dim>-1</dim>
					<dim>128</dim>
				</port>
				<port id="1" precision="I64">
					<dim>4</dim>
				</port>
			</input>
			<output>
				<port id="2" precision="FP32" names="453">
					<dim>-1</dim>
					<dim>28</dim>
					<dim>-1</dim>
					<dim>128</dim>
				</port>
			</output>
		</layer>
		<layer id="215" name="__module.model/aten::triu/Constant" type="Const" version="opset1">
			<data element_type="i32" shape="" offset="0" size="4" />
			<output>
				<port id="0" precision="I32" />
			</output>
		</layer>
		<layer id="216" name="Multiply_221061" type="Const" version="opset1">
			<data element_type="f32" shape="" offset="589401836" size="4" />
			<output>
				<port id="0" precision="FP32" />
			</output>
		</layer>
		<layer id="217" name="Constant_221066" type="Const" version="opset1">
			<data element_type="i64" shape="2" offset="589401840" size="16" />
			<output>
				<port id="0" precision="I64">
					<dim>2</dim>
				</port>
			</output>
		</layer>
		<layer id="218" name="Constant_232914" type="Const" version="opset1">
			<data element_type="i64" shape="1" offset="568947312" size="8" />
			<output>
				<port id="0" precision="I64">
					<dim>1</dim>
				</port>
			</output>
		</layer>
		<layer id="219" name="Reshape_232915" type="Reshape" version="opset1">
			<data special_zero="false" />
			<input>
				<port id="0" precision="I64" />
				<port id="1" precision="I64">
					<dim>1</dim>
				</port>
			</input>
			<output>
				<port id="2" precision="I64">
					<dim>1</dim>
				</port>
			</output>
		</layer>
		<layer id="220" name="ShapeOf_232917" type="ShapeOf" version="opset3">
			<data output_type="i64" />
			<input>
				<port id="0" precision="I64">
					<dim>-1</dim>
					<dim>-1</dim>
				</port>
			</input>
			<output>
				<port id="1" precision="I64">
					<dim>2</dim>
				</port>
			</output>
		</layer>
		<layer id="221" name="Constant_232918" type="Const" version="opset1">
			<data element_type="i64" shape="" offset="568947312" size="8" />
			<output>
				<port id="0" precision="I64" />
			</output>
		</layer>
		<layer id="222" name="Constant_232919" type="Const" version="opset1">
			<data element_type="i64" shape="" offset="4" size="8" />
			<output>
				<port id="0" precision="I64" />
			</output>
		</layer>
		<layer id="223" name="Gather_232920" type="Gather" version="opset8">
			<data batch_dims="0" />
			<input>
				<port id="0" precision="I64">
					<dim>2</dim>
				</port>
				<port id="1" precision="I64" />
				<port id="2" precision="I64" />
			</input>
			<output>
				<port id="3" precision="I64" names="280,298" />
			</output>
		</layer>
		<layer id="224" name="Constant_232922" type="Const" version="opset1">
			<data element_type="i64" shape="1" offset="568947312" size="8" />
			<output>
				<port id="0" precision="I64">
					<dim>1</dim>
				</port>
			</output>
		</layer>
		<layer id="225" name="Reshape_232923" type="Reshape" version="opset1">
			<data special_zero="false" />
			<input>
				<port id="0" precision="I64" />
				<port id="1" precision="I64">
					<dim>1</dim>
				</port>
			</input>
			<output>
				<port id="2" precision="I64">
					<dim>1</dim>
				</port>
			</output>
		</layer>
		<layer id="226" name="__module.model/prim::ListConstruct/Concat" type="Concat" version="opset1">
			<data axis="0" />
			<input>
				<port id="0" precision="I64">
					<dim>1</dim>
				</port>
				<port id="1" precision="I64">
					<dim>1</dim>
				</port>
			</input>
			<output>
				<port id="2" precision="I64" names="281">
					<dim>2</dim>
				</port>
			</output>
		</layer>
		<layer id="227" name="Maximum_221067" type="Maximum" version="opset1">
			<data auto_broadcast="numpy" />
			<input>
				<port id="0" precision="I64">
					<dim>2</dim>
				</port>
				<port id="1" precision="I64">
					<dim>2</dim>
				</port>
			</input>
			<output>
				<port id="2" precision="I64">
					<dim>2</dim>
				</port>
			</output>
		</layer>
		<layer id="228" name="__module.model/aten::mul/Multiply" type="Broadcast" version="opset3">
			<data mode="numpy" />
			<input>
				<port id="0" precision="FP32" />
				<port id="1" precision="I64">
					<dim>2</dim>
				</port>
			</input>
			<output>
				<port id="2" precision="FP32" names="283">
					<dim>-1</dim>
					<dim>-1</dim>
				</port>
			</output>
		</layer>
		<layer id="229" name="ShapeOf_232925" type="ShapeOf" version="opset3">
			<data output_type="i32" />
			<input>
				<port id="0" precision="FP32">
					<dim>-1</dim>
					<dim>-1</dim>
				</port>
			</input>
			<output>
				<port id="1" precision="I32">
					<dim>2</dim>
				</port>
			</output>
		</layer>
		<layer id="230" name="Constant_232926" type="Const" version="opset1">
			<data element_type="i64" shape="" offset="568947312" size="8" />
			<output>
				<port id="0" precision="I64" />
			</output>
		</layer>
		<layer id="231" name="Constant_232927" type="Const" version="opset1">
			<data element_type="i64" shape="" offset="4" size="8" />
			<output>
				<port id="0" precision="I64" />
			</output>
		</layer>
		<layer id="232" name="Gather_232928" type="Gather" version="opset8">
			<data batch_dims="0" />
			<input>
				<port id="0" precision="I32">
					<dim>2</dim>
				</port>
				<port id="1" precision="I64" />
				<port id="2" precision="I64" />
			</input>
			<output>
				<port id="3" precision="I32" />
			</output>
		</layer>
		<layer id="233" name="__module.model/aten::triu/Constant_2" type="Const" version="opset1">
			<data element_type="i32" shape="" offset="589401856" size="4" />
			<output>
				<port id="0" precision="I32" />
			</output>
		</layer>
		<layer id="234" name="__module.model/aten::triu/Range" type="Range" version="opset4">
			<data output_type="i32" />
			<input>
				<port id="0" precision="I32" />
				<port id="1" precision="I32" />
				<port id="2" precision="I32" />
			</input>
			<output>
				<port id="3" precision="I32">
					<dim>-1</dim>
				</port>
			</output>
		</layer>
		<layer id="235" name="__module.model/aten::triu/Unsqueeze" type="Unsqueeze" version="opset1">
			<input>
				<port id="0" precision="I32">
					<dim>-1</dim>
				</port>
				<port id="1" precision="I32" />
			</input>
			<output>
				<port id="2" precision="I32">
					<dim>1</dim>
					<dim>-1</dim>
				</port>
			</output>
		</layer>
		<layer id="236" name="__module.model/aten::triu/Convert" type="Const" version="opset1">
			<data element_type="i32" shape="" offset="589401856" size="4" />
			<output>
				<port id="0" precision="I32" />
			</output>
		</layer>
		<layer id="237" name="Constant_232932" type="Const" version="opset1">
			<data element_type="i64" shape="" offset="4" size="8" />
			<output>
				<port id="0" precision="I64" />
			</output>
		</layer>
		<layer id="238" name="Constant_232933" type="Const" version="opset1">
			<data element_type="i64" shape="" offset="4" size="8" />
			<output>
				<port id="0" precision="I64" />
			</output>
		</layer>
		<layer id="239" name="Gather_232934" type="Gather" version="opset8">
			<data batch_dims="0" />
			<input>
				<port id="0" precision="I32">
					<dim>2</dim>
				</port>
				<port id="1" precision="I64" />
				<port id="2" precision="I64" />
			</input>
			<output>
				<port id="3" precision="I32" />
			</output>
		</layer>
		<layer id="240" name="__module.model/aten::triu/Add" type="Add" version="opset1">
			<data auto_broadcast="numpy" />
			<input>
				<port id="0" precision="I32" />
				<port id="1" precision="I32" />
			</input>
			<output>
				<port id="2" precision="I32" />
			</output>
		</layer>
		<layer id="241" name="__module.model/aten::triu/Range_1" type="Range" version="opset4">
			<data output_type="i32" />
			<input>
				<port id="0" precision="I32" />
				<port id="1" precision="I32" />
				<port id="2" precision="I32" />
			</input>
			<output>
				<port id="3" precision="I32">
					<dim>-1</dim>
				</port>
			</output>
		</layer>
		<layer id="242" name="__module.model/aten::triu/Unsqueeze_1" type="Unsqueeze" version="opset1">
			<input>
				<port id="0" precision="I32">
					<dim>-1</dim>
				</port>
				<port id="1" precision="I32" />
			</input>
			<output>
				<port id="2" precision="I32">
					<dim>-1</dim>
					<dim>1</dim>
				</port>
			</output>
		</layer>
		<layer id="243" name="__module.model/aten::triu/GreaterEqual" type="GreaterEqual" version="opset1">
			<data auto_broadcast="numpy" />
			<input>
				<port id="0" precision="I32">
					<dim>1</dim>
					<dim>-1</dim>
				</port>
				<port id="1" precision="I32">
					<dim>-1</dim>
					<dim>1</dim>
				</port>
			</input>
			<output>
				<port id="2" precision="BOOL">
					<dim>-1</dim>
					<dim>-1</dim>
				</port>
			</output>
		</layer>
		<layer id="244" name="__module.model/aten::triu/ConvertLike" type="Const" version="opset1">
			<data element_type="f32" shape="" offset="0" size="4" />
			<output>
				<port id="0" precision="FP32" />
			</output>
		</layer>
		<layer id="245" name="__module.model/aten::triu/Select" type="Select" version="opset1">
			<data auto_broadcast="numpy" />
			<input>
				<port id="0" precision="BOOL">
					<dim>-1</dim>
					<dim>-1</dim>
				</port>
				<port id="1" precision="FP32">
					<dim>-1</dim>
					<dim>-1</dim>
				</port>
				<port id="2" precision="FP32" />
			</input>
			<output>
				<port id="3" precision="FP32" names="284_1">
					<dim>-1</dim>
					<dim>-1</dim>
				</port>
			</output>
		</layer>
		<layer id="246" name="__module.model/aten::arange/Constant" type="Const" version="opset1">
			<data element_type="i32" shape="" offset="0" size="4" />
			<output>
				<port id="0" precision="I32" />
			</output>
		</layer>
		<layer id="247" name="__module.model/aten::arange/Constant_1" type="Const" version="opset1">
			<data element_type="i32" shape="" offset="589401856" size="4" />
			<output>
				<port id="0" precision="I32" />
			</output>
		</layer>
		<layer id="248" name="__module.model/aten::arange/Range" type="Range" version="opset4">
			<data output_type="f32" />
			<input>
				<port id="0" precision="I32" />
				<port id="1" precision="I64" />
				<port id="2" precision="I32" />
			</input>
			<output>
				<port id="3" precision="FP32">
					<dim>-1</dim>
				</port>
			</output>
		</layer>
		<layer id="249" name="__module.model/aten::arange/ConvertLike" type="Convert" version="opset1">
			<data destination_type="i64" />
			<input>
				<port id="0" precision="FP32">
					<dim>-1</dim>
				</port>
			</input>
			<output>
				<port id="1" precision="I64" names="285">
					<dim>-1</dim>
				</port>
			</output>
		</layer>
		<layer id="250" name="__module.model/aten::gt/Convert" type="Convert" version="opset1">
			<data destination_type="f32" />
			<input>
				<port id="0" precision="I64">
					<dim>-1</dim>
				</port>
			</input>
			<output>
				<port id="1" precision="FP32">
					<dim>-1</dim>
				</port>
			</output>
		</layer>
		<layer id="251" name="__module.model/aten::add/Add" type="Add" version="opset1">
			<data auto_broadcast="numpy" />
			<input>
				<port id="0" precision="I64" />
				<port id="1" precision="I64" />
			</input>
			<output>
				<port id="2" precision="I64" names="276" />
			</output>
		</layer>
		<layer id="252" name="__module.model/aten::arange/Constant_2" type="Const" version="opset1">
			<data element_type="i32" shape="" offset="589401856" size="4" />
			<output>
				<port id="0" precision="I32" />
			</output>
		</layer>
		<layer id="253" name="__module.model/aten::arange/Range_1" type="Range" version="opset4">
			<data output_type="f32" />
			<input>
				<port id="0" precision="I64" />
				<port id="1" precision="I64" />
				<port id="2" precision="I32" />
			</input>
			<output>
				<port id="3" precision="FP32" names="278,cache_position">
					<dim>-1</dim>
				</port>
			</output>
		</layer>
		<layer id="254" name="Constant_196" type="Const" version="opset1">
			<data element_type="i64" shape="2" offset="589401860" size="16" />
			<output>
				<port id="0" precision="I64" names="286">
					<dim>2</dim>
				</port>
			</output>
		</layer>
		<layer id="255" name="__module.model/aten::reshape/Reshape" type="Reshape" version="opset1">
			<data special_zero="false" />
			<input>
				<port id="0" precision="FP32">
					<dim>-1</dim>
				</port>
				<port id="1" precision="I64">
					<dim>2</dim>
				</port>
			</input>
			<output>
				<port id="2" precision="FP32" names="287">
					<dim>-1</dim>
					<dim>1</dim>
				</port>
			</output>
		</layer>
		<layer id="256" name="__module.model/aten::gt/Greater" type="Greater" version="opset1">
			<data auto_broadcast="numpy" />
			<input>
				<port id="0" precision="FP32">
					<dim>-1</dim>
				</port>
				<port id="1" precision="FP32">
					<dim>-1</dim>
					<dim>1</dim>
				</port>
			</input>
			<output>
				<port id="2" precision="BOOL" names="288">
					<dim>-1</dim>
					<dim>-1</dim>
				</port>
			</output>
		</layer>
		<layer id="257" name="__module.model/aten::mul_/ConvertLike" type="Convert" version="opset1">
			<data destination_type="f32" />
			<input>
				<port id="0" precision="BOOL">
					<dim>-1</dim>
					<dim>-1</dim>
				</port>
			</input>
			<output>
				<port id="1" precision="FP32">
					<dim>-1</dim>
					<dim>-1</dim>
				</port>
			</output>
		</layer>
		<layer id="258" name="__module.model/aten::mul_/Multiply" type="Multiply" version="opset1">
			<data auto_broadcast="numpy" />
			<input>
				<port id="0" precision="FP32">
					<dim>-1</dim>
					<dim>-1</dim>
				</port>
				<port id="1" precision="FP32">
					<dim>-1</dim>
					<dim>-1</dim>
				</port>
			</input>
			<output>
				<port id="2" precision="FP32" names="284,causal_mask.1">
					<dim>-1</dim>
					<dim>-1</dim>
				</port>
			</output>
		</layer>
		<layer id="259" name="199" type="Const" version="opset1">
			<data element_type="i64" shape="" offset="4" size="8" />
			<output>
				<port id="0" precision="I64" names="199" />
			</output>
		</layer>
		<layer id="260" name="__module.model/aten::unsqueeze/Unsqueeze" type="Unsqueeze" version="opset1">
			<input>
				<port id="0" precision="FP32">
					<dim>-1</dim>
					<dim>-1</dim>
				</port>
				<port id="1" precision="I64" />
			</input>
			<output>
				<port id="2" precision="FP32" names="290">
					<dim>1</dim>
					<dim>-1</dim>
					<dim>-1</dim>
				</port>
			</output>
		</layer>
		<layer id="261" name="__module.model/aten::unsqueeze/Unsqueeze_1" type="Unsqueeze" version="opset1">
			<input>
				<port id="0" precision="FP32">
					<dim>1</dim>
					<dim>-1</dim>
					<dim>-1</dim>
				</port>
				<port id="1" precision="I64" />
			</input>
			<output>
				<port id="2" precision="FP32" names="291,292,293">
					<dim>1</dim>
					<dim>1</dim>
					<dim>-1</dim>
					<dim>-1</dim>
				</port>
			</output>
		</layer>
		<layer id="262" name="Constant_206948" type="Const" version="opset1">
			<data element_type="i64" shape="1" offset="568947312" size="8" />
			<output>
				<port id="0" precision="I64">
					<dim>1</dim>
				</port>
			</output>
		</layer>
		<layer id="263" name="Constant_206950" type="Const" version="opset1">
			<data element_type="i64" shape="1" offset="568947312" size="8" />
			<output>
				<port id="0" precision="I64">
					<dim>1</dim>
				</port>
			</output>
		</layer>
		<layer id="264" name="Constant_206952" type="Const" version="opset1">
			<data element_type="i64" shape="1" offset="568947312" size="8" />
			<output>
				<port id="0" precision="I64">
					<dim>1</dim>
				</port>
			</output>
		</layer>
		<layer id="265" name="__module.model/prim::ListConstruct/Concat_1" type="Concat" version="opset1">
			<data axis="0" />
			<input>
				<port id="0" precision="I64">
					<dim>1</dim>
				</port>
				<port id="1" precision="I64">
					<dim>1</dim>
				</port>
				<port id="2" precision="I64">
					<dim>1</dim>
				</port>
				<port id="3" precision="I64">
					<dim>1</dim>
				</port>
			</input>
			<output>
				<port id="4" precision="I64" names="295">
					<dim>4</dim>
				</port>
			</output>
		</layer>
		<layer id="266" name="__module.model/aten::expand/Broadcast" type="Broadcast" version="opset3">
			<data mode="bidirectional" />
			<input>
				<port id="0" precision="FP32">
					<dim>1</dim>
					<dim>1</dim>
					<dim>-1</dim>
					<dim>-1</dim>
				</port>
				<port id="1" precision="I64">
					<dim>4</dim>
				</port>
			</input>
			<output>
				<port id="2" precision="FP32" names="296,299,300,301,309,310,311,314_1,315_1,316_1,causal_mask.5">
					<dim>-1</dim>
					<dim>1</dim>
					<dim>-1</dim>
					<dim>-1</dim>
				</port>
			</output>
		</layer>
		<layer id="267" name="Constant_172288" type="Const" version="opset1">
			<data element_type="i64" shape="1" offset="545482276" size="8" />
			<output>
				<port id="0" precision="I64">
					<dim>1</dim>
				</port>
			</output>
		</layer>
		<layer id="268" name="SliceAssign_340/Reshape_3" type="Reshape" version="opset1">
			<data special_zero="false" />
			<input>
				<port id="0" precision="FP32">
					<dim>-1</dim>
					<dim>1</dim>
					<dim>-1</dim>
					<dim>-1</dim>
				</port>
				<port id="1" precision="I64">
					<dim>1</dim>
				</port>
			</input>
			<output>
				<port id="2" precision="FP32">
					<dim>-1</dim>
				</port>
			</output>
		</layer>
		<layer id="269" name="Constant_106072" type="Const" version="opset1">
			<data element_type="i64" shape="" offset="4" size="8" />
			<output>
				<port id="0" precision="I64" />
			</output>
		</layer>
		<layer id="270" name="SliceAssign_340/ShapeOf" type="ShapeOf" version="opset3">
			<data output_type="i64" />
			<input>
				<port id="0" precision="FP32">
					<dim>-1</dim>
					<dim>1</dim>
					<dim>-1</dim>
					<dim>-1</dim>
				</port>
			</input>
			<output>
				<port id="1" precision="I64">
					<dim>4</dim>
				</port>
			</output>
		</layer>
		<layer id="271" name="SliceAssign_340/ReduceProd" type="ReduceProd" version="opset1">
			<data keep_dims="false" />
			<input>
				<port id="0" precision="I64">
					<dim>4</dim>
				</port>
				<port id="1" precision="I64" />
			</input>
			<output>
				<port id="2" precision="I64" />
			</output>
		</layer>
		<layer id="272" name="Constant_106073" type="Const" version="opset1">
			<data element_type="i64" shape="" offset="568947312" size="8" />
			<output>
				<port id="0" precision="I64" />
			</output>
		</layer>
		<layer id="273" name="SliceAssign_340/Range" type="Range" version="opset4">
			<data output_type="i64" />
			<input>
				<port id="0" precision="I64" />
				<port id="1" precision="I64" />
				<port id="2" precision="I64" />
			</input>
			<output>
				<port id="3" precision="I64">
					<dim>-1</dim>
				</port>
			</output>
		</layer>
		<layer id="274" name="SliceAssign_340/Reshape" type="Reshape" version="opset1">
			<data special_zero="false" />
			<input>
				<port id="0" precision="I64">
					<dim>-1</dim>
				</port>
				<port id="1" precision="I64">
					<dim>4</dim>
				</port>
			</input>
			<output>
				<port id="2" precision="I64">
					<dim>-1</dim>
					<dim>1</dim>
					<dim>-1</dim>
					<dim>-1</dim>
				</port>
			</output>
		</layer>
		<layer id="275" name="__module.model/aten::slice/Reshape_20" type="Const" version="opset1">
			<data element_type="i64" shape="1" offset="4" size="8" />
			<output>
				<port id="0" precision="I64">
					<dim>1</dim>
				</port>
			</output>
		</layer>
		<layer id="276" name="__module.model/aten::slice/Reshape_22" type="Const" version="opset1">
			<data element_type="i64" shape="1" offset="568947312" size="8" />
			<output>
				<port id="0" precision="I64">
					<dim>1</dim>
				</port>
			</output>
		</layer>
		<layer id="277" name="__module.model/aten::slice/Reshape_23" type="Const" version="opset1">
			<data element_type="i64" shape="1" offset="568947328" size="8" />
			<output>
				<port id="0" precision="I64">
					<dim>1</dim>
				</port>
			</output>
		</layer>
		<layer id="278" name="SliceAssign_340/Slice_2" type="Slice" version="opset8">
			<input>
				<port id="0" precision="I64">
					<dim>-1</dim>
					<dim>1</dim>
					<dim>-1</dim>
					<dim>-1</dim>
				</port>
				<port id="1" precision="I64">
					<dim>1</dim>
				</port>
				<port id="2" precision="I64">
					<dim>1</dim>
				</port>
				<port id="3" precision="I64">
					<dim>1</dim>
				</port>
				<port id="4" precision="I64">
					<dim>1</dim>
				</port>
			</input>
			<output>
				<port id="5" precision="I64">
					<dim>-1</dim>
					<dim>1</dim>
					<dim>-1</dim>
					<dim>-1</dim>
				</port>
			</output>
		</layer>
		<layer id="279" name="Constant_106075" type="Const" version="opset1">
			<data element_type="i64" shape="2" offset="589401860" size="16" />
			<output>
				<port id="0" precision="I64">
					<dim>2</dim>
				</port>
			</output>
		</layer>
		<layer id="280" name="SliceAssign_340/Reshape_4" type="Reshape" version="opset1">
			<data special_zero="false" />
			<input>
				<port id="0" precision="I64">
					<dim>-1</dim>
					<dim>1</dim>
					<dim>-1</dim>
					<dim>-1</dim>
				</port>
				<port id="1" precision="I64">
					<dim>2</dim>
				</port>
			</input>
			<output>
				<port id="2" precision="I64">
					<dim>-1</dim>
					<dim>1</dim>
				</port>
			</output>
		</layer>
		<layer id="281" name="__module.model/aten::slice/Reshape_36" type="Const" version="opset1">
			<data element_type="i64" shape="1" offset="4" size="8" />
			<output>
				<port id="0" precision="I64">
					<dim>1</dim>
				</port>
			</output>
		</layer>
		<layer id="282" name="__module.model/aten::slice/Reshape_38" type="Const" version="opset1">
			<data element_type="i64" shape="1" offset="568947312" size="8" />
			<output>
				<port id="0" precision="I64">
					<dim>1</dim>
				</port>
			</output>
		</layer>
		<layer id="283" name="__module.model/aten::slice/Reshape_39" type="Const" version="opset1">
			<data element_type="i64" shape="1" offset="568947328" size="8" />
			<output>
				<port id="0" precision="I64">
					<dim>1</dim>
				</port>
			</output>
		</layer>
		<layer id="284" name="__module.model/aten::slice/Slice_5" type="Slice" version="opset8">
			<input>
				<port id="0" precision="FP32">
					<dim>-1</dim>
					<dim>1</dim>
					<dim>-1</dim>
					<dim>-1</dim>
				</port>
				<port id="1" precision="I64">
					<dim>1</dim>
				</port>
				<port id="2" precision="I64">
					<dim>1</dim>
				</port>
				<port id="3" precision="I64">
					<dim>1</dim>
				</port>
				<port id="4" precision="I64">
					<dim>1</dim>
				</port>
			</input>
			<output>
				<port id="5" precision="FP32" names="302,312,317_1">
					<dim>-1</dim>
					<dim>1</dim>
					<dim>-1</dim>
					<dim>-1</dim>
				</port>
			</output>
		</layer>
		<layer id="285" name="__module.model/aten::unsqueeze/Unsqueeze_2" type="Unsqueeze" version="opset1">
			<input>
				<port id="0" precision="I64">
					<dim>-1</dim>
					<dim>-1</dim>
				</port>
				<port id="1" precision="I64" />
			</input>
			<output>
				<port id="2" precision="I64" names="304">
					<dim>-1</dim>
					<dim>1</dim>
					<dim>-1</dim>
				</port>
			</output>
		</layer>
		<layer id="286" name="__module.model/aten::unsqueeze/Unsqueeze_3" type="Unsqueeze" version="opset1">
			<input>
				<port id="0" precision="I64">
					<dim>-1</dim>
					<dim>1</dim>
					<dim>-1</dim>
				</port>
				<port id="1" precision="I64" />
			</input>
			<output>
				<port id="2" precision="I64" names="305,306">
					<dim>-1</dim>
					<dim>1</dim>
					<dim>1</dim>
					<dim>-1</dim>
				</port>
			</output>
		</layer>
		<layer id="287" name="__module.model/aten::add/Convert" type="Convert" version="opset1">
			<data destination_type="f32" />
			<input>
				<port id="0" precision="I64">
					<dim>-1</dim>
					<dim>1</dim>
					<dim>1</dim>
					<dim>-1</dim>
				</port>
			</input>
			<output>
				<port id="1" precision="FP32">
					<dim>-1</dim>
					<dim>1</dim>
					<dim>1</dim>
					<dim>-1</dim>
				</port>
			</output>
		</layer>
		<layer id="288" name="__module.model/aten::add/Add_1" type="Add" version="opset1">
			<data auto_broadcast="numpy" />
			<input>
				<port id="0" precision="FP32">
					<dim>-1</dim>
					<dim>1</dim>
					<dim>-1</dim>
					<dim>-1</dim>
				</port>
				<port id="1" precision="FP32">
					<dim>-1</dim>
					<dim>1</dim>
					<dim>1</dim>
					<dim>-1</dim>
				</port>
			</input>
			<output>
				<port id="2" precision="FP32" names="307,padding_mask.1">
					<dim>-1</dim>
					<dim>1</dim>
					<dim>-1</dim>
					<dim>-1</dim>
				</port>
			</output>
		</layer>
		<layer id="289" name="Constant_226164" type="Const" version="opset1">
			<data element_type="f32" shape="1, 1, 1, 1" offset="0" size="4" />
			<output>
				<port id="0" precision="FP32">
					<dim>1</dim>
					<dim>1</dim>
					<dim>1</dim>
					<dim>1</dim>
				</port>
			</output>
		</layer>
		<layer id="290" name="__module.model/aten::eq/Equal" type="Equal" version="opset1">
			<data auto_broadcast="numpy" />
			<input>
				<port id="0" precision="FP32">
					<dim>-1</dim>
					<dim>1</dim>
					<dim>-1</dim>
					<dim>-1</dim>
				</port>
				<port id="1" precision="FP32">
					<dim>1</dim>
					<dim>1</dim>
					<dim>1</dim>
					<dim>1</dim>
				</port>
			</input>
			<output>
				<port id="2" precision="BOOL" names="308,padding_mask">
					<dim>-1</dim>
					<dim>1</dim>
					<dim>-1</dim>
					<dim>-1</dim>
				</port>
			</output>
		</layer>
		<layer id="291" name="__module.model/aten::masked_fill/ConvertLike" type="Const" version="opset1">
			<data element_type="f32" shape="" offset="589401836" size="4" />
			<output>
				<port id="0" precision="FP32" />
			</output>
		</layer>
		<layer id="292" name="__module.model/aten::masked_fill/Select" type="Select" version="opset1">
			<data auto_broadcast="numpy" />
			<input>
				<port id="0" precision="BOOL">
					<dim>-1</dim>
					<dim>1</dim>
					<dim>-1</dim>
					<dim>-1</dim>
				</port>
				<port id="1" precision="FP32" />
				<port id="2" precision="FP32">
					<dim>-1</dim>
					<dim>1</dim>
					<dim>-1</dim>
					<dim>-1</dim>
				</port>
			</input>
			<output>
				<port id="3" precision="FP32" names="313">
					<dim>-1</dim>
					<dim>1</dim>
					<dim>-1</dim>
					<dim>-1</dim>
				</port>
			</output>
		</layer>
		<layer id="293" name="__module.model/aten::copy_/ShapeOf" type="ShapeOf" version="opset3">
			<data output_type="i64" />
			<input>
				<port id="0" precision="FP32">
					<dim>-1</dim>
					<dim>1</dim>
					<dim>-1</dim>
					<dim>-1</dim>
				</port>
			</input>
			<output>
				<port id="1" precision="I64">
					<dim>4</dim>
				</port>
			</output>
		</layer>
		<layer id="294" name="__module.model/aten::copy_/Broadcast" type="Broadcast" version="opset3">
			<data mode="numpy" />
			<input>
				<port id="0" precision="FP32">
					<dim>-1</dim>
					<dim>1</dim>
					<dim>-1</dim>
					<dim>-1</dim>
				</port>
				<port id="1" precision="I64">
					<dim>4</dim>
				</port>
			</input>
			<output>
				<port id="2" precision="FP32" names="317">
					<dim>-1</dim>
					<dim>1</dim>
					<dim>-1</dim>
					<dim>-1</dim>
				</port>
			</output>
		</layer>
		<layer id="295" name="Constant_172289" type="Const" version="opset1">
			<data element_type="i64" shape="1" offset="545482276" size="8" />
			<output>
				<port id="0" precision="I64">
					<dim>1</dim>
				</port>
			</output>
		</layer>
		<layer id="296" name="SliceAssign_340/Reshape_5" type="Reshape" version="opset1">
			<data special_zero="false" />
			<input>
				<port id="0" precision="FP32">
					<dim>-1</dim>
					<dim>1</dim>
					<dim>-1</dim>
					<dim>-1</dim>
				</port>
				<port id="1" precision="I64">
					<dim>1</dim>
				</port>
			</input>
			<output>
				<port id="2" precision="FP32">
					<dim>-1</dim>
				</port>
			</output>
		</layer>
		<layer id="297" name="SliceAssign_340/ScatterNDUpdate" type="ScatterNDUpdate" version="opset4">
			<input>
				<port id="0" precision="FP32">
					<dim>-1</dim>
				</port>
				<port id="1" precision="I64">
					<dim>-1</dim>
					<dim>1</dim>
				</port>
				<port id="2" precision="FP32">
					<dim>-1</dim>
				</port>
			</input>
			<output>
				<port id="3" precision="FP32">
					<dim>-1</dim>
				</port>
			</output>
		</layer>
		<layer id="298" name="SliceAssign_340/Reshape_6" type="Reshape" version="opset1">
			<data special_zero="false" />
			<input>
				<port id="0" precision="FP32">
					<dim>-1</dim>
				</port>
				<port id="1" precision="I64">
					<dim>4</dim>
				</port>
			</input>
			<output>
				<port id="2" precision="FP32" names="1167,1168,1169,1345,1346,1347,1523,1524,1525,1701,1702,1703,1879,1880,1881,2057,2058,2059,2235,2236,2237,2413,2414,2415,2591,2592,2593,2769,2770,2771,2947,2948,2949,297,3125,3126,3127,3303,3304,3305,3481,3482,3483,3659,3660,3661,3837,3838,3839,4015,4016,4017,4193,4194,4195,4371,4372,4373,4549,455,4550,4551,456,457,4727,4728,4729,4905,4906,4907,5083,5084,5085,5261,5262,5263,633,634,635,811,812,813,989,990,991">
					<dim>-1</dim>
					<dim>1</dim>
					<dim>-1</dim>
					<dim>-1</dim>
				</port>
			</output>
		</layer>
		<layer id="299" name="__module.model.layers.0.self_attn/aten::slice/Reshape_60" type="Const" version="opset1">
			<data element_type="i64" shape="1" offset="4" size="8" />
			<output>
				<port id="0" precision="I64">
					<dim>1</dim>
				</port>
			</output>
		</layer>
		<layer id="300" name="Constant_232994" type="Const" version="opset1">
			<data element_type="i64" shape="1" offset="568947312" size="8" />
			<output>
				<port id="0" precision="I64">
					<dim>1</dim>
				</port>
			</output>
		</layer>
		<layer id="301" name="Reshape_232995" type="Reshape" version="opset1">
			<data special_zero="false" />
			<input>
				<port id="0" precision="I64" />
				<port id="1" precision="I64">
					<dim>1</dim>
				</port>
			</input>
			<output>
				<port id="2" precision="I64">
					<dim>1</dim>
				</port>
			</output>
		</layer>
		<layer id="302" name="ShapeOf_232996" type="ShapeOf" version="opset3">
			<data output_type="i64" />
			<input>
				<port id="0" precision="FP32">
					<dim>-1</dim>
					<dim>4</dim>
					<dim>-1</dim>
					<dim>128</dim>
				</port>
			</input>
			<output>
				<port id="1" precision="I64">
					<dim>4</dim>
				</port>
			</output>
		</layer>
		<layer id="303" name="Constant_232997" type="Const" version="opset1">
			<data element_type="i64" shape="1" offset="568947320" size="8" />
			<output>
				<port id="0" precision="I64">
					<dim>1</dim>
				</port>
			</output>
		</layer>
		<layer id="304" name="Constant_232998" type="Const" version="opset1">
			<data element_type="i64" shape="" offset="4" size="8" />
			<output>
				<port id="0" precision="I64" />
			</output>
		</layer>
		<layer id="305" name="Gather_232999" type="Gather" version="opset8">
			<data batch_dims="0" />
			<input>
				<port id="0" precision="I64">
					<dim>4</dim>
				</port>
				<port id="1" precision="I64">
					<dim>1</dim>
				</port>
				<port id="2" precision="I64" />
			</input>
			<output>
				<port id="3" precision="I64">
					<dim>1</dim>
				</port>
			</output>
		</layer>
		<layer id="306" name="Add_233000" type="Add" version="opset1">
			<data auto_broadcast="numpy" />
			<input>
				<port id="0" precision="I64">
					<dim>1</dim>
				</port>
				<port id="1" precision="I64">
					<dim>1</dim>
				</port>
			</input>
			<output>
				<port id="2" precision="I64" names="454">
					<dim>1</dim>
				</port>
			</output>
		</layer>
		<layer id="307" name="__module.model.layers.0.self_attn/aten::slice/Reshape_62" type="Const" version="opset1">
			<data element_type="i64" shape="1" offset="568947312" size="8" />
			<output>
				<port id="0" precision="I64">
					<dim>1</dim>
				</port>
			</output>
		</layer>
		<layer id="308" name="__module.model.layers.0.self_attn/aten::slice/Reshape_63" type="Const" version="opset1">
			<data element_type="i64" shape="1" offset="568947328" size="8" />
			<output>
				<port id="0" precision="I64">
					<dim>1</dim>
				</port>
			</output>
		</layer>
		<layer id="309" name="__module.model.layers.0.self_attn/aten::slice/Slice_15" type="Slice" version="opset8">
			<input>
				<port id="0" precision="FP32">
					<dim>-1</dim>
					<dim>1</dim>
					<dim>-1</dim>
					<dim>-1</dim>
				</port>
				<port id="1" precision="I64">
					<dim>1</dim>
				</port>
				<port id="2" precision="I64">
					<dim>1</dim>
				</port>
				<port id="3" precision="I64">
					<dim>1</dim>
				</port>
				<port id="4" precision="I64">
					<dim>1</dim>
				</port>
			</input>
			<output>
				<port id="5" precision="FP32" names="458">
					<dim>-1</dim>
					<dim>1</dim>
					<dim>-1</dim>
					<dim>-1</dim>
				</port>
			</output>
		</layer>
		<layer id="310" name="__module.model.layers.0.self_attn/aten::scaled_dot_product_attention/ScaledDotProductAttention" type="ScaledDotProductAttention" version="opset13">
			<data causal="false" />
			<input>
				<port id="0" precision="FP32">
					<dim>-1</dim>
					<dim>28</dim>
					<dim>-1</dim>
					<dim>128</dim>
				</port>
				<port id="1" precision="FP32">
					<dim>-1</dim>
					<dim>28</dim>
					<dim>-1</dim>
					<dim>128</dim>
				</port>
				<port id="2" precision="FP32">
					<dim>-1</dim>
					<dim>28</dim>
					<dim>-1</dim>
					<dim>128</dim>
				</port>
				<port id="3" precision="FP32">
					<dim>-1</dim>
					<dim>1</dim>
					<dim>-1</dim>
					<dim>-1</dim>
				</port>
			</input>
			<output>
				<port id="4" precision="FP32" names="459,attn_output.1">
					<dim>-1</dim>
					<dim>28</dim>
					<dim>-1</dim>
					<dim>128</dim>
				</port>
			</output>
		</layer>
		<layer id="311" name="__module.model.layers.0.self_attn/aten::transpose/ScatterElementsUpdate_3" type="Const" version="opset1">
			<data element_type="i32" shape="4" offset="552170080" size="16" />
			<output>
				<port id="0" precision="I32">
					<dim>4</dim>
				</port>
			</output>
		</layer>
		<layer id="312" name="__module.model.layers.0.self_attn/aten::transpose/Transpose_3" type="Transpose" version="opset1">
			<input>
				<port id="0" precision="FP32">
					<dim>-1</dim>
					<dim>28</dim>
					<dim>-1</dim>
					<dim>128</dim>
				</port>
				<port id="1" precision="I32">
					<dim>4</dim>
				</port>
			</input>
			<output>
				<port id="2" precision="FP32" names="460">
					<dim>-1</dim>
					<dim>-1</dim>
					<dim>28</dim>
					<dim>128</dim>
				</port>
			</output>
		</layer>
		<layer id="313" name="Constant_237689" type="Const" version="opset1">
			<data element_type="i64" shape="3" offset="589401876" size="24" />
			<output>
				<port id="0" precision="I64">
					<dim>3</dim>
				</port>
			</output>
		</layer>
		<layer id="314" name="__module.model.layers.0.self_attn/aten::view/Reshape_3" type="Reshape" version="opset1">
			<data special_zero="true" />
			<input>
				<port id="0" precision="FP32">
					<dim>-1</dim>
					<dim>-1</dim>
					<dim>28</dim>
					<dim>128</dim>
				</port>
				<port id="1" precision="I64">
					<dim>3</dim>
				</port>
			</input>
			<output>
				<port id="2" precision="FP32" names="463">
					<dim>-1</dim>
					<dim>-1</dim>
					<dim>3584</dim>
				</port>
			</output>
		</layer>
		<layer id="315" name="self.model.layers.0.self_attn.o_proj.weight" type="Const" version="opset1">
			<data element_type="u8" shape="3584, 3584" offset="589401900" size="12845056" />
			<output>
				<port id="0" precision="U8">
					<dim>3584</dim>
					<dim>3584</dim>
				</port>
			</output>
		</layer>
		<layer id="316" name="Convert_284591" type="Convert" version="opset1">
			<data destination_type="f16" />
			<input>
				<port id="0" precision="U8">
					<dim>3584</dim>
					<dim>3584</dim>
				</port>
			</input>
			<output>
				<port id="1" precision="FP16">
					<dim>3584</dim>
					<dim>3584</dim>
				</port>
			</output>
		</layer>
		<layer id="317" name="self.model.layers.0.self_attn.o_proj.weight/zero_point" type="Const" version="opset1">
			<data element_type="u8" shape="3584, 1" offset="602246956" size="3584" />
			<output>
				<port id="0" precision="U8">
					<dim>3584</dim>
					<dim>1</dim>
				</port>
			</output>
		</layer>
		<layer id="318" name="Convert_284594" type="Convert" version="opset1">
			<data destination_type="f16" />
			<input>
				<port id="0" precision="U8">
					<dim>3584</dim>
					<dim>1</dim>
				</port>
			</input>
			<output>
				<port id="1" precision="FP16">
					<dim>3584</dim>
					<dim>1</dim>
				</port>
			</output>
		</layer>
		<layer id="319" name="self.model.layers.0.self_attn.o_proj.weight/zero_point/subtract" type="Subtract" version="opset1">
			<data auto_broadcast="numpy" />
			<input>
				<port id="0" precision="FP16">
					<dim>3584</dim>
					<dim>3584</dim>
				</port>
				<port id="1" precision="FP16">
					<dim>3584</dim>
					<dim>1</dim>
				</port>
			</input>
			<output>
				<port id="2" precision="FP16">
					<dim>3584</dim>
					<dim>3584</dim>
				</port>
			</output>
		</layer>
		<layer id="320" name="self.model.layers.0.self_attn.o_proj.weight/scale" type="Const" version="opset1">
			<data element_type="f16" shape="3584, 1" offset="602250540" size="7168" />
			<output>
				<port id="0" precision="FP16">
					<dim>3584</dim>
					<dim>1</dim>
				</port>
			</output>
		</layer>
		<layer id="321" name="self.model.layers.0.self_attn.o_proj.weight/fq_weights_1" type="Multiply" version="opset1">
			<data auto_broadcast="numpy" />
			<input>
				<port id="0" precision="FP16">
					<dim>3584</dim>
					<dim>3584</dim>
				</port>
				<port id="1" precision="FP16">
					<dim>3584</dim>
					<dim>1</dim>
				</port>
			</input>
			<output>
				<port id="2" precision="FP16">
					<dim>3584</dim>
					<dim>3584</dim>
				</port>
			</output>
		</layer>
		<layer id="322" name="self.model.layers.0.self_attn.o_proj.weight/fq_weights_1/convert" type="Convert" version="opset1">
			<data destination_type="f32" />
			<input>
				<port id="0" precision="FP16">
					<dim>3584</dim>
					<dim>3584</dim>
				</port>
			</input>
			<output>
				<port id="1" precision="FP32">
					<dim>3584</dim>
					<dim>3584</dim>
				</port>
			</output>
		</layer>
		<layer id="323" name="__module.model.layers.0.self_attn.o_proj/aten::linear/MatMul" type="MatMul" version="opset1">
			<data transpose_a="false" transpose_b="true" />
			<input>
				<port id="0" precision="FP32">
					<dim>-1</dim>
					<dim>-1</dim>
					<dim>3584</dim>
				</port>
				<port id="1" precision="FP32">
					<dim>3584</dim>
					<dim>3584</dim>
				</port>
			</input>
			<output>
				<port id="2" precision="FP32" names="465,467,hidden_states.17">
					<dim>-1</dim>
					<dim>-1</dim>
					<dim>3584</dim>
				</port>
			</output>
		</layer>
		<layer id="324" name="__module.model.layers.0/aten::add/Add" type="Add" version="opset1">
			<data auto_broadcast="numpy" />
			<input>
				<port id="0" precision="FP32">
					<dim>-1</dim>
					<dim>-1</dim>
					<dim>3584</dim>
				</port>
				<port id="1" precision="FP32">
					<dim>-1</dim>
					<dim>-1</dim>
					<dim>3584</dim>
				</port>
			</input>
			<output>
				<port id="2" precision="FP32" names="470,472,483,hidden_states.19,hidden_states.21">
					<dim>-1</dim>
					<dim>-1</dim>
					<dim>3584</dim>
				</port>
			</output>
		</layer>
		<layer id="325" name="Constant_226168" type="Const" version="opset1">
			<data element_type="f32" shape="1, 1, 3584" offset="602257708" size="14336" />
			<output>
				<port id="0" precision="FP32">
					<dim>1</dim>
					<dim>1</dim>
					<dim>3584</dim>
				</port>
			</output>
		</layer>
		<layer id="326" name="Constant_226167" type="Const" version="opset1">
			<data element_type="f32" shape="1, 1, 1" offset="545482268" size="4" />
			<output>
				<port id="0" precision="FP32">
					<dim>1</dim>
					<dim>1</dim>
					<dim>1</dim>
				</port>
			</output>
		</layer>
		<layer id="327" name="Constant_226165" type="Const" version="opset1">
			<data element_type="f32" shape="1, 1, 1" offset="545482272" size="4" />
			<output>
				<port id="0" precision="FP32">
					<dim>1</dim>
					<dim>1</dim>
					<dim>1</dim>
				</port>
			</output>
		</layer>
		<layer id="328" name="__module.model.layers.0.post_attention_layernorm/aten::pow/Power" type="Power" version="opset1">
			<data auto_broadcast="numpy" />
			<input>
				<port id="0" precision="FP32">
					<dim>-1</dim>
					<dim>-1</dim>
					<dim>3584</dim>
				</port>
				<port id="1" precision="FP32">
					<dim>1</dim>
					<dim>1</dim>
					<dim>1</dim>
				</port>
			</input>
			<output>
				<port id="2" precision="FP32" names="473">
					<dim>-1</dim>
					<dim>-1</dim>
					<dim>3584</dim>
				</port>
			</output>
		</layer>
		<layer id="329" name="Constant_1008" type="Const" version="opset1">
			<data element_type="i64" shape="1" offset="545482276" size="8" />
			<output>
				<port id="0" precision="I64" names="474">
					<dim>1</dim>
				</port>
			</output>
		</layer>
		<layer id="330" name="__module.model.layers.0.post_attention_layernorm/aten::mean/ReduceMean" type="ReduceMean" version="opset1">
			<data keep_dims="true" />
			<input>
				<port id="0" precision="FP32">
					<dim>-1</dim>
					<dim>-1</dim>
					<dim>3584</dim>
				</port>
				<port id="1" precision="I64">
					<dim>1</dim>
				</port>
			</input>
			<output>
				<port id="2" precision="FP32" names="475,variance.3">
					<dim>-1</dim>
					<dim>-1</dim>
					<dim>1</dim>
				</port>
			</output>
		</layer>
		<layer id="331" name="Constant_226166" type="Const" version="opset1">
			<data element_type="f32" shape="1, 1, 1" offset="545482284" size="4" />
			<output>
				<port id="0" precision="FP32">
					<dim>1</dim>
					<dim>1</dim>
					<dim>1</dim>
				</port>
			</output>
		</layer>
		<layer id="332" name="__module.model.layers.0.post_attention_layernorm/aten::add/Add" type="Add" version="opset1">
			<data auto_broadcast="numpy" />
			<input>
				<port id="0" precision="FP32">
					<dim>-1</dim>
					<dim>-1</dim>
					<dim>1</dim>
				</port>
				<port id="1" precision="FP32">
					<dim>1</dim>
					<dim>1</dim>
					<dim>1</dim>
				</port>
			</input>
			<output>
				<port id="2" precision="FP32" names="476">
					<dim>-1</dim>
					<dim>-1</dim>
					<dim>1</dim>
				</port>
			</output>
		</layer>
		<layer id="333" name="__module.model.layers.0.post_attention_layernorm/aten::rsqrt/Sqrt" type="Sqrt" version="opset1">
			<input>
				<port id="0" precision="FP32">
					<dim>-1</dim>
					<dim>-1</dim>
					<dim>1</dim>
				</port>
			</input>
			<output>
				<port id="1" precision="FP32">
					<dim>-1</dim>
					<dim>-1</dim>
					<dim>1</dim>
				</port>
			</output>
		</layer>
		<layer id="334" name="__module.model.layers.0.post_attention_layernorm/aten::rsqrt/Divide" type="Divide" version="opset1">
			<data auto_broadcast="numpy" m_pythondiv="true" />
			<input>
				<port id="0" precision="FP32">
					<dim>1</dim>
					<dim>1</dim>
					<dim>1</dim>
				</port>
				<port id="1" precision="FP32">
					<dim>-1</dim>
					<dim>-1</dim>
					<dim>1</dim>
				</port>
			</input>
			<output>
				<port id="2" precision="FP32" names="477">
					<dim>-1</dim>
					<dim>-1</dim>
					<dim>1</dim>
				</port>
			</output>
		</layer>
		<layer id="335" name="__module.model.layers.0.post_attention_layernorm/aten::mul/Multiply" type="Multiply" version="opset1">
			<data auto_broadcast="numpy" />
			<input>
				<port id="0" precision="FP32">
					<dim>-1</dim>
					<dim>-1</dim>
					<dim>3584</dim>
				</port>
				<port id="1" precision="FP32">
					<dim>-1</dim>
					<dim>-1</dim>
					<dim>1</dim>
				</port>
			</input>
			<output>
				<port id="2" precision="FP32" names="478,479,hidden_states.23,hidden_states.25">
					<dim>-1</dim>
					<dim>-1</dim>
					<dim>3584</dim>
				</port>
			</output>
		</layer>
		<layer id="336" name="__module.model.layers.0.post_attention_layernorm/aten::mul/Multiply_1" type="Multiply" version="opset1">
			<data auto_broadcast="numpy" />
			<input>
				<port id="0" precision="FP32">
					<dim>1</dim>
					<dim>1</dim>
					<dim>3584</dim>
				</port>
				<port id="1" precision="FP32">
					<dim>-1</dim>
					<dim>-1</dim>
					<dim>3584</dim>
				</port>
			</input>
			<output>
				<port id="2" precision="FP32" names="480,482">
					<dim>-1</dim>
					<dim>-1</dim>
					<dim>3584</dim>
				</port>
			</output>
		</layer>
		<layer id="337" name="self.model.layers.0.mlp.gate_proj.weight" type="Const" version="opset1">
			<data element_type="u4" shape="18944, 28, 128" offset="602272044" size="33947648" />
			<output>
				<port id="0" precision="U4">
					<dim>18944</dim>
					<dim>28</dim>
					<dim>128</dim>
				</port>
			</output>
		</layer>
		<layer id="338" name="Convert_283666" type="Convert" version="opset1">
			<data destination_type="f16" />
			<input>
				<port id="0" precision="U4">
					<dim>18944</dim>
					<dim>28</dim>
					<dim>128</dim>
				</port>
			</input>
			<output>
				<port id="1" precision="FP16">
					<dim>18944</dim>
					<dim>28</dim>
					<dim>128</dim>
				</port>
			</output>
		</layer>
		<layer id="339" name="self.model.layers.0.mlp.gate_proj.weight/zero_point" type="Const" version="opset1">
			<data element_type="u4" shape="18944, 28, 1" offset="636219692" size="265216" />
			<output>
				<port id="0" precision="U4">
					<dim>18944</dim>
					<dim>28</dim>
					<dim>1</dim>
				</port>
			</output>
		</layer>
		<layer id="340" name="Convert_283668" type="Convert" version="opset1">
			<data destination_type="f16" />
			<input>
				<port id="0" precision="U4">
					<dim>18944</dim>
					<dim>28</dim>
					<dim>1</dim>
				</port>
			</input>
			<output>
				<port id="1" precision="FP16">
					<dim>18944</dim>
					<dim>28</dim>
					<dim>1</dim>
				</port>
			</output>
		</layer>
		<layer id="341" name="self.model.layers.0.mlp.gate_proj.weight/zero_point/subtract" type="Subtract" version="opset1">
			<data auto_broadcast="numpy" />
			<input>
				<port id="0" precision="FP16">
					<dim>18944</dim>
					<dim>28</dim>
					<dim>128</dim>
				</port>
				<port id="1" precision="FP16">
					<dim>18944</dim>
					<dim>28</dim>
					<dim>1</dim>
				</port>
			</input>
			<output>
				<port id="2" precision="FP16">
					<dim>18944</dim>
					<dim>28</dim>
					<dim>128</dim>
				</port>
			</output>
		</layer>
		<layer id="342" name="self.model.layers.0.mlp.gate_proj.weight/scale" type="Const" version="opset1">
			<data element_type="f16" shape="18944, 28, 1" offset="636484908" size="1060864" />
			<output>
				<port id="0" precision="FP16">
					<dim>18944</dim>
					<dim>28</dim>
					<dim>1</dim>
				</port>
			</output>
		</layer>
		<layer id="343" name="self.model.layers.0.mlp.gate_proj.weight/fq_weights_1" type="Multiply" version="opset1">
			<data auto_broadcast="numpy" />
			<input>
				<port id="0" precision="FP16">
					<dim>18944</dim>
					<dim>28</dim>
					<dim>128</dim>
				</port>
				<port id="1" precision="FP16">
					<dim>18944</dim>
					<dim>28</dim>
					<dim>1</dim>
				</port>
			</input>
			<output>
				<port id="2" precision="FP16">
					<dim>18944</dim>
					<dim>28</dim>
					<dim>128</dim>
				</port>
			</output>
		</layer>
		<layer id="344" name="Constant_283673" type="Const" version="opset1">
			<data element_type="i64" shape="2" offset="637545772" size="16" />
			<output>
				<port id="0" precision="I64">
					<dim>2</dim>
				</port>
			</output>
		</layer>
		<layer id="345" name="Reshape_283674" type="Reshape" version="opset1">
			<data special_zero="false" />
			<input>
				<port id="0" precision="FP16">
					<dim>18944</dim>
					<dim>28</dim>
					<dim>128</dim>
				</port>
				<port id="1" precision="I64">
					<dim>2</dim>
				</port>
			</input>
			<output>
				<port id="2" precision="FP16">
					<dim>18944</dim>
					<dim>3584</dim>
				</port>
			</output>
		</layer>
		<layer id="346" name="self.model.layers.0.mlp.gate_proj.weight/fq_weights_1/convert" type="Convert" version="opset1">
			<data destination_type="f32" />
			<input>
				<port id="0" precision="FP16">
					<dim>18944</dim>
					<dim>3584</dim>
				</port>
			</input>
			<output>
				<port id="1" precision="FP32">
					<dim>18944</dim>
					<dim>3584</dim>
				</port>
			</output>
		</layer>
		<layer id="347" name="__module.model.layers.0.mlp.gate_proj/aten::linear/MatMul" type="MatMul" version="opset1">
			<data transpose_a="false" transpose_b="true" />
			<input>
				<port id="0" precision="FP32">
					<dim>-1</dim>
					<dim>-1</dim>
					<dim>3584</dim>
				</port>
				<port id="1" precision="FP32">
					<dim>18944</dim>
					<dim>3584</dim>
				</port>
			</input>
			<output>
				<port id="2" precision="FP32" names="488,input.1">
					<dim>-1</dim>
					<dim>-1</dim>
					<dim>18944</dim>
				</port>
			</output>
		</layer>
		<layer id="348" name="__module.model.layers.0.mlp.act_fn/aten::silu/Swish" type="Swish" version="opset4">
			<input>
				<port id="0" precision="FP32">
					<dim>-1</dim>
					<dim>-1</dim>
					<dim>18944</dim>
				</port>
			</input>
			<output>
				<port id="1" precision="FP32" names="489">
					<dim>-1</dim>
					<dim>-1</dim>
					<dim>18944</dim>
				</port>
			</output>
		</layer>
		<layer id="349" name="self.model.layers.0.mlp.up_proj.weight" type="Const" version="opset1">
			<data element_type="u8" shape="18944, 3584" offset="637545788" size="67895296" />
			<output>
				<port id="0" precision="U8">
					<dim>18944</dim>
					<dim>3584</dim>
				</port>
			</output>
		</layer>
		<layer id="350" name="Convert_283656" type="Convert" version="opset1">
			<data destination_type="f16" />
			<input>
				<port id="0" precision="U8">
					<dim>18944</dim>
					<dim>3584</dim>
				</port>
			</input>
			<output>
				<port id="1" precision="FP16">
					<dim>18944</dim>
					<dim>3584</dim>
				</port>
			</output>
		</layer>
		<layer id="351" name="self.model.layers.0.mlp.up_proj.weight/zero_point" type="Const" version="opset1">
			<data element_type="u8" shape="18944, 1" offset="705441084" size="18944" />
			<output>
				<port id="0" precision="U8">
					<dim>18944</dim>
					<dim>1</dim>
				</port>
			</output>
		</layer>
		<layer id="352" name="Convert_283659" type="Convert" version="opset1">
			<data destination_type="f16" />
			<input>
				<port id="0" precision="U8">
					<dim>18944</dim>
					<dim>1</dim>
				</port>
			</input>
			<output>
				<port id="1" precision="FP16">
					<dim>18944</dim>
					<dim>1</dim>
				</port>
			</output>
		</layer>
		<layer id="353" name="self.model.layers.0.mlp.up_proj.weight/zero_point/subtract" type="Subtract" version="opset1">
			<data auto_broadcast="numpy" />
			<input>
				<port id="0" precision="FP16">
					<dim>18944</dim>
					<dim>3584</dim>
				</port>
				<port id="1" precision="FP16">
					<dim>18944</dim>
					<dim>1</dim>
				</port>
			</input>
			<output>
				<port id="2" precision="FP16">
					<dim>18944</dim>
					<dim>3584</dim>
				</port>
			</output>
		</layer>
		<layer id="354" name="self.model.layers.0.mlp.up_proj.weight/scale" type="Const" version="opset1">
			<data element_type="f16" shape="18944, 1" offset="705460028" size="37888" />
			<output>
				<port id="0" precision="FP16">
					<dim>18944</dim>
					<dim>1</dim>
				</port>
			</output>
		</layer>
		<layer id="355" name="self.model.layers.0.mlp.up_proj.weight/fq_weights_1" type="Multiply" version="opset1">
			<data auto_broadcast="numpy" />
			<input>
				<port id="0" precision="FP16">
					<dim>18944</dim>
					<dim>3584</dim>
				</port>
				<port id="1" precision="FP16">
					<dim>18944</dim>
					<dim>1</dim>
				</port>
			</input>
			<output>
				<port id="2" precision="FP16">
					<dim>18944</dim>
					<dim>3584</dim>
				</port>
			</output>
		</layer>
		<layer id="356" name="self.model.layers.0.mlp.up_proj.weight/fq_weights_1/convert" type="Convert" version="opset1">
			<data destination_type="f32" />
			<input>
				<port id="0" precision="FP16">
					<dim>18944</dim>
					<dim>3584</dim>
				</port>
			</input>
			<output>
				<port id="1" precision="FP32">
					<dim>18944</dim>
					<dim>3584</dim>
				</port>
			</output>
		</layer>
		<layer id="357" name="__module.model.layers.0.mlp.up_proj/aten::linear/MatMul" type="MatMul" version="opset1">
			<data transpose_a="false" transpose_b="true" />
			<input>
				<port id="0" precision="FP32">
					<dim>-1</dim>
					<dim>-1</dim>
					<dim>3584</dim>
				</port>
				<port id="1" precision="FP32">
					<dim>18944</dim>
					<dim>3584</dim>
				</port>
			</input>
			<output>
				<port id="2" precision="FP32" names="491">
					<dim>-1</dim>
					<dim>-1</dim>
					<dim>18944</dim>
				</port>
			</output>
		</layer>
		<layer id="358" name="__module.model.layers.0.mlp/aten::mul/Multiply" type="Multiply" version="opset1">
			<data auto_broadcast="numpy" />
			<input>
				<port id="0" precision="FP32">
					<dim>-1</dim>
					<dim>-1</dim>
					<dim>18944</dim>
				</port>
				<port id="1" precision="FP32">
					<dim>-1</dim>
					<dim>-1</dim>
					<dim>18944</dim>
				</port>
			</input>
			<output>
				<port id="2" precision="FP32" names="492">
					<dim>-1</dim>
					<dim>-1</dim>
					<dim>18944</dim>
				</port>
			</output>
		</layer>
		<layer id="359" name="self.model.layers.0.mlp.down_proj.weight" type="Const" version="opset1">
			<data element_type="u4" shape="3584, 148, 128" offset="705497916" size="33947648" />
			<output>
				<port id="0" precision="U4">
					<dim>3584</dim>
					<dim>148</dim>
					<dim>128</dim>
				</port>
			</output>
		</layer>
		<layer id="360" name="Convert_283677" type="Convert" version="opset1">
			<data destination_type="f16" />
			<input>
				<port id="0" precision="U4">
					<dim>3584</dim>
					<dim>148</dim>
					<dim>128</dim>
				</port>
			</input>
			<output>
				<port id="1" precision="FP16">
					<dim>3584</dim>
					<dim>148</dim>
					<dim>128</dim>
				</port>
			</output>
		</layer>
		<layer id="361" name="self.model.layers.0.mlp.down_proj.weight/zero_point" type="Const" version="opset1">
			<data element_type="u4" shape="3584, 148, 1" offset="739445564" size="265216" />
			<output>
				<port id="0" precision="U4">
					<dim>3584</dim>
					<dim>148</dim>
					<dim>1</dim>
				</port>
			</output>
		</layer>
		<layer id="362" name="Convert_283679" type="Convert" version="opset1">
			<data destination_type="f16" />
			<input>
				<port id="0" precision="U4">
					<dim>3584</dim>
					<dim>148</dim>
					<dim>1</dim>
				</port>
			</input>
			<output>
				<port id="1" precision="FP16">
					<dim>3584</dim>
					<dim>148</dim>
					<dim>1</dim>
				</port>
			</output>
		</layer>
		<layer id="363" name="self.model.layers.0.mlp.down_proj.weight/zero_point/subtract" type="Subtract" version="opset1">
			<data auto_broadcast="numpy" />
			<input>
				<port id="0" precision="FP16">
					<dim>3584</dim>
					<dim>148</dim>
					<dim>128</dim>
				</port>
				<port id="1" precision="FP16">
					<dim>3584</dim>
					<dim>148</dim>
					<dim>1</dim>
				</port>
			</input>
			<output>
				<port id="2" precision="FP16">
					<dim>3584</dim>
					<dim>148</dim>
					<dim>128</dim>
				</port>
			</output>
		</layer>
		<layer id="364" name="self.model.layers.0.mlp.down_proj.weight/scale" type="Const" version="opset1">
			<data element_type="f16" shape="3584, 148, 1" offset="739710780" size="1060864" />
			<output>
				<port id="0" precision="FP16">
					<dim>3584</dim>
					<dim>148</dim>
					<dim>1</dim>
				</port>
			</output>
		</layer>
		<layer id="365" name="self.model.layers.0.mlp.down_proj.weight/fq_weights_1" type="Multiply" version="opset1">
			<data auto_broadcast="numpy" />
			<input>
				<port id="0" precision="FP16">
					<dim>3584</dim>
					<dim>148</dim>
					<dim>128</dim>
				</port>
				<port id="1" precision="FP16">
					<dim>3584</dim>
					<dim>148</dim>
					<dim>1</dim>
				</port>
			</input>
			<output>
				<port id="2" precision="FP16">
					<dim>3584</dim>
					<dim>148</dim>
					<dim>128</dim>
				</port>
			</output>
		</layer>
		<layer id="366" name="Constant_283684" type="Const" version="opset1">
			<data element_type="i64" shape="2" offset="740771644" size="16" />
			<output>
				<port id="0" precision="I64">
					<dim>2</dim>
				</port>
			</output>
		</layer>
		<layer id="367" name="Reshape_283685" type="Reshape" version="opset1">
			<data special_zero="false" />
			<input>
				<port id="0" precision="FP16">
					<dim>3584</dim>
					<dim>148</dim>
					<dim>128</dim>
				</port>
				<port id="1" precision="I64">
					<dim>2</dim>
				</port>
			</input>
			<output>
				<port id="2" precision="FP16">
					<dim>3584</dim>
					<dim>18944</dim>
				</port>
			</output>
		</layer>
		<layer id="368" name="self.model.layers.0.mlp.down_proj.weight/fq_weights_1/convert" type="Convert" version="opset1">
			<data destination_type="f32" />
			<input>
				<port id="0" precision="FP16">
					<dim>3584</dim>
					<dim>18944</dim>
				</port>
			</input>
			<output>
				<port id="1" precision="FP32">
					<dim>3584</dim>
					<dim>18944</dim>
				</port>
			</output>
		</layer>
		<layer id="369" name="__module.model.layers.0.mlp.down_proj/aten::linear/MatMul" type="MatMul" version="opset1">
			<data transpose_a="false" transpose_b="true" />
			<input>
				<port id="0" precision="FP32">
					<dim>-1</dim>
					<dim>-1</dim>
					<dim>18944</dim>
				</port>
				<port id="1" precision="FP32">
					<dim>3584</dim>
					<dim>18944</dim>
				</port>
			</input>
			<output>
				<port id="2" precision="FP32" names="494,hidden_states.27">
					<dim>-1</dim>
					<dim>-1</dim>
					<dim>3584</dim>
				</port>
			</output>
		</layer>
		<layer id="370" name="__module.model.layers.0/aten::add/Add_1" type="Add" version="opset1">
			<data auto_broadcast="numpy" />
			<input>
				<port id="0" precision="FP32">
					<dim>-1</dim>
					<dim>-1</dim>
					<dim>3584</dim>
				</port>
				<port id="1" precision="FP32">
					<dim>-1</dim>
					<dim>-1</dim>
					<dim>3584</dim>
				</port>
			</input>
			<output>
				<port id="2" precision="FP32" names="495,497,505,516,hidden_states.29,hidden_states.31">
					<dim>-1</dim>
					<dim>-1</dim>
					<dim>3584</dim>
				</port>
			</output>
		</layer>
		<layer id="371" name="Constant_226172" type="Const" version="opset1">
			<data element_type="f32" shape="1, 1, 3584" offset="740771660" size="14336" />
			<output>
				<port id="0" precision="FP32">
					<dim>1</dim>
					<dim>1</dim>
					<dim>3584</dim>
				</port>
			</output>
		</layer>
		<layer id="372" name="Constant_226171" type="Const" version="opset1">
			<data element_type="f32" shape="1, 1, 1" offset="545482268" size="4" />
			<output>
				<port id="0" precision="FP32">
					<dim>1</dim>
					<dim>1</dim>
					<dim>1</dim>
				</port>
			</output>
		</layer>
		<layer id="373" name="Constant_226169" type="Const" version="opset1">
			<data element_type="f32" shape="1, 1, 1" offset="545482272" size="4" />
			<output>
				<port id="0" precision="FP32">
					<dim>1</dim>
					<dim>1</dim>
					<dim>1</dim>
				</port>
			</output>
		</layer>
		<layer id="374" name="__module.model.layers.1.input_layernorm/aten::pow/Power" type="Power" version="opset1">
			<data auto_broadcast="numpy" />
			<input>
				<port id="0" precision="FP32">
					<dim>-1</dim>
					<dim>-1</dim>
					<dim>3584</dim>
				</port>
				<port id="1" precision="FP32">
					<dim>1</dim>
					<dim>1</dim>
					<dim>1</dim>
				</port>
			</input>
			<output>
				<port id="2" precision="FP32" names="506">
					<dim>-1</dim>
					<dim>-1</dim>
					<dim>3584</dim>
				</port>
			</output>
		</layer>
		<layer id="375" name="Constant_1079" type="Const" version="opset1">
			<data element_type="i64" shape="1" offset="545482276" size="8" />
			<output>
				<port id="0" precision="I64" names="507">
					<dim>1</dim>
				</port>
			</output>
		</layer>
		<layer id="376" name="__module.model.layers.1.input_layernorm/aten::mean/ReduceMean" type="ReduceMean" version="opset1">
			<data keep_dims="true" />
			<input>
				<port id="0" precision="FP32">
					<dim>-1</dim>
					<dim>-1</dim>
					<dim>3584</dim>
				</port>
				<port id="1" precision="I64">
					<dim>1</dim>
				</port>
			</input>
			<output>
				<port id="2" precision="FP32" names="508,variance.5">
					<dim>-1</dim>
					<dim>-1</dim>
					<dim>1</dim>
				</port>
			</output>
		</layer>
		<layer id="377" name="Constant_226170" type="Const" version="opset1">
			<data element_type="f32" shape="1, 1, 1" offset="545482284" size="4" />
			<output>
				<port id="0" precision="FP32">
					<dim>1</dim>
					<dim>1</dim>
					<dim>1</dim>
				</port>
			</output>
		</layer>
		<layer id="378" name="__module.model.layers.1.input_layernorm/aten::add/Add" type="Add" version="opset1">
			<data auto_broadcast="numpy" />
			<input>
				<port id="0" precision="FP32">
					<dim>-1</dim>
					<dim>-1</dim>
					<dim>1</dim>
				</port>
				<port id="1" precision="FP32">
					<dim>1</dim>
					<dim>1</dim>
					<dim>1</dim>
				</port>
			</input>
			<output>
				<port id="2" precision="FP32" names="509">
					<dim>-1</dim>
					<dim>-1</dim>
					<dim>1</dim>
				</port>
			</output>
		</layer>
		<layer id="379" name="__module.model.layers.1.input_layernorm/aten::rsqrt/Sqrt" type="Sqrt" version="opset1">
			<input>
				<port id="0" precision="FP32">
					<dim>-1</dim>
					<dim>-1</dim>
					<dim>1</dim>
				</port>
			</input>
			<output>
				<port id="1" precision="FP32">
					<dim>-1</dim>
					<dim>-1</dim>
					<dim>1</dim>
				</port>
			</output>
		</layer>
		<layer id="380" name="__module.model.layers.1.input_layernorm/aten::rsqrt/Divide" type="Divide" version="opset1">
			<data auto_broadcast="numpy" m_pythondiv="true" />
			<input>
				<port id="0" precision="FP32">
					<dim>1</dim>
					<dim>1</dim>
					<dim>1</dim>
				</port>
				<port id="1" precision="FP32">
					<dim>-1</dim>
					<dim>-1</dim>
					<dim>1</dim>
				</port>
			</input>
			<output>
				<port id="2" precision="FP32" names="510">
					<dim>-1</dim>
					<dim>-1</dim>
					<dim>1</dim>
				</port>
			</output>
		</layer>
		<layer id="381" name="__module.model.layers.1.input_layernorm/aten::mul/Multiply" type="Multiply" version="opset1">
			<data auto_broadcast="numpy" />
			<input>
				<port id="0" precision="FP32">
					<dim>-1</dim>
					<dim>-1</dim>
					<dim>3584</dim>
				</port>
				<port id="1" precision="FP32">
					<dim>-1</dim>
					<dim>-1</dim>
					<dim>1</dim>
				</port>
			</input>
			<output>
				<port id="2" precision="FP32" names="511,512,hidden_states.33,hidden_states.35">
					<dim>-1</dim>
					<dim>-1</dim>
					<dim>3584</dim>
				</port>
			</output>
		</layer>
		<layer id="382" name="__module.model.layers.1.input_layernorm/aten::mul/Multiply_1" type="Multiply" version="opset1">
			<data auto_broadcast="numpy" />
			<input>
				<port id="0" precision="FP32">
					<dim>1</dim>
					<dim>1</dim>
					<dim>3584</dim>
				</port>
				<port id="1" precision="FP32">
					<dim>-1</dim>
					<dim>-1</dim>
					<dim>3584</dim>
				</port>
			</input>
			<output>
				<port id="2" precision="FP32" names="513,515,hidden_states.37">
					<dim>-1</dim>
					<dim>-1</dim>
					<dim>3584</dim>
				</port>
			</output>
		</layer>
		<layer id="383" name="self.model.layers.1.self_attn.q_proj.weight" type="Const" version="opset1">
			<data element_type="u8" shape="3584, 3584" offset="740785996" size="12845056" />
			<output>
				<port id="0" precision="U8">
					<dim>3584</dim>
					<dim>3584</dim>
				</port>
			</output>
		</layer>
		<layer id="384" name="Convert_284602" type="Convert" version="opset1">
			<data destination_type="f16" />
			<input>
				<port id="0" precision="U8">
					<dim>3584</dim>
					<dim>3584</dim>
				</port>
			</input>
			<output>
				<port id="1" precision="FP16">
					<dim>3584</dim>
					<dim>3584</dim>
				</port>
			</output>
		</layer>
		<layer id="385" name="self.model.layers.1.self_attn.q_proj.weight/zero_point" type="Const" version="opset1">
			<data element_type="u8" shape="3584, 1" offset="753631052" size="3584" />
			<output>
				<port id="0" precision="U8">
					<dim>3584</dim>
					<dim>1</dim>
				</port>
			</output>
		</layer>
		<layer id="386" name="Convert_284605" type="Convert" version="opset1">
			<data destination_type="f16" />
			<input>
				<port id="0" precision="U8">
					<dim>3584</dim>
					<dim>1</dim>
				</port>
			</input>
			<output>
				<port id="1" precision="FP16">
					<dim>3584</dim>
					<dim>1</dim>
				</port>
			</output>
		</layer>
		<layer id="387" name="self.model.layers.1.self_attn.q_proj.weight/zero_point/subtract" type="Subtract" version="opset1">
			<data auto_broadcast="numpy" />
			<input>
				<port id="0" precision="FP16">
					<dim>3584</dim>
					<dim>3584</dim>
				</port>
				<port id="1" precision="FP16">
					<dim>3584</dim>
					<dim>1</dim>
				</port>
			</input>
			<output>
				<port id="2" precision="FP16">
					<dim>3584</dim>
					<dim>3584</dim>
				</port>
			</output>
		</layer>
		<layer id="388" name="self.model.layers.1.self_attn.q_proj.weight/scale" type="Const" version="opset1">
			<data element_type="f16" shape="3584, 1" offset="753634636" size="7168" />
			<output>
				<port id="0" precision="FP16">
					<dim>3584</dim>
					<dim>1</dim>
				</port>
			</output>
		</layer>
		<layer id="389" name="self.model.layers.1.self_attn.q_proj.weight/fq_weights_1" type="Multiply" version="opset1">
			<data auto_broadcast="numpy" />
			<input>
				<port id="0" precision="FP16">
					<dim>3584</dim>
					<dim>3584</dim>
				</port>
				<port id="1" precision="FP16">
					<dim>3584</dim>
					<dim>1</dim>
				</port>
			</input>
			<output>
				<port id="2" precision="FP16">
					<dim>3584</dim>
					<dim>3584</dim>
				</port>
			</output>
		</layer>
		<layer id="390" name="self.model.layers.1.self_attn.q_proj.weight/fq_weights_1/convert" type="Convert" version="opset1">
			<data destination_type="f32" />
			<input>
				<port id="0" precision="FP16">
					<dim>3584</dim>
					<dim>3584</dim>
				</port>
			</input>
			<output>
				<port id="1" precision="FP32">
					<dim>3584</dim>
					<dim>3584</dim>
				</port>
			</output>
		</layer>
		<layer id="391" name="__module.model.layers.1.self_attn.q_proj/aten::linear/MatMul" type="MatMul" version="opset1">
			<data transpose_a="false" transpose_b="true" />
			<input>
				<port id="0" precision="FP32">
					<dim>-1</dim>
					<dim>-1</dim>
					<dim>3584</dim>
				</port>
				<port id="1" precision="FP32">
					<dim>3584</dim>
					<dim>3584</dim>
				</port>
			</input>
			<output>
				<port id="2" precision="FP32">
					<dim>-1</dim>
					<dim>-1</dim>
					<dim>3584</dim>
				</port>
			</output>
		</layer>
		<layer id="392" name="Constant_226173" type="Const" version="opset1">
			<data element_type="f32" shape="1, 1, 3584" offset="753641804" size="14336" />
			<output>
				<port id="0" precision="FP32">
					<dim>1</dim>
					<dim>1</dim>
					<dim>3584</dim>
				</port>
			</output>
		</layer>
		<layer id="393" name="__module.model.layers.1.self_attn.q_proj/aten::linear/Add" type="Add" version="opset1">
			<data auto_broadcast="numpy" />
			<input>
				<port id="0" precision="FP32">
					<dim>-1</dim>
					<dim>-1</dim>
					<dim>3584</dim>
				</port>
				<port id="1" precision="FP32">
					<dim>1</dim>
					<dim>1</dim>
					<dim>3584</dim>
				</port>
			</input>
			<output>
				<port id="2" precision="FP32" names="526,query_states.3">
					<dim>-1</dim>
					<dim>-1</dim>
					<dim>3584</dim>
				</port>
			</output>
		</layer>
		<layer id="394" name="Constant_237690" type="Const" version="opset1">
			<data element_type="i64" shape="4" offset="552170048" size="32" />
			<output>
				<port id="0" precision="I64">
					<dim>4</dim>
				</port>
			</output>
		</layer>
		<layer id="395" name="__module.model.layers.1.self_attn/aten::view/Reshape" type="Reshape" version="opset1">
			<data special_zero="true" />
			<input>
				<port id="0" precision="FP32">
					<dim>-1</dim>
					<dim>-1</dim>
					<dim>3584</dim>
				</port>
				<port id="1" precision="I64">
					<dim>4</dim>
				</port>
			</input>
			<output>
				<port id="2" precision="FP32" names="534">
					<dim>-1</dim>
					<dim>-1</dim>
					<dim>28</dim>
					<dim>128</dim>
				</port>
			</output>
		</layer>
		<layer id="396" name="__module.model.layers.1.self_attn/aten::transpose/ScatterElementsUpdate" type="Const" version="opset1">
			<data element_type="i32" shape="4" offset="552170080" size="16" />
			<output>
				<port id="0" precision="I32">
					<dim>4</dim>
				</port>
			</output>
		</layer>
		<layer id="397" name="__module.model.layers.1.self_attn/aten::transpose/Transpose" type="Transpose" version="opset1">
			<input>
				<port id="0" precision="FP32">
					<dim>-1</dim>
					<dim>-1</dim>
					<dim>28</dim>
					<dim>128</dim>
				</port>
				<port id="1" precision="I32">
					<dim>4</dim>
				</port>
			</input>
			<output>
				<port id="2" precision="FP32" names="535,q.3">
					<dim>-1</dim>
					<dim>28</dim>
					<dim>-1</dim>
					<dim>128</dim>
				</port>
			</output>
		</layer>
		<layer id="398" name="self.model.layers.1.self_attn.rotary_emb.cos_cached" type="Const" version="opset1">
			<data element_type="f32" shape="32768, 128" offset="552170096" size="16777216" />
			<output>
				<port id="0" precision="FP32" names="self.model.layers.1.self_attn.rotary_emb.cos_cached">
					<dim>32768</dim>
					<dim>128</dim>
				</port>
			</output>
		</layer>
		<layer id="399" name="__module.model.layers.1.self_attn.rotary_emb/aten::slice/Reshape" type="Const" version="opset1">
			<data element_type="i64" shape="1" offset="4" size="8" />
			<output>
				<port id="0" precision="I64">
					<dim>1</dim>
				</port>
			</output>
		</layer>
		<layer id="400" name="Constant_276517" type="Const" version="opset1">
			<data element_type="f32" shape="" offset="0" size="4" />
			<output>
				<port id="0" precision="FP32" />
			</output>
		</layer>
		<layer id="401" name="Constant_276510" type="Const" version="opset1">
			<data element_type="i64" shape="1" offset="12" size="8" />
			<output>
				<port id="0" precision="I64">
					<dim>1</dim>
				</port>
			</output>
		</layer>
		<layer id="402" name="Constant_276512" type="Const" version="opset1">
			<data element_type="i64" shape="1" offset="4" size="8" />
			<output>
				<port id="0" precision="I64">
					<dim>1</dim>
				</port>
			</output>
		</layer>
		<layer id="403" name="Constant_276514" type="Const" version="opset1">
			<data element_type="i64" shape="1" offset="20" size="8" />
			<output>
				<port id="0" precision="I64">
					<dim>1</dim>
				</port>
			</output>
		</layer>
		<layer id="404" name="Concat_276515" type="Concat" version="opset1">
			<data axis="0" />
			<input>
				<port id="0" precision="I64">
					<dim>1</dim>
				</port>
				<port id="1" precision="I64">
					<dim>1</dim>
				</port>
				<port id="2" precision="I64">
					<dim>1</dim>
				</port>
…
		<edge from-layer="6412" from-port="0" to-layer="6416" to-port="2" />
		<edge from-layer="6413" from-port="0" to-layer="6415" to-port="1" />
		<edge from-layer="6414" from-port="0" to-layer="6415" to-port="2" />
		<edge from-layer="6415" from-port="3" to-layer="6416" to-port="3" />
		<edge from-layer="6416" from-port="4" to-layer="6417" to-port="1" />
		<edge from-layer="6417" from-port="2" to-layer="6419" to-port="0" />
		<edge from-layer="6418" from-port="0" to-layer="6419" to-port="1" />
		<edge from-layer="6419" from-port="2" to-layer="6469" to-port="1" />
		<edge from-layer="6420" from-port="0" to-layer="6425" to-port="0" />
		<edge from-layer="6421" from-port="0" to-layer="6424" to-port="1" />
		<edge from-layer="6422" from-port="0" to-layer="6424" to-port="2" />
		<edge from-layer="6423" from-port="0" to-layer="6424" to-port="3" />
		<edge from-layer="6424" from-port="4" to-layer="6425" to-port="1" />
		<edge from-layer="6425" from-port="2" to-layer="6426" to-port="0" />
		<edge from-layer="6426" from-port="1" to-layer="6428" to-port="0" />
		<edge from-layer="6427" from-port="0" to-layer="6428" to-port="2" />
		<edge from-layer="6428" from-port="3" to-layer="6444" to-port="0" />
		<edge from-layer="6429" from-port="0" to-layer="6430" to-port="0" />
		<edge from-layer="6430" from-port="1" to-layer="6433" to-port="0" />
		<edge from-layer="6431" from-port="0" to-layer="6432" to-port="0" />
		<edge from-layer="6432" from-port="1" to-layer="6433" to-port="1" />
		<edge from-layer="6433" from-port="2" to-layer="6435" to-port="0" />
		<edge from-layer="6434" from-port="0" to-layer="6435" to-port="1" />
		<edge from-layer="6435" from-port="2" to-layer="6436" to-port="0" />
		<edge from-layer="6436" from-port="1" to-layer="6437" to-port="1" />
		<edge from-layer="6437" from-port="2" to-layer="6439" to-port="0" />
		<edge from-layer="6438" from-port="0" to-layer="6439" to-port="1" />
		<edge from-layer="6439" from-port="2" to-layer="6441" to-port="0" />
		<edge from-layer="6440" from-port="0" to-layer="6441" to-port="1" />
		<edge from-layer="6441" from-port="2" to-layer="6443" to-port="0" />
		<edge from-layer="6442" from-port="0" to-layer="6443" to-port="1" />
		<edge from-layer="6443" from-port="2" to-layer="6444" to-port="1" />
		<edge from-layer="6444" from-port="2" to-layer="6446" to-port="0" />
		<edge from-layer="6444" from-port="2" to-layer="6445" to-port="0" />
		<edge from-layer="6444" from-port="2" to-layer="6881" to-port="0" />
		<edge from-layer="6445" from-port="2" to-layer="6455" to-port="0" />
		<edge from-layer="6446" from-port="1" to-layer="6453" to-port="0" />
		<edge from-layer="6446" from-port="1" to-layer="6449" to-port="0" />
		<edge from-layer="6447" from-port="0" to-layer="6449" to-port="1" />
		<edge from-layer="6448" from-port="0" to-layer="6449" to-port="2" />
		<edge from-layer="6449" from-port="3" to-layer="6454" to-port="1" />
		<edge from-layer="6450" from-port="0" to-layer="6454" to-port="2" />
		<edge from-layer="6451" from-port="0" to-layer="6453" to-port="1" />
		<edge from-layer="6452" from-port="0" to-layer="6453" to-port="2" />
		<edge from-layer="6453" from-port="3" to-layer="6454" to-port="3" />
		<edge from-layer="6454" from-port="4" to-layer="6455" to-port="1" />
		<edge from-layer="6455" from-port="2" to-layer="6457" to-port="0" />
		<edge from-layer="6456" from-port="0" to-layer="6457" to-port="1" />
		<edge from-layer="6457" from-port="2" to-layer="6469" to-port="2" />
		<edge from-layer="6458" from-port="0" to-layer="6468" to-port="1" />
		<edge from-layer="6459" from-port="0" to-layer="6460" to-port="1" />
		<edge from-layer="6460" from-port="2" to-layer="6465" to-port="0" />
		<edge from-layer="6461" from-port="1" to-layer="6464" to-port="0" />
		<edge from-layer="6462" from-port="0" to-layer="6464" to-port="1" />
		<edge from-layer="6463" from-port="0" to-layer="6464" to-port="2" />
		<edge from-layer="6464" from-port="3" to-layer="6465" to-port="1" />
		<edge from-layer="6465" from-port="2" to-layer="6468" to-port="2" />
		<edge from-layer="6466" from-port="0" to-layer="6468" to-port="3" />
		<edge from-layer="6467" from-port="0" to-layer="6468" to-port="4" />
		<edge from-layer="6468" from-port="5" to-layer="6469" to-port="3" />
		<edge from-layer="6469" from-port="4" to-layer="6471" to-port="0" />
		<edge from-layer="6470" from-port="0" to-layer="6471" to-port="1" />
		<edge from-layer="6471" from-port="2" to-layer="6473" to-port="0" />
		<edge from-layer="6472" from-port="0" to-layer="6473" to-port="1" />
		<edge from-layer="6473" from-port="2" to-layer="6484" to-port="0" />
		<edge from-layer="6474" from-port="0" to-layer="6475" to-port="0" />
		<edge from-layer="6475" from-port="1" to-layer="6478" to-port="0" />
		<edge from-layer="6476" from-port="0" to-layer="6477" to-port="0" />
		<edge from-layer="6477" from-port="1" to-layer="6478" to-port="1" />
		<edge from-layer="6478" from-port="2" to-layer="6480" to-port="0" />
		<edge from-layer="6479" from-port="0" to-layer="6480" to-port="1" />
		<edge from-layer="6480" from-port="2" to-layer="6482" to-port="0" />
		<edge from-layer="6481" from-port="0" to-layer="6482" to-port="1" />
		<edge from-layer="6482" from-port="2" to-layer="6483" to-port="0" />
		<edge from-layer="6483" from-port="1" to-layer="6484" to-port="1" />
		<edge from-layer="6484" from-port="2" to-layer="6485" to-port="1" />
		<edge from-layer="6485" from-port="2" to-layer="6496" to-port="0" />
		<edge from-layer="6485" from-port="2" to-layer="6489" to-port="0" />
		<edge from-layer="6485" from-port="2" to-layer="6533" to-port="0" />
		<edge from-layer="6486" from-port="0" to-layer="6497" to-port="0" />
		<edge from-layer="6487" from-port="0" to-layer="6495" to-port="0" />
		<edge from-layer="6488" from-port="0" to-layer="6489" to-port="1" />
		<edge from-layer="6489" from-port="2" to-layer="6491" to-port="0" />
		<edge from-layer="6490" from-port="0" to-layer="6491" to-port="1" />
		<edge from-layer="6491" from-port="2" to-layer="6493" to-port="0" />
		<edge from-layer="6492" from-port="0" to-layer="6493" to-port="1" />
		<edge from-layer="6493" from-port="2" to-layer="6494" to-port="0" />
		<edge from-layer="6494" from-port="1" to-layer="6495" to-port="1" />
		<edge from-layer="6495" from-port="2" to-layer="6496" to-port="1" />
		<edge from-layer="6496" from-port="2" to-layer="6497" to-port="1" />
		<edge from-layer="6497" from-port="2" to-layer="6508" to-port="0" />
		<edge from-layer="6497" from-port="2" to-layer="6520" to-port="0" />
		<edge from-layer="6498" from-port="0" to-layer="6499" to-port="0" />
		<edge from-layer="6499" from-port="1" to-layer="6502" to-port="0" />
		<edge from-layer="6500" from-port="0" to-layer="6501" to-port="0" />
		<edge from-layer="6501" from-port="1" to-layer="6502" to-port="1" />
		<edge from-layer="6502" from-port="2" to-layer="6504" to-port="0" />
		<edge from-layer="6503" from-port="0" to-layer="6504" to-port="1" />
		<edge from-layer="6504" from-port="2" to-layer="6506" to-port="0" />
		<edge from-layer="6505" from-port="0" to-layer="6506" to-port="1" />
		<edge from-layer="6506" from-port="2" to-layer="6507" to-port="0" />
		<edge from-layer="6507" from-port="1" to-layer="6508" to-port="1" />
		<edge from-layer="6508" from-port="2" to-layer="6509" to-port="0" />
		<edge from-layer="6509" from-port="1" to-layer="6521" to-port="0" />
		<edge from-layer="6510" from-port="0" to-layer="6511" to-port="0" />
		<edge from-layer="6511" from-port="1" to-layer="6514" to-port="0" />
		<edge from-layer="6512" from-port="0" to-layer="6513" to-port="0" />
		<edge from-layer="6513" from-port="1" to-layer="6514" to-port="1" />
		<edge from-layer="6514" from-port="2" to-layer="6516" to-port="0" />
		<edge from-layer="6515" from-port="0" to-layer="6516" to-port="1" />
		<edge from-layer="6516" from-port="2" to-layer="6518" to-port="0" />
		<edge from-layer="6517" from-port="0" to-layer="6518" to-port="1" />
		<edge from-layer="6518" from-port="2" to-layer="6519" to-port="0" />
		<edge from-layer="6519" from-port="1" to-layer="6520" to-port="1" />
		<edge from-layer="6520" from-port="2" to-layer="6521" to-port="1" />
		<edge from-layer="6521" from-port="2" to-layer="6532" to-port="0" />
		<edge from-layer="6522" from-port="0" to-layer="6523" to-port="0" />
		<edge from-layer="6523" from-port="1" to-layer="6526" to-port="0" />
		<edge from-layer="6524" from-port="0" to-layer="6525" to-port="0" />
		<edge from-layer="6525" from-port="1" to-layer="6526" to-port="1" />
		<edge from-layer="6526" from-port="2" to-layer="6528" to-port="0" />
		<edge from-layer="6527" from-port="0" to-layer="6528" to-port="1" />
		<edge from-layer="6528" from-port="2" to-layer="6530" to-port="0" />
		<edge from-layer="6529" from-port="0" to-layer="6530" to-port="1" />
		<edge from-layer="6530" from-port="2" to-layer="6531" to-port="0" />
		<edge from-layer="6531" from-port="1" to-layer="6532" to-port="1" />
		<edge from-layer="6532" from-port="2" to-layer="6533" to-port="1" />
		<edge from-layer="6533" from-port="2" to-layer="6732" to-port="0" />
		<edge from-layer="6533" from-port="2" to-layer="6537" to-port="0" />
		<edge from-layer="6533" from-port="2" to-layer="6544" to-port="0" />
		<edge from-layer="6534" from-port="0" to-layer="6545" to-port="0" />
		<edge from-layer="6535" from-port="0" to-layer="6543" to-port="0" />
		<edge from-layer="6536" from-port="0" to-layer="6537" to-port="1" />
		<edge from-layer="6537" from-port="2" to-layer="6539" to-port="0" />
		<edge from-layer="6538" from-port="0" to-layer="6539" to-port="1" />
		<edge from-layer="6539" from-port="2" to-layer="6541" to-port="0" />
		<edge from-layer="6540" from-port="0" to-layer="6541" to-port="1" />
		<edge from-layer="6541" from-port="2" to-layer="6542" to-port="0" />
		<edge from-layer="6542" from-port="1" to-layer="6543" to-port="1" />
		<edge from-layer="6543" from-port="2" to-layer="6544" to-port="1" />
		<edge from-layer="6544" from-port="2" to-layer="6545" to-port="1" />
		<edge from-layer="6545" from-port="2" to-layer="6622" to-port="0" />
		<edge from-layer="6545" from-port="2" to-layer="6684" to-port="0" />
		<edge from-layer="6545" from-port="2" to-layer="6554" to-port="0" />
		<edge from-layer="6546" from-port="0" to-layer="6547" to-port="0" />
		<edge from-layer="6547" from-port="1" to-layer="6550" to-port="0" />
		<edge from-layer="6548" from-port="0" to-layer="6549" to-port="0" />
		<edge from-layer="6549" from-port="1" to-layer="6550" to-port="1" />
		<edge from-layer="6550" from-port="2" to-layer="6552" to-port="0" />
		<edge from-layer="6551" from-port="0" to-layer="6552" to-port="1" />
		<edge from-layer="6552" from-port="2" to-layer="6553" to-port="0" />
		<edge from-layer="6553" from-port="1" to-layer="6554" to-port="1" />
		<edge from-layer="6554" from-port="2" to-layer="6556" to-port="0" />
		<edge from-layer="6555" from-port="0" to-layer="6556" to-port="1" />
		<edge from-layer="6556" from-port="2" to-layer="6558" to-port="0" />
		<edge from-layer="6557" from-port="0" to-layer="6558" to-port="1" />
		<edge from-layer="6558" from-port="2" to-layer="6560" to-port="0" />
		<edge from-layer="6559" from-port="0" to-layer="6560" to-port="1" />
		<edge from-layer="6560" from-port="2" to-layer="6585" to-port="0" />
		<edge from-layer="6560" from-port="2" to-layer="6602" to-port="0" />
		<edge from-layer="6560" from-port="2" to-layer="6586" to-port="0" />
		<edge from-layer="6560" from-port="2" to-layer="6596" to-port="0" />
		<edge from-layer="6561" from-port="0" to-layer="6581" to-port="0" />
		<edge from-layer="6562" from-port="0" to-layer="6581" to-port="1" />
		<edge from-layer="6563" from-port="0" to-layer="6568" to-port="0" />
		<edge from-layer="6564" from-port="0" to-layer="6567" to-port="1" />
		<edge from-layer="6565" from-port="0" to-layer="6567" to-port="2" />
		<edge from-layer="6566" from-port="0" to-layer="6567" to-port="3" />
		<edge from-layer="6567" from-port="4" to-layer="6568" to-port="1" />
		<edge from-layer="6568" from-port="2" to-layer="6569" to-port="0" />
		<edge from-layer="6569" from-port="1" to-layer="6571" to-port="0" />
		<edge from-layer="6570" from-port="0" to-layer="6571" to-port="2" />
		<edge from-layer="6571" from-port="3" to-layer="6650" to-port="0" />
		<edge from-layer="6571" from-port="3" to-layer="6572" to-port="0" />
		<edge from-layer="6572" from-port="1" to-layer="6575" to-port="0" />
		<edge from-layer="6572" from-port="1" to-layer="6654" to-port="0" />
		<edge from-layer="6573" from-port="0" to-layer="6575" to-port="1" />
		<edge from-layer="6574" from-port="0" to-layer="6575" to-port="2" />
		<edge from-layer="6575" from-port="3" to-layer="6577" to-port="0" />
		<edge from-layer="6575" from-port="3" to-layer="6707" to-port="0" />
		<edge from-layer="6576" from-port="0" to-layer="6577" to-port="1" />
		<edge from-layer="6577" from-port="2" to-layer="6578" to-port="1" />
		<edge from-layer="6578" from-port="2" to-layer="6608" to-port="2" />
		<edge from-layer="6578" from-port="2" to-layer="6581" to-port="2" />
		<edge from-layer="6579" from-port="0" to-layer="6581" to-port="3" />
		<edge from-layer="6580" from-port="0" to-layer="6581" to-port="4" />
		<edge from-layer="6581" from-port="5" to-layer="6583" to-port="0" />
		<edge from-layer="6582" from-port="0" to-layer="6583" to-port="2" />
		<edge from-layer="6583" from-port="3" to-layer="6584" to-port="0" />
		<edge from-layer="6584" from-port="2" to-layer="6585" to-port="1" />
		<edge from-layer="6584" from-port="2" to-layer="6629" to-port="1" />
		<edge from-layer="6585" from-port="2" to-layer="6613" to-port="0" />
		<edge from-layer="6586" from-port="1" to-layer="6588" to-port="0" />
		<edge from-layer="6587" from-port="0" to-layer="6588" to-port="2" />
		<edge from-layer="6588" from-port="3" to-layer="6589" to-port="0" />
		<edge from-layer="6589" from-port="2" to-layer="6590" to-port="0" />
		<edge from-layer="6590" from-port="1" to-layer="6592" to-port="0" />
		<edge from-layer="6591" from-port="0" to-layer="6592" to-port="1" />
		<edge from-layer="6592" from-port="2" to-layer="6602" to-port="2" />
		<edge from-layer="6592" from-port="2" to-layer="6596" to-port="1" />
		<edge from-layer="6593" from-port="0" to-layer="6596" to-port="2" />
		<edge from-layer="6594" from-port="0" to-layer="6596" to-port="3" />
		<edge from-layer="6595" from-port="0" to-layer="6596" to-port="4" />
		<edge from-layer="6596" from-port="5" to-layer="6598" to-port="0" />
		<edge from-layer="6597" from-port="0" to-layer="6598" to-port="1" />
		<edge from-layer="6598" from-port="2" to-layer="6603" to-port="0" />
		<edge from-layer="6599" from-port="0" to-layer="6602" to-port="1" />
		<edge from-layer="6600" from-port="0" to-layer="6602" to-port="3" />
		<edge from-layer="6601" from-port="0" to-layer="6602" to-port="4" />
		<edge from-layer="6602" from-port="5" to-layer="6603" to-port="1" />
		<edge from-layer="6603" from-port="2" to-layer="6612" to-port="0" />
		<edge from-layer="6604" from-port="0" to-layer="6608" to-port="0" />
		<edge from-layer="6605" from-port="0" to-layer="6608" to-port="1" />
		<edge from-layer="6606" from-port="0" to-layer="6608" to-port="3" />
		<edge from-layer="6607" from-port="0" to-layer="6608" to-port="4" />
		<edge from-layer="6608" from-port="5" to-layer="6610" to-port="0" />
		<edge from-layer="6609" from-port="0" to-layer="6610" to-port="2" />
		<edge from-layer="6610" from-port="3" to-layer="6611" to-port="0" />
		<edge from-layer="6611" from-port="2" to-layer="6648" to-port="1" />
		<edge from-layer="6611" from-port="2" to-layer="6612" to-port="1" />
		<edge from-layer="6612" from-port="2" to-layer="6613" to-port="1" />
		<edge from-layer="6613" from-port="2" to-layer="6716" to-port="0" />
		<edge from-layer="6614" from-port="0" to-layer="6615" to-port="0" />
		<edge from-layer="6615" from-port="1" to-layer="6618" to-port="0" />
		<edge from-layer="6616" from-port="0" to-layer="6617" to-port="0" />
		<edge from-layer="6617" from-port="1" to-layer="6618" to-port="1" />
		<edge from-layer="6618" from-port="2" to-layer="6620" to-port="0" />
		<edge from-layer="6619" from-port="0" to-layer="6620" to-port="1" />
		<edge from-layer="6620" from-port="2" to-layer="6621" to-port="0" />
		<edge from-layer="6621" from-port="1" to-layer="6622" to-port="1" />
		<edge from-layer="6622" from-port="2" to-layer="6624" to-port="0" />
		<edge from-layer="6623" from-port="0" to-layer="6624" to-port="1" />
		<edge from-layer="6624" from-port="2" to-layer="6626" to-port="0" />
		<edge from-layer="6625" from-port="0" to-layer="6626" to-port="1" />
		<edge from-layer="6626" from-port="2" to-layer="6628" to-port="0" />
		<edge from-layer="6627" from-port="0" to-layer="6628" to-port="1" />
		<edge from-layer="6628" from-port="2" to-layer="6646" to-port="0" />
		<edge from-layer="6628" from-port="2" to-layer="6629" to-port="0" />
		<edge from-layer="6628" from-port="2" to-layer="6630" to-port="0" />
		<edge from-layer="6628" from-port="2" to-layer="6640" to-port="0" />
		<edge from-layer="6629" from-port="2" to-layer="6649" to-port="0" />
		<edge from-layer="6630" from-port="1" to-layer="6632" to-port="0" />
		<edge from-layer="6631" from-port="0" to-layer="6632" to-port="2" />
		<edge from-layer="6632" from-port="3" to-layer="6633" to-port="0" />
		<edge from-layer="6633" from-port="2" to-layer="6634" to-port="0" />
		<edge from-layer="6634" from-port="1" to-layer="6636" to-port="0" />
		<edge from-layer="6635" from-port="0" to-layer="6636" to-port="1" />
		<edge from-layer="6636" from-port="2" to-layer="6646" to-port="2" />
		<edge from-layer="6636" from-port="2" to-layer="6640" to-port="1" />
		<edge from-layer="6637" from-port="0" to-layer="6640" to-port="2" />
		<edge from-layer="6638" from-port="0" to-layer="6640" to-port="3" />
		<edge from-layer="6639" from-port="0" to-layer="6640" to-port="4" />
		<edge from-layer="6640" from-port="5" to-layer="6642" to-port="0" />
		<edge from-layer="6641" from-port="0" to-layer="6642" to-port="1" />
		<edge from-layer="6642" from-port="2" to-layer="6647" to-port="0" />
		<edge from-layer="6643" from-port="0" to-layer="6646" to-port="1" />
		<edge from-layer="6644" from-port="0" to-layer="6646" to-port="3" />
		<edge from-layer="6645" from-port="0" to-layer="6646" to-port="4" />
		<edge from-layer="6646" from-port="5" to-layer="6647" to-port="1" />
		<edge from-layer="6647" from-port="2" to-layer="6648" to-port="0" />
		<edge from-layer="6648" from-port="2" to-layer="6649" to-port="1" />
		<edge from-layer="6649" from-port="2" to-layer="6650" to-port="1" />
		<edge from-layer="6649" from-port="2" to-layer="6708" to-port="0" />
		<edge from-layer="6650" from-port="2" to-layer="6880" to-port="0" />
		<edge from-layer="6650" from-port="2" to-layer="6651" to-port="0" />
		<edge from-layer="6650" from-port="2" to-layer="6655" to-port="0" />
		<edge from-layer="6651" from-port="2" to-layer="6664" to-port="0" />
		<edge from-layer="6652" from-port="0" to-layer="6654" to-port="1" />
		<edge from-layer="6653" from-port="0" to-layer="6654" to-port="2" />
		<edge from-layer="6654" from-port="3" to-layer="6663" to-port="0" />
		<edge from-layer="6655" from-port="1" to-layer="6658" to-port="0" />
		<edge from-layer="6655" from-port="1" to-layer="6662" to-port="0" />
		<edge from-layer="6656" from-port="0" to-layer="6658" to-port="1" />
		<edge from-layer="6657" from-port="0" to-layer="6658" to-port="2" />
		<edge from-layer="6658" from-port="3" to-layer="6663" to-port="1" />
		<edge from-layer="6659" from-port="0" to-layer="6663" to-port="2" />
		<edge from-layer="6660" from-port="0" to-layer="6662" to-port="1" />
		<edge from-layer="6661" from-port="0" to-layer="6662" to-port="2" />
		<edge from-layer="6662" from-port="3" to-layer="6663" to-port="3" />
		<edge from-layer="6663" from-port="4" to-layer="6664" to-port="1" />
		<edge from-layer="6664" from-port="2" to-layer="6666" to-port="0" />
		<edge from-layer="6665" from-port="0" to-layer="6666" to-port="1" />
		<edge from-layer="6666" from-port="2" to-layer="6716" to-port="1" />
		<edge from-layer="6667" from-port="0" to-layer="6672" to-port="0" />
		<edge from-layer="6668" from-port="0" to-layer="6671" to-port="1" />
		<edge from-layer="6669" from-port="0" to-layer="6671" to-port="2" />
		<edge from-layer="6670" from-port="0" to-layer="6671" to-port="3" />
		<edge from-layer="6671" from-port="4" to-layer="6672" to-port="1" />
		<edge from-layer="6672" from-port="2" to-layer="6673" to-port="0" />
		<edge from-layer="6673" from-port="1" to-layer="6675" to-port="0" />
		<edge from-layer="6674" from-port="0" to-layer="6675" to-port="2" />
		<edge from-layer="6675" from-port="3" to-layer="6691" to-port="0" />
		<edge from-layer="6676" from-port="0" to-layer="6677" to-port="0" />
		<edge from-layer="6677" from-port="1" to-layer="6680" to-port="0" />
		<edge from-layer="6678" from-port="0" to-layer="6679" to-port="0" />
		<edge from-layer="6679" from-port="1" to-layer="6680" to-port="1" />
		<edge from-layer="6680" from-port="2" to-layer="6682" to-port="0" />
		<edge from-layer="6681" from-port="0" to-layer="6682" to-port="1" />
		<edge from-layer="6682" from-port="2" to-layer="6683" to-port="0" />
		<edge from-layer="6683" from-port="1" to-layer="6684" to-port="1" />
		<edge from-layer="6684" from-port="2" to-layer="6686" to-port="0" />
		<edge from-layer="6685" from-port="0" to-layer="6686" to-port="1" />
		<edge from-layer="6686" from-port="2" to-layer="6688" to-port="0" />
		<edge from-layer="6687" from-port="0" to-layer="6688" to-port="1" />
		<edge from-layer="6688" from-port="2" to-layer="6690" to-port="0" />
		<edge from-layer="6689" from-port="0" to-layer="6690" to-port="1" />
		<edge from-layer="6690" from-port="2" to-layer="6691" to-port="1" />
		<edge from-layer="6691" from-port="2" to-layer="6692" to-port="0" />
		<edge from-layer="6691" from-port="2" to-layer="6693" to-port="0" />
		<edge from-layer="6691" from-port="2" to-layer="6879" to-port="0" />
		<edge from-layer="6692" from-port="2" to-layer="6702" to-port="0" />
		<edge from-layer="6693" from-port="1" to-layer="6696" to-port="0" />
		<edge from-layer="6693" from-port="1" to-layer="6700" to-port="0" />
		<edge from-layer="6694" from-port="0" to-layer="6696" to-port="1" />
		<edge from-layer="6695" from-port="0" to-layer="6696" to-port="2" />
		<edge from-layer="6696" from-port="3" to-layer="6701" to-port="1" />
		<edge from-layer="6697" from-port="0" to-layer="6701" to-port="2" />
		<edge from-layer="6698" from-port="0" to-layer="6700" to-port="1" />
		<edge from-layer="6699" from-port="0" to-layer="6700" to-port="2" />
		<edge from-layer="6700" from-port="3" to-layer="6701" to-port="3" />
		<edge from-layer="6701" from-port="4" to-layer="6702" to-port="1" />
		<edge from-layer="6702" from-port="2" to-layer="6704" to-port="0" />
		<edge from-layer="6703" from-port="0" to-layer="6704" to-port="1" />
		<edge from-layer="6704" from-port="2" to-layer="6716" to-port="2" />
		<edge from-layer="6705" from-port="0" to-layer="6715" to-port="1" />
		<edge from-layer="6706" from-port="0" to-layer="6707" to-port="1" />
		<edge from-layer="6707" from-port="2" to-layer="6712" to-port="0" />
		<edge from-layer="6708" from-port="1" to-layer="6711" to-port="0" />
		<edge from-layer="6709" from-port="0" to-layer="6711" to-port="1" />
		<edge from-layer="6710" from-port="0" to-layer="6711" to-port="2" />
		<edge from-layer="6711" from-port="3" to-layer="6712" to-port="1" />
		<edge from-layer="6712" from-port="2" to-layer="6715" to-port="2" />
		<edge from-layer="6713" from-port="0" to-layer="6715" to-port="3" />
		<edge from-layer="6714" from-port="0" to-layer="6715" to-port="4" />
		<edge from-layer="6715" from-port="5" to-layer="6716" to-port="3" />
		<edge from-layer="6716" from-port="4" to-layer="6718" to-port="0" />
		<edge from-layer="6717" from-port="0" to-layer="6718" to-port="1" />
		<edge from-layer="6718" from-port="2" to-layer="6720" to-port="0" />
		<edge from-layer="6719" from-port="0" to-layer="6720" to-port="1" />
		<edge from-layer="6720" from-port="2" to-layer="6731" to-port="0" />
		<edge from-layer="6721" from-port="0" to-layer="6722" to-port="0" />
		<edge from-layer="6722" from-port="1" to-layer="6725" to-port="0" />
		<edge from-layer="6723" from-port="0" to-layer="6724" to-port="0" />
		<edge from-layer="6724" from-port="1" to-layer="6725" to-port="1" />
		<edge from-layer="6725" from-port="2" to-layer="6727" to-port="0" />
		<edge from-layer="6726" from-port="0" to-layer="6727" to-port="1" />
		<edge from-layer="6727" from-port="2" to-layer="6729" to-port="0" />
		<edge from-layer="6728" from-port="0" to-layer="6729" to-port="1" />
		<edge from-layer="6729" from-port="2" to-layer="6730" to-port="0" />
		<edge from-layer="6730" from-port="1" to-layer="6731" to-port="1" />
		<edge from-layer="6731" from-port="2" to-layer="6732" to-port="1" />
		<edge from-layer="6732" from-port="2" to-layer="6736" to-port="0" />
		<edge from-layer="6732" from-port="2" to-layer="6780" to-port="0" />
		<edge from-layer="6732" from-port="2" to-layer="6743" to-port="0" />
		<edge from-layer="6733" from-port="0" to-layer="6744" to-port="0" />
		<edge from-layer="6734" from-port="0" to-layer="6742" to-port="0" />
		<edge from-layer="6735" from-port="0" to-layer="6736" to-port="1" />
		<edge from-layer="6736" from-port="2" to-layer="6738" to-port="0" />
		<edge from-layer="6737" from-port="0" to-layer="6738" to-port="1" />
		<edge from-layer="6738" from-port="2" to-layer="6740" to-port="0" />
		<edge from-layer="6739" from-port="0" to-layer="6740" to-port="1" />
		<edge from-layer="6740" from-port="2" to-layer="6741" to-port="0" />
		<edge from-layer="6741" from-port="1" to-layer="6742" to-port="1" />
		<edge from-layer="6742" from-port="2" to-layer="6743" to-port="1" />
		<edge from-layer="6743" from-port="2" to-layer="6744" to-port="1" />
		<edge from-layer="6744" from-port="2" to-layer="6767" to-port="0" />
		<edge from-layer="6744" from-port="2" to-layer="6755" to-port="0" />
		<edge from-layer="6745" from-port="0" to-layer="6746" to-port="0" />
		<edge from-layer="6746" from-port="1" to-layer="6749" to-port="0" />
		<edge from-layer="6747" from-port="0" to-layer="6748" to-port="0" />
		<edge from-layer="6748" from-port="1" to-layer="6749" to-port="1" />
		<edge from-layer="6749" from-port="2" to-layer="6751" to-port="0" />
		<edge from-layer="6750" from-port="0" to-layer="6751" to-port="1" />
		<edge from-layer="6751" from-port="2" to-layer="6753" to-port="0" />
		<edge from-layer="6752" from-port="0" to-layer="6753" to-port="1" />
		<edge from-layer="6753" from-port="2" to-layer="6754" to-port="0" />
		<edge from-layer="6754" from-port="1" to-layer="6755" to-port="1" />
		<edge from-layer="6755" from-port="2" to-layer="6756" to-port="0" />
		<edge from-layer="6756" from-port="1" to-layer="6768" to-port="0" />
		<edge from-layer="6757" from-port="0" to-layer="6758" to-port="0" />
		<edge from-layer="6758" from-port="1" to-layer="6761" to-port="0" />
		<edge from-layer="6759" from-port="0" to-layer="6760" to-port="0" />
		<edge from-layer="6760" from-port="1" to-layer="6761" to-port="1" />
		<edge from-layer="6761" from-port="2" to-layer="6763" to-port="0" />
		<edge from-layer="6762" from-port="0" to-layer="6763" to-port="1" />
		<edge from-layer="6763" from-port="2" to-layer="6765" to-port="0" />
		<edge from-layer="6764" from-port="0" to-layer="6765" to-port="1" />
		<edge from-layer="6765" from-port="2" to-layer="6766" to-port="0" />
		<edge from-layer="6766" from-port="1" to-layer="6767" to-port="1" />
		<edge from-layer="6767" from-port="2" to-layer="6768" to-port="1" />
		<edge from-layer="6768" from-port="2" to-layer="6779" to-port="0" />
		<edge from-layer="6769" from-port="0" to-layer="6770" to-port="0" />
		<edge from-layer="6770" from-port="1" to-layer="6773" to-port="0" />
		<edge from-layer="6771" from-port="0" to-layer="6772" to-port="0" />
		<edge from-layer="6772" from-port="1" to-layer="6773" to-port="1" />
		<edge from-layer="6773" from-port="2" to-layer="6775" to-port="0" />
		<edge from-layer="6774" from-port="0" to-layer="6775" to-port="1" />
		<edge from-layer="6775" from-port="2" to-layer="6777" to-port="0" />
		<edge from-layer="6776" from-port="0" to-layer="6777" to-port="1" />
		<edge from-layer="6777" from-port="2" to-layer="6778" to-port="0" />
		<edge from-layer="6778" from-port="1" to-layer="6779" to-port="1" />
		<edge from-layer="6779" from-port="2" to-layer="6780" to-port="1" />
		<edge from-layer="6780" from-port="2" to-layer="7014" to-port="0" />
		<edge from-layer="6780" from-port="2" to-layer="6783" to-port="0" />
		<edge from-layer="6780" from-port="2" to-layer="6790" to-port="0" />
		<edge from-layer="6781" from-port="0" to-layer="6789" to-port="0" />
		<edge from-layer="6782" from-port="0" to-layer="6783" to-port="1" />
		<edge from-layer="6783" from-port="2" to-layer="6785" to-port="0" />
		<edge from-layer="6784" from-port="0" to-layer="6785" to-port="1" />
		<edge from-layer="6785" from-port="2" to-layer="6787" to-port="0" />
		<edge from-layer="6786" from-port="0" to-layer="6787" to-port="1" />
		<edge from-layer="6787" from-port="2" to-layer="6788" to-port="0" />
		<edge from-layer="6788" from-port="1" to-layer="6789" to-port="1" />
		<edge from-layer="6789" from-port="2" to-layer="6790" to-port="1" />
		<edge from-layer="6790" from-port="2" to-layer="6791" to-port="1" />
		<edge from-layer="6791" from-port="2" to-layer="6800" to-port="0" />
		<edge from-layer="6791" from-port="2" to-layer="6826" to-port="0" />
		<edge from-layer="6791" from-port="2" to-layer="6930" to-port="0" />
		<edge from-layer="6792" from-port="0" to-layer="6793" to-port="0" />
		<edge from-layer="6793" from-port="1" to-layer="6796" to-port="0" />
		<edge from-layer="6794" from-port="0" to-layer="6795" to-port="0" />
		<edge from-layer="6795" from-port="1" to-layer="6796" to-port="1" />
		<edge from-layer="6796" from-port="2" to-layer="6798" to-port="0" />
		<edge from-layer="6797" from-port="0" to-layer="6798" to-port="1" />
		<edge from-layer="6798" from-port="2" to-layer="6799" to-port="0" />
		<edge from-layer="6799" from-port="1" to-layer="6800" to-port="1" />
		<edge from-layer="6800" from-port="2" to-layer="6802" to-port="0" />
		<edge from-layer="6801" from-port="0" to-layer="6802" to-port="1" />
		<edge from-layer="6802" from-port="2" to-layer="6804" to-port="0" />
		<edge from-layer="6803" from-port="0" to-layer="6804" to-port="1" />
		<edge from-layer="6804" from-port="2" to-layer="6806" to-port="0" />
		<edge from-layer="6805" from-port="0" to-layer="6806" to-port="1" />
		<edge from-layer="6806" from-port="2" to-layer="6807" to-port="1" />
		<edge from-layer="6807" from-port="2" to-layer="6808" to-port="0" />
		<edge from-layer="6807" from-port="2" to-layer="6975" to-port="0" />
		<edge from-layer="6807" from-port="2" to-layer="6974" to-port="0" />
		<edge from-layer="6809" from-port="0" to-layer="6814" to-port="0" />
		<edge from-layer="6810" from-port="0" to-layer="6813" to-port="1" />
		<edge from-layer="6811" from-port="0" to-layer="6813" to-port="2" />
		<edge from-layer="6812" from-port="0" to-layer="6813" to-port="3" />
		<edge from-layer="6813" from-port="4" to-layer="6814" to-port="1" />
		<edge from-layer="6814" from-port="2" to-layer="6815" to-port="0" />
		<edge from-layer="6815" from-port="1" to-layer="6817" to-port="0" />
		<edge from-layer="6816" from-port="0" to-layer="6817" to-port="2" />
		<edge from-layer="6817" from-port="3" to-layer="6877" to-port="0" />
		<edge from-layer="6817" from-port="3" to-layer="6835" to-port="0" />
		<edge from-layer="6818" from-port="0" to-layer="6819" to-port="0" />
		<edge from-layer="6819" from-port="1" to-layer="6822" to-port="0" />
		<edge from-layer="6820" from-port="0" to-layer="6821" to-port="0" />
		<edge from-layer="6821" from-port="1" to-layer="6822" to-port="1" />
		<edge from-layer="6822" from-port="2" to-layer="6824" to-port="0" />
		<edge from-layer="6823" from-port="0" to-layer="6824" to-port="1" />
		<edge from-layer="6824" from-port="2" to-layer="6825" to-port="0" />
		<edge from-layer="6825" from-port="1" to-layer="6826" to-port="1" />
		<edge from-layer="6826" from-port="2" to-layer="6828" to-port="0" />
		<edge from-layer="6827" from-port="0" to-layer="6828" to-port="1" />
		<edge from-layer="6828" from-port="2" to-layer="6830" to-port="0" />
		<edge from-layer="6829" from-port="0" to-layer="6830" to-port="1" />
		<edge from-layer="6830" from-port="2" to-layer="6832" to-port="0" />
		<edge from-layer="6831" from-port="0" to-layer="6832" to-port="1" />
		<edge from-layer="6832" from-port="2" to-layer="6859" to-port="0" />
		<edge from-layer="6832" from-port="2" to-layer="6865" to-port="0" />
		<edge from-layer="6832" from-port="2" to-layer="6849" to-port="0" />
		<edge from-layer="6832" from-port="2" to-layer="6848" to-port="0" />
		<edge from-layer="6833" from-port="0" to-layer="6844" to-port="0" />
		<edge from-layer="6834" from-port="0" to-layer="6844" to-port="1" />
		<edge from-layer="6835" from-port="1" to-layer="6838" to-port="0" />
		<edge from-layer="6835" from-port="1" to-layer="6961" to-port="0" />
		<edge from-layer="6836" from-port="0" to-layer="6838" to-port="1" />
		<edge from-layer="6837" from-port="0" to-layer="6838" to-port="2" />
		<edge from-layer="6838" from-port="3" to-layer="6989" to-port="0" />
		<edge from-layer="6838" from-port="3" to-layer="6840" to-port="0" />
		<edge from-layer="6839" from-port="0" to-layer="6840" to-port="1" />
		<edge from-layer="6840" from-port="2" to-layer="6841" to-port="1" />
		<edge from-layer="6841" from-port="2" to-layer="6871" to-port="2" />
		<edge from-layer="6841" from-port="2" to-layer="6844" to-port="2" />
		<edge from-layer="6842" from-port="0" to-layer="6844" to-port="3" />
		<edge from-layer="6843" from-port="0" to-layer="6844" to-port="4" />
		<edge from-layer="6844" from-port="5" to-layer="6846" to-port="0" />
		<edge from-layer="6845" from-port="0" to-layer="6846" to-port="2" />
		<edge from-layer="6846" from-port="3" to-layer="6847" to-port="0" />
		<edge from-layer="6847" from-port="2" to-layer="6937" to-port="1" />
		<edge from-layer="6847" from-port="2" to-layer="6848" to-port="1" />
		<edge from-layer="6848" from-port="2" to-layer="6876" to-port="0" />
		<edge from-layer="6849" from-port="1" to-layer="6851" to-port="0" />
		<edge from-layer="6850" from-port="0" to-layer="6851" to-port="2" />
		<edge from-layer="6851" from-port="3" to-layer="6852" to-port="0" />
		<edge from-layer="6852" from-port="2" to-layer="6853" to-port="0" />
		<edge from-layer="6853" from-port="1" to-layer="6855" to-port="0" />
		<edge from-layer="6854" from-port="0" to-layer="6855" to-port="1" />
		<edge from-layer="6855" from-port="2" to-layer="6859" to-port="1" />
		<edge from-layer="6855" from-port="2" to-layer="6865" to-port="2" />
		<edge from-layer="6856" from-port="0" to-layer="6859" to-port="2" />
		<edge from-layer="6857" from-port="0" to-layer="6859" to-port="3" />
		<edge from-layer="6858" from-port="0" to-layer="6859" to-port="4" />
		<edge from-layer="6859" from-port="5" to-layer="6861" to-port="0" />
		<edge from-layer="6860" from-port="0" to-layer="6861" to-port="1" />
		<edge from-layer="6861" from-port="2" to-layer="6866" to-port="0" />
		<edge from-layer="6862" from-port="0" to-layer="6865" to-port="1" />
		<edge from-layer="6863" from-port="0" to-layer="6865" to-port="3" />
		<edge from-layer="6864" from-port="0" to-layer="6865" to-port="4" />
		<edge from-layer="6865" from-port="5" to-layer="6866" to-port="1" />
		<edge from-layer="6866" from-port="2" to-layer="6875" to-port="0" />
		<edge from-layer="6867" from-port="0" to-layer="6871" to-port="0" />
		<edge from-layer="6868" from-port="0" to-layer="6871" to-port="1" />
		<edge from-layer="6869" from-port="0" to-layer="6871" to-port="3" />
		<edge from-layer="6870" from-port="0" to-layer="6871" to-port="4" />
		<edge from-layer="6871" from-port="5" to-layer="6873" to-port="0" />
		<edge from-layer="6872" from-port="0" to-layer="6873" to-port="2" />
		<edge from-layer="6873" from-port="3" to-layer="6874" to-port="0" />
		<edge from-layer="6874" from-port="2" to-layer="6956" to-port="1" />
		<edge from-layer="6874" from-port="2" to-layer="6875" to-port="1" />
		<edge from-layer="6875" from-port="2" to-layer="6876" to-port="1" />
		<edge from-layer="6876" from-port="2" to-layer="6990" to-port="0" />
		<edge from-layer="6876" from-port="2" to-layer="6877" to-port="1" />
		<edge from-layer="6877" from-port="2" to-layer="6958" to-port="0" />
		<edge from-layer="6877" from-port="2" to-layer="6962" to-port="0" />
		<edge from-layer="6877" from-port="2" to-layer="6878" to-port="0" />
		<edge from-layer="6919" from-port="0" to-layer="7073" to-port="0" />
		<edge from-layer="6920" from-port="0" to-layer="6921" to-port="0" />
		<edge from-layer="6921" from-port="1" to-layer="6924" to-port="0" />
		<edge from-layer="6922" from-port="0" to-layer="6923" to-port="0" />
		<edge from-layer="6923" from-port="1" to-layer="6924" to-port="1" />
		<edge from-layer="6924" from-port="2" to-layer="6926" to-port="0" />
		<edge from-layer="6925" from-port="0" to-layer="6926" to-port="1" />
		<edge from-layer="6926" from-port="2" to-layer="6928" to-port="0" />
		<edge from-layer="6927" from-port="0" to-layer="6928" to-port="1" />
		<edge from-layer="6928" from-port="2" to-layer="6929" to-port="0" />
		<edge from-layer="6929" from-port="1" to-layer="6930" to-port="1" />
		<edge from-layer="6930" from-port="2" to-layer="6932" to-port="0" />
		<edge from-layer="6931" from-port="0" to-layer="6932" to-port="1" />
		<edge from-layer="6932" from-port="2" to-layer="6934" to-port="0" />
		<edge from-layer="6933" from-port="0" to-layer="6934" to-port="1" />
		<edge from-layer="6934" from-port="2" to-layer="6936" to-port="0" />
		<edge from-layer="6935" from-port="0" to-layer="6936" to-port="1" />
		<edge from-layer="6936" from-port="2" to-layer="6937" to-port="0" />
		<edge from-layer="6936" from-port="2" to-layer="6954" to-port="0" />
		<edge from-layer="6936" from-port="2" to-layer="6948" to-port="0" />
		<edge from-layer="6936" from-port="2" to-layer="6938" to-port="0" />
		<edge from-layer="6937" from-port="2" to-layer="6957" to-port="0" />
		<edge from-layer="6938" from-port="1" to-layer="6940" to-port="0" />
		<edge from-layer="6939" from-port="0" to-layer="6940" to-port="2" />
		<edge from-layer="6940" from-port="3" to-layer="6941" to-port="0" />
		<edge from-layer="6941" from-port="2" to-layer="6942" to-port="0" />
		<edge from-layer="6942" from-port="1" to-layer="6944" to-port="0" />
		<edge from-layer="6943" from-port="0" to-layer="6944" to-port="1" />
		<edge from-layer="6944" from-port="2" to-layer="6954" to-port="2" />
		<edge from-layer="6944" from-port="2" to-layer="6948" to-port="1" />
		<edge from-layer="6945" from-port="0" to-layer="6948" to-port="2" />
		<edge from-layer="6946" from-port="0" to-layer="6948" to-port="3" />
		<edge from-layer="6947" from-port="0" to-layer="6948" to-port="4" />
		<edge from-layer="6948" from-port="5" to-layer="6950" to-port="0" />
		<edge from-layer="6949" from-port="0" to-layer="6950" to-port="1" />
		<edge from-layer="6950" from-port="2" to-layer="6955" to-port="0" />
		<edge from-layer="6951" from-port="0" to-layer="6954" to-port="1" />
		<edge from-layer="6952" from-port="0" to-layer="6954" to-port="3" />
		<edge from-layer="6953" from-port="0" to-layer="6954" to-port="4" />
		<edge from-layer="6954" from-port="5" to-layer="6955" to-port="1" />
		<edge from-layer="6955" from-port="2" to-layer="6956" to-port="0" />
		<edge from-layer="6956" from-port="2" to-layer="6957" to-port="1" />
		<edge from-layer="6957" from-port="2" to-layer="6998" to-port="0" />
		<edge from-layer="6958" from-port="2" to-layer="6971" to-port="0" />
		<edge from-layer="6959" from-port="0" to-layer="6961" to-port="1" />
		<edge from-layer="6960" from-port="0" to-layer="6961" to-port="2" />
		<edge from-layer="6961" from-port="3" to-layer="6970" to-port="0" />
		<edge from-layer="6962" from-port="1" to-layer="6969" to-port="0" />
		<edge from-layer="6962" from-port="1" to-layer="6965" to-port="0" />
		<edge from-layer="6963" from-port="0" to-layer="6965" to-port="1" />
		<edge from-layer="6964" from-port="0" to-layer="6965" to-port="2" />
		<edge from-layer="6965" from-port="3" to-layer="6970" to-port="1" />
		<edge from-layer="6966" from-port="0" to-layer="6970" to-port="2" />
		<edge from-layer="6967" from-port="0" to-layer="6969" to-port="1" />
		<edge from-layer="6968" from-port="0" to-layer="6969" to-port="2" />
		<edge from-layer="6969" from-port="3" to-layer="6970" to-port="3" />
		<edge from-layer="6970" from-port="4" to-layer="6971" to-port="1" />
		<edge from-layer="6971" from-port="2" to-layer="6973" to-port="0" />
		<edge from-layer="6972" from-port="0" to-layer="6973" to-port="1" />
		<edge from-layer="6973" from-port="2" to-layer="6998" to-port="1" />
		<edge from-layer="6974" from-port="2" to-layer="6984" to-port="0" />
		<edge from-layer="6975" from-port="1" to-layer="6982" to-port="0" />
		<edge from-layer="6975" from-port="1" to-layer="6978" to-port="0" />
		<edge from-layer="6976" from-port="0" to-layer="6978" to-port="1" />
		<edge from-layer="6977" from-port="0" to-layer="6978" to-port="2" />
		<edge from-layer="6978" from-port="3" to-layer="6983" to-port="1" />
		<edge from-layer="6979" from-port="0" to-layer="6983" to-port="2" />
		<edge from-layer="6980" from-port="0" to-layer="6982" to-port="1" />
		<edge from-layer="6981" from-port="0" to-layer="6982" to-port="2" />
		<edge from-layer="6982" from-port="3" to-layer="6983" to-port="3" />
		<edge from-layer="6983" from-port="4" to-layer="6984" to-port="1" />
		<edge from-layer="6984" from-port="2" to-layer="6986" to-port="0" />
		<edge from-layer="6985" from-port="0" to-layer="6986" to-port="1" />
		<edge from-layer="6986" from-port="2" to-layer="6998" to-port="2" />
		<edge from-layer="6987" from-port="0" to-layer="6997" to-port="1" />
		<edge from-layer="6988" from-port="0" to-layer="6989" to-port="1" />
		<edge from-layer="6989" from-port="2" to-layer="6994" to-port="0" />
		<edge from-layer="6990" from-port="1" to-layer="6993" to-port="0" />
		<edge from-layer="6991" from-port="0" to-layer="6993" to-port="1" />
		<edge from-layer="6992" from-port="0" to-layer="6993" to-port="2" />
		<edge from-layer="6993" from-port="3" to-layer="6994" to-port="1" />
		<edge from-layer="6994" from-port="2" to-layer="6997" to-port="2" />
		<edge from-layer="6995" from-port="0" to-layer="6997" to-port="3" />
		<edge from-layer="6996" from-port="0" to-layer="6997" to-port="4" />
		<edge from-layer="6997" from-port="5" to-layer="6998" to-port="3" />
		<edge from-layer="6998" from-port="4" to-layer="7000" to-port="0" />
		<edge from-layer="6999" from-port="0" to-layer="7000" to-port="1" />
		<edge from-layer="7000" from-port="2" to-layer="7002" to-port="0" />
		<edge from-layer="7001" from-port="0" to-layer="7002" to-port="1" />
		<edge from-layer="7002" from-port="2" to-layer="7013" to-port="0" />
		<edge from-layer="7003" from-port="0" to-layer="7004" to-port="0" />
		<edge from-layer="7004" from-port="1" to-layer="7007" to-port="0" />
		<edge from-layer="7005" from-port="0" to-layer="7006" to-port="0" />
		<edge from-layer="7006" from-port="1" to-layer="7007" to-port="1" />
		<edge from-layer="7007" from-port="2" to-layer="7009" to-port="0" />
		<edge from-layer="7008" from-port="0" to-layer="7009" to-port="1" />
		<edge from-layer="7009" from-port="2" to-layer="7011" to-port="0" />
		<edge from-layer="7010" from-port="0" to-layer="7011" to-port="1" />
		<edge from-layer="7011" from-port="2" to-layer="7012" to-port="0" />
		<edge from-layer="7012" from-port="1" to-layer="7013" to-port="1" />
		<edge from-layer="7013" from-port="2" to-layer="7014" to-port="1" />
		<edge from-layer="7014" from-port="2" to-layer="7025" to-port="0" />
		<edge from-layer="7014" from-port="2" to-layer="7062" to-port="0" />
		<edge from-layer="7014" from-port="2" to-layer="7018" to-port="0" />
		<edge from-layer="7015" from-port="0" to-layer="7026" to-port="0" />
		<edge from-layer="7016" from-port="0" to-layer="7024" to-port="0" />
		<edge from-layer="7017" from-port="0" to-layer="7018" to-port="1" />
		<edge from-layer="7018" from-port="2" to-layer="7020" to-port="0" />
		<edge from-layer="7019" from-port="0" to-layer="7020" to-port="1" />
		<edge from-layer="7020" from-port="2" to-layer="7022" to-port="0" />
		<edge from-layer="7021" from-port="0" to-layer="7022" to-port="1" />
		<edge from-layer="7022" from-port="2" to-layer="7023" to-port="0" />
		<edge from-layer="7023" from-port="1" to-layer="7024" to-port="1" />
		<edge from-layer="7024" from-port="2" to-layer="7025" to-port="1" />
		<edge from-layer="7025" from-port="2" to-layer="7026" to-port="1" />
		<edge from-layer="7026" from-port="2" to-layer="7049" to-port="0" />
		<edge from-layer="7026" from-port="2" to-layer="7037" to-port="0" />
		<edge from-layer="7027" from-port="0" to-layer="7028" to-port="0" />
		<edge from-layer="7028" from-port="1" to-layer="7031" to-port="0" />
		<edge from-layer="7029" from-port="0" to-layer="7030" to-port="0" />
		<edge from-layer="7030" from-port="1" to-layer="7031" to-port="1" />
		<edge from-layer="7031" from-port="2" to-layer="7033" to-port="0" />
		<edge from-layer="7032" from-port="0" to-layer="7033" to-port="1" />
		<edge from-layer="7033" from-port="2" to-layer="7035" to-port="0" />
		<edge from-layer="7034" from-port="0" to-layer="7035" to-port="1" />
		<edge from-layer="7035" from-port="2" to-layer="7036" to-port="0" />
		<edge from-layer="7036" from-port="1" to-layer="7037" to-port="1" />
		<edge from-layer="7037" from-port="2" to-layer="7038" to-port="0" />
		<edge from-layer="7038" from-port="1" to-layer="7050" to-port="0" />
		<edge from-layer="7039" from-port="0" to-layer="7040" to-port="0" />
		<edge from-layer="7040" from-port="1" to-layer="7043" to-port="0" />
		<edge from-layer="7041" from-port="0" to-layer="7042" to-port="0" />
		<edge from-layer="7042" from-port="1" to-layer="7043" to-port="1" />
		<edge from-layer="7043" from-port="2" to-layer="7045" to-port="0" />
		<edge from-layer="7044" from-port="0" to-layer="7045" to-port="1" />
		<edge from-layer="7045" from-port="2" to-layer="7047" to-port="0" />
		<edge from-layer="7046" from-port="0" to-layer="7047" to-port="1" />
		<edge from-layer="7047" from-port="2" to-layer="7048" to-port="0" />
		<edge from-layer="7048" from-port="1" to-layer="7049" to-port="1" />
		<edge from-layer="7049" from-port="2" to-layer="7050" to-port="1" />
		<edge from-layer="7050" from-port="2" to-layer="7061" to-port="0" />
		<edge from-layer="7051" from-port="0" to-layer="7052" to-port="0" />
		<edge from-layer="7052" from-port="1" to-layer="7055" to-port="0" />
		<edge from-layer="7053" from-port="0" to-layer="7054" to-port="0" />
		<edge from-layer="7054" from-port="1" to-layer="7055" to-port="1" />
		<edge from-layer="7055" from-port="2" to-layer="7057" to-port="0" />
		<edge from-layer="7056" from-port="0" to-layer="7057" to-port="1" />
		<edge from-layer="7057" from-port="2" to-layer="7059" to-port="0" />
		<edge from-layer="7058" from-port="0" to-layer="7059" to-port="1" />
		<edge from-layer="7059" from-port="2" to-layer="7060" to-port="0" />
		<edge from-layer="7060" from-port="1" to-layer="7061" to-port="1" />
		<edge from-layer="7061" from-port="2" to-layer="7062" to-port="1" />
		<edge from-layer="7062" from-port="2" to-layer="7065" to-port="0" />
		<edge from-layer="7062" from-port="2" to-layer="7072" to-port="0" />
		<edge from-layer="7063" from-port="0" to-layer="7071" to-port="0" />
		<edge from-layer="7064" from-port="0" to-layer="7065" to-port="1" />
		<edge from-layer="7065" from-port="2" to-layer="7067" to-port="0" />
		<edge from-layer="7066" from-port="0" to-layer="7067" to-port="1" />
		<edge from-layer="7067" from-port="2" to-layer="7069" to-port="0" />
		<edge from-layer="7068" from-port="0" to-layer="7069" to-port="1" />
		<edge from-layer="7069" from-port="2" to-layer="7070" to-port="0" />
		<edge from-layer="7070" from-port="1" to-layer="7071" to-port="1" />
		<edge from-layer="7071" from-port="2" to-layer="7072" to-port="1" />
		<edge from-layer="7072" from-port="2" to-layer="7073" to-port="1" />
		<edge from-layer="7073" from-port="2" to-layer="7082" to-port="0" />
		<edge from-layer="7074" from-port="0" to-layer="7075" to-port="0" />
		<edge from-layer="7075" from-port="1" to-layer="7078" to-port="0" />
		<edge from-layer="7076" from-port="0" to-layer="7077" to-port="0" />
		<edge from-layer="7077" from-port="1" to-layer="7078" to-port="1" />
		<edge from-layer="7078" from-port="2" to-layer="7080" to-port="0" />
		<edge from-layer="7079" from-port="0" to-layer="7080" to-port="1" />
		<edge from-layer="7080" from-port="2" to-layer="7081" to-port="0" />
		<edge from-layer="7081" from-port="1" to-layer="7082" to-port="1" />
		<edge from-layer="7082" from-port="2" to-layer="7083" to-port="0" />
	</edges>
	<rt_info>
		<Runtime_version value="2024.3.0-16041-1e3b88e4e3f-releases/2024/3" />
		<conversion_parameters>
			<framework value="pytorch" />
			<is_python_object value="True" />
		</conversion_parameters>
		<nncf>
			<friendly_names_were_updated value="True" />
			<weight_compression>
				<all_layers value="False" />
				<awq value="False" />
				<gptq value="False" />
				<group_size value="128" />
				<ignored_scope value="[]" />
				<mode value="int4_asym" />
				<ratio value="0.8" />
				<scale_estimation value="False" />
				<sensitivity_metric value="weight_quantization_error" />
			</weight_compression>
		</nncf>
		<optimum>
			<nncf_version value="2.12.0" />
			<optimum_intel_version value="1.18.3" />
			<optimum_version value="1.21.4" />
			<pytorch_version value="2.4.0+cpu" />
			<transformers_version value="4.43.4" />
		</optimum>
	</rt_info>
</net>
